models/modelRNN_lang7_aStarbStaraStarbStarSeq.pt (torch, 511867 bytes, 9 tensors)

rnn.weight_ih_l0 f4 [256, 300]
000000 83 d9 0e c0 e0 a8 ba 3f 1f 02 97 3f 8e 29 71 3e
       -2.2320259 1.4582787 1.1797522 0.23551008
000010 21 b2 58 be 99 be 18 bf fa 75 fe be 03 1b f8 be
       -0.21161701 -0.5966583 -0.49699384 -0.48458108
000020 ce fb 09 3f fb da 4e 3f b6 c7 38 be a5 35 00 3f
       0.5389985 0.8080289 -0.18044934 0.50081855
000030 03 8c 2a 3e 24 45 76 3f 00 82 3c bf 03 e7 93 3f
       0.16654973 0.9619925 -0.73635864 1.1554874
000040 06 db d2 bf ad c0 8d bf 9d ba de bf cb bd ef bd
       -1.6473091 -1.1074425 -1.74007 -0.11706122
000050 d9 4b 22 bf 80 bd 66 3e 40 85 bf 3f 2e 26 34 bf
       -0.63396984 0.22533226 1.496254 -0.7037076
000060 ed 44 75 be 88 63 c6 bf cc 8b 42 3f 65 f8 89 3f
       -0.23952074 -1.5499125 0.75994563 1.0778929
000070 9d 41 0f bf d7 4c 13 3e 11 c0 c1 bf 45 fc 38 be
       -0.5595949 0.14384781 -1.5136739 -0.18064983
000080 bb 22 71 be 79 23 21 3f 8a 3c 4a 3f 1f 5c 5f 3f
       -0.23548405 0.6294475 0.78998625 0.8724994
000090 78 5f e0 be 78 d3 b9 3f fe 01 30 bf eb f3 42 3f
       -0.43822837 1.451766 -0.6875304 0.7615344
0000a0 40 7f b4 3e d0 b0 1d 3f 94 fb 8a 3d da 70 08 bf
       0.35253334 0.6159792 0.06786266 -0.532972
0000b0 96 59 08 c0 bd e6 a8 bf 08 a7 66 bf a7 1a c5 3e
       -2.130468 -1.3195416 -0.9009862 0.38496897
0000c0 41 54 65 bf ee 61 0f 3f 1b d3 a5 be 43 49 44 bf
       -0.89581686 0.56008804 -0.32387623 -0.7667429
0000d0 89 66 54 bf 01 89 c3 3f 79 4c 03 be b6 5f 8d bf
       -0.82968956 1.5276185 -0.12822141 -1.1044834
0000e0 3f 97 a1 bf 1a 0a d0 be 44 ca b8 bc 68 3c 42 3e
       -1.2624282 -0.40632707 -0.022557385 0.18968356
0000f0 85 c6 a3 bf dd 32 83 3f b2 73 4b bf f2 b4 2f 3f
       -1.2794958 1.0249897 -0.7947341 0.68635476
000100 09 e2 9f be 69 a5 a8 bf 63 be e2 bf d6 0b 6a 3f
       -0.3122714 -1.3175479 -1.7714351 0.9142431
000110 eb d3 c3 3e dc 88 24 bf d9 81 03 bf 12 eb 80 bf
       0.38247618 -0.6427133 -0.51370007 -1.0071738
000120 e2 d3 d6 3e 07 82 74 bf 19 a5 4b be 53 e3 60 bf
       0.4195853 -0.95510906 -0.19887199 -0.8784687
000130 48 f5 cb bf e5 1a 46 bf 8c 0f ab 3e 42 5c ae 3e
       -1.5934229 -0.7738479 0.334103 0.34054762
000140 75 40 06 3f 9d 27 e9 bd 11 cb 1c bf c1 1b b1 bf
       0.52442104 -0.11384509 -0.61247355 -1.3836595
000150 5f 37 19 3f d8 fd 56 3f 2e e2 f6 3f d5 c4 8e 3f
       0.59850115 0.83981085 1.9287775 1.1153818
000160 8f 39 0d bf fe 2f 21 3c 14 71 ce 3f 18 88 1c bd
       -0.5516595 0.009838102 1.6128259 -0.038215727
000170 f3 c4 c5 3f 38 48 8a 3f 59 4f 61 3e 87 c6 d8 3e
       1.5450729 1.080329 0.22002925 0.42338964
000180 1b 3e b5 3e f7 d6 ce 3e 0d 1a 20 40 b0 80 bb be
       0.35398945 0.4039838 2.50159 -0.36621618
000190 04 00 4b 3f e5 4c 19 bf 19 d0 d6 bd 03 8e 27 bf
       0.792969 -0.59882957 -0.1048891 -0.6545107
0001a0 36 76 13 bf 8c ef 9e 3e 92 7f 96 3e 48 93 3d 3f
       -0.5760225 0.31042135 0.29394203 0.7405286
0001b0 39 47 a5 3f 00 78 b5 3e 20 13 79 3f 2d fe 97 be
       1.291236 0.35443115 0.9729481 -0.29686108
0001c0 aa d7 40 3e e7 a5 c9 3e 91 83 09 bf 3d 83 f6 3f
       0.1883227 0.39384386 -0.5371638 1.9258801
0001d0 d2 81 64 bf 3b 23 0a bd cd 9d ff 3e 73 90 0a 3f
       -0.8926059 -0.033725005 0.4992508 0.5412666
0001e0 b6 df a5 be 8e 2b 54 3f 35 18 36 bf 38 59 cc 3e
       -0.3239724 0.8287896 -0.71130687 0.39911819
0001f0 85 a2 32 bf 1d 74 aa 3f c2 ea cf bf 77 ff 32 3f
       -0.69779235 1.3316685 -1.6243517 0.6992106
000200 1b 0f f6 3e 3c 0a ae 3f 8b eb 02 3f 0a de ed 3f
       0.480584 1.3596873 0.5114066 1.8583386
000210 9c 9d 09 3e 04 cc db be dd c7 9c bf a2 7e f9 3f
       0.1343903 -0.4292909 -1.2248493 1.949177
000220 67 61 7c bf 6f 53 23 bf 0c be 41 3f 1f 5a bc 3f
       -0.98586124 -0.63799185 0.75680614 1.4715003
000230 14 52 15 3f bd 10 66 bf 61 be 05 3e 4f 84 94 bf
       0.58328366 -0.8986929 0.13060905 -1.1602877
000240 cb 7e 99 bf 27 62 af 3e 81 5b a5 3e 54 37 a4 3e
       -1.1991819 0.34254572 0.32296374 0.32073462
000250 2e f6 13 bd 9a 36 00 3f ce 95 5f 3f a3 c6 c5 bf
       -0.036123447 0.50083315 0.8733796 -1.5451244
000260 80 d9 6b bf 79 35 1c 3f b7 93 fc 3e 76 c8 8f bf
       -0.92128754 0.6101909 0.49331447 -1.1233051
000270 ec 36 41 3e f7 05 6b bf a1 ea 33 bf 91 89 84 be
       0.18868607 -0.91805977 -0.7027989 -0.25886205
000280 1b 9a 1a bf ae 70 cd bf f9 b7 8f 3f 33 a0 2c bf
       -0.60391396 -1.6050012 1.1228019 -0.67431945
000290 f9 9e b4 3f 70 e5 2a bf 62 db 50 3f 85 46 80 bf
       1.4111015 -0.66756344 0.8158475 -1.0021521
0002a0 57 0b d8 be dd e7 1e bc 5d 96 63 3f f3 d5 d6 3e
       -0.42196152 -0.009698835 0.8890131 0.41960105
0002b0 66 e3 24 bf 72 2e a9 3d 61 8d 65 bd f0 ea 54 bf
       -0.6440948 0.08260812 -0.056043033 -0.83170986
0002c0 bd 8a f6 3e 8e 38 d2 3f 44 10 04 3f 42 e1 84 bf
       0.48152724 1.6423509 0.5158732 -1.0381243
0002d0 76 42 d5 bf 47 7b ec 3f aa b7 e9 3b de d9 99 bd
       -1.6660907 1.8475121 0.00713249 -0.07512258
0002e0 61 20 62 be 75 62 0f 3f 9b 4f ae bf 1b b5 b2 3f
       -0.22082664 0.5600961 -1.3618044 1.3961519
0002f0 29 47 23 bf 31 57 c1 3f 32 f7 f5 bf d0 96 1d 3f
       -0.63780457 1.5104734 -1.9216063 0.61558247
000300 7e e3 c3 bf 09 67 7f bf 69 52 c7 bd a9 d2 f5 3e
       -1.53038 -0.99766594 -0.09732515 0.48012283
000310 71 d2 89 3f 2c 36 30 bf 55 db fb 3e 0f 85 ed bf
       1.0767347 -0.6883266 0.49190775 -1.8556231
000320 b3 84 07 be 42 b6 7c be 92 aa ad 3e 27 21 ed 3e
       -0.13234214 -0.24678901 0.33919197 0.46314356
000330 3e 43 7c bf 19 48 8e 3e 07 da a4 3e c6 55 d6 3f
       -0.98540103 0.2778938 0.32197592 1.6744926
000340 12 14 36 3f fd 4d 03 bf d1 c4 ad bf 65 d1 dc bd
       0.71124375 -0.51290876 -1.3575689 -0.10782126
000350 d8 03 50 bf 99 30 b9 be 52 46 0e bd 22 39 af 3f
       -0.81255865 -0.3616989 -0.03473503 1.368931
000360 31 dd d2 bd c2 77 08 3e bd 73 21 3f 21 be 22 3f
       -0.10296095 0.13326934 0.6306723 0.63571364
000370 e4 35 8b be 38 50 cf 3e 03 d1 53 bf 88 18 65 3e
       -0.27189553 0.4049089 -0.827408 0.22372639
000380 0f 45 8b be 19 5c c3 3d e9 ea 94 bd a8 b2 a2 bf
       -0.27201125 0.095390506 -0.07271368 -1.2710772
000390 76 2f e5 3f 27 30 b0 ba b5 83 c0 3f ec c9 ef 3d
       1.7905109 -0.0013442085 1.5040194 0.117084354
0003a0 f5 eb e1 be 38 6f 99 bd bc f1 c3 be b0 cc 46 bf
       -0.44125333 -0.074919164 -0.38270366 -0.7765608
0003b0 e7 c5 8a bf 89 e7 4d 3f 7b be a3 3f 0a 93 15 40
       -1.0841645 0.8043142 1.2792505 2.3370996
0003c0 95 2e 1a be 6a 87 02 c0 ba 43 4f 3f 96 e2 30 3f
       -0.15056832 -2.039515 0.8096272 0.6909574
0003d0 a0 12 03 bf aa b6 fc bf 70 0f 42 3f e5 6f af 3f
       -0.51200294 -1.9743245 0.75804806 1.3706023
0003e0 ea 89 f8 be 57 d1 3c 3f d0 f7 92 be 68 a9 a2 bf
       -0.4854272 0.7375693 -0.2870469 -1.2707949
0003f0 ef 0a 87 3c d5 08 27 3e 7f 7a 39 3e 71 62 a7 bd
       0.016484706 0.16311963 0.18113135 -0.08173073

rnn.weight_hh_l0 f4 [256, 64]
000000 b7 60 a4 bf 7b ab 05 bf 24 ae 82 3e 0e a5 16 3f
       -1.2842015 -0.52214783 0.25523484 0.58845603
000010 29 71 99 3e 0a b5 8e bf 40 6b 22 bf 57 9b 42 3f
       0.29969147 -1.1148999 -0.634449 0.7601828
000020 68 4b e8 3d 50 cd d9 be 26 09 27 3d 8d f6 6a bf
       0.113425076 -0.42539454 0.04078021 -0.91782457
000030 a0 51 ef bd 16 bd 18 bf ff 67 1f bf 54 86 8e 3f
       -0.116854906 -0.5966352 -0.6226806 1.1134744
000040 70 cb 4c 3f f4 3e 92 be 70 e1 8b 3d c9 a1 fe bb
       0.7999792 -0.28563654 0.06830108 -0.007770751
000050 19 45 86 be c8 21 e7 bd b3 aa cb 3e 5f 89 51 be
       -0.26224592 -0.1128574 0.3977867 -0.20462559
000060 f1 14 03 be 91 41 54 ba 06 19 a4 3f 72 bd 3c bd
       -0.12800957 -0.00080969284 1.2820137 -0.046079107
000070 a8 fe 7f bc ce e3 9c 3f 4d 7f 11 3f 45 0b 30 be
       -0.01562468 1.225702 0.5683487 -0.17191799
000080 1d 7b 31 be 06 7e 91 bf 01 6c 9a 3e 95 1c c3 3e
       -0.1733212 -1.1366584 0.30160525 0.38107744
000090 6f d5 e1 3e c5 a5 ad 3e 11 0f c9 be f1 b1 a3 bf
       0.4410815 0.33915535 -0.39269307 -1.2788678
0000a0 c4 55 b1 3c 7e d5 ff be a6 fb d0 bd 47 08 a4 3e
       0.021647342 -0.4996757 -0.10204248 0.32037565
0000b0 4d 4d c8 3e 09 a0 7f 3d 4b a8 fe 3e fb 9e 9a be
       0.39121476 0.06240848 0.49737772 -0.30199417
0000c0 26 a1 1e be 7c e6 11 3e 48 9b 07 3f f6 ad b3 3f
       -0.15491161 0.14248079 0.52971315 1.4037464
0000d0 2b c8 f2 3d f9 e1 15 bf f3 5c 29 bd 83 d6 aa be
       0.11854585 -0.5854793 -0.04134841 -0.33366784
0000e0 ce b6 6a bf 51 b0 b2 bd 78 81 1d bf d1 d4 41 be
       -0.9168519 -0.08725036 -0.6152568 -0.1892884
0000f0 63 9b 30 bd 71 72 a0 bd 41 16 a7 bd 3c d6 59 3f
       -0.04311694 -0.07834328 -0.081585415 0.8509252
000100 4c 6b 89 bf 60 e5 dd bd 2b 6d 2b bf d6 a1 78 bf
       -1.073587 -0.108347654 -0.6696345 -0.9712194
000110 ee 48 26 3f b7 37 be bf a3 e3 fa be bb 9f 7f 3f
       0.6495503 -1.4860753 -0.49001798 0.99853104
000120 24 43 c2 3e 03 6d bc 3f ca b0 ae 3e 42 c9 8a 3f
       0.3794185 1.4720768 0.34119254 1.0842669
000130 24 fa 10 bf f6 9c 2a bf 54 b3 94 3e 38 01 3f 3d
       -0.56631684 -0.66645753 0.29043067 0.04663202
000140 52 ce d1 bd 36 e5 32 be 67 4c f9 bc 91 09 f8 be
       -0.102444306 -0.1747025 -0.03043194 -0.484448
000150 6a 72 89 be b9 50 41 3f f6 95 1b c0 a3 f3 dd be
       -0.26845104 0.755138 -2.431028 -0.43349943
000160 83 85 65 3f 60 85 5c bf 97 25 ff 3f 66 f8 d8 3d
       0.8965685 -0.86141014 1.9933347 0.10594253
000170 5d ef c2 3f 76 c0 ed 3f b5 79 50 3f 8d 83 c4 bd
       1.5229298 1.857436 0.8143571 -0.09595404
000180 79 39 8c bf dd fa c7 be 00 9e 8b 3d 0f 33 dc 3d
       -1.0955039 -0.3905858 0.068172455 0.10751926
000190 69 4e ed be 76 df 6c 3e 79 e3 21 3f 06 fd 3c 3e
       -0.46348885 0.23132119 0.6323772 0.18455896
0001a0 ff ab 56 3f 88 8a 2d bf 1c e3 b0 be aa 6f da 3e
       0.83856195 -0.67789507 -0.3454827 0.42663318
0001b0 75 ee 2a 3f c8 1a 2e be 70 ca b1 3d c1 8a 98 3e
       0.66770107 -0.17002404 0.0868119 0.2979336
0001c0 cd 8e 15 bf 32 79 84 be 46 24 2e 3f 90 83 84 bf
       -0.5842102 -0.25873715 0.680241 -1.035265
0001d0 6e 5f 09 3f 84 87 80 3b f7 de ac 3b 62 fb d3 bf
       0.5366124 0.0039224047 0.005275603 -1.6561091
0001e0 04 c6 7d bf 59 b5 eb bf 7b 69 05 40 6f f3 da 3e
       -0.9913027 -1.8414718 2.084563 0.4276385
0001f0 74 e2 8f be 5b 12 91 be 40 b3 7e bf ed 2d a0 3e
       -0.28102458 -0.28334317 -0.99492264 0.3128504
000200 e8 d5 99 bf ba 67 3d bf 65 a4 0f bf 13 87 09 3f
       -1.2018404 -0.739864 -0.5611022 0.5372173
000210 db 94 9d be 50 4b 3e be 5d 97 a0 bf d3 3c d4 be
       -0.3077763 -0.18583417 -1.2546192 -0.41452655
000220 58 41 8c 3b 0d 67 38 3f 63 bb 33 bd 78 6f 75 be
       0.0042802505 0.72032243 -0.043879878 -0.23968303
000230 00 87 21 be c2 45 81 bf 9b d2 85 bf 1f eb 19 3f
       -0.15774155 -1.0099413 -1.0454897 0.6012439
000240 eb d6 19 3f 98 c1 ae 3f fb ba be be a6 e7 0a 3f
       0.60093564 1.365283 -0.3725203 0.5425972
000250 a4 f5 a5 3e c6 f6 59 be b6 9d 6f 3f 5e c8 1a 3f
       0.3241397 -0.21285543 0.9360002 0.60461986
000260 74 69 74 bf a7 58 45 3f 12 d8 c1 3f 04 27 08 3f
       -0.9547341 0.770884 1.5144064 0.53184533
000270 bf 24 1e bf 02 d2 19 3f 5e b1 80 3f 10 2a f4 3e
       -0.6177482 0.6008607 1.0054128 0.4768834
000280 23 bc 59 be f0 fa 28 bf 9a c3 c4 3e a6 8f 4f bf
       -0.21263175 -0.660079 0.38430482 -0.81078565
000290 09 8d 38 3f 12 f7 5a 3f 99 27 5c bd e3 41 58 3f
       0.720902 0.8553325 -0.0537487 0.84475535
0002a0 38 b0 09 be 3c 84 26 3f d0 56 0c be 23 e5 55 bf
       -0.13446128 0.65045524 -0.13704991 -0.8355276
0002b0 85 c5 82 3e 8a c9 8b bf fa b2 36 be ff bd 25 be
       0.2554132 -1.092088 -0.17841712 -0.16185759
0002c0 a6 85 c6 3f f0 57 3a bf 5b 50 27 3f 37 3d 9d 3e
       1.5509536 -0.7279043 0.6535699 0.30710766
0002d0 1e dd 06 bd 07 73 3b bf a8 c3 54 be 62 9e 7e 3f
       -0.032925718 -0.7322239 -0.20777762 0.99460423
0002e0 dd ce 42 bf 3b c3 72 3e cd f7 57 bd 2a fb 49 bb
       -0.760969 0.23707287 -0.052726556 -0.0030819871
0002f0 90 39 16 bf 8c 37 e6 3d 5e 8b 2e 3e 98 cd 57 3f
       -0.58681583 0.112410635 0.17045352 0.84298086
000300 13 3b 04 bf 05 6a f9 be 98 32 c4 bf 35 46 3d bf
       -0.5165264 -0.487137 -1.532794 -0.7393525
000310 07 5f 49 bf 8a 03 36 bf f5 9e 51 bf 5b ae da bf
       -0.78660625 -0.7109915 -0.81883174 -1.7084459
000320 a1 78 28 3f 49 ba 9b 3f 45 e0 05 40 10 1a c2 3e
       0.65809065 1.2166225 2.0918133 0.3791051
000330 a6 1f c7 be ca 58 7d bf 92 42 9f bf 5e 80 de 3d
       -0.38891333 -0.98963606 -1.2442191 0.10864328
000340 2f 37 59 3f 9c d8 3f bf d6 17 94 3e ba 89 77 bf
       0.8484983 -0.74939895 0.28924435 -0.9669453
000350 43 69 1d 40 37 e9 06 40 e0 b3 2b bf 49 53 91 3c
       2.4595497 2.1079843 -0.6707134 0.017739909
000360 89 fc 90 3f 2b 1f 84 be 7b de ad 3f 91 26 b5 3c
       1.1327068 -0.2580503 1.3583521 0.022113116
000370 8a 00 82 bb cd 7f 23 3d d3 d2 43 be 91 eb 2b bf
       -0.0039673494 0.039916802 -0.19123392 -0.6715632
000380 18 f3 16 3e 3b c5 42 3e 44 b4 2b 3f 1f b2 74 3e
       0.1474117 0.1902055 0.6707194 0.23896073
000390 48 09 c6 3e 14 bc 92 3f 92 82 9a 3f 3a 26 1a 3f
       0.38678956 1.1463647 1.2071097 0.6021458
0003a0 8d 28 26 bf 23 e0 47 bd bb 3a b4 bf 45 f0 85 3f
       -0.64905626 -0.048797738 -1.4080423 1.046395
0003b0 62 14 44 be 37 7b 99 bf 26 a3 98 be 5b ef 31 bf
       -0.191484 -1.1990727 -0.29811972 -0.6950585
0003c0 4b bc aa 3f 49 de f8 3e 7a 60 74 bf bf 1e 94 be
       1.3338712 0.4860709 -0.9545971 -0.28929707
0003d0 27 7a 04 3f 4b 82 77 bf 25 14 70 3e ef 25 6f be
       0.5174889 -0.96683186 0.23445185 -0.23354314
0003e0 12 8f c5 bf 13 1a 0d bf 42 0f 6e 3f 01 04 5f bf
       -1.5434287 -0.5511791 0.9299203 -0.87115484
0003f0 48 bf 02 3f a0 a9 91 3e a6 80 90 3f 8d 6b 27 bf
       0.5107312 0.28449726 1.128926 -0.65398484

rnn.bias_ih_l0 f4 [256]
000000 1f 76 74 bf 66 8e 00 bf af 68 e6 be 30 a8 c0 be
       -0.9549274 -0.5021728 -0.45001742 -0.37628317
000010 35 03 3f be 07 8a aa bf a8 e7 4b bf 90 17 85 bf
       -0.18653567 -1.3323373 -0.79650354 -1.0397816
000020 95 8c a1 bf b9 e1 e0 bf 6a af 95 bf 0b 7c c2 be
       -1.2621027 -1.7568885 -1.1694157 -0.37985262
000030 08 98 25 be e6 00 0e c0 37 65 a8 bf 83 66 46 bc
       -0.16171277 -2.2188048 -1.3155888 -0.012109402
000040 3f 80 de bf 9f 08 aa bf 27 0e b6 bf f7 31 3a bf
       -1.7382888 -1.3283881 -1.4223069 -0.7273249
000050 2e 93 28 bf e8 3c 56 3f dc 57 bd bf 29 29 f0 be
       -0.6584958 0.83686686 -1.4792438 -0.46906403
000060 a9 8b ba bf ea ad b4 bb f8 e8 2b 3f a9 03 11 bf
       -1.4573871 -0.0055138962 0.6715236 -0.5664621
000070 5d 1e 6f bf 3d 45 ef bf f8 5f c1 bf 00 d4 1f be
       -0.93405706 -1.8693005 -1.5107412 -0.15608215
000080 f9 8d e0 be ac 3f 7f bf a1 6f 06 bf 7b 77 d2 bf
       -0.43858317 -0.9970653 -0.5251408 -1.6442713
000090 90 8f 30 bf 88 86 9a 3f 9e d4 27 bf 55 79 9f bf
       -0.6896906 1.2072306 -0.65558803 -1.2458903
0000a0 9f bd cd be 9b 69 23 bf 63 d7 51 3e ef aa ee 3e
       -0.40183732 -0.63833016 0.2049232 0.46614787
0000b0 8a 79 0e c0 cc a9 06 c0 a1 bc d5 bd 73 f1 f4 bf
       -2.2261682 -2.1041136 -0.10436369 -1.9136184
0000c0 0f 3c b4 bf da b9 1f bf a3 bd ed be 3b 51 97 bf
       -1.4080828 -0.6239296 -0.46433744 -1.1821665
0000d0 ac 76 6a be 45 77 2f 3f 3c 06 d7 3e 9b 1f f8 be
       -0.22896832 0.68541366 0.41996944 -0.48461613
0000e0 6f f0 c2 bf 9c 04 23 c0 0d cf e2 bf 57 a8 05 c0
       -1.5229625 -2.5471563 -1.7719437 -2.0883996
0000f0 6a 23 00 3d 7e ac 2a be 6f 03 8c bf 9b 93 8e bf
       0.031283773 -0.16667363 -1.0938548 -1.1138796
000100 98 1f 7c bf 4e ec c4 bf 9e c7 ca bf 5a f3 4e bf
       -0.9848571 -1.5384614 -1.5842168 -0.80840075
000110 97 b6 8f bf a6 0b 0c 3f 46 a2 ab 3d 65 3d a2 bf
       -1.1227597 0.54705274 0.083805606 -1.2674986
000120 8f 84 46 be e3 6b 8e be 8a 2f 5f 3f b1 b1 c5 3e
       -0.19386505 -0.27816686 0.87181914 0.3861213
000130 09 3c c0 bf a6 23 54 bf 16 04 9d 3f c1 6d 03 c0
       -1.5018321 -0.82866895 1.2266872 -2.0535738
000140 5f 6c 62 3f 1a 2f 80 bf 58 8d f8 3e 81 3d 07 c0
       0.8844661 -1.0014374 0.48545337 -2.113129
000150 1a e0 da bc 41 8d 54 be 2f f9 01 bf 44 c0 1a bf
       -0.026718188 -0.20757009 -0.5077085 -0.60449624
000160 64 07 57 be 86 0f ec 3f c8 21 80 3f 7c c8 13 bf
       -0.20998913 1.8442237 1.0010309 -0.5772779
000170 9e 30 fb be 4c 59 a6 bf f7 32 b2 bf 53 c9 92 3f
       -0.4906053 -1.2996001 -1.3921803 1.1467689
000180 63 f2 d1 bf dc b6 d3 be cd f4 7c bf 19 76 2c 3f
       -1.6402096 -0.41350448 -0.98811036 0.673677
000190 11 f4 ca bd 0e 70 9b be 65 c4 9b bd 04 91 81 bf
       -0.09909833 -0.30358928 -0.07605819 -1.012238
0001a0 d3 2a bd bf 0f 62 48 bd 4a b5 78 bf e6 22 a2 bf
       -1.4778694 -0.04892164 -0.97151625 -1.26669
0001b0 22 d9 34 3d 3b a3 8e 3c c9 8f 27 3f 9e ee 94 3e
       0.044152386 0.017411819 0.65453774 0.290883
0001c0 99 41 c3 3d cc a0 67 bf 4e 2b 47 bf 3d e3 54 bf
       0.09533996 -0.9047973 -0.7780045 -0.8315924
0001d0 0e d8 d5 bf f8 f6 e2 be 44 ec 5c bf e1 60 f9 3e
       -1.670656 -0.44329047 -0.8629801 0.48706725
0001e0 3d ba 0b 3e 69 1f 63 bf 87 85 a5 bf fe 50 b6 be
       0.13645263 -0.88719803 -1.2931374 -0.35608667
0001f0 d3 f6 6f 3f a4 50 36 3f 1e f9 a3 bf 54 f5 11 bf
       0.93736 0.712168 -1.28104 -0.57014966
000200 e6 cd 01 3e 53 a3 07 3f e2 8c fe be 10 af 87 be
       0.126762 0.5298359 -0.4971686 -0.2650075
000210 16 a8 ce 3e 6b 13 a3 bf d7 73 bb be 69 1e 4b 3e
       0.40362614 -1.2740301 -0.36611816 0.1983582
000220 26 e2 24 3f a4 b4 a3 3f c8 52 02 3e b4 bd 5b 3f
       0.64407575 1.2789502 0.12726891 0.8583634
000230 16 14 8a be 98 83 99 bf bc 4c ec 3e 02 25 82 3f
       -0.2696845 -1.1993284 0.46152294 1.0167544
000240 69 bb 78 3e bb a9 91 3d 75 5c 8d be bf 73 ba bf
       0.24290241 0.07112452 -0.27609602 -1.4566573
000250 52 cb e9 be fe bf 70 3f 3d 35 a6 3e 05 26 9d 3e
       -0.45662934 0.94042957 0.32462493 0.3069307
000260 a6 b1 e9 3e f0 41 b5 3e 65 8e 9c 3f db e8 13 be
       0.45643348 0.3540187 1.2230955 -0.14444296
000270 56 a9 2a 3f 21 54 73 3f 2c a5 6f 3f da 0e a6 be
       0.66664636 0.95050246 0.9361141 -0.32433206
000280 ea 0a 24 bf af 33 ca 3c 43 c6 db 3e aa fb 2b 3e
       -0.64079154 0.024682848 0.429247 0.16795221
000290 e9 a7 15 bf d1 29 d7 be 10 ef 1e be df 83 84 bd
       -0.58459336 -0.4202409 -0.15520883 -0.06470465
0002a0 62 83 d5 3e 61 b6 c4 3d f9 f8 29 bf a8 1d 33 40
       0.417018 0.096050985 -0.6639553 2.798685
0002b0 ce c6 28 3f 94 c4 3f bf de e2 b6 bc 74 41 65 bf
       0.6592835 -0.7490933 -0.022324976 -0.89553
0002c0 1a f5 f7 be b6 1b 6a be 91 3f 77 3e 57 5d 91 bf
       -0.48429185 -0.22862133 0.24145342 -1.135661
0002d0 6c 6a 07 40 8b 79 05 3e cb 65 d1 be f1 21 b4 bf
       2.1158705 0.13034646 -0.40897974 -1.4072858
0002e0 a9 a1 5c 3c b8 e7 59 bf 9c 01 89 3e b7 cc bb be
       0.013466277 -0.851192 0.2675904 -0.36679623
0002f0 08 7d c3 be f3 00 92 bf 99 f4 07 bf 5c 30 df 3d
       -0.3818133 -1.140654 -0.531076 0.10897896
000300 3d 1c ed bf e8 19 9f bf 08 6f 12 bf b5 29 9a bf
       -1.8524243 -1.2429781 -0.5720067 -1.2043978
000310 25 26 8d bf 89 be 03 bf 12 8c 8a bf f2 6e f1 bc
       -1.1027266 -0.5146261 -1.0823996 -0.029471848
000320 6e e6 be bf 1f 9a 3b bf ba ea ce 3d 61 bb 37 bd
       -1.4914072 -0.73282045 0.10103364 -0.044856433
000330 ed fd 3d bf 4c 3b 0e c0 84 1b 0a 3f 19 38 87 be
       -0.74215585 -2.2223692 0.53948236 -0.26409987
000340 a2 17 84 bf 86 f0 9f bf 25 fd 99 bf 04 3a 62 3f
       -1.0319712 -1.2495277 -1.2030379 0.88369775
000350 13 ee a1 bf 08 60 ae 3e 92 7f c9 bf fd 60 26 bf
       -1.265078 0.3405764 -1.5742056 -0.6499174
000360 64 37 e4 bf 88 72 51 bf a6 08 bf 3e 33 4d bd bf
       -1.7829404 -0.81815386 0.37311286 -1.4789184
000370 a3 6a 9c bd 48 80 33 c0 3b ef f1 bf ce a3 bc 3e
       -0.07637527 -2.8047047 -1.8901132 0.36843723
000380 94 c1 9e bf 50 8a 4f bf 45 97 89 bf a6 35 8b bf
       -1.2402825 -0.81070423 -1.0749289 -1.0875747
000390 e6 aa ba be 31 d1 a3 3f 0a 5e 7c bf a0 0c 47 bf
       -0.3645851 1.2798215 -0.9858099 -0.7775364
0003a0 7c f2 95 3e 26 0e 94 bf a1 20 14 3f 7c 68 97 3e
       0.29286563 -1.1566818 0.5786229 0.29571903
0003b0 83 90 b0 bf 7f 9d 59 bf 0e 77 f4 be 0b 1d 94 bf
       -1.3794101 -0.85005945 -0.47747082 -1.1571363
0003c0 f6 1a 96 bf 6c a5 6a bf 54 6c 85 bf cd bd a0 bf
       -1.1726978 -0.91658664 -1.0423684 -1.2557923
0003d0 98 c5 30 3f c6 c9 71 3f c0 01 22 bf 3a 6f 97 be
       0.69051504 0.94448507 -0.6328392 -0.29577047
0003e0 c4 76 07 bf c0 30 12 c0 a0 1f 01 c0 6b 8a 06 c0
       -0.52915597 -2.2842255 -2.0175552 -2.1021984
0003f0 5e 85 89 bf 84 99 47 3f a2 34 8e bf 17 eb a9 bf
       -1.0743825 0.7796862 -1.1109812 -1.3274869

rnn.bias_hh_l0 f4 [256]
000000 84 1c 61 bf f7 e0 d7 be 4a ce b9 be ed bd 08 bf
       -0.87934136 -0.42163822 -0.362902 -0.53414804
000010 11 ef 5f be 17 cd af bf 98 06 1f bf f7 ea 63 bf
       -0.2186854 -1.3734463 -0.62119436 -0.890304
000020 15 8e a5 bf 31 c7 e4 bf ca dc 99 bf 95 3b a5 be
       -1.2933985 -1.7873288 -1.2020504 -0.3227202
000030 87 4d 11 bd 82 f1 10 c0 fb 14 8f bf 99 50 ac 3c
       -0.035474326 -2.2647405 -1.1178278 0.021034526
000040 2e d6 f0 bf 87 83 9c bf e6 ec c4 bf 2e 20 1c bf
       -1.8815362 -1.2227639 -1.5384796 -0.609866
000050 24 85 03 bf f2 e9 44 3f 2a 33 ab bf a9 10 07 bf
       -0.5137503 0.7691947 -1.3374989 -0.52759796
000060 71 9d c2 bf 17 e0 0a 3e eb 9e 4d 3f 38 e5 4d bf
       -1.5204297 0.13562046 0.80320615 -0.80427885
000070 9b e1 88 bf 62 f3 f3 bf a8 96 be bf b7 c6 e4 bc
       -1.0693849 -1.905865 -1.4889727 -0.027926786
000080 bb 33 89 be bf 4a 86 bf a3 b6 14 bf fa f6 b5 bf
       -0.2679728 -1.0491561 -0.5809118 -1.4215996
000090 46 2e 39 bf fa c0 a5 3f eb 59 15 bf 09 ba 8d bf
       -0.7233623 1.2949517 -0.5834033 -1.1072398
0000a0 c1 6d 90 be 2b ce 0f bf 97 5f b8 3d e1 2e 77 3e
       -0.28208736 -0.5617396 0.09002607 0.24138977
0000b0 33 01 08 c0 6f 5f 08 c0 5d 0b 2c be 3e cf e0 bf
       -2.1250732 -2.1308248 -0.1680121 -1.7563245
0000c0 ea a2 c1 bf 46 87 df be d9 e8 f2 be cc f1 a8 bf
       -1.5127842 -0.43657893 -0.47443274 -1.319879
0000d0 20 35 48 be a4 93 1f 3f 87 af bf 3e 49 11 1c bf
       -0.19551516 0.62334657 0.37438604 -0.60963875
0000e0 5a cc b8 bf ca bb 18 c0 7d 35 f8 bf f3 8a fb bf
       -1.4437363 -2.3864617 -1.9391323 -1.9651779
0000f0 82 32 c7 3d 1e bc 64 be c0 00 85 bf 5f 40 7d bf
       0.097264305 -0.22337386 -1.0390854 -0.9892635
000100 df 34 68 bf fc f0 b5 bf d6 eb b7 bf b4 75 6f bf
       -0.90705675 -1.4214168 -1.4368846 -0.93538976
000110 18 59 88 bf a1 9b 06 3f 3b a3 03 3c 11 e1 a5 bf
       -1.0652189 0.5258122 0.008034523 -1.295931
000120 4b 27 2c be 61 25 85 be 9a fa 67 3f 83 f4 b8 3e
       -0.16811864 -0.2600508 0.9061676 0.36124048
000130 c6 f7 b3 bf 72 f4 63 bf b5 49 b4 3f 52 99 0e c0
       -1.405999 -0.8904487 1.4084994 -2.228108
000140 ae 0d 64 3f eb df 65 bf b6 e5 04 3f fe cc 05 c0
       0.89083374 -0.89794797 0.5191301 -2.0906367
000150 5a 75 d1 bd ab 6f 29 be 11 de 24 bf 8d 53 da be
       -0.10227461 -0.16546504 -0.64401346 -0.4264187
000160 a8 d7 4c be 07 a9 f1 3f a2 d9 75 3f 5a 10 f4 be
       -0.20004141 1.8879708 0.96035206 -0.47668725
000170 00 c0 03 bf 46 97 99 bf 17 2c c0 bf 95 4d 92 3f
       -0.51464844 -1.199929 -1.5013455 1.1429926
000180 01 75 e2 bf 41 f5 65 be 3d 70 74 bf d1 40 0c 3f
       -1.7691957 -0.22456838 -0.9548376 0.547864
000190 7b 7d 2c be d1 22 d4 be 09 aa 03 3e 84 e8 6e bf
       -0.16844742 -0.41432813 0.12857832 -0.9332354
0001a0 24 dc c0 bf 21 ef 1d bd 3c 45 8f bf 46 f6 a3 bf
       -1.5067182 -0.03855813 -1.1193004 -1.2809532
0001b0 87 a9 f9 bb c2 d7 8b 3d 71 9c 37 3f a8 db 82 3e
       -0.007619086 0.06828262 0.71723086 0.2555821
0001c0 08 64 04 3e 68 b9 51 bf 9a e7 76 bf c0 a9 28 bf
       0.12928784 -0.8192353 -0.96447146 -0.6588402
0001d0 43 8c eb bf 19 19 1c bf d6 e4 54 bf d6 46 e6 3e
       -1.840218 -0.60975796 -0.83161676 0.4497592
0001e0 d7 89 d5 3d c9 09 50 bf 00 43 9e bf 5b 0b 0c bf
       0.104266815 -0.8126493 -1.2364197 -0.5470483
0001f0 cf ad 80 3f 4e 9f 56 3f 57 6c a6 bf 7a be d9 be
       1.0053042 0.8383683 -1.3001813 -0.42528135
000200 08 bc 89 3e 38 c5 a7 3e 85 a5 13 bf 69 be 35 bd
       0.2690127 0.32767653 -0.5767444 -0.044371042
000210 59 73 1a 3f 66 b8 ac bf 26 55 af be 79 93 48 3e
       0.60332257 -1.3493774 -0.3424465 0.19587506
000220 c7 00 21 3f d6 ac b3 3f 40 08 3a 3e 95 cf 3d 3f
       0.6289181 1.403712 0.1816721 0.7414487
000230 8b a9 5e be 06 a9 a0 bf 08 67 b5 3e f4 3b 7c 3f
       -0.21744363 -1.2551582 0.3543017 0.9852898
000240 52 bb 95 3d 37 13 0e 3e f9 8b 6c bd 13 35 a3 bf
       0.07311119 0.13874517 -0.057750676 -1.2750572
000250 b8 bc 1a bf e6 a4 81 3f 79 5c 91 3e 37 62 c2 3e
       -0.6044421 1.0128448 0.28390864 0.37965557
000260 66 4f ca 3e 67 5f 6d 3e 01 1d a1 3f 9e 52 a6 be
       0.395137 0.23180924 1.2586976 -0.32484907
000270 17 ac 34 3f 9b 7f 86 3f 4f 4e 63 3f 3f 6e b3 be
       0.7057509 1.0507692 0.88791364 -0.3504505
000280 61 3a 02 bf 56 fd 4e 3a 09 e8 a2 3e 43 f5 96 3d
       -0.5087033 0.00078960264 0.31817654 0.07370999
000290 5d 12 27 bf ca 90 0d bf ff b7 9e be 33 c9 2d bc
       -0.65262395 -0.55299056 -0.30999753 -0.010607052
0002a0 18 fa 81 3e f0 5d 80 3d 20 76 03 bf 2c a4 2e 40
       0.2538612 0.06267917 -0.5135212 2.7287703
0002b0 d5 32 20 3f 7e ed 1c bf fe 94 11 bc 23 de 69 bf
       0.62577564 -0.61299884 -0.00888562 -0.9135458
0002c0 a7 e5 e8 be aa 13 81 be e2 cf 97 3e 63 5d 8b bf
       -0.4548771 -0.25210315 0.2965079 -1.0887874
0002d0 e6 f4 09 40 dd df 1e 3e f3 d9 b6 be 30 eb ba bf
       2.1555724 0.15515085 -0.35713157 -1.4603024
0002e0 88 58 bd 3d eb 5c 77 bf e1 ee 7d 3e dc 5d b7 be
       0.092454016 -0.96626157 0.24798156 -0.35813797
0002f0 f3 3f 03 bf 9b cb 8d bf 53 fd 29 bf 91 fb 17 3e
       -0.51269454 -1.107776 -0.6640217 0.14842059
000300 e4 d6 eb bf 58 b0 92 bf 00 18 27 bf 87 48 ad bf
       -1.8424954 -1.1460066 -0.65270996 -1.3537759
000310 cd 30 9d bf 75 b6 de be 3c 74 92 bf 0b 1d 09 be
       -1.2280518 -0.4349858 -1.1441722 -0.13389985
000320 8a 85 bf bf 93 ea 23 bf 78 94 41 bb 4f e3 4d bd
       -1.4962628 -0.64029807 -0.0029537957 -0.050265606
000330 87 78 44 bf df 19 01 c0 3d cd bc 3e 5b 03 ec bd
       -0.7674641 -2.017204 0.36875334 -0.115240775
000340 72 4e a2 bf 43 a1 a8 bf ac b7 91 bf 70 4c 5a 3f
       -1.268019 -1.3174213 -1.1384177 0.85272884
000350 c4 8e 90 bf 22 22 fe 3e 0a fe b3 bf b0 a0 1c bf
       -1.1293569 0.49635416 -1.4061902 -0.6118269
000360 b7 7d db bf 43 6a 48 bf ec bc ce 3e 3f e6 be bf
       -1.714774 -0.7828714 0.4037851 -1.4914016
000370 d8 79 21 be db e4 2a c0 e7 52 ec bf 52 5d 92 3e
       -0.15769136 -2.6702182 -1.84628 0.28586823
000380 62 19 95 bf c4 ea 41 bf 32 19 83 bf cd 55 a1 bf
       -1.1648371 -0.7574885 -1.0242064 -1.2604309
000390 bc 66 c1 be cd cb a0 3f b9 68 7d bf 0a 28 79 bf
       -0.37773693 1.2562195 -0.9898792 -0.9732672
0003a0 66 8e 6a 3e 39 12 9c bf 1b fb 21 3f 44 4b 3a 3e
       0.22905883 -1.2193061 0.6327378 0.18192774
0003b0 db 0e b0 bf 4f 5c 4f bf b9 70 b3 be f1 dc 92 bf
       -1.3754534 -0.81000227 -0.35046938 -1.1473676
0003c0 6c fe 9e bf 65 0d 5b bf e8 83 78 bf d4 14 98 bf
       -1.2421393 -0.85567313 -0.9707627 -1.1881356
0003d0 7f 38 1e 3f 86 c3 7c 3f 03 57 24 bf b8 43 69 be
       0.61804956 0.98735845 -0.6419527 -0.22779739
0003e0 28 47 f9 be 3e bb 08 c0 0e 4f 0a c0 11 60 0a c0
       -0.486871 -2.1364284 -2.161075 -2.1621134
0003f0 59 31 a2 bf 82 a5 50 3f ff b8 95 bf 45 fb ba bf
       -1.267131 0.81502545 -1.1697081 -1.4607931

rnn.weight_ih_l1 f4 [256, 64]
000000 f8 e9 ad be dd d6 4e 3f b5 3d 30 3f ac e0 32 3f
       -0.33967566 0.80796605 0.6884416 0.6987407
000010 87 e7 f2 3e c7 4e b8 bf 76 33 99 bf f6 90 04 be
       0.47442266 -1.4399041 -1.196883 -0.12945923
000020 58 f6 72 3f 0e 78 89 3e 56 a4 dc be 8a 68 dd bf
       0.9490714 0.26849407 -0.43094128 -1.7297528
000030 9d 8e ed 3f 96 ba bb 3f 44 6e 2b bf 3b 8b a3 3e
       1.8559147 1.4666317 -0.66965127 0.31942162
000040 42 f6 0b 3f a6 d2 d0 3f 32 ed b2 3f cb a1 7b bf
       0.54672635 1.6314285 1.3978636 -0.9829375
000050 d2 4d 4c be 62 3c 8d bc c0 9f 24 3f 25 c0 bb bf
       -0.19951561 -0.017240707 0.6430626 -1.4668013
000060 21 c5 4a 3f 7f ca 81 bf d4 77 af bf 90 38 bc 3e
       0.79207045 -1.0139922 -1.3708444 0.36761904
000070 b7 36 1e bf 1f 88 15 bf f7 5a 70 3f c2 52 8d bf
       -0.6180224 -0.5841083 0.938888 -1.1040881
000080 82 be 0a 3e a9 c8 28 bf 8a dc 25 bf 52 ee 39 3e
       0.13549235 -0.65931183 -0.6478964 0.18157318
000090 4c 8d 51 40 f9 0c 51 3f 9f c9 18 40 e0 e8 f8 be
       3.274249 0.8166042 2.387306 -0.4861517
0000a0 01 00 37 bf 2c 74 e3 bf 31 f2 2d bf 37 d3 2d 3f
       -0.7148438 -1.7769828 -0.6794768 0.67900413
0000b0 6a 91 84 bf 6a c7 c3 bd 86 75 4f 40 09 85 a4 bf
       -1.0356877 -0.095595196 3.241548 -1.2853099
0000c0 51 1f 82 be a1 a6 41 bf 38 8b 0d 3f 5d b2 27 3f
       -0.25414518 -0.7564488 0.55290556 0.65506536
0000d0 83 12 07 3f 55 b4 a1 bf fe 9e 5b 3e 71 a9 8f bd
       0.5276262 -1.2633158 0.2144737 -0.0701474
0000e0 a4 0b 6a bd a9 8e 4f bf b5 b7 80 bf e8 45 94 3f
       -0.057140008 -0.8107706 -1.0056063 1.1583834
0000f0 ee 10 1e bf 8f de 0f 3f d9 dd 83 bf 27 b7 79 3d
       -0.6174458 0.5619897 -1.0302078 0.060965683
000100 0d d1 fc 3f 69 ff a6 be e4 7c 14 3e 4e 2c c6 bd
       1.9751297 -0.32616737 0.14500767 -0.09676419
000110 3f 0c 08 3f 53 50 9d bd 97 81 81 3f b0 be 8d bf
       0.53143686 -0.07681336 1.0117673 -1.1073818
000120 e0 ab 8c 3f b6 14 c2 3d 17 06 45 3f d5 df b3 bf
       1.0989952 0.094766065 0.7696242 -1.4052683
000130 8b 37 01 3f 4d 4d 92 3e 98 8d f2 bf ed 0c f6 be
       0.50475377 0.285746 -1.8949461 -0.48056737
000140 de 0b a8 3e e1 ef 70 3f 77 6e 60 3f cf ea 83 3f
       0.32821554 0.94116026 0.87668556 1.0306033
000150 b4 ce 00 3f bf bc df 3d 17 ba 85 3f 87 6d 4c 3d
       0.50315404 0.10924672 1.0447415 0.04990914
000160 36 33 88 3f b4 88 86 bf a7 93 47 bf 30 c6 f1 3e
       1.0640628 -1.0510468 -0.77959675 0.47221518
000170 0a 48 95 bf ee eb 8a be a7 50 de bf 47 3d a1 3f
       -1.166261 -0.27133125 -1.7368363 1.2596825
000180 d3 9c 86 3e 35 27 92 3e c1 9a 05 3f 1c f8 21 40
       0.26291522 0.28545538 0.5218926 2.5307684
000190 81 3e cd 3f 2b d0 7d 3f 95 c2 85 3f 5b 13 1a 3f
       1.60347 0.99145764 1.0450007 0.60185784
0001a0 19 c3 a3 3e a5 44 18 c0 79 92 62 be 51 3f 2b 3e
       0.31984785 -2.3791897 -0.22126187 0.16723372
0001b0 3f fe 3b bf 88 32 28 40 56 93 76 40 22 10 1f be
       -0.73434824 2.6280842 3.8527427 -0.15533498
0001c0 b0 9e b2 bf b7 55 7e bf 2d 9a 65 bf c9 36 19 bf
       -1.3954678 -0.9934954 -0.8968838 -0.5984922
0001d0 3d 57 5c bf b2 be b5 3d ef ad 2e bf 70 62 e2 be
       -0.86070615 0.08874263 -0.6823415 -0.44215727
0001e0 23 23 e1 bf b2 60 e7 3f 2c 21 22 c0 dd c2 b7 3f
       -1.7588848 1.8076384 -2.5332747 1.4356343
0001f0 70 a3 64 40 b8 b6 4a 3f 35 46 a5 3f cd a1 52 bf
       3.5724754 0.79185057 1.291205 -0.8227814
000200 bd 08 6f 3e dc f7 82 bd 24 f8 0e 3f cf 9f fb be
       0.23343177 -0.06394932 0.5584738 -0.49145362
000210 86 e9 44 bf 80 20 87 bf df 95 57 3f e6 38 c5 be
       -0.7691883 -1.0556793 0.8421306 -0.38519973
000220 df 71 79 bf bd a3 f7 bf a4 48 e7 bf 95 dc b0 3e
       -0.9743938 -1.9346844 -1.8069043 0.3454329
000230 69 ec cc bf fd c0 12 3f b1 a7 99 3f 49 c1 ff be
       -1.6009647 0.57325727 1.20043 -0.49952152
000240 7e 0d 03 c0 87 02 a2 bd 90 7a 9f bf 82 fa 8f 3f
       -2.0476985 -0.07910638 -1.2459278 1.1248324
000250 e7 86 5b 3e fc e2 4b bf 70 ba 0a bf 49 2b a1 bf
       0.2143818 -0.79643226 -0.5419073 -1.2591335
000260 34 a9 dd 3f 1b 2c ef bf 26 e7 5b be 26 c6 ac 3e
       1.7317262 -1.8685335 -0.21474895 0.33744925
000270 f6 31 c5 be d5 b2 11 bf 1d 0b 98 bf 6d 59 e6 3e
       -0.3851468 -0.569135 -1.1878392 0.449901
000280 a2 e5 d1 3e 22 b4 06 3f 52 74 cb 3e b2 5e ee be
       0.40995508 0.5261861 0.39737183 -0.46556622
000290 15 d2 a9 be 8b ae 41 3e ea f9 94 3e 43 00 b6 bc
       -0.33168092 0.18914239 0.2909692 -0.022216922
0002a0 5f 31 84 bf fe de 9e 3e be ab 17 3f 26 67 00 c0
       -1.0327567 0.31029505 0.5924643 -2.0062957
0002b0 ae 7f 98 bf a6 49 9a 3f 8e 11 d8 bd 18 80 99 3f
       -1.1913965 1.2053726 -0.10550223 1.1992216
0002c0 3c a8 57 bf 51 b6 69 3f 0e c6 a7 3f 59 09 3e 3f
       -0.8424108 0.9129382 1.3107316 0.74233013
0002d0 6c 11 a4 bf aa 2e 2b 3e 51 ea e2 3e 69 bf de bf
       -1.2817817 0.1671702 0.44319394 -1.7402164
0002e0 08 33 49 bf bb d4 a9 3f 26 0e 38 bf 7e 28 0b 3f
       -0.7859349 1.3268045 -0.7189659 0.5435866
0002f0 16 06 ea 3f 37 74 4f bf 72 ff 2c 3f c0 e4 ae be
       1.8283107 -0.81036705 0.6757728 -0.34158897
000300 7d 61 aa 3f 16 51 a6 be 6a b6 4f be 2b 90 16 3f
       1.3311001 -0.3248374 -0.20284429 0.5881373
000310 5e 8d 1c be 02 fd 82 bf 34 7a 0a 3e b7 8a 74 bf
       -0.15288302 -1.0233462 0.1352318 -0.9552416
000320 40 12 04 be a8 3e d5 bf 68 e5 75 40 ac cd e5 bf
       -0.12897587 -1.6659746 3.8421268 -1.7953391
000330 16 86 b8 3f c1 99 88 be 65 45 9f be bb ba 35 bf
       1.441592 -0.26679805 -0.3110763 -0.70988053
000340 51 2f ef 3d 11 09 36 be 8c 5c f6 3f e3 40 13 3f
       0.11678947 -0.17776896 1.9246993 0.57520884
000350 3f d5 e8 3f d3 2f 0e be 4c 62 62 3f 11 38 5b 3f
       1.8190078 -0.13885431 0.8843124 0.85632426
000360 22 d0 be be 41 56 23 c0 c8 2d 8d bf e1 26 fc 3f
       -0.37268168 -2.5521395 -1.1029596 1.9699365
000370 83 d4 97 3f eb 27 60 be 8c c9 85 bf 0f 42 8a bf
       1.1861728 -0.21890227 -1.0452132 -1.080141
000380 4f 79 02 3f 7f 0b 70 bf 20 c6 e2 3e 95 1a a2 bf
       0.5096635 -0.9376754 0.44291782 -1.2664362
000390 a1 0d cd 3f 01 88 ce 3f 4e 9f 31 40 f2 a7 63 bd
       1.6019784 1.6135255 2.7753482 -0.055580087
0003a0 e5 e4 c0 be 5a 66 07 c0 ed 57 a1 3f 71 ec f5 3e
       -0.37674633 -2.115622 1.2604958 0.48031953
0003b0 ea b4 d8 bf 38 89 43 3f 16 ce 77 40 bd 46 3b bf
       -1.693021 0.76381254 3.8719535 -0.73154813
0003c0 e8 e7 80 bd 33 24 e0 be 8f 8d 0c be 2e 9b 73 3e
       -0.062942326 -0.43777618 -0.13725875 0.23789665
0003d0 bb 59 ba 3e e5 c0 a1 bf 9b 81 6b 3f be 8a 1f bf
       0.36396584 -1.2636992 0.9199464 -0.6232108
0003e0 bc 84 e1 bf 71 b1 9b 3f 05 5b 5a bf 3c 13 9b 3f
       -1.7618632 1.2163526 -0.85295135 1.2115245
0003f0 9f d6 c8 3f 03 3b 48 3f 91 27 38 be 0c 64 01 bf
       1.5690497 0.78215045 -0.17983843 -0.50543284

rnn.weight_hh_l1 f4 [256, 64]
000000 f8 ec 94 3e c2 d3 15 3f e8 d7 8b bf c1 49 cc bf
       0.29087043 0.5852624 -1.0925264 -1.5960008
000010 56 3a 8d be 5b bc 0b bf 54 31 c0 3f 66 ce 4b 3e
       -0.2758357 -0.5458428 1.5015054 0.19902954
000020 13 eb d4 bf e1 53 48 3e 88 05 52 be 23 8c 7a 3e
       -1.6634239 0.19563247 -0.20509923 0.2446752
000030 12 9a 90 3f aa ff 88 bf 95 6b 9d bf 61 71 69 be
       1.1297019 -1.0703022 -1.2298456 -0.22797157
000040 89 a4 46 3f 61 14 a3 3f e8 8f 8d bf 11 4b 20 3f
       0.7759481 1.2740594 -1.1059542 0.6261454
000050 ac 0d 6a be 66 63 22 40 8d 05 1a 3f 41 52 36 40
       -0.22856778 2.5373168 0.6016472 2.8487704
000060 19 fc 6e 3e 94 b7 f1 bd 74 d3 fc 3e 90 5a b3 be
       0.23338355 -0.11802593 0.49380076 -0.3503003
000070 1c 2e ad 3f 14 13 9a bb 01 e5 36 3e 10 d0 76 bf
       1.3529696 -0.0047019813 0.17860796 -0.9641123
000080 18 ce 17 3f 4f 60 9f 3f 07 7d a3 bd e6 02 9a 3f
       0.5929885 1.2451266 -0.079828314 1.2032135
000090 36 79 c4 3f 31 2c 34 3f 1e 29 96 3f 44 42 1e bf
       1.5349491 0.7037993 1.1731298 -0.61819863
0000a0 c2 92 60 3d 35 fb 48 bf 6c df 3d 3f 59 87 ec be
       0.05482746 -0.7850831 0.7416904 -0.46197012
0000b0 bb 90 8a bf de ef 68 bf a1 d0 8b bf ac a1 38 bf
       -1.0825418 -0.9099101 -1.0923043 -0.7212169
0000c0 9a af c1 3d 3c 17 45 bf c7 55 66 3f 9e af 97 3f
       0.094573215 -0.7698858 0.89974636 1.1850469
0000d0 67 77 56 be c7 d2 d0 3e 90 fd 75 3f 9f e3 22 be
       -0.20943986 0.4078581 0.9609003 -0.15907143
0000e0 6e cd bb be c0 15 bb be 51 06 3e bf 07 7f b1 3e
       -0.36680168 -0.3654003 -0.7422839 0.34667227
0000f0 d7 6f 2a 3f 3a bc 95 bf 52 e1 2f bf af 25 02 3b
       0.66576904 -1.1698067 -0.68703187 0.0019858887
000100 1e 53 a0 bf f1 52 be 3f 8a 59 c8 3f d7 d8 87 be
       -1.2525365 1.4869062 1.5652325 -0.26532623
000110 9b 5c 17 c0 94 9d 60 3f dd 82 50 3f 46 30 b0 3c
       -2.3650272 0.87740445 0.8144968 0.021507394
000120 3a 9d e5 bf 3e 1e c2 bf 13 ef 21 3f de fc ed bf
       -1.7938607 -1.5165479 0.63255423 -1.8592794
000130 fa 6d 9c bf 36 ee 8f bf e2 b2 0e 3e e1 00 b6 be
       -1.2221062 -1.1244571 0.13935426 -0.35547546
000140 87 97 43 3e ca 19 9c 3e 93 ea a6 bf 61 83 24 40
       0.19100772 0.30488425 -1.3040336 2.5705187
000150 30 65 b4 be 0a 0e 2e 3f 60 2d 73 3e f1 75 ae 3f
       -0.3523345 0.6799017 0.23747778 1.3629743
000160 70 fd 55 be 30 9c 5f 3f fc 5d 55 be f5 8c c3 be
       -0.2089746 0.873477 -0.20836633 -0.3819348
000170 57 f2 2a bf e9 87 83 bf 7c a1 10 c0 c8 3f a6 bf
       -0.6677603 -1.0275851 -2.2598562 -1.2988214
000180 cc 6c 86 3f 4b 5d 22 40 e9 2f ac bd 32 b8 de 3d
       1.0501952 2.5369442 -0.08407576 0.10874976
000190 cf c0 e7 be cc d7 82 bf 7d a5 40 3e 2c 8b 87 3f
       -0.4526429 -1.0222106 0.18813129 1.0589347
0001a0 4b b0 e7 3e 72 e7 4d 3f 67 f1 71 be d0 1e d7 bf
       0.45251688 0.8043128 -0.23627244 -1.6806278
0001b0 fe 50 86 bf 97 c1 3f 3f ea da 91 bd 2f 63 c9 be
       -1.0493467 0.7490477 -0.07121833 -0.39333484
0001c0 0c 70 08 bf 5f 8f 1a be f1 58 6e be 8c db d5 3f
       -0.5329597 -0.15093754 -0.23276116 1.6707625
0001d0 60 8c 4d c0 ac 14 a7 3f fe b0 cc 3f f7 4b 99 bf
       -3.2116928 1.3053184 1.5991514 -1.1976308
0001e0 62 5d b6 3f 4d db ca 3e 74 d8 92 bf 61 5f c7 3f
       1.4247248 0.39620438 -1.1472306 1.5575982
0001f0 d1 d8 a7 3f c1 38 82 bf 18 8f a8 bf 39 6b 06 40
       1.3113042 -1.017357 -1.3168669 2.1002944
000200 c9 2a 61 3f db 93 36 bf d8 0c a7 3b 17 88 81 3f
       0.8795591 -0.7131936 0.0050979666 1.0119656
000210 2b 15 05 40 52 fc d0 3f 79 07 2c 3f b1 87 1e bf
       2.079417 1.6327002 0.671989 -0.619258
000220 da 63 03 c0 4a 8d 88 3e 17 d1 0b 40 80 83 04 40
       -2.0529695 0.26670295 2.1846368 2.0705261
000230 63 d6 2b c0 0b 9a 03 c0 a9 00 a7 3e a0 05 16 c0
       -2.6849601 -2.056277 0.3261769 -2.3440933
000240 8f e2 5f be 9a 08 fa 3f 9a 3a 1b 40 b8 59 24 3f
       -0.21863769 1.9533875 2.4254518 0.641994
000250 40 f0 38 3e 8e 15 d8 be bf 1b c7 3f 20 cb c5 be
       0.18060398 -0.42203945 1.5555342 -0.38631535
000260 9b af 94 bf 87 9f 5d bf 45 c6 84 3d eb 9a f9 3e
       -1.161609 -0.86571544 0.064831294 0.48751006
000270 91 af b5 bf 4b 5e 90 bf 9f 52 08 c0 61 2b ba 3f
       -1.4194204 -1.1278776 -2.1300428 1.4544488
000280 44 f0 7c 3f f7 41 49 40 8c 40 7b 3f 73 42 5f 3f
       0.98804116 3.1446512 0.98145366 0.8721077
000290 56 64 de bf 18 ff a0 be f9 ab 8c be b1 ba ff 3e
       -1.737437 -0.3144462 -0.27474955 0.49947122
0002a0 30 95 bc 3e f4 f4 a7 be 6e df 80 be a5 3f 6b bf
       0.3683257 -0.32804072 -0.25170463 -0.9189399
0002b0 44 13 33 bf d2 d3 c8 bf 75 d6 48 3f f0 02 c7 be
       -0.6995127 -1.5689642 0.78452235 -0.3886943
0002c0 c7 76 02 be 0b bb c4 3f 43 bb e1 bf 79 90 8b bf
       -0.12740622 1.5369581 -1.7635273 -1.0903465
0002d0 dd 2d 19 40 e1 26 31 bf b9 63 48 40 45 8a 28 bf
       2.3934243 -0.6919995 3.1310866 -0.6583598
0002e0 ae 08 f4 3f 17 ba 50 3e 41 9d c2 3f 31 5b 07 bf
       1.9065149 0.20383488 1.520424 -0.5287352
0002f0 28 6b b4 bf 14 67 f6 3e 0a 34 63 3f 90 4e 18 3f
       -1.4095201 0.48125517 0.8875128 0.59494877
000300 fb f4 b3 3e 43 5e 37 bf 39 aa 0c 40 f5 12 39 bf
       0.35147843 -0.71628207 2.1978896 -0.7229455
000310 34 37 a4 bf 46 47 a5 3f ee 35 a4 3f ee c1 1b be
       -1.2829347 1.2912376 1.2828958 -0.15210697
000320 c2 97 1d c0 b2 0e f3 3e 88 24 a6 3f 9d e5 65 3e
       -2.4623876 0.4747215 1.2979898 0.22450872
000330 48 a2 f0 be 0d 20 2f bf 2e 53 6e 3f 95 2c b4 be
       -0.4699881 -0.6840828 0.9309567 -0.35190263
000340 f3 59 d4 be 02 08 da 3f dc 3d d6 3e 9a f5 b1 3f
       -0.41474876 1.7033694 0.4184407 1.3903077
000350 9a 1a cc 3e 38 9c ca 3e 39 0e 43 3f 8b 87 36 3f
       0.39864045 0.3957231 0.7619358 0.7130057
000360 ba e2 c5 be be 4e 06 c0 00 8f 65 be af 75 9f bf
       -0.3864954 -2.098556 -0.22417831 -1.2457789
000370 d9 63 6a bf f9 42 22 3e 49 56 0b 3f a4 52 d3 be
       -0.91558605 0.1584586 0.54428536 -0.41273987
000380 42 57 fb 3e ee 95 2b 40 43 43 b6 bf e4 8e bf 3f
       0.4909001 2.681026 -1.4239277 1.4965482
000390 c2 db 01 c0 3f 59 92 3f 4e 84 51 3f 8c 62 38 3f
       -2.029038 1.1433486 0.81842506 0.7202537
0003a0 9e a8 d1 3e cd ac f4 be 34 4f 65 bf 80 b6 2a c0
       0.40948957 -0.47788087 -0.8957398 -2.667389
0003b0 fc 97 12 3c fc 4e 44 be df 2b f3 3f 60 35 37 be
       0.008947369 -0.19170755 1.8997763 -0.17891455
0003c0 af cf 88 be 55 e1 cb 3e 9e 79 47 be 2e b8 29 3f
       -0.2672095 0.39820352 -0.19479987 0.6629666
0003d0 91 4d 5b bf 26 be 98 3e 0f 87 9f 3f 1d 08 f0 3d
       -0.8566523 0.29832572 1.2463092 0.117202975
0003e0 74 bf 35 3f 16 66 74 be 37 bb ea 3f e7 d8 8f 3f
       0.7099526 -0.23867068 1.8338383 1.1238068
0003f0 52 b0 f0 be 0a 42 3b 3b fe b9 aa 3f a9 ba 19 40
       -0.47009522 0.0028573298 1.333801 2.4020178

rnn.bias_ih_l1 f4 [256]
000000 bc 85 0b bf 36 95 97 be a3 fc f5 bf 72 45 9a be
       -0.5450094 -0.29606026 -1.9217724 -0.30131108
000010 d1 bd 54 3f ee 89 ac bf d1 f1 09 bf 17 03 96 bf
       0.83102137 -1.3479593 -0.5388461 -1.1719693
000020 0d 31 7a bf e2 d0 51 bf fc 65 95 be 20 14 b2 bf
       -0.97731096 -0.81959355 -0.2917937 -1.3912392
000030 73 93 1b bf 43 b3 4b 3d 0f 74 2f be 73 d8 54 bf
       -0.60771865 0.049731504 -0.17134117 -0.83142775
000040 cf 4e 4f bf a5 5c 5f bf 4b 12 5c 3f 70 77 9f bf
       -0.8097963 -0.8725074 0.8596541 -1.2458324
000050 a2 1b 50 be 18 37 51 bf d0 81 7a bf ff 04 61 bf
       -0.20323041 -0.8172469 -0.9785433 -0.8789825
000060 49 fe 2f 3e 35 5f 18 bf 5c fe 89 bf cd eb a9 be
       0.17186846 -0.59520274 -1.0780749 -0.33187714
000070 03 fb ff be ed 10 d1 3e 2c 44 ae bf 06 b2 d0 3e
       -0.49996194 0.40833226 -1.3614554 0.4076082
000080 3d b6 01 3e 60 87 d2 bf 76 64 34 3e 6a 02 c3 be
       0.12667175 -1.6447563 0.17616448 -0.3808778
000090 4e b7 2f bf a6 18 12 3f 3a 6f 3a bf 3e 86 11 be
       -0.68639076 0.5706886 -0.7282597 -0.14211366
0000a0 e1 d2 3d be 64 a3 5d bf 03 68 09 bf 1c 9f 80 bf
       -0.18537475 -0.8657744 -0.53674334 -1.0048556
0000b0 20 d2 71 bf d7 52 4d bf 73 27 90 bf 75 83 aa be
       -0.9446125 -0.8020453 -1.1262039 -0.3330342
0000c0 2f d4 1b bd 2d 83 0e bf 4f 96 c3 bf b4 16 35 bf
       -0.03804415 -0.5566891 -1.5280246 -0.7073777
0000d0 85 ff ab bf 11 53 d0 bd 6c dc fc bf 31 b4 ef bd
       -1.3437353 -0.10172094 -1.9754767 -0.11704291
0000e0 4b 95 a1 3d 2e 44 15 bf 75 02 c1 be 5f d6 37 bf
       0.078898035 -0.5830716 -0.37697187 -0.7181148
0000f0 39 b1 0a bf d2 40 13 bf e7 c2 75 bf 89 eb f7 bb
       -0.5417667 -0.5752078 -0.9600052 -0.00756592
000100 65 72 22 bf 9c 90 9d bf ca 1f 96 3d af 10 c8 be
       -0.634558 -1.2309756 0.07330282 -0.3907523
000110 cd be 82 3e a4 9e 56 be 3e c3 63 3f 18 c6 99 be
       0.25536194 -0.20958954 0.8896979 -0.30033946
000120 b3 6f 23 bf b8 b3 49 bf df 00 b1 bd c9 e1 e8 be
       -0.63842314 -0.78789854 -0.08642744 -0.4548476
000130 4d 41 78 be dc c3 f2 be 69 22 9b 3f d6 92 65 3e
       -0.2424366 -0.47415054 1.2119876 0.22419295
000140 49 86 c7 be 0c 2d 6e bf 1f 27 c9 be 91 e6 a1 3f
       -0.3896964 -0.93037486 -0.3928766 1.2648488
000150 c8 c5 ba be bb 33 3e 3e 9a e7 75 be 25 ad 34 3f
       -0.3647902 0.18574421 -0.2401413 0.705767
000160 cc 2b 2c 3e 83 d3 df 3e 8e b7 84 bf a5 1c db be
       0.16813582 0.43716058 -1.0368516 -0.42795292
000170 8d 2b ac 3f 79 b9 46 be 36 c6 6d bf 0a 59 89 bf
       1.3450791 -0.1940669 -0.9288057 -1.0730298
000180 77 62 92 3d 78 78 4a 3c c9 c4 84 bf 14 7d d8 be
       0.07147687 0.012357824 -1.0372554 -0.42282927
000190 ff ee a3 bf 46 0b 1d 3e 4a f6 62 3f f0 eb 2f bf
       -1.2807311 0.15336332 0.8865706 -0.6871939
0001a0 ad 5d 0a be e2 a5 96 bf 9c d9 c8 be 66 1f 85 3e
       -0.13512297 -1.1769373 -0.39228523 0.26000518
0001b0 61 6c be be c0 66 79 3e 2a 1c ac 3e e3 77 b7 bf
       -0.37192062 0.24355602 0.33615237 -1.4333462
0001c0 4a 36 3c 3d fa 8d c0 3e a5 f1 d3 bd aa 77 0e be
       0.04595021 0.3760832 -0.103488244 -0.13912836
0001d0 04 37 eb bf 35 50 f6 be 52 5a d6 bd 9e c5 c5 bf
       -1.8376164 -0.48108068 -0.10466446 -1.5450933
0001e0 23 eb d8 be df b6 4c bf 35 42 3a bf 5e 7d 43 3f
       -0.42366895 -0.7996654 -0.72757274 0.7636317
0001f0 37 39 18 bf 40 be 85 bf f7 de f5 be 83 bf f4 3f
       -0.594623 -1.0448685 -0.4802167 1.9120945
000200 54 5b aa 3e 6c 08 11 be 8c 82 9d bd 60 eb f2 be
       0.33272803 -0.14163369 -0.076909155 -0.47445202
000210 1d 92 d3 bf 30 89 88 be 1c fc 0a bf b7 60 ec 3e
       -1.6528965 -0.26667166 -0.5429094 0.46167538
000220 2e 36 4b 3f b8 ae 88 be c5 7b 99 bf 83 be 9b bf
       0.79379547 -0.266958 -1.1990896 -1.2167515
000230 a8 25 3d 3f a5 8a ed 3e fb 0b 36 bf 59 67 28 3f
       0.73885584 0.4639484 -0.7111203 0.65782696
000240 e4 1a 85 3f f5 f0 99 be 86 37 79 bf d7 a5 5d bf
       1.0398831 -0.30066648 -0.9735035 -0.86581177
000250 f7 da 87 3f 08 5d 10 3e 12 13 66 3f 98 e5 00 be
       1.0613698 0.14097989 0.8987285 -0.12587583
000260 04 18 1a be 33 50 f1 be 0d 68 be 3e e2 d7 d5 3e
       -0.15048224 -0.471315 0.3718876 0.41766268
000270 34 11 83 3f 70 4f ac 3f 60 ae d1 3b 94 73 a2 bf
       1.0239625 1.3461742 0.006398961 -1.2691522
000280 60 28 de bf 63 ee d9 bc 8c b9 a7 3e 0b d3 6b bf
       -1.7356071 -0.02660293 0.3275875 -0.921189
000290 4d 10 10 3f ef 1c d3 bf 23 d2 ab 3f ec a8 76 bd
       0.56274873 -1.6493205 1.3423504 -0.06021969
0002a0 03 72 f8 3e a3 96 8e 3e 85 8d 14 3f f5 49 d7 be
       0.48524484 0.27849302 0.5802844 -0.42048612
0002b0 c8 20 e7 bc 11 16 05 3f f0 c5 66 be a8 98 74 be
       -0.028213874 0.51986796 -0.22536445 -0.23886359
0002c0 26 2f d0 3e 66 20 1a bf d6 7d 22 bf 64 e9 45 3e
       0.4066097 -0.60205686 -0.6347326 0.19327313
0002d0 ae a2 28 bf 25 56 2f 3e f9 db 37 3f 33 55 12 bf
       -0.6587323 0.17122705 0.71820027 -0.57161254
0002e0 ef 03 2c bf ae fb b7 3e 1d c5 a2 bf 1c 80 b2 3e
       -0.671935 0.35934204 -1.2716404 0.34863365
0002f0 77 d9 ca 3e 0f 31 43 bf b0 b5 5a bf 81 ec a3 3f
       0.39619038 -0.7624673 -0.85433483 1.280655
000300 02 9c 44 3e 34 b3 2d bf 3c b5 80 bf 34 4c d4 bf
       0.19200137 -0.6785157 -1.0055308 -1.6585755
000310 9e 44 21 3f 98 d1 b0 bf f5 32 ac 3f 44 51 3d be
       0.62995327 -1.3813963 1.3453051 -0.18488032
000320 6f 08 46 bf 34 63 82 bf 2a 4f 8c 3e c0 a0 ad bd
       -0.7735662 -1.0186524 0.27404147 -0.08477926
000330 b6 ca 76 be 2c 56 6c bf c4 21 2f 3f c3 a7 f0 3e
       -0.24100766 -0.9231899 0.684109 0.47002992
000340 22 5e cc be 1b 9e 88 bf f6 c7 b2 3e 37 ee 6a 3e
       -0.39915568 -1.067325 0.34918183 0.22942434
000350 3d 29 7f be 8a fb c6 be 48 ee f4 bd 8d 83 8b 3e
       -0.24918075 -0.38863784 -0.11959511 0.27248803
000360 7b 65 2e 3f e0 8c 54 3d 6c ec 97 be 93 dc 8f bf
       0.68123597 0.05189216 -0.29672563 -1.1239189
000370 c7 16 12 3f d1 c8 72 3f ab 43 a5 bf 58 54 59 be
       0.57066005 0.9483767 -1.2911276 -0.21223581
000380 65 e2 d4 3f 62 3f 3d bf e5 19 82 bf 79 86 6f bf
       1.663159 -0.7392484 -1.0164152 -0.93564564
000390 c0 47 87 bf 83 d2 0a 3f e0 43 39 bc da f7 90 bf
       -1.0568771 0.54227465 -0.011307687 -1.1325638
0003a0 45 75 d5 be e1 5f 34 bf 24 93 90 be ea bc 5c 3e
       -0.41691032 -0.704588 -0.2823726 0.2155644
0003b0 5b 80 da be 92 81 ac 3d 1e 75 48 be 98 b7 85 be
       -0.42676052 0.08423151 -0.19575927 -0.26116633
0003c0 d3 fd ec be 01 c1 0d 3f 78 f1 36 bf 85 6d b9 3d
       -0.46287403 0.55372626 -0.714622 0.09054092
0003d0 7c cf 80 be b4 75 80 3e 74 39 a3 bf 1b 47 90 bf
       -0.25158298 0.250898 -1.2751908 -1.12717
0003e0 02 9b 15 bf 52 4f 8a bf 0f b6 9f bd 0f 9e ae 3e
       -0.5843965 -1.0805457 -0.07798397 0.34104964
0003f0 f0 1a 96 bd d0 f1 63 bf 0d 3b 11 3e 49 c4 b3 3e
       -0.07329357 -0.8904085 0.14182682 0.3511069
