models/modelRNNQ_lang7_extTomita.pt (torch, 407395 bytes, 10 tensors)

rnn.weight_ih_l0 f8 [256, 1]
0	0xbfcd34a610f451aa	-0.2281692106995597
1	0x3fbf6579ed8b8e0f	0.12264215516511733
2	0x3fd34a4de4692b2b	0.30141017251723906
3	0xbfd25375d171310e	-0.2863440080007117
4	0x3fc2cee3c0ce6181	0.14693877138484981
5	0x3fd209d4bc07a798	0.28185003626151106
6	0xbf8cf3a5f45519cc	-0.014136597174581399
7	0xbfdf606b73c1a9ba	-0.4902599935946018
8	0xbfd1a04984bfb24f	-0.27540815318824213
9	0x3f96df04fbc70c51	0.02233512675026034
10	0xbf8e14cbc09a057d	-0.014688102545963084
11	0x3fa3b343b1bb1a58	0.03847705406729024
12	0xbfeefacc80cc1e83	-0.9681150928090151
13	0xbfcffb8e5bbe09cd	-0.24986438254934598
14	0xbfa269bf38b2e2af	-0.03596303526996302
15	0xbfbb7d3d9b5fe613	-0.10737977069211295
16	0xbfc9b9fb953842fc	-0.20098824297067341
17	0xbfc6d13288611ced	-0.17825919779918512
18	0x40095e8cb4757bd8	3.1711668108323288
19	0x3fb21ac071b421be	0.07072069908111353
20	0x3fc1fc804bdf3481	0.14051822380716675
21	0x3fb9a9acef397d0f	0.1002452930492732
22	0xbfb3eecf920ce607	-0.07786271396334864
23	0x3fda25e0ca1ec2a1	0.40856189478203403
24	0x3f99813350003966	0.024906923063150364
25	0x3fac90b245f2aae4	0.05579144576889464
26	0xbfc1c065bd88ca14	-0.13868400339704634
27	0xbfbd85ec6bdbea61	-0.11532476075437038
28	0xbfa16f2e02ffa3a2	-0.03405135904888047
29	0xbfc341a194bd6c16	-0.1504404045361702
30	0x4003d8e453f65bbb	2.4809042510564416
31	0x3fc25488185303fd	0.14320470035275426
32	0x3fb9409309b3a82a	0.09864157664165477
33	0x3fc4b0b911eff5f4	0.16164315582129485
34	0x3fbc7c960501c029	0.11127603170621171
35	0xbfb6a67ea602604e	-0.08847800782166468
36	0x3fb807a0142fd43e	0.09386635296671472
37	0xbfa0fed8792db97a	-0.03319431761962029
38	0xbfd5b4d541ccc42e	-0.33916217256325154
39	0x3fc18f9062e6e806	0.13719372586439266
40	0xbfb7528267d1ba12	-0.09110274347924754
41	0xbfdf39af8f9b8985	-0.48789586090256193
42	0x3fe6d4bc75f042fa	0.7134687713133581
43	0xbfc51a5b7680b84e	-0.16486686025877123
44	0xbfcd20e351af46d6	-0.22756616104611876
45	0x3fd05fb37cd93a6d	0.2558411330436801
46	0xbfb6e440755fa3a8	-0.08942034593168435
47	0xbfd704f2c10f3bcc	-0.3596770177218189
48	0x3fc5a091007d747d	0.16896259807518624
49	0xbfc753c8086b856a	-0.18224430476315528
50	0x3fd1c5af537a7963	0.2776907267779249
51	0xbfb2bdb267a8308b	-0.07320704489410639
52	0x3fc925d9318da080	0.19646754188147852
53	0xbfb903f988d770c3	-0.09771689978464608
54	0x3fa603c10d6cde3d	0.04299739159472125
55	0xbfe3a693dfb5e26f	-0.6140841836305081
56	0x3fbe570de5ae5194	0.11851584298557888
57	0x3fcbf53430359f5d	0.21842052797296221
58	0x400ccd95a5d3a510	3.600383086701761
59	0x3fbebf9b35049c69	0.12011117977509546
60	0x3fbe8f913e9d6153	0.11937816408806627
61	0x3faa965fe0c6148b	0.05192851656742289
62	0xbfd6cc2b0493ffa8	-0.35621142813760764
63	0xbfbcf4de7a6bf3fa	-0.11311140526591137
64	0xbff2ecfd1308cf8e	-1.18285853801078
65	0x3fccf8cc7fde9bc3	0.22634273761397425
66	0xbff515795abf4355	-1.3177426857766552
67	0x3fd81cb45ffd52c3	0.3767519891164676
68	0xbfd897adc51ad957	-0.3842577385761578
69	0x3ff4b15c4dc5604d	1.2933009183816637
70	0x3fcf73ba8ea9fca0	0.24571926084533846
71	0xbffd43485e72990c	-1.8289264382706873
72	0x3f9097720f74c097	0.016202718919146788
73	0x3fed87b43594e21d	0.9228154226794377
74	0xc00431ef7202217e	-2.5243824870014455
75	0x3fd41d9cb284b753	0.3143073790878265
76	0xbffdd725a7f1786b	-1.8650261459620434
77	0xbfcacc74f5a85617	-0.2093645286083052
78	0xbfe08433e8a50c66	-0.5161380332796284
79	0x3feb1788546cf258	0.8466226242958994
80	0xbfdbc33fa9785f36	-0.433792033670659
81	0xbfdc80986bad4781	-0.4453488399059254
82	0xbfc9dda590c6a134	-0.20207662171493157
83	0x3fe18d8f5bdd46f4	0.5485302728868349
84	0x3fd6c4f3dba20a3d	0.3557710308888636
85	0x3fc4f7faaecde9a4	0.16381772551887963
86	0xbf994a00d41b8e21	-0.02469636244394569
87	0x3fe2de80e767fece	0.5896610755589451
88	0xbfcb014ec3376c87	-0.21097740680747654
89	0xbfc5dd42bbc70de3	-0.17081484001947364
90	0xbfe321166cf592e4	-0.5977890136824411
91	0x3fdd7454a4ef2d7e	0.4602252588926702
92	0x3fec6037c74d8a32	0.8867453472742624
93	0xbfc9ae107582075d	-0.20062452066127437
94	0xbfd75e5dc8d9e79e	-0.36513466467260425
95	0x3fd3b4d0c1155b9d	0.3079110990124095
96	0x3fc25edc416fe764	0.1435199088589868
97	0xbfec86f1e6690fe7	-0.8914727688029388
98	0xc004b41b2de3dd54	-2.5879424653209444
99	0xbfeaea682bb02246	-0.8411141255647372
100	0x3faee3fe188b7432	0.060333195205864235
101	0xbfee383cb8741d60	-0.9443648913010456
102	0xbff0141740f9fa59	-1.004904989065514
103	0x3fe3a59cce80e5af	0.613966372801931
104	0x3f5b4805f942c8ff	0.0016651209198639825
105	0x3fc165881e698485	0.13591100201577802
106	0x3fd46cb8dfcb8201	0.319135874318846
107	0x3feef06dff8de786	0.9668493262572475
108	0xbfcf7d5d1f1cbeae	-0.2460132982173397
109	0xbff9cbcf876c7089	-1.6122584619506901
110	0xbfd3cdd7093cbc4d	-0.30943847562861465
111	0xbf70fdcbdd4fa268	-0.004148289056481326
112	0x3fefb293290b8751	0.9905486871395884
113	0x3feae76d8e92e69e	0.8407504830021997
114	0x3fc75f20b3c25bcb	0.18259056832604723
115	0x3ff1c679289f539d	1.1109553896724045
116	0x3fd7c9177755a136	0.37164866117247486
117	0xbfaf0cb837f40b9e	-0.060643917875516026
118	0xbfe4d30daf29e553	-0.6507633610882898
119	0xbff932a5444be9d4	-1.5748646419366326
120	0x3fcdcdf3a765624b	0.23284764932283716
121	0xc000fa8ab07b8cdb	-2.1223348415092977
122	0x3fe4e5aca4498982	0.6530364235625685
123	0xbfb04d5c02fc103a	-0.06368041108004344
124	0x3fb522ba18eb38be	0.08256114109392151
125	0x3fbf10b8bb41d61f	0.1213489014788469
126	0xbf96ac8b2b62b86d	-0.022142576716469287
127	0xbfee3eb55a7571fc	-0.9451548353932249
128	0x400f3328fb94fa71	3.899980512126881
129	0xbfc0d5d549bb5926	-0.13152567005335775
130	0x3ffae3e9a08af239	1.6806427260591035
131	0xbfbfe438be95a321	-0.12457613614027398
132	0xc01092fd688c639a	-4.143544801300687
133	0x3fc2bf268f7ac5ce	0.1464584541877642
134	0x3fbc5f26f193d668	0.11082690618408153
135	0xbfc4547e5b0505f8	-0.1588285393172979
136	0x3fce66fabe4234dd	0.2375176838872112
137	0x3fbb34d4a1d19c0c	0.1062748808923148
138	0xbfab11aeb217ebb1	-0.052869281043931855
139	0xbfbad8f5aced3945	-0.10487304183809439
140	0x3ffb10e5551fde86	1.6916249585318908
141	0x400a0c90892ffd53	3.2561350553293464
142	0xbfd4da7a64fa0efe	-0.3258348451711156
143	0xbfecf52f207b7c7d	-0.9049296984120613
144	0x40100377feb14f1e	4.003387431690298
145	0x3fc4b0c8ab298a8d	0.16164501531155331
146	0x4010cd4c07a802de	4.200485343579855
147	0xbfc149659f0a4114	-0.1350523974001666
148	0x3fc68e23dd285b11	0.17621277140343541
149	0xbfd5cd603c9cbd7f	-0.3406601516644158
150	0xbf4e140dbfb0578d	-0.0009179179318177119
151	0xbfb41093dd495a64	-0.07837795403006848
152	0xbfd48ea143175d4d	-0.32120544006234725
153	0x3fd52ee9285e867a	0.3309882063132147
154	0x4011093b359262e9	4.259014927921023
155	0x3fa8fcc0ab2d0aa8	0.04880334939527603
156	0x3f833dfec3087d51	0.009395590140285267
157	0xbfd571709af13683	-0.3350488198383134
158	0x401dc8d18391c9f7	7.446111732266664
159	0xbfed5fb89363b6db	-0.9179346922589632
160	0xbfc7258eeb32265c	-0.18083368763136576
161	0x3ff7b0a43cea888e	1.480625379518219
162	0x3fd73161d85949c5	0.3623890507489274
163	0xbfd0aa556e7983c5	-0.26039634502927483
164	0xbfc326cf86c37ed5	-0.14962190704590364
165	0xbfd2f77d0e77e627	-0.2963554993908439
166	0x4018514be971716f	6.0793911433687375
167	0xbfd278c39d4764e5	-0.2886208568502993
168	0xbfaf40d168359be4	-0.061041397066951025
169	0xbfc59160b843f91e	-0.1684990787252411
170	0x3fd09411a344ae26	0.25903740829628175
171	0x3ff555c5a30b5874	1.3334404343527497
172	0x4016c39f0574552b	5.691036305642494
173	0xbfbe7dcb79639b3b	-0.11910697663880125
174	0xc004a14e130649a9	-2.578762196187388
175	0x3fe82bc1db65e574	0.755341461669714
176	0x3fa66ad197e78ddb	0.04378371218970375
177	0xc0062cea0356a9b1	-2.771930719454041
178	0xbfc4401896477878	-0.15820605600214654
179	0xbfa37f9dbf777005	-0.03808300935972401
180	0x3fe0d1557c919153	0.52555345849809
181	0x3fd345d7e56e746d	0.3011378994504586
182	0x3fa24ee1ad71f5db	0.035758068487648585
183	0x4000030ce42bdb9c	2.0014894319424013
184	0xbfc4ec47fe3c38a0	-0.1634607306845668
185	0xbff062e7c1aae343	-1.0241468014848614
186	0xc0022b98fe0655e9	-2.271287903374049
187	0x3fd13defe5695e13	0.2694053402278495
188	0xbfe420a57a76caab	-0.6289851562381349
189	0xc016c3750ce09d1c	-5.690876198968251
190	0xbfeb08cf65656cc8	-0.8448254566568716
191	0x401764766d8b1eb3	5.848108016601759
192	0x3fef0765bab4dbca	0.9696530005083954
193	0x3fd346bb720d1a6d	0.30119215143023476
194	0x3fd2e817693813aa	0.2954157378701959
195	0xbfc60bfcac961d1b	-0.17224081446713843
196	0xbfcabb382b65ab65	-0.20883848303796096
197	0xbfcb5e998ad0205c	-0.21382445600488864
198	0x3ff8730b9fc4cd75	1.5280872574774922
199	0x3fe1d82574b461b8	0.5576350478541405
200	0x3fea8ab64483a41a	0.8294326151054776
201	0xbf8d47c68848fd2f	-0.014297057184306709
202	0xbfa7a2a31542f3e6	-0.04616269716778003
203	0x3fe7c22a6b856cba	0.7424518680594681
204	0x3fbddc0edbb84d43	0.11663906921630933
205	0x400a66c66cb2f997	3.3001831524008582
206	0x3faf31b05960edba	0.06092597094581316
207	0x3fafee6e5d9fd4c8	0.06236596005320788
208	0xbfd08cdd7be4e8cc	-0.25859772776642553
209	0xbfd1da18b21a9ec4	-0.27893655198066036
210	0xbfd27815bbcb3345	-0.28857940043672087
211	0x3ffb389b100cb533	1.7013197543086107
212	0x3fc0a71afb3e6e76	0.13009965198294865
213	0x3fba2146b59ca858	0.10207025464902253
214	0xbf941acd74ce0e72	-0.019633493665891462
215	0xbfef20708bc38244	-0.9727099160919086
216	0x3fa7c762442317d9	0.04644305307151315
217	0x3fe52fd857becdda	0.6620904649520825
218	0x3f9e7206ec6d586e	0.02973185365711866
219	0x3fe7855dfd91b60b	0.7350301697276235
220	0x3fa7cac7f44ef62e	0.046468971798713773
221	0xbfc988b7330dcba0	-0.19948472969880715
222	0xbfce72ae5aa7bcc3	-0.23787478853726016
223	0x3fc4a14ef32c0d37	0.1611727416385322
224	0x3fbe6f5998444bb0	0.11888656585169488
225	0x3fc0744ec3f2ee08	0.12854942863292274
226	0x3fc493e33ed1476e	0.16076317374477916
227	0x3fd196d5557f8977	0.2748311362212443
228	0x3fd082f778438f60	0.2579935717060291
229	0x3fe5378d8abbe955	0.663031359639073
230	0x3fcf80e975a68f5f	0.2461215805498069
231	0x3fc53e2eb5e138d8	0.16596015816543885
232	0xbfc06c000210fd02	-0.12829589939972413
233	0xbfad4a824926ef41	-0.05720908301324679
234	0x3fc2af5c6d14546e	0.14597659422057369
235	0xbfe3b74da3999e84	-0.6161258883775678
236	0x3fc6a115c8b8689a	0.17679092694090032
237	0x3fc85a76c6dc369f	0.19026074132891765
238	0x3fd0d34b091da034	0.2628963078518638
239	0xbfcae33bf2d9a933	-0.21005963666841296
240	0xbfea982f81e44a28	-0.8310773407886858
241	0xbfd8dcfabb68f058	-0.38848751355886213
242	0x3fc20a74648122b6	0.1409440508598629
243	0x3fc36efbc175044a	0.15182444521090793
244	0x3fd7cf11b4fd175d	0.3720134990183988
245	0x3fee64c1f00d8b89	0.9497995079549223
246	0x3fc31101a1b98249	0.14895649334632058
247	0xbfca3fbe501ff1f0	-0.20507029449790037
248	0x3fcf626f5d83f2fc	0.24519149843390398
249	0x3fb42ce25471b590	0.07880987702966125
250	0x3f991de43146421d	0.024528089053605585
251	0x3f88d52509bf1dc4	0.012125291213933027
252	0x3fcd33c6c689b832	0.22814259237515128
253	0xbfc32499b4f898f8	-0.14955445610502927
254	0xbfdd60f09771e9b1	-0.4590417365031057
255	0x3fc40011cda19025	0.15625212231236776

rnn.weight_hh_l0 f8 [256, 64]
0	0x3fd3e153c6a2df72	0.3106278838927131
1	0xbfd248e8f2f17395	-0.28570007061881003
2	0x3fdac90e560ade2d	0.41852148439963593
3	0x3fe661ac1e85680f	0.6994228931537253
4	0x3fbbb717effa1d52	0.10826253517926901
5	0xbfdc6f8ee552e036	-0.4443089713563525
6	0x3fd86125eaf727ae	0.38092945047230387
7	0xbfd1184b73ba99f4	-0.26710783292438056
8	0xbfd122a951a9c118	-0.26774056410705915
9	0xbfe55aafc88dbdf5	-0.6673201481880243
10	0x3fafae046b3ccc2c	0.06187452134181401
11	0x3fea9265a17f825d	0.8303707269915993
12	0xbfe9fa029b2291c3	-0.8117688207608399
13	0xbfe171aa4293a40b	-0.5451251316382025
14	0x3fb587e7ee148bd1	0.08410501062876043
15	0xbfcdd95286bc795d	-0.233194652356313
16	0xbfd4000e4696e035	-0.31250340360157064
17	0x3ff1ed7ce7a7bf34	1.1204804467233318
18	0x3fd4b72f170ed26b	0.3236806607413089
19	0xbff1f6d3d08107b3	-1.1227605957687785
20	0xbfd016e8dbb10412	-0.2513982911514755
21	0xbfbd7934226c0b73	-0.11513067093259881
22	0x3fbe91bbc61fe626	0.11941121661211493
23	0xbfd87ace33cb8d33	-0.3824954515277625
24	0xbfb264bd53855779	-0.07184966363032953
25	0x3fb4d052fae78148	0.08130377412408507
26	0xbfc38e0daea7fdcb	-0.1527726271451527
27	0x3fdd3a01d88a4fcf	0.45666547914993044
28	0xbfe5c44e6830f87c	-0.6802131686197437
29	0xbfcfd08b37b39aff	-0.24855175227931878
30	0xbfa43dd8f66570d2	-0.03953435905234105
31	0x3fce5f181bce5683	0.2372770438930055
32	0x3fef1511e1dc14d2	0.9713220034906505
33	0x3f6371dfc4c3b3ec	0.0023736353378951327
34	0xbfe176cb44c42a32	-0.5457512229052723
35	0x3fb0bc3ff3b1f01b	0.06537246417605085
36	0x3fdd41dff5913930	0.45714568120174004
37	0x3fc8fcaa9f07b1b2	0.19521076932086384
38	0xbfcb4a33430c911a	-0.21320191167718222
39	0x3fe8c46739f77bb6	0.773975003448746
40	0x3fb5fea0728c28cf	0.08591654583520668
41	0xbfccaef2c8b23b7c	-0.22408900069828153
42	0xbfd4900e9526ef20	-0.3212925392688124
43	0x3fecfc9eff971ea4	0.9058375350950496
44	0xbfe8625eec2598f0	-0.7620081531756835
45	0x3fbc55142a12f155	0.11067319895932333
46	0x3fb3fbfbb21bc983	0.07806370828965296
47	0xbfe4ff7da96d7f2b	-0.6561878499159993
48	0x3fe007ad6f960619	0.5009371928610477
49	0x3fea762ef3776766	0.8269266848758263
50	0x3fa3ee3dd1448b80	0.03892701320207603
51	0xbfd8b343021dfed5	-0.3859412689853177
52	0x3fc26b704f1db554	0.1439037691410855
53	0x3f8d6931f222bc67	0.014360799981970552
54	0x3fdebcd0b1913b36	0.4802743658118972
55	0xbfd87bb57fae3b73	-0.3825505968933875
56	0x3fe23cb36b9f2272	0.5699097730622056
57	0xbfb8d72d817d3e5c	-0.0970333520065138
58	0x3fcd30d898908bd0	0.22805316399998654
59	0x3fd2a2efd6d8de09	0.291194877444895
60	0x3fe90d050e54887b	0.7828393249403826
61	0xbfe0de9d86eca29e	-0.5271747241250357
62	0xbfd8af183b563651	-0.3856869296513184
63	0xbfd99c44d47c9d67	-0.4001628947321109
64	0xbff2bf1f380a6f3a	-1.171660632046907
65	0x3fe8f3f6f6155c67	0.779780846244546
66	0xbff042a19afb0810	-1.0162674001626364
67	0xbff37188f2955cb7	-1.215218494025789
68	0x3ff33542fbdefd42	1.200503333922669
69	0xbffb1bad5a2110cc	-1.6942571182890331
70	0x3fb4025610ce1f8f	0.07816064749033401
71	0x3ffbe315c46c96fc	1.7429406807727323
72	0x3fe34cefe4cc52fc	0.6031417340005585
73	0xbf940c30b1c410f0	-0.01957775197026107
74	0x3fd1effb86dcdd78	0.2802723710078321
75	0xbfeea7b1f230bfe7	-0.9579705934793282
76	0xbfe919c533fbfaa6	-0.7843957915609578
77	0x3fc1692b7f91a995	0.1360220311065176
78	0x3fc763d217f6138c	0.18273378534300055
79	0x3fdc395aaf86e65d	0.4410006250505825
80	0x3fbbccb424795dfb	0.10859228029709549
81	0xbfe35c82505a12e1	-0.6050426072475511
82	0xbff06e55a8a11783	-1.0269371592598595
83	0x3fe7628a02c80ee0	0.7307786993337366
84	0xbff9374d6257b6fd	-1.5760015336522308
85	0x3fe37ec48a5cc554	0.6092245771780349
86	0xbfe5a16dd54d4d8a	-0.6759556928686135
87	0x3ff117cb873984bf	1.0683093340124257
88	0xbfb04a61a623d530	-0.06363497072364477
89	0xbfd2b9a8729408ff	-0.2925816649368613
90	0xbfe8a61b2214d35d	-0.770276609959733
91	0x3ff1043747dd9c4e	1.0635292823078717
92	0x3fda31e6bb5b1ad7	0.4092957334182023
93	0x40008474de29b6c9	2.064676032684336
94	0xbfe362b909585c37	-0.6058011229059791
95	0x3ff19ecadb292479	1.1012676773991912
96	0x3fe883efed193825	0.7661056166487056
97	0xbfe63426e6514e69	-0.6938662050619772
98	0xbfd1213e662da250	-0.26765403726907255
99	0x3fb2f1d302efe714	0.07400244542796158
100	0x3feb2daaa4b73b73	0.8493245331863889
101	0x3fe158690507c49d	0.5420422647713569
102	0x3fefe673e7f09b1d	0.9968814401698612
103	0x3fdac478e7164c23	0.4182417160711244
104	0xbfe965f7aa51a639	-0.7936971975843284
105	0x3fef8f334352a753	0.9862304987811775
106	0xbfed367fb2199d87	-0.9129026869313045
107	0x3fc067bb4eaa9bcc	0.1281656393159366
108	0x3feb4f07cbac6477	0.8533972719188928
109	0x3fdaef372ad8e380	0.4208505552701851
110	0x3fffa25066363ff9	1.9771274559643628
111	0x3fe7c65ca20ad9a1	0.7429640927210138
112	0x3feb535eadf07ab3	0.8539269826176991
113	0x3fd9d1597585d04e	0.40340267636134264
114	0x3fe7d3d0b4e6b292	0.7446063550210786
115	0x3fc9c83a29a4c9a4	0.20142294915565373
116	0xbff3861b3b76f4c4	-1.22024081447971
117	0xbfe4451346c1b1d9	-0.6334320432629809
118	0x3ff9e3eae7396d9a	1.6181439430427873
119	0xbfeee7da1107b304	-0.9658022244089755
120	0x3fe419536f537aa6	0.6280915426576328
121	0x3fd7bcd02194814e	0.3708992317133565
122	0x3fb2c13d79638eff	0.07326111043544968
123	0xbfbba76ac5cb1e45	-0.10802333191815545
124	0x3fe125a5e52680da	0.5358457065194913
125	0x3fed2460c45b0651	0.9106906733579284
126	0x3fbefc57ee109044	0.1210379558766031
127	0xbff7460634ca9b7a	-1.4545957624593187
128	0x3fd8d8961bb2bf2a	0.3882193823328516
129	0x3fe22bccf6b56c5d	0.5678467577485083
130	0xbfbb2bc206dbd134	-0.10613644282768037
131	0x3ff1b171ab5699cc	1.105821294107602
132	0xbfe392e761538290	-0.6116825962927397
133	0x3fe4f92ced5e0f3f	0.6554169307787346
134	0xbfcb90738ae19793	-0.2153458049899056
135	0xbfd64086711ee03a	-0.34768830344137636
136	0xbfebec87a0532f76	-0.8726232653948347
137	0x3ff294e0ef98a3b3	1.1613473281124527
138	0xbfe170d333d3cbf6	-0.5450225841763074
139	0x3fefe9208cf34c7d	0.997207904142115
140	0xbfaf1cb948eec67c	-0.060766019967002344
141	0xbfc692f197836bf4	-0.1763593663989408
142	0xbf85897f83a85dce	-0.010516163068173958
143	0xbfda581804adb525	-0.4116268201531333
144	0x3fe194b87a13c5c4	0.5494043716736816
145	0x3fd2206edd6a34ff	0.28322955725236904
146	0x3fde1463385e8700	0.4699943590622837
147	0xbfc2ab5743deed3d	-0.1458539086723735
148	0x3f992e2bea8e03d9	0.02459019297703322
149	0x3fcd6403cdf757f9	0.22961471135084802
150	0x3fe81aea05f40936	0.7532854191088407
151	0x3fd1c3f9c716e7d3	0.2775864071114686
152	0x3fd0147b7bec6af3	0.251250144022989
153	0x3fb7cddca5f80cbb	0.0929849534223192
154	0xbfd655156f2bef9e	-0.34894309860805517
155	0x3fe13fab03eddfef	0.5390219761602547
156	0x3fdbdf40ea8865c8	0.4355013170585065
157	0x3f783a1867d168d9	0.0059147790280695495
158	0xbfb06ef52abb2ae6	-0.06419307988395992
159	0x3fc80c9cf6a6830c	0.18788492244222998
160	0x3fe8bd10cdd4992c	0.7730793018461433
161	0xbfb42cee9cd11b7a	-0.07881060913596896
162	0x3fd32696f781ccbd	0.29923032923324994
163	0x3fdc194327032d20	0.4390418892841854
164	0xbf8e85afc8f7121a	-0.014903424568623303
165	0x3fba081a9138f046	0.10168615384549282
166	0xbfd016d6a66390ef	-0.25139394997519465
167	0xbfd56d3614528297	-0.33479072556114303
168	0xbfe0872014feecf0	-0.5164947900842929
169	0x3fd54f32317e5337	0.3329587443670791
170	0xbfb4f53b1ae1fd7e	-0.08186692625348788
171	0x3fe056c3c7ecc556	0.5105914025099689
172	0x3fd572b69cc6d155	0.3351265460035127
173	0xbfdb81daddac0f32	-0.4298007168547314
174	0x3fc00c4faf03fcae	0.12537570996935216
175	0x3fc44509932e28e5	0.15835685431040428
176	0x3feaf5bb1627507b	0.842496436375327
177	0xbfefca32dd636e70	-0.9934324573509468
178	0xbfe13240bd5ecfe1	-0.5373843859329065
179	0x3fb9affdb724d251	0.10034166070256247
180	0x3feaa7c3818a0ce9	0.8329789667190229
181	0x3f9632d7d33884bc	0.021678325907605198
182	0x3fc66a9057f19779	0.17512707037093003
183	0x3fe92487c6907ccf	0.7857092741213821
184	0xbfed1f68c9d2febe	-0.9100841466788194
185	0x3f86c2bd4799a7f1	0.011113623378339073
186	0x3fa5d8698fd50c01	0.04266672020687424
187	0x3fb46d6aa1a32e60	0.07979456373430471
188	0xbfefd85c8a0ff04b	-0.9951613136795542
189	0xbff21cabd5250e87	-1.1319998098341857
190	0xbfb991ab4088aa70	-0.09987898183377708
191	0x3fc4275cce2cd54c	0.15745124880928996
192	0x3fe2bee71d0f9962	0.585803562888753
193	0xbff67cadda59c9bc	-1.405439236576611
194	0x3feae52deb58151c	0.8404759975971134
195	0x3fe37ba0c31f66e2	0.6088413058270954
196	0xbff69462a434f5a7	-1.41122688430128
197	0x3fe1f437a4b3c3f2	0.5610616890754712
198	0xbff6b138a3a90327	-1.4182669060684903
199	0xbfb4a1ce8f223ca1	-0.08059397692180649
200	0xbfd2a2970406bb15	-0.2911737002677211
201	0x3fb2388edeca7748	0.0711755079196027
202	0xbfdb8b71cc4bc06f	-0.43038601828357675
203	0x3ff5496aa5a2e531	1.3304239721458766
204	0xbfdb330ee69bd99f	-0.4249913456000289
205	0x3fe4e5a5bfb8c8da	0.6530331368033118
206	0x3fccde8351fd66a4	0.22554055694017905
207	0xbfefcc86fd9b1335	-0.9937167123067413
208	0x3fe8e978a91e2994	0.778499918277975
209	0xbfcc3954c3591606	-0.22049960649944483
210	0x3fdf12f74f33c5f7	0.48553259596437165
211	0xbfe95b903092bd7a	-0.7924271534629235
212	0x3fe61a633eeb6ec9	0.6907211522006601
213	0x3fe8866d1ee3be98	0.766409454661658
214	0xbfc93283bd8c752c	-0.19685408358865553
215	0x3fcc7020586188a6	0.22217182460287183
216	0x3ff642844b8f9e1e	1.3912394477464498
217	0xbfe7c4530b155ae6	-0.7427153793786061
218	0x3fce8afc7fe5762e	0.23861652607858858
219	0x3feaf649b70a39cd	0.8425644469260135
220	0x3fd736812b876106	0.36270169497358073
221	0xbff02b65e839df41	-1.010595233090456
222	0x3ff0a279bd74edf6	1.0396668816237002
223	0xbfdceaee26efd57b	-0.4518390064470947
224	0xbfe9d8166f959c4e	-0.8076278857596522
225	0xbfd8ed2747602c4d	-0.3894746968296133
226	0x3fe5d6423941cfce	0.6824046247770583
227	0x3fc69d0839610fa4	0.1766672401591879
228	0xbff0071d45941d95	-1.0017369001305714
229	0x3ff997707fe83de8	1.5994725223898687
230	0xbfcea1df36ec828a	-0.23931493932561337
231	0xbff6e6b02b0b35c4	-1.4313203507802976
232	0xbfec49f82b0e4271	-0.8840294686252276
233	0xbfd219fc6ba4de74	-0.28283606063948885
234	0x3feb80a6cdd5daca	0.8594545383665146
235	0xbfdea955f13bb6da	-0.47908543165145334
236	0x3fe18eac67113641	0.5486661923438946
237	0xbfdce43f618a1bf0	-0.4514311268362112
238	0xbf966ca243b32e57	-0.02189878023345523
239	0x3fe4aa356bc94809	0.6457774262619306
240	0xbfea528d01374a9d	-0.8225770019292501
241	0x3fca1f702fdd32e6	0.2040844186507435
242	0x4000888983798884	2.066668536325837
243	0xbfe2cc347a88da09	-0.5874273675206619
244	0x3fe147f430cc0bb0	0.5400334313456963
245	0x3fe7f048adcda128	0.7480815310091531
246	0xbfe0bc3bc46b20ba	-0.5229777180002408
247	0xbfd5335cdad36b21	-0.33125993127548453
248	0xbfeaae1644f9fab2	-0.8337508532711893
249	0xbfd3d43948e4050b	-0.309828110868765
250	0xbfea118ada99d46e	-0.8146414060162337
251	0x3ff19b343be09a8c	1.1003916109999947
252	0xbff1f89677e73725	-1.1231903728216335
253	0xbfe177c83e8bd845	-0.5458718511206447
254	0x3ff540131fd5077b	1.3281432383959941
255	0x3fe0ad05d7f9da0c	0.5211209505349088

rnn.bias_ih_l0 f8 [256]
0	0x3ff0f07cf49fe44f	1.0587129169127996
1	0xc0037f60d587a36e	-2.437196415140014
2	0x3fb0a0b7bdc57d9c	0.06495235808460226
3	0xbfe61086a8fd6687	-0.6895173359473156
4	0x3fd71d61d1f23e79	0.3611683416611196
5	0x3fad78540fa32763	0.05755865755925418
6	0x3fa97e141c2af0fd	0.049790028036541735
7	0xbff053ce3548c7cd	-1.0204603272836608
8	0xbfeecd99ec1c9d59	-0.9625978099401592
9	0xbfe30f3c5cb9d375	-0.595609837632408
10	0xbfd85d07ff5d773e	-0.3806781762885868
11	0xbfed4adee33f1849	-0.9153894842536455
12	0x3fe13bf39832678a	0.5385683033557467
13	0x3fe3ef07fd67edd0	0.6229286145530128
14	0xbfe662fc4171766e	-0.6995831754863511
15	0x3fea499a81a848dd	0.8214848072405193
16	0x3fe0043b570f6517	0.5005165768044745
17	0xbfe336363982a216	-0.6003676532027977
18	0xbfd70bd34070d213	-0.36009675305402417
19	0xbff2730189708a61	-1.1530776375517677
20	0xbff9e4e02a05c746	-1.6183778420931545
21	0xbfe40eef86e6f2f5	-0.626823199730636
22	0xbfc63855440c58b8	-0.1735941488520376
23	0x3f91fc7e55104cf4	0.01756474870860543
24	0xbff1da658ee2e781	-1.1158195096490717
25	0xbff5f55fc4ffb4be	-1.3724057860629695
26	0x3fd079bc017596b0	0.2574300779582286
27	0x3fea859c9d7c3379	0.8288100314981498
28	0xbfdcee15fca826be	-0.45203160928268094
29	0xbfd6976fb0ff698c	-0.3529929378979879
30	0x3fb18c5296c97594	0.06854740315744429
31	0x3fb299a4b7ec5715	0.07265691271126358
32	0xc007e88b2c967974	-2.9885467036648894
33	0xbff872eb9e8918ea	-1.5280567353052512
34	0xbfecb0e94ef2f809	-0.8965956251120143
35	0xbfed91dfe18c7572	-0.9240569501159099
36	0xbff1c14deb0b832d	-1.109693449158111
37	0xbffba1d3bf277c8e	-1.7270085780108135
38	0x3fd3f26ec2c32dfb	0.31167191524283994
39	0xbffa9aa49f9bcf26	-1.66275465342637
40	0xbfe6471ea296a918	-0.6961816001469598
41	0xbff0f64e6678d730	-1.060133362084752
42	0xbfe0c33780366415	-0.5238301757955265
43	0xbff7958799e755a6	-1.4740062724934915
44	0xbfe0943e82e9a12b	-0.5180962139975568
45	0xbfd0ae171644fb85	-0.26062562155487284
46	0x3ffdfe3902cf40e6	1.8745660886525513
47	0x3fe9ce72a61b0ecd	0.8064511532070014
48	0x3fd7dd84c32fcdac	0.37289542256550123
49	0x3fa3023a5ecd5563	0.03712637336017612
50	0xbfecdf48c38301b9	-0.9022563761318941
51	0x3fef4d3e32f593bd	0.9781790728853746
52	0xbfe147371049f09a	-0.5399432485715068
53	0xbfcc7b801b718fea	-0.22251893367786063
54	0xbfc4a6b9c181ec1c	-0.16133806179627264
55	0xbfec12b37ee9e7ac	-0.8772828558714898
56	0xbffb6fb979d6125e	-1.7147764929988152
57	0xbfe7caf7b9b3247e	-0.7435263277958624
58	0x3fe85748177a2034	0.7606544931923112
59	0xbff95f90738f75a5	-1.585831118972558
60	0xbffaf8ad2a33e37e	-1.68571201787401
61	0x3faaa6bf6ad7813d	0.05205343417378792
62	0xbfdf04eb0ce15c8c	-0.48467518098682016
63	0x3fede8c8088a84a8	0.9346656958406543
64	0xbfc09bd5dae368dc	-0.12975571811586561
65	0x3fdf0bbfb7b1b513	0.485092095745885
66	0xbfe0f04a2aeb6473	-0.5293322408935083
67	0x3fe043d3e5806405	0.5082797510577853
68	0xbfbee61017923f15	-0.12069798064680655
69	0x3fe4e3133a98047a	0.6527191299829973
70	0x3fe28f521c93b18b	0.5799952085631487
71	0x3fd710ab0afe5590	0.36039234231551465
72	0x3feea3a99381d2fb	0.9574783211706682
73	0xbfb9a6ee963b7b76	-0.1002034298685269
74	0x3febd20e85a05802	0.8693916902436742
75	0x3fe77ca4e4a48e8c	0.7339653459243478
76	0x3ff35a8625034319	1.2096005864916093
77	0xbfae22f8ff199fc9	-0.058860570087574234
78	0xbff010faf4a20f5a	-1.0041455799082173
79	0x3fda0ac8afb4ecdd	0.4069081989179731
80	0xbfa1417f04245180	-0.03370282102165145
81	0xbfc358550b09efee	-0.15113318480496168
82	0xbfe0ba297dd2e50a	-0.5227248628135908
83	0x3fe39959a5d30860	0.6124695051914948
84	0xbfdfa7be0469e5fc	-0.49461317473432564
85	0xbffe69a0a158de22	-1.9007879545805584
86	0xbff2da7c159fbb8a	-1.1783409924207455
87	0xbf9a5bd6a7721727	-0.025740961046287893
88	0xbfd2b2c400164a4b	-0.2921609879350952
89	0xbfed9fb9dfd364e4	-0.9257478114697304
90	0x3f888a4562069309	0.011982481054312115
91	0x3fd3c40b242473c8	0.3088405468895954
92	0x3fec6207901a9abb	0.8869664968995815
93	0xbfa02b5e84f7777e	-0.03158088086250553
94	0xbfdf128dc75f5e97	-0.48550743551229786
95	0x3fe3ecb10e4f1ef7	0.6226430205797148
96	0xbf8b74f0898b394d	-0.013406638333802201
97	0xbff22c6abb9ec4f8	-1.1358439759172239
98	0xbfcbe77d2397cfa7	-0.21800197828235676
99	0x3fd93257f8104225	0.39369773125602797
100	0x3fd2b31df835a89c	0.2921824382707514
101	0x3f9ea600d7953ea5	0.029930127294675164
102	0xbf5d29afd6540802	-0.0017799584541653428
103	0x3fd6e4157d36d1bd	0.3576711390299144
104	0xbfe233417233b17f	-0.5687567930704488
105	0xbfd74bc4ebae1177	-0.36399958625431544
106	0xbfdcccfd1b29199a	-0.45001151707074316
107	0xbf495eea5a66d537	-0.0007742542555237213
108	0xbff50bf90014af95	-1.3154230120808041
109	0xbfe0a40fbd513568	-0.5200270364381767
110	0xbfe8da3bb5351568	-0.7766397990423402
111	0xbfeae84a566c9e7a	-0.8408557594274975
112	0x3ff54fb724fe0294	1.331961769581686
113	0x3fb06d010f429cc7	0.06416327116550057
114	0x3ff81b8bd907d82c	1.5067251661071266
115	0x3fd40ee26102930d	0.31340846513403237
116	0x3ff59cfaf998fc7e	1.3508252859026295
117	0xbff05da022c0c2ec	-1.022857795480543
118	0x3fa3acaac161e26f	0.03842671976685074
119	0xbfe12d4980695ad8	-0.5367782123601854
120	0x3fc3cbde2cb1a285	0.1546590536338678
121	0xbfe052790858724f	-0.5100674784658369
122	0xbfb931846f606937	-0.09841182440905959
123	0xbfe398034e1aa9a7	-0.612306263491793
124	0x3fe2c8ccf0df9b32	0.5870117859420587
125	0xbfe2d91c5e9365d2	-0.5890027854140334
126	0xbfd4af5333148773	-0.32320098865795116
127	0xbfeb3ad22911e369	-0.8509302904268284
128	0xbfdd9e04926fcc61	-0.46276964474163235
129	0x3feca6e39e424bd5	0.8953722086902142
130	0xbff40790da6d8734	-1.2518471271836917
131	0x3fcf2934eb7d7549	0.2434450292447912
132	0xbfc8b42d9a42ed2b	-0.1929986003141065
133	0xbfef901b5ef17c30	-0.9863411764489509
134	0x3fcfdd86b5112fa9	0.24894794312637927
135	0xbfe5f9aaa3eb3375	-0.6867268754518664
136	0x3fdbbda432fabdc2	0.4334497926565427
137	0xbfd223431d37a6af	-0.283402231724362
138	0xbfe4280b6bba01c7	-0.6298882583651498
139	0x400408bc3cd63960	2.504265284812547
140	0x3fd2f3e6a0d3c110	0.2961365290239124
141	0xbfe4299af2821513	-0.6300787674414629
142	0x3ff0ade7b477bab7	1.042457299186635
143	0x3ff0258dc6d6c8f6	1.0091684119366255
144	0x3fdaa2efb343e233	0.4161948443066052
145	0x3ff122090f406653	1.0708094211353412
146	0xbfd0a7d1e47d6984	-0.26024291337457606
147	0x3feee5751f6c6675	0.9655099500407248
148	0x3fbba945ff5d0a5d	0.10805165752848596
149	0x3ff9f89d2b6baad9	1.623196763621925
150	0x3fdd6682b8f4eb82	0.45938175260715053
151	0x3fd94872554b27c6	0.39504679040385005
152	0x3ff391b7e2068945	1.2230757550356242
153	0xbff471f6129eec01	-1.2778225638746792
154	0xbfc2f5fb8e00e3a3	-0.1481317942978225
155	0x3ff858cd66e41040	1.521680261533234
156	0xbff8adbfb270eff5	-1.5424191446645612
157	0x3fe95c95f0fce226	0.7925519663613769
158	0xbfe2510f09f4894d	-0.5723948664129154
159	0xbfd505f734fb71aa	-0.3284891145138099
160	0x3fee0450accff619	0.9380267501107397
161	0xbfe6ee220398b487	-0.7165689535373908
162	0xbfe87e5805c91c6c	-0.7654228318214229
163	0x3ff2a291fbe8d126	1.1646900024616769
164	0x3fdba45eed7bd36a	0.4319073981453615
165	0x3ff3865fc7703be1	1.2203061857760462
166	0x3fbbbfbdf971ab76	0.10839450206701237
167	0xbfeb933ed453623e	-0.8617242953287769
168	0x3fcf889e3ca7bf63	0.24635675393755738
169	0x3feb565aa64355de	0.8542912719082627
170	0x3fd4023d133b68b8	0.312636631757083
171	0x3fd7defe2a2fe12f	0.372985402296325
172	0xbfe74d5feb2b7d1f	-0.7281951516305617
173	0x400c3cd3aaa18e66	3.5297005968621304
174	0xbfaf05959e15e683	-0.06058948092227203
175	0x3fea27e61d7124c8	0.8173704695738246
176	0xbf837832b398f751	-0.009506603341943228
177	0x3fe06e8531581ecc	0.5134912456278129
178	0xbfe401ea7a10cd69	-0.6252338775724812
179	0xbff547ccb58dbdad	-1.3300292102756928
180	0xbfb3210f84e30226	-0.07472321504884202
181	0xbfef39ba4c52fc05	-0.9757968416887485
182	0xbff10583bce60268	-1.0638463381621026
183	0xbfc43f92d6f4bf03	-0.15819011207485553
184	0xbf9c669eae95c2b7	-0.027735213666746996
185	0x3fc08b8aa550a628	0.12925847122214518
186	0xbfcf59299c9a8e4b	-0.24490852495829282
187	0xbff49b94bd71d586	-1.2879836464101984
188	0xbfd4a6556d5984d3	-0.3226522033565519
189	0x3fd97188b85213c3	0.39755456924495663
190	0x3fdd4bea8a020390	0.45775855519610165
191	0xbfaf5acbbebcec8d	-0.06123959258408105
192	0x3feb308c74d7b0b7	0.8496763498383392
193	0xc000bfe4dde936eb	-2.093698247604029
194	0x3fb6923d099aaa2b	0.08816892132259883
195	0xbfb2fbc15e10a9a1	-0.07415398165236421
196	0x3fdc3789fa27e163	0.4408898299148147
197	0xbfd49edee1c7c70b	-0.3221966938864262
198	0x3fc3b54a37e03cd5	0.15397002914730842
199	0xbfea1ab992cf08ab	-0.815762316451829
200	0xbfd0f0ddb579695a	-0.26470129701706
201	0xbff15a098e60d80b	-1.0844817697193345
202	0xbfcaca51eda6af6e	-0.20929931739862745
203	0x3fc6016d0adc7cfe	0.1719185164483647
204	0x3fe47e4779383128	0.6404149406021462
205	0x3ff7fa66405e230d	1.498632670818725
206	0xbff6e5ffe7b8c047	-1.4311522533062246
207	0xbfea657c685d79d3	-0.8248884237653392
208	0xbfe995a72875fa68	-0.7995181837321299
209	0xbffed7623cf44a86	-1.9275839215303292
210	0xbfc9113e79d2d8a9	-0.19583874653262015
211	0x3faab3ce683869f8	0.052153063032353175
212	0xc00c09840f0a317b	-3.504646413324904
213	0xbff172efbbebc906	-1.0905606594720338
214	0xbfd500793eda9718	-0.32815390718529747
215	0xbff3987718824bf9	-1.224722953546687
216	0xbff1caf065b2ed3b	-1.1120456669439835
217	0xbff1fece1a9deb87	-1.1247082748147663
218	0xbfeb83a16db6dacb	-0.8598181860787347
219	0xbfd929d9e7508bb2	-0.39317939366645327
220	0x3fce89dc6eb76c80	0.23858218580321378
221	0xbfe1f3935a3b7bd2	-0.56098334907062
222	0x3ff26798f795592d	1.150292365191102
223	0xc010bf1092153fee	-4.186586649462681
224	0xc00c165b909f76f2	-3.5109168337502235
225	0xbff0a1c9738f8d8f	-1.0394987596599525
226	0xc00024b4fcdfd161	-2.0179233318141745
227	0xbfe9688ad82d0f8a	-0.794011518687044
228	0xbff601b51c6ec2b1	-1.3754168615961755
229	0xbfe4c8ed7de11322	-0.649527307374772
230	0x3fce05afdfcb9ed5	0.23454855372914687
231	0xc00ba7cc5cb8adb4	-3.4569327586993612
232	0xbfdc7934360668fa	-0.444897701987102
233	0xbff127f2d9b0d8d2	-1.072253084521027
234	0xc00d15f8d6918d78	-3.635728527371324
235	0xc00020217b7d1855	-2.0156888625670413
236	0xbfd052760733c909	-0.2550330229124858
237	0xbfbac99f99013374	-0.10463902936426256
238	0xbfee2f7b847d1d76	-0.9432962024374507
239	0x3ff1e62f6ede9d4d	1.1186975794642706
240	0x3fa0777483b4d687	0.03216137035125848
241	0xbff656e47de61071	-1.396214000503303
242	0xc008c27b272ea29c	-3.094961458311742
243	0xbfeea820ed092bcd	-0.9580235128026914
244	0xbfddc25533822c8d	-0.4649861338627453
245	0xbfd1da6d00d1dcc5	-0.27895665245109696
246	0x3fd315fbe01f00f4	0.2982167900736521
247	0xbfdeadf2279b62d6	-0.47936681621426425
248	0xbff72b73327d9399	-1.448107907513281
249	0xbfcf1d8d47e79aad	-0.24308935175868865
250	0xbfff0a6e8626d5e9	-1.9400468101788368
251	0xbffde5c34a0b3e43	-1.8685944454517915
252	0xc0000d861d907d76	-2.006603461238849
253	0xbfe50e52bfff3718	-0.6579984426441312
254	0xc00504673aa7efe8	-2.627150018930468
255	0xbfde39db9bd5c86b	-0.4722813627078099

rnn.bias_hh_l0 f8 [256]
0	0x3ff07d96f89fe41c	1.030661555471176
1	0xc0043a56f387a349	-2.5284861589210874
2	0xbfb9420f423a80a6	-0.09866423956782686
3	0xbfe6abcb30fd6637	-0.7084709126313048
4	0x3fd67c0ad1f23e5b	0.3513209390884861
5	0xbfc2a4dbbc1735f0	-0.14565607723345364
6	0xbf74d3f71ea87a55	-0.005084958373599753
7	0xbff29dd98548c7fe	-1.163537521974376
8	0xbff1a8e8b60e4f68	-1.103737555652481
9	0xbfe07c68a4b9d37f	-0.5151866166403208
10	0xbfd138ebef5d769b	-0.2690992200422017
11	0xbfecb10e233f1900	-0.8966131866843909
12	0x3fe1c41f583267be	0.5551907274814238
13	0x3fe5af7e2567ee0f	0.6776724558434938
14	0xbfe9e26611717638	-0.8088865605056474
15	0x3fedbe3a71a848ea	0.9294712276335109
16	0x3fd8d0ab9e1eca93	0.3877362293380113
17	0xbfe13a7b7182a1d6	-0.538388940524835
18	0xbfd1a7b3e070d31a	-0.27586075704611945
19	0xbff1cb693d708a82	-1.1121609115586186
20	0xbff9a7a7ba05c706	-1.603431440973908
21	0xbfe40596a6e6f2ed	-0.6256821880156999
22	0xbfcb7154a40c5a55	-0.2143960762993681
23	0xbfc7fda5355df633	-0.18742814164936447
24	0xbfefc7ea3dc5cf5b	-0.9931536871431307
25	0xbff71153e4ffb4cf	-1.441730398680466
26	0x3fd5295a017595d9	0.3306489004374647
27	0x3fe59437d57c3364	0.6743430299407973
28	0xbfe2b3d6465412ed	-0.5844527600862343
29	0xbfdbfc8220ff69fc	-0.4372868845217963
30	0x3f9186b65b25d75d	0.01711544925043228
31	0x3f7e9d5b7ec57565	0.00747428646385848
32	0xc0082d9f909679b1	-3.0222770019456324
33	0xbff747ecaa89192a	-1.4550596868080654
34	0xbfefc48d26f2f742	-0.9927430878376315
35	0xbfe97788998c766f	-0.7958415030477236
36	0xbfed6556ee1706c9	-0.9186205530351909
37	0xbff99ae46f277c96	-1.6003155080759703
38	0x3fd543b772c32d94	0.33225809294955266
39	0xbffc29517f9bcf66	-1.760087488623833
40	0xbfdf794aa52d53be	-0.4917780507142274
41	0xbff3de081a78d787	-1.2417069467605601
42	0xbfe32404c8366330	-0.5981468115233834
43	0xbff60df575e75475	-1.3784079175577777
44	0xbfe1d8c27ae9a13b	-0.5577099228512802
45	0xbfd731f55644fb6d	-0.36242421555282683
46	0x3ffd6debe2cf40dc	1.8393362865208962
47	0x3fe898fb4e1b0ecd	0.7686745191099021
48	0x3fd52626232fccb6	0.3304534286136901
49	0x3fb54d12ef66abde	0.08320730538132134
50	0xbfe6aa749b8302fa	-0.7083075558985847
51	0x3ff1ce4d297ac9e6	1.1128665561960758
52	0xbfe4e3dde849f111	-0.6528157746211339
53	0xbfb3d592f6e323f0	-0.07747763183137102
54	0xbfd43de7f0c0f557	-0.3162784434424188
55	0xbfebeb7936e9e7a9	-0.8724943230183629
56	0xbffdd09fb9d611ee	-1.8634335765101429
57	0xbfe64434d9b32442	-0.6958259822796509
58	0x3fe78ddd477a204d	0.7360674282108534
59	0xbff993eb5f8f7593	-1.598613141329541
60	0xbffc31f00233e39b	-1.7621917806666036
61	0x3fcb96a53ab5e03b	0.21553483359071088
62	0xbfd6bcfd0ce15bd9	-0.35528494127123406
63	0x3ff03d3dd845422e	1.0149515579288493
64	0xbfd026537d71b460	-0.25233924150854214
65	0x3fe3125fa3d8d941	0.5959928703439702
66	0xbfe3072152eb6547	-0.5946203822633515
67	0x3fd6dd1cdb00c71a	0.3572456492139381
68	0xbfca0f188bc91fdf	-0.20358568978758648
69	0x3fea2bf56a9803e1	0.8178660470877014
70	0x3fe98d7ba493b185	0.7985208715813746
71	0x3fd8ce873afe552e	0.38760548363764513
72	0x3febd088b381d32d	0.8692058092115978
73	0xbfcebefe4b1dbc6d	-0.24020365398198198
74	0x3fec3b5f1da0583f	0.8822475031509
75	0x3fe6d2b224a48e90	0.7132197108916944
76	0x3ff1c626e10342dc	1.1108769216117969
77	0xbfc44c9f1fc666e9	-0.1585883050109296
78	0xbff08a94b0a20feb	-1.0338332080582358
79	0x3fd9b2f00fb4ecaf	0.40154649289952266
80	0x3fc0265ffef6e9b2	0.1261711115783562
81	0xbfb81e489613e33c	-0.09421209014898307
82	0xbfe5de3155d2e618	-0.6833731342550804
83	0x3fe3db9d4dd3083e	0.6205584068304757
84	0xbfe3bfdeb234f362	-0.6171716194727248
85	0xbffdf30cad58de3f	-1.8718382617352203
86	0xbff316d1f59fbba7	-1.1930713267026734
87	0x3fa6aab22c46f4b9	0.0442710570382387
88	0xbfc8c40fa02c97e8	-0.19348330803876412
89	0xbfed114affd3653f	-0.9083609577748247
90	0xbfc0886209df9678	-0.12916207773303134
91	0x3fd60de46424739d	0.3445979097321528
92	0x3feebd3d601a9a8a	0.9606005551366519
93	0xbfaafa9e04f77b05	-0.052693307977952165
94	0xbfe3bdcfa3afaf8d	-0.6169202992436894
95	0x3fe795057e4f1f2b	0.7369410960172663
96	0x3fb7f5c02ece9c8c	0.09359360831023106
97	0xbff3e937639ec4e2	-1.244437588826536
98	0xbfced1b72397d0a5	-0.24077500570240776
99	0x3fd857b2b81041e1	0.38035266852332766
100	0x3fd24eafb835a8bd	0.2860526369974073
101	0x3fa05f03ebca9ea4	0.03197490933717731
102	0xbf7d0a3ff59506a5	-0.007089853135143241
103	0x3fda6062ad36d25e	0.4121329013389977
104	0xbfe4d4a5e233b0b9	-0.6509580057150038
105	0xbfe253ec85d70809	-0.5727446188032
106	0xbfddbb1e9b2919e5	-0.4645458712806472
107	0x3f9f1a10ad2cc37a	0.03037286812758875
108	0xbff3733b7414b05d	-1.215632871094406
109	0xbfdc9f8ecaa26a8b	-0.4472386340000091
110	0xbfe90b090535156c	-0.7825970746713842
111	0xbfed43183e6c9ec1	-0.9144402713036116
112	0x3ff6e03b10fe02a7	1.42974383008565
113	0x3fa8ee2c1e853655	0.048692110753660124
114	0x3ff63dc36107d862	1.3900789060840215
115	0x3fd845e5b102931f	0.37926618848932664
116	0x3ff5b6d7a998fc72	1.3571392655283288
117	0xbfefc623dd818528	-0.9929370237624981
118	0x3f634adc161e4f1a	0.002355031830072363
119	0xbfe776d520695ac8	-0.7332559235608977
120	0x3fa01d2232c68a82	0.03147227163141954
121	0xbfd503eec0b0e3e6	-0.3283650285480334
122	0x3fa872ba213f2432	0.04775029807894561
123	0xbfe5fafb361aa9f9	-0.6868873650285529
124	0x3fe2b6fbb0df9b34	0.5848368124542049
125	0xbfe29b3ac69365a9	-0.5814489248688705
126	0xbfd058b933148790	-0.25541524875927113
127	0xbfee5052f911e41e	-0.9473051895757896
128	0xbfdf3fa1726fcc8f	-0.48825870681248146
129	0x3feaca79ae424c01	0.8372162250037719
130	0xbff0d9ba326d87da	-1.0531560869062475
131	0x3fc6fe866b7d74dd	0.17964248894251159
132	0xbfcd352fba42edb9	-0.22818562121197575
133	0xbfee859c7ef17c40	-0.9538099746095057
134	0x3fdb0449ca889878	0.4221367338053663
135	0xbfea9805c3eb333b	-0.8310574366129012
136	0x3fde42cca2fabdfa	0.47282710948908824
137	0xbfd04f010d37a6e5	-0.2548220280719831
138	0xbfe200d1a3ba0144	-0.5625999639305879
139	0x4003f137f6d63975	2.4927825245023834
140	0x3fc2995e81a78321	0.1453054555013518
141	0xbfe41b397a821513	-0.6283233063446992
142	0x3ff243ef0077baeb	1.141585351778924
143	0x3ff02dea86d6c906	1.0112099902294758
144	0x3fe36f9179a1f0cc	0.6073691726337755
145	0x3fed2dfbd680cca6	0.91186324973241
146	0xbfcbd030e8fad3d9	-0.2172909867855697
147	0x3ff00b22abb63372	1.0027186114777717
148	0x3fa5c415feba14c9	0.042511641831006815
149	0x3ff8ad54cf6bab73	1.5423172094694706
150	0x3fd9ef7268f4e7ef	0.40523967981027814
151	0x3fd14ef5054b27fc	0.2704441596694094
152	0x3ff35b2ff6068917	1.2097625360843887
153	0xbff444902e9eebf6	-1.2667390652775317
154	0xbfd31b1147007195	-0.2985270684601116
155	0x3ff716648ae4109e	1.442966978590483
156	0xbffa80c46670efc8	-1.6564373017890706
157	0x3fe7b564e8fce2d2	0.7408928442519829
158	0xbfe72b7e41f48948	-0.7240592277706037
159	0xbfd8419e14fb727b	-0.3790049748329591
160	0x3feb78e8eccff60b	0.8585095048180745
161	0xbfe8d846fb98b494	-0.7764010347360846
162	0xbfe9a21375c91c9d	-0.801034669923769
163	0x3ff30bf037e8d0f6	1.1904146369898263
164	0x3fddc6eb3d7bd405	0.4652660465647503
165	0x3ff5e88687703b6b	1.3692689219057808
166	0x3fd2c07a6e5c6b93	0.29299793984835637
167	0xbfed394e14536230	-0.913245238970438
168	0x3fc979839ca7bfbd	0.19902081631835059
169	0x3febe8509e43560e	0.8721087542605248
170	0x3fdda8b9433b67e7	0.4634230763018636
171	0x3fd03737ca2fe171	0.2533702349169494
172	0xbfe0e73bcb2b7db3	-0.528226754013238
173	0x400d7a13f2a18dff	3.6846083598663877
174	0xbfcbda1ec7857b62	-0.21759400121933498
175	0x3fe8db08957124a3	0.7767374914921173
176	0x3fc281dad4c66f2d	0.14458785428438983
177	0x3fdce80282b03e2e	0.4516607548002608
178	0xbfe1c94de210cd89	-0.5558232703537423
179	0xbff77e617d8dbde3	-1.4683546928825926
180	0xbfb6736d84e301de	-0.08769878858857491
181	0xbfece4f79452fca8	-0.9029500863033677
182	0xbfee1bbab9cc04d5	-0.9408849362227111
183	0xbfc06e5fb6f4bfa2	-0.12836834367180666
184	0x3fb9c267945a8a65	0.10062262889781833
185	0x3fbe89d58aa14ba1	0.11929068216822582
186	0xbfda81d9ce4d4713	-0.4141754641214998
187	0xbff36f32e171d606	-1.2146481329376697
188	0xbfddef0b1d598504	-0.46771505228214516
189	0x3fde3914685213bf	0.47223386943397466
190	0x3fd70593fa02032a	0.3597154561503425
191	0xbfc0584e0faf3bf2	-0.12769485250325335
192	0x3fed077bfcd7b0b7	0.90716361411389
193	0xc0003fa795e936cd	-2.0310813628956113
194	0xbfbb877176655532	-0.10753544941447471
195	0xbfc815514f08545c	-0.18815056189547164
196	0x3fd7fb59aa27e24e	0.3747162019422249
197	0xbfc6f151838f8f60	-0.17923945354334148
198	0x3fbb7d046fc07923	0.1073763630706464
199	0xbfee2fb5dacf086a	-0.9433240197761397
200	0xbfd09529657969bc	-0.2591041079482712
201	0xbfedec092cc1aff3	-0.935062968650071
202	0xbfc5bf086da6af98	-0.16989236215647163
203	0x3fcf4096aadc7cee	0.2441585859569168
204	0x3fe7b84911383171	0.7412457786863752
205	0x3ff7060c085e22ac	1.4389763190139702
206	0xbff5dbb77fb8c0ce	-1.3661417950752823
207	0xbfeb1444585d799f	-0.8462239957696517
208	0xbfea2fbe4075fa29	-0.8183280238152452
209	0xc000ecbba47a254d	-2.1155922746444618
210	0xbfcc6bf139d2d92b	-0.22204413722438096
211	0x3fd077434d070f0f	0.2572792293760679
212	0xc00c6d21450a3190	-3.553286113141617
213	0xbff04464efebc981	-1.0166978237071762
214	0xbfdd88a7deda9816	-0.4614658047015622
215	0xbff6790e64824c73	-1.4045547414905541
216	0xbff37dc919b2eda9	-1.2182093623986054
217	0xbfed446d953bd748	-0.9146030344697715
218	0xbfee3897fdb6da8c	-0.9444084124905472
219	0xbfd67ef4d7508c2b	-0.35149880434818453
220	0x3fdb5b20675bb583	0.42743692487314194
221	0xbfdd8ab26476f8a6	-0.46159038363465255
222	0x3ff302d91f9558f0	1.1881953462339503
223	0xc0107b9a61153fb8	-4.120706097528391
224	0xc00c8894349f76ed	-3.5666889296688766
225	0xbff0a42f378f8da0	-1.0400840921728118
226	0xc0000cba00dfd1e5	-2.0062141483597196
227	0xbfe6cf5f182d0f8e	-0.7128138992488731
228	0xbff4d7baf86ec25b	-1.302668543281604
229	0xbfdf7e23cbc226aa	-0.49207396410256854
230	0x3fca14269fcb9e39	0.2037399559260267
231	0xc00a177e8eb8ad5b	-3.261471858034992
232	0xbfd95b0f36066838	-0.39618282581216446
233	0xbff20edb49b0d8e5	-1.1286270979449509
234	0xc00c983856918d8d	-3.5743262065095167
235	0xc0011dca077d189e	-2.1395454964686698
236	0xbfd79f72b733c911	-0.369106940182193
237	0xbfbcdf1a99013381	-0.11277929530588261
238	0xbfec36ad347d1d36	-0.8816743874712418
239	0x3ff4a9cd7ede9d0d	1.2914557414858934
240	0x3fb64faac1da6c9b	0.08715312226051923
241	0xbff6ab2715e6104d	-1.4167853217523032
242	0xc00795a4132ea281	-2.9480668543440633
243	0xbfef7800b5092bb8	-0.9833987747054982
244	0xbfe46cff79c115cc	-0.6383054140102842
245	0xbfdd6e5470d1dd8e	-0.45985899941975894
246	0x3fcbd31f803e01b4	0.2173804641897853
247	0xbfe02a52abcdb0fb	-0.5051663737808946
248	0xbff4b35fe27d93f9	-1.2937926146780667
249	0xbfb9da684fcf34bd	-0.10098888348075526
250	0xbfff0e32e226d5e2	-1.9409664949465584
251	0xbffc7abd5e0b3ead	-1.7799657510367226
252	0xc0011fd9c5907df8	-2.1405520853729705
253	0xbfe3e3d03fff3759	-0.6215592622699929
254	0xc003ffedc8a7f068	-2.4999652553797667
255	0xbfd1c48d0bd5c919	-0.2776215186669489
