models/modelRNNQ_lang6_extTomita.pt (torch, 407395 bytes, 10 tensors)

rnn.weight_ih_l0 f8 [256, 1]
-0.06907566047999032 -0.2585009443072612 -0.509406528268429 -0.6420513970888563 -0.010352406446190541 6.529862503288149 0.45856486786603445 0.19465069582319527
0.047025473686892555 0.13004572838313283 -0.06312409970057145 0.2946286210023128 0.08085635815506284 0.1566550854769227 0.09414862687948627 -0.8843124782021945
-0.09019794885626956 1.9673484554393887 -0.11429225348294687 1.196760115048129 0.6727225373625276 -0.18329638254864694 -0.1377995200134316 0.008194986265315186
0.2695685824653254 0.12330233242035435 0.08939727070033211 -0.5394064096066635 0.16780579782365748 -0.29085849524876706 0.16121354206935615 0.17461534358131162
0.012790911746090629 0.09646703789652676 0.19478305226952217 -0.09045201611887688 0.20743733917151475 0.8585248082324377 0.22668600767657834 0.12277982549469141
7.583756324888915 -0.07955702931008783 -0.21229855740340403 0.2578527226550019 0.09890751653814592 -0.36659625665527756 -0.1598410231422451 -0.12668306426429615
-0.13147131969337178 0.6946678707256011 0.20678179633737798 3.0231063341294435 -0.12960752688720822 0.2572593827821621 0.08567458116461342 0.8699697885005468
0.11615349097285936 0.11694028598258208 -0.05360445957485507 0.1788410935721818 0.2433838757271069 -0.13259931451250404 2.297266386240524 0.09169955708954376
0.4059237810715484 -0.3044828106094568 -1.3919833465556435 0.23609308592173858 -0.2187648201222807 -4.468997949306648 -1.2001182523007254 0.8641367415994563
-0.2300613566194057 0.14522073646037476 0.08241924249987695 -0.6193254550914458 0.12997037985635043 0.25042536903041196 1.7172955283932156 -0.0654560676564323
0.09788228373591869 -1.4097319032513327 0.09013530309372582 -4.9476070184630405 -1.8197080718862955 1.4386275983006478 0.7062244526418833 0.2741995771031798
0.24097595166924726 0.03736086809472574 2.8390296348066237 -1.9814048915811455 0.8392850447548509 -0.034301975488664434 -1.080749836838661 0.12257972780016746
0.5059082843160649 5.491498392538542 -0.03519847999222353 -0.2763445906343664 -2.288868079976641 -0.7088458503151656 0.5400920988607901 -1.1488834656967601
-2.0981895953793703 -0.3175821216460175 -5.017213268718611 0.5640179315083841 0.36123762132349396 0.2549763284926181 0.10837272433401732 0.465289394944268
-0.9984010416919135 -2.7580552749948506 -0.0007743830897536497 -1.0053994519197291 0.43037763878512547 -0.2816484848497445 -5.012795689125487 -4.260255299941762
0.926952418501604 1.5682055877569032 1.205887312126228 -0.42893328982005813 -1.7488609763667313 0.6839840811090636 -0.4169584990597538 -0.37572288248830393
0.2289605745326973 -4.983142511501002 -4.817842068692569 0.16170515628514737 0.24833293320493408 -0.22487254292932327 -2.110013479880128 -0.41392827939234017
-0.2588111515540144 0.15908447835259976 0.21301718157230098 -2.58156030654795 -0.4409035940027069 -0.1622554118256516 -0.13439931222309368 0.12443281702414281
-0.19982164355057436 3.1120547310108444 1.713739559515569 0.34411110589742816 1.5202359885540877 1.2394850468491694 2.033739523190145 -0.07259676962269761
-1.2183692436236881 -1.4082799066001002 0.16828731076556322 2.439630231600307 0.36583480594128864 -0.2474455639384369 -0.238116071289496 -0.09116547512312714
-0.2723357097836269 0.2453667429049332 -0.0016312258752137884 -6.861613537369878 -4.525021147078578 -4.158220538824961 4.571150666264583 1.5192189529118942
0.3263966139447059 3.1610817588003997 0.139557190800487 -0.3080515217964491 0.10864866031307924 -0.028973326778443168 0.45924157470155363 -0.04338297136502345
-0.0646442170234146 -1.8550883843271873 0.3101139378053523 -0.935553938418519 0.6413374560535198 -0.6380790029833846 0.1542942453471022 -0.018606838872440926
0.1491164969588642 0.24844603890480402 4.730832042651152 -0.047722310881221364 0.7447614622206128 1.333068834020412 -4.709055557525264 -4.803628501326045
0.2944564995026179 0.07391402741693733 -0.6171041574069731 -0.09510392951711459 1.769703934996291 -0.1533193768031545 -0.09910143641820861 0.36645731302473983
0.9188862481234388 0.2847462812415755 -0.27961079060862953 0.21264898446506758 0.10052392443463935 0.22825914406553086 2.3202330056452514 -0.339661605333314
2.9497785820979376 0.2935832206762808 0.6038839192513222 0.995294310923932 -0.16636625243274106 0.9246729929618017 1.2044945596402015 0.14608479535453978
0.14939023619804181 0.7123371850536783 0.2719399109247215 -0.6606636330218292 0.23650964445052403 -0.2610177288388207 0.13671887731590235 0.6028778853718523
-0.315545169263847 -0.2204931580653412 0.009733317205770978 0.16263684663297887 0.19614354809815907 -0.23571870209511983 0.3074477667702346 0.16521846050013841
-0.06471459659076222 0.2361588040541513 -0.046192106520843594 0.13265046434646333 1.0539563331867094 -0.19715848021943697 0.44904702516925765 -0.28082233205536994
0.04479641281617944 -0.4955105062361803 -0.06353424806886339 0.05036496837537011 0.5062553968811518 -0.441125178206182 0.08708792311996356 -0.14229320634735035
1.0190261612956657 -0.07431680695793562 0.6538091619335911 1.5397521436588668 0.2008011238750777 0.30679205260999287 -0.09220458780947982 0.031229449173358723
00000000: 750e b646 f1ae b1bf 3c3a 728b 478b d0bf
00000010: 8604 69eb 0e4d e0bf bf20 1b5f af8b e4bf
00000020: d265 f878 a433 85bf 47ff ab46 941e 1a40
00000030: 4611 a575 2059 dd3f 7025 5a62 50ea c83f
00000040: 4cd3 200f b913 a83f 4eed 31a3 56a5 c03f
00000050: 7aab cda7 e628 b0bf ace9 ea00 32db d23f
00000060: c61c f395 00b3 b43f 520f 701a 460d c43f
00000070: a423 69d9 1f1a b83f 2657 aaae 494c ecbf
00000080: 6a03 8178 3617 b7bf 302c bf5f 427a ff3f
00000090: dd38 e5d2 4142 bdbf 629f 34ef ed25 f33f
000000a0: 5c22 286a f186 e53f f2c1 4280 4176 c7bf
000000b0: 1e5c ee27 6aa3 c1bf e76d 0170 88c8 803f
000000c0: 01ee 6d95 9c40 d13f ce14 44dd bd90 bf3f
000000d0: 3174 0252 bde2 b63f c66d 103b d142 e1bf
000000e0: 85ab dd0e a97a c53f cadc 36f3 6c9d d2bf
000000f0: 311b 6e35 a5a2 c43f 71e0 07ab cb59 c63f
00000100: 5477 151d 1f32 8a3f d756 e854 10b2 b83f
00000110: 1f05 a8ab a6ee c83f c07c 1603 dd27 b7bf
00000120: 48ff da85 4e8d ca3f 3a37 c504 0979 eb3f
00000130: 3d42 b70e 0c04 cd3f acb8 1ba7 7f6e bf3f
00000140: 96ec d037 c455 1e40 f3c1 0d77 d95d b4bf
00000150: 828e 8460 992c cbbf fa37 bfb4 a880 d03f
00000160: 7223 dcc4 0052 b93f 7be8 4a25 5076 d7bf
00000170: 6f41 7aaf ab75 c4bf a671 fc90 2637 c0bf
00000180: 84f5 385d 0dd4 c0bf 3226 4b1d b83a e63f
00000190: 8aad 566e d377 ca3f ce54 ab5f 522f 0840
000001a0: 54e3 a5bc fa96 c0bf b4dd e80e f076 d03f
000001b0: c554 33f4 c4ee b53f b8c5 c3e1 cad6 eb3f
000001c0: fb6e 0b35 3cbc bd3f be4c e16f ccef bd3f
000001d0: 4467 9631 0b72 abbf 1065 09d4 43e4 c63f
000001e0: 4e92 4fed 3327 cf3f 03d0 a6ab 03f9 c0bf
000001f0: 43d3 f832 cd60 0240 cddc c146 9f79 b73f
00000200: e1bd 17bd a7fa d93f fcc0 7078 a57c d3bf
00000210: ac87 6054 9045 f6bf 233c 6c59 4c38 ce3f
00000220: e862 f851 7c00 ccbf 09a7 98ff 40e0 11c0
00000230: be6d 4f32 af33 f3bf 2422 8e18 02a7 eb3f
00000240: 927a 6089 a672 cdbf 2630 e6d4 9796 c23f
00000250: c61a 196f 6d19 b53f a456 e69d 83d1 e3bf
00000260: ad42 7791 dea2 c03f 29c2 8420 f806 d03f
00000270: 2141 40e0 0a7a fb3f 68bd e895 bac1 b0bf
00000280: 89e9 8037 d00e b93f 1a7a 490a 438e f6bf
00000290: 65aa 0073 1b13 b73f 0a09 877e 59ca 13c0
000002a0: 3c4d 1036 861d fdbf 5d30 5d5f 9e04 f73f
000002b0: bc6f f705 6499 e63f 510d 0f62 7c8c d13f
000002c0: c55c c5cb 4cd8 ce3f a3e9 3bb5 f620 a33f
000002d0: 45f4 4e2b 55b6 0640 6d9b 979d d5b3 ffbf
000002e0: b1ce 674f 6cdb ea3f a1f2 d24d 0790 a1bf
000002f0: f611 4657 c04a f1bf b0e6 0d92 6261 bf3f
00000300: 0a37 fd91 6630 e03f 5cf5 c75a 4bf7 1540
00000310: 38fb de00 8905 a2bf 03df cc38 a1af d1bf
00000320: 28dd 6211 9a4f 02c0 4c49 207e ddae e6bf
00000330: 47ec ad39 6f48 e13f d552 01a1 d361 f2bf
00000340: e8b1 67a0 17c9 00c0 60e4 90f6 4353 d4bf
00000350: 95d0 e85a a011 14c0 59f4 4555 6f0c e23f
00000360: cfd4 6a66 841e d73f 1051 083c 8851 d03f
00000370: de03 cb9a 50be bb3f 4485 9d2b 4dc7 dd3f
00000380: c17d cbbd e6f2 efbf 2c4e b548 7f10 06c0
00000390: 67c4 c405 ff5f 49bf c195 56bc 1d16 f0bf
000003a0: 94c1 e0a6 4e8b db3f 5872 d95d 8706 d2bf
000003b0: 854b 2950 1a0d 14c0 3171 875d 800a 11c0
000003c0: 2833 4d1e 98a9 ed3f 2f20 0dbe 5e17 f93f
000003d0: 59e5 837e 504b f33f 7b57 fc9c a473 dbbf
000003e0: 8dee aba5 55fb fbbf 2423 6b95 32e3 e53f
000003f0: 920e 50b3 72af dabf f959 29fd d70b d8bf
00000400: b27c d881 944e cd3f 02d1 18e9 bcee 13c0
00000410: 6e4f 2964 7845 13c0 6c6d eb2a c1b2 c43f
00000420: db45 51a1 5fc9 cf3f a12c d39c 9fc8 ccbf
00000430: 6aa2 51bf 4ee1 00c0 374c b809 cd7d dabf
00000440: 11ef f0a5 5c90 d0bf 70ae e953 e15c c43f
00000450: 8068 2ba2 2544 cb3f 9233 0a17 09a7 04c0
00000460: 1d8d 3bb5 c337 dcbf 97f1 b10b c9c4 c4bf
00000470: bd31 4d25 ff33 c1bf ebf7 aa3f d4da bf3f
00000480: 7695 0a70 c193 c9bf e26d 68f3 7ce5 0840
00000490: 6bb1 1f2c 7a6b fb3f 2b45 8196 ea05 d63f
000004a0: 2fac d0f8 e252 f83f 4592 c145 eed4 f33f
000004b0: 7679 253a 1945 0040 ab21 53af b395 b2bf
000004c0: 530e 7dbf 707e f3bf c061 e782 5088 f6bf
000004d0: ebf1 0848 708a c53f 2673 d8da 5c84 0340
000004e0: e567 d063 d669 d73f 55f3 53d6 4bac cfbf
000004f0: e591 6b61 967a cebf 1a9a 2dde 9e56 b7bf
00000500: 976e c3c1 f26d d1bf ccbf 266c 2d68 cf3f
00000510: b7e7 5472 dbb9 5abf 912d b3d1 4a72 1bc0
00000520: c3a4 c124 9f19 12c0 1d3c 9f90 04a2 10c0
00000530: adc7 62b8 db48 1240 ea84 6388 b84e f83f
00000540: c5ba 9a9f aee3 d43f 303d b03b e549 0940
00000550: d471 3491 02dd c13f 6a52 e6ba 1db7 d3bf
00000560: f483 cc0a 66d0 bb3f 1102 e10b 2fab 9dbf
00000570: 33a1 13c6 3664 dd3f 10a2 6ef6 4a36 a6bf
00000580: 37b8 fdfd 858c b0bf f8fe 5d28 71ae fdbf
00000590: d718 3a21 e8d8 d33f 64d9 24d0 0ef0 edbf
000005a0: fb63 ee20 d685 e43f 597e 42a8 246b e4bf
000005b0: eb07 ddf0 e9bf c33f f49c c1d1 ab0d 93bf
000005c0: 74bf ddd6 3f16 c33f 395c f56d 14cd cf3f
000005d0: e938 283c 5fec 1240 f07c 0c09 0f6f a8bf
000005e0: a3e0 71fd 15d5 e73f cdf3 56fc 3f54 f53f
000005f0: e478 faa8 12d6 12c0 c050 cd63 ea36 13c0
00000600: 2a56 dd12 60d8 d23f 39ad 789a 07ec b23f
00000610: 183c c937 51bf e3bf b341 ff2a bb58 b8bf
00000620: d595 c612 b550 fc3f 1a38 9b26 f89f c3bf
00000630: d31f 6734 b65e b9bf 0e90 b45f 0974 d73f
00000640: e0e5 0d22 8467 ed3f 98c5 6577 4839 d23f
00000650: 0775 51a8 24e5 d1bf c60c e7f8 1438 cb3f
00000660: db8f e997 efbb b93f c91f 637b 9837 cd3f
00000670: e4c4 7252 d68f 0240 a642 a707 04bd d5bf
00000680: 476a 6483 2599 0740 e15f dd46 11ca d23f
00000690: b378 785e 0453 e33f 4505 6a74 73d9 ef3f
000006a0: 74a8 ad46 7d4b c5bf f77d 08d1 eb96 ed3f
000006b0: 59d5 5d16 9c45 f33f 04cc 3e15 e8b2 c23f
000006c0: 9cf9 6721 381f c33f cbf7 305a 77cb e63f
000006d0: 7686 f9a7 7667 d13f 9887 2f0f 2824 e5bf
000006e0: 6442 0db2 f245 ce3f d87d 42b4 83b4 d0bf
000006f0: 53a8 6811 0180 c13f 75eb 2490 c64a e33f
00000700: 5689 995d e431 d4bf 74f2 70ab 1e39 ccbf
00000710: 829e a4b8 0fef 833f 21e4 b4c0 48d1 c43f
00000720: 6195 3356 3b1b c93f f5ec 46ca 072c cebf
00000730: bf68 e065 39ad d33f 7393 45e6 e025 c53f
00000740: 4b60 eec3 2291 b0bf 4e9b 09a2 733a ce3f
00000750: 2f45 aee5 7da6 a7bf 3c69 15bf b0fa c03f
00000760: 172f e750 01dd f03f 2df5 5534 7d3c c9bf
00000770: 8af4 ddbb 2fbd dc3f 5783 0a3b fef8 d1bf
00000780: 1416 0c30 8eef a63f 8ef6 c6b2 71b6 dfbf
00000790: 5db8 a1cd c743 b0bf 7594 12e8 6fc9 a93f
000007a0: c4e5 a084 3e33 e03f 449d 7519 653b dcbf
000007b0: 2543 ade5 644b b63f 8138 daed a936 c2bf
000007c0: 6b88 4860 ee4d f03f 3f6f 6d1f 6d06 b3bf
000007d0: e28e 0a31 01ec e43f 235f cf24 d3a2 f83f
000007e0: 8691 05ea d9b3 c93f 067d 2822 7ba2 d33f
000007f0: f8d0 2e49 b89a b7bf 0c97 7cdb 9cfa 9f3f

rnn.weight_hh_l0 f8 [256, 64]
-1.2205823630185118 2.1321488066581575 1.4040565955906805 -1.6393168971553056 0.7342336641159257 -0.7268105738801489 0.3367251854653016 -1.26350692519491
-1.4699990098532483 -1.1014165424726943 -1.9320108113537913 0.49751973249170584 -0.940143920817123 -0.16081221112896876 0.049029171868125006 0.8871914619272288
-0.9422695164755506 0.37808377929258624 -0.21285133416015045 2.491929349214782 1.4196950460962083 1.7450429325990495 -0.19251821960418367 -0.2443670815230751
0.17278511044398417 -0.1336205001278608 -0.2030219770409603 -2.3062836983558492 -0.5711990169918691 0.4344718664262383 0.21787976538382037 -0.6215667029124822
-0.5042021200441565 -1.0494248059561389 0.5117817545121258 0.921521306371263 0.5073837088894955 0.09455632061540435 -0.6423808613656223 0.13708531585114705
2.388847766052787 -0.772252447977752 0.08229993613220586 -0.29629691083329407 0.1475056220111656 -0.4201589102679961 1.666701955724099 -1.5623753841639516
-0.5075041690921348 -0.036095837884964684 -0.59483560914772 -0.0039601086808416595 -0.39175563531368196 0.8869597921422513 0.8230415209476526 0.6061541421846696
0.085425585931258 -0.23615694445128466 1.0619484115824704 0.09555010769902111 0.3489283953112257 0.46856036104491156 1.4613164105912968 -0.037297627327524986
0.5081846269963076 0.5995931497402803 -0.14289499125115493 -1.3384858809758542 0.6054702767275584 0.6328949547108803 0.34322484190693053 -0.5221340496777872
-1.0208761467029845 -1.0498906565306791 -0.7645820526306026 -0.6240815660040901 -0.4395751852062569 0.49569582758861636 0.12981939192841843 -0.09491080573125489
0.9478760645228983 -0.22131288923864337 -0.5800707145192333 0.7354295518127122 0.33880713851785194 0.7748635873272411 0.7641416971237676 -0.730785102509569
0.2161780128473713 -0.7761923620453248 -0.3130494894887044 -1.254528064055501 0.02603570542215586 0.1744991024939201 -0.09418370152867579 -0.5345868367391733
-0.23304234679558508 0.10002818360546398 0.0015562124521451006 0.32871422108983556 0.36792916807866854 -0.16499932229627368 0.06195795848117729 0.3676518808140453
0.6242034604548102 -0.6837919391749268 -0.5386664846439958 0.07054243911165783 -0.4644628948869152 0.5799855471883563 0.7235060474093726 0.8801584804795036
0.4886260415611599 1.1073139869643944 -1.5869923369332386 1.1117540637925174 -0.32635498583309136 -0.4459150115065354 0.7885309284354103 0.019005799111631746
-0.30870947777165375 -0.6951880809068739 -0.06916705314852511 0.23341109152886175 -0.7741755315271609 2.1096853991755204 0.5058406205755784 0.23754527014401838
-0.5842924578768055 -0.1658818925474252 1.246885653646072 0.12942555198138017 0.373030754102324 -0.07381191470176499 -0.42177693168978897 -0.2862736902423075
-0.27286683277173057 -1.7891757808990316 -0.7144666128777192 -0.06912726043398647 -0.3044632458321864 -0.03580446310385117 0.5489339474910828 0.27800990720861746
-0.34884929634663725 0.40232108876976 0.3780094560424502 0.4185039742717966 0.13420698662071437 0.34504124626708427 1.1340216932394322 -0.7070606212146808
-0.35742387108728857 -0.7644639167066649 -0.31013981770461285 -0.21795770487947122 -0.49337567441406865 -0.003249909679477965 -0.7440438051908085 0.029054999576636372
-0.595209569787765 0.534485640105543 0.3035989640173224 0.25762850813624055 -0.30396406391903275 0.6885377431491303 -0.47362360099851836 0.6423678672941481
0.3086617290971236 0.48023682180349186 0.37984348646942545 -0.1895298041633755 -0.5032183247129373 0.6691792608309138 0.15760224114420252 -0.045088932136758915
-0.5539508268423332 0.12113096487965064 0.41344109737295703 0.2248311292527663 -0.2779618369346933 -0.8389344433520627 1.0394939624373485 0.04107088809471353
-0.9820132412322138 -0.6530128029015291 -0.5241713932566114 -0.626301852717469 0.4002986548260791 0.8042489845110576 -0.318648534146503 -0.821482503986997
-0.2090874143920647 0.2866574997678105 0.09104059479990621 -0.12189143413775842 -0.47238695534122355 -0.07112705625854053 0.27456906502035744 0.5453964564644981
-0.016585715713684314 0.7727758012001663 -0.15535554262775272 -0.610651820037616 -0.032931911367677515 0.06716302450645843 -0.18632297931555625 0.6034179074341881
0.25884399058453283 -1.3989284302458955 0.3860223040628163 0.2526922539980488 0.19153456993481033 -0.4853859960714332 0.5269234719685846 0.4524012798575447
1.8118389073516339 0.5365554745439163 0.3307375369625948 1.2690609221093714 0.03866893480477041 0.4422226292624989 0.050306627119105905 0.2199138823529344
0.5692637616839715 0.9599187596766662 1.1254281795709478 -0.6762305558691954 -0.22414518591765392 -1.1435391753964854 -0.07028984792275224 0.15585657651827511
0.13728124008877643 -0.38523776559618916 -0.3032168818222341 0.33871842166068117 -0.10071418073505319 -0.1812259650376886 -0.35923772323048725 0.3022610091915265
-0.3059985812382853 0.045295732974320525 -1.611178856149967 -0.14235172851987804 0.24877873704231362 -0.37411458370050726 0.04977813330364691 -0.9820406095662761
0.1870464976022519 0.33648730122364806 2.0456618664105686 1.2441943890188119 -1.1172023714819104 -0.5517288944623294 -0.0230433681809616 0.45802321748007
00000000: 91d2 335f 8187 f3bf ef6a 9608 a40e 0140
00000010: 9cb8 7c0c 0477 f63f e8fe d05a a43a fabf
00000020: 3a01 e098 d77e e73f ae78 a63f 0842 e7bf
00000030: 4608 d4ca e78c d53f deb4 9f09 5337 f4bf
00000040: a78d 87ae 1d85 f7bf 0e19 d3f3 669f f1bf
00000050: 0087 242b 84e9 febf ada8 0a01 5dd7 df3f
00000060: 102b 2eb4 a815 eebf ca55 cc99 7e95 c4bf
00000070: 7976 7203 5a1a a93f 7292 4859 df63 ec3f
00000080: 96f7 a866 1227 eebf 616c cd4e 8632 d83f
00000090: 345c 9067 b63e cbbf 778f 96a7 78ef 0340
000000a0: 3f6c 1427 12b7 f63f c50f 5a23 b2eb fb3f
000000b0: 47c4 8ae0 6fa4 c8bf 4527 aea7 6b47 cfbf
000000c0: 49dc 4b8f d21d c63f eae9 0fff 791a c1bf
000000d0: d24d e1c7 9ffc c9bf f2e3 1dde 4473 02c0
000000e0: ff98 2f29 4347 e2bf 2b4c 5516 63ce db3f
000000f0: 044f 64f1 7be3 cb3f 4555 a9da dfe3 e3bf
00000100: 8b3b 057c 6c22 e0bf 8e15 53aa 71ca f0bf
00000110: e935 4a21 8460 e03f 11d1 2d40 1a7d ed3f
00000120: a083 86c2 7c3c e03f 435a acd0 d734 b83f
00000130: 7688 e44e 628e e4bf 45d7 2bfa 028c c13f
00000140: 178e b237 5c1c 0340 9b40 0ac4 4ab6 e8bf
00000150: 1f95 26ce 9b11 b53f 31d4 7b51 87f6 d2bf
00000160: d5cd 41d7 76e1 c23f b456 ae32 e2e3 dabf
00000170: 593a 80ab cfaa fa3f 28f4 b054 7dff f8bf
00000180: 2fb3 1a62 793d e0bf 19ac 7956 277b a2bf
00000190: 6c24 f9af e408 e3bf 2a79 5d94 7938 70bf
000001a0: b88a 6c3a 8612 d9bf 0fc6 8380 f961 ec3f
000001b0: 6d0c f72b 5b56 ea3f 3194 205f 9d65 e33f
000001c0: fdfe d081 73de b53f 841e 9208 643a cebf
000001d0: e092 1c9e bdfd f03f a452 b2cb f875 b83f
000001e0: 757a a0c3 d754 d63f 43f3 b898 e4fc dd3f
000001f0: 4b90 0951 8d61 f73f a523 2eb3 ac18 a3bf
00000200: 63ee 2868 0c43 e03f c948 21f9 dd2f e33f
00000210: 1dcc 1711 624a c2bf 472f cf2b 706a f5bf
00000220: 7ed6 a733 0360 e33f 172c 89eb ac40 e43f
00000230: f78f ca53 65f7 d53f f5cf 6f77 52b5 e0bf
00000240: 6db1 f539 8255 f0bf c4cd 2225 5acc f0bf
00000250: 0e06 e5c7 7477 e8bf e0c4 80e7 79f8 e3bf
00000260: 5d04 26f5 ff21 dcbf c96e 10fe 7ab9 df3f
00000270: 8d0d 5cfd eb9d c03f 911a a716 134c b8bf
00000280: 622f 392f 0055 ee3f 914b bb12 fb53 ccbf
00000290: 5947 8775 f08f e2bf 6b85 318e a388 e73f
000002a0: 1879 e522 04af d53f d2d0 cdb8 aecb e83f
000002b0: 3402 d549 d973 e83f e9d7 7570 9762 e7bf
000002c0: dd98 a59b b8ab cb3f 1c78 4c5d 91d6 e8bf
000002d0: f58a d8b9 0009 d4bf 6885 f004 8c12 f4bf
000002e0: 490b 449d 1aa9 9a3f 4445 3291 fc55 c63f
000002f0: 65c3 e14d 6c1c b8bf c256 95da 551b e1bf
00000300: f7f9 08e5 54d4 cdbf 3285 4371 729b b93f
00000310: 0118 9b65 3a7f 593f b9e6 535f a709 d53f
00000320: 911c 09c8 268c d73f d4f4 8fa2 b21e c5bf
00000330: 57a2 ce1a f4b8 af3f 9230 1ac1 9b87 d73f
00000340: 9382 1689 79f9 e33f 9aca 00a2 9fe1 e5bf
00000350: 75e9 df7e c13c e1bf c2f2 f6bc 110f b23f
00000360: 95aa ef93 c2b9 ddbf f573 aad9 3d8f e23f
00000370: 7e9b 8227 f626 e73f d59b 1e1e 422a ec3f
00000380: e1a9 1e29 a645 df3f a9a5 06df 8eb7 f13f
00000390: 0e18 a213 5264 f9bf 80f1 12a1 bec9 f13f
000003a0: f789 c205 00e3 d4bf 7dd3 cd1d df89 dcbf
000003b0: a277 b036 a53b e93f cfa7 7996 4176 933f
000003c0: c1a5 bf65 e5c1 d3bf 7f0c 0213 fb3e e6bf
000003d0: d0cd 3b97 eeb4 b1bf 94ef 5126 6ae0 cd3f
000003e0: ebb8 a8c3 0bc6 e8bf e575 12bd a2e0 0040
000003f0: d788 4bab d82f e03f 0845 4b27 e267 ce3f
00000400: b92b bc18 86b2 e2bf 06b1 be2b 9e3b c5bf
00000410: f32e 045f 3ef3 f33f 646d 8338 0491 c03f
00000420: 8663 5162 bcdf d73f 3a00 b36f 56e5 b2bf
00000430: d326 f4ab 64fe dabf c3f0 52e2 4e52 d2bf
00000440: 55bb ba72 a676 d1bf 0b1b 9cc8 76a0 fcbf
00000450: 2999 0c16 e9dc e6bf cb77 d3fa 52b2 b1bf
00000460: 5aba eb68 537c d3bf 1aec 296c f654 a2bf
00000470: a06d 04ed dd90 e13f 4f33 db10 eaca d13f
00000480: 9da6 c2ff 8b53 d6bf 7e76 b0f3 a0bf d93f
00000490: 1afd d192 4e31 d83f bb93 afe4 c4c8 da3f
000004a0: 7320 37cd b12d c13f d13e 1fe1 2715 d63f
000004b0: beaf 56ee f324 f23f 0802 8d98 3da0 e6bf
000004c0: c44b 485f 08e0 d6bf 2c45 2708 7d76 e8bf
000004d0: 40a3 8ead 54d9 d3bf 992c 2fbf 09e6 cbbf
000004e0: 0b06 9090 7793 dfbf 76d9 39f9 8d9f 6abf
000004f0: d6bf 42f4 34cf e7bf 5f27 de03 98c0 9d3f
00000500: 5726 90f0 f40b e3bf f9ea 0da1 811a e13f
00000510: c772 6359 2a6e d33f 5798 3d48 fc7c d03f
00000520: 8641 6cb0 2574 d3bf a363 1c4e 8008 e63f
00000530: bfc0 395d d94f debf c3f2 c00e 478e e43f
00000540: ebee ff1f 1dc1 d33f 55c8 fe38 33bc de3f
00000550: fa06 ff0d 5b4f d83f a8de 3f3b 8342 c8bf
00000560: ab7a ec50 5d1a e0bf 6fc4 0da0 ea69 e53f
00000570: cccd be6b 4f2c c43f 21bd e081 e515 a7bf
00000580: cc28 9c15 f7b9 e1bf f4e6 b05c 7002 bf3f
00000590: 4982 02a6 d175 da3f 71b6 a135 44c7 cc3f
000005a0: fdea ca71 20ca d1bf 20ec b50b 8dd8 eabf
000005b0: 03ed d06b c4a1 f03f e672 5e52 3e07 a53f
000005c0: 269a 6a08 a76c efbf 839a 0a1b 7be5 e4bf
000005d0: 1a26 f115 03c6 e0bf 4910 db2e aa0a e4bf
000005e0: 6317 c73f 7e9e d93f 561e ca5d 68bc e93f
000005f0: e7f6 44d2 bc64 d4bf eb87 1bad 9549 eabf
00000600: d9d8 685b 60c3 cabf d6f9 a9b2 9858 d23f
00000610: df23 46b9 6f4e b73f 03c2 48eb 4634 bfbf
00000620: 26d8 0f7f 963b debf 37be 7dfc 6135 b2bf
00000630: ed5d b020 8a92 d13f 5dd1 fb44 e373 e13f
00000640: 6abb 488a d8fb 90bf eb6f 2951 94ba e83f
00000650: 0355 6bbf b0e2 c3bf f5bd 89af 758a e3bf
00000660: d54c a394 73dc a0bf 9b74 c191 9831 b13f
00000670: 1ea9 536f 6ed9 c7bf dc04 4812 334f e33f
00000680: a9e8 9462 e690 d03f a09c 15c7 0262 f6bf
00000690: bf7c dee4 96b4 d83f fdf1 b721 1c2c d03f
000006a0: 2033 f66c 3484 c83f 4e0b c46c 9010 dfbf
000006b0: eb31 f39c 8edc e03f 5707 6a7f 24f4 dc3f
000006c0: 5921 4bcb 4afd fc3f fafc f462 762b e13f
000006d0: 8617 34c6 cd2a d53f 2f76 51d3 124e f43f
000006e0: 411d b724 6acc a33f bcf2 8e24 604d dc3f
000006f0: fb4b 7f4c cac1 a93f 1435 525a 2326 cc3f
00000700: 0a61 e7a2 6837 e23f ed19 f48b a7b7 ee3f
00000710: 8810 94fa c001 f23f 7873 4043 aea3 e5bf
00000720: a63c 8919 cab0 ccbf 085d 00bc ef4b f2bf
00000730: 3dac 11f6 83fe b1bf 089a 81b9 1bf3 c33f
00000740: 298f 4482 6e92 c13f 20dd 1a4d bca7 d8bf
00000750: c561 c1c7 e767 d3bf 9976 e507 90ad d53f
00000760: e51f 8090 67c8 b9bf c7ee 8294 6932 c7bf
00000770: 9fec 3038 c0fd d6bf 1359 558f 3e58 d33f
00000780: 099d c212 7b95 d3bf edcd 8b97 0031 a73f
00000790: 95bb f27a 63c7 f9bf 26cf 42d9 9438 c2bf
000007a0: d2b9 c44d fbd7 cf3f 43d2 7c4b 7ef1 d7bf
000007b0: e3af 30fd 847c a93f 40cb ad6d e06c efbf
000007c0: d039 04bf 23f1 c73f 7597 9108 0289 d53f
000007d0: ff42 f7f7 835d 0040 6f3d 2b60 38e8 f33f
000007e0: 8674 0898 0fe0 f1bf 852a bf5a c3a7 e1bf
000007f0: f45c e842 ae98 97bf 9cad f89c 4050 dd3f

rnn.bias_ih_l0 f8 [256]
-0.3435524752262686 -0.2578461893621536 0.2099477643460594 -0.7755279764868064 -1.2605466550898705 -0.22032810125467564 -0.6411230125531653 0.2703523042184103
-1.5839551119384732 -3.7210880381840625 -0.41017723781831733 -0.4584097617867746 -1.9134004821570645 -1.773367175830261 -0.9861629977992223 -0.04599655545108028
1.4006022902006299 -0.379103195209192 1.4960381289264928 -0.8946487469226797 -0.5188172082202969 -0.38960577507513533 1.4610437941840182 -1.1194498404113495
0.21096692436814216 0.0112264617246122 -0.8101246143474589 -0.14199391540711684 -0.014397116358968946 -0.047338438122270336 -0.7003247868259354 -0.24718508718338528
-0.5876384175747801 -0.5317731381056998 0.43854264589191744 0.07094677004395568 0.24685387351020413 1.0838315041874755 0.40484508350771925 -0.2360848479577659
-0.5928671932874905 0.2920545049216784 -0.9405459334648816 -0.593624480554695 -2.289089312127975 -0.9406381448365767 0.4623011177093255 0.11934937140483683
-0.36480402088905034 -0.3291180060293898 -0.8742826309632415 -0.21778416148514845 -0.6047566788713735 -0.4372791065200342 -1.3931340809837909 0.8461228647505208
-2.135692208611815 0.029464457914962543 -0.6893381774101338 -0.35248477369601056 0.30288464089340933 2.064930895830946 -0.059415994142389496 -0.7795653471082763
0.19824485753712776 -0.24771484035008237 0.26585426817993074 -0.30817547131437134 -0.776661619434041 0.3501724955416793 -1.1014169417238007 0.10667369155411292
0.1118930752983566 0.23745222014373205 0.15114403915176075 -0.009696747503053995 0.07923381316679963 1.271792621871261 0.12815025619483777 0.865391390471425
-0.5054600600672784 0.13526926341078202 0.19575866653593463 -0.42069756115087936 -0.361818852919188 0.03637963185186106 0.1746656038542497 -0.7147201978247903
-0.11012575948325311 -0.4707822376995953 0.27821796892598183 -0.04470785514259624 0.7069158840451369 0.43978657899882 0.10017966890562513 0.26963860202716133
0.45463413693536836 -0.5907452727828904 -0.6655611750167674 0.2720253145232408 -0.4440733077868742 0.10844910784270191 -0.18776055484044737 0.080040048556718
0.1566460907340496 0.03214315057840317 0.18721439263138728 0.701871369039763 0.29994655609097703 0.9608388910279047 0.35704172548067514 0.14937703895103516
-0.2476950805150372 0.44018269717075814 -0.1120643096757656 -0.66303739016475 0.5537566316505411 0.07523325303367286 -0.030804416012533996 -0.1681565846706253
0.265385215185882 0.5366745668258485 0.11373586996381259 0.10274955848491792 -0.31900623006899775 -0.005086980208592794 -0.5275968407914272 -0.9986053824322406
-0.640555812696839 -0.3152886662843463 0.8135647075687784 0.3512872996233701 -0.6106757315176574 0.7393433820574853 -0.5408067827409333 -0.2438266677875106
1.045773585423793 -1.4789087848790397 -0.6884001753078911 0.10090801921753371 -0.14528485015904 0.45704775060358216 0.9404250121484385 -0.06076078889206733
0.12427100591739894 0.17234978919488114 -0.1706072205543052 -0.6054779601275998 0.22069643120466703 0.7932908703242996 0.13861314118930873 0.517326626016979
-0.9821638585374525 -0.24768836100796487 -0.5088330547035168 -0.44584569263141544 -0.6766405278533034 -0.5268302496001346 -0.19625108744848702 1.6599698803789114
0.2544988317819194 -0.566838046553723 -0.8335302309353095 0.7267705883359915 0.20065782635634774 0.8319934064028638 -0.9520392377642215 0.04351439977306768
-1.1185859370627156 0.1582279827237861 0.4548428637847523 0.30412439478497616 -1.0953290614144262 0.29392565425703415 0.2364746361717259 -0.4929399890905959
0.5774789136495758 -0.40954973508358156 0.11246488386635088 0.40806190701931494 -0.6646701602617179 0.01651400534998469 -0.051567718145209926 0.8358094666871299
-0.8834343936515099 -0.3109943354908693 0.040047957784276805 -0.7953206452703908 0.7785611074690333 0.448751079454769 -0.39225165253543304 0.08164807714301153
-0.5545863048841662 -0.14853317083444903 -0.11546813375291418 -0.17978555152572373 -0.6974066547739983 0.4559155204800023 -0.41443293068138903 -1.0563030898907253
-0.3221817865916803 0.0060532912728856565 0.6900078502820368 -0.0349887461874372 -1.645066519145102 -0.19750416830776957 -0.22922728196914466 -1.4180793383366297
-0.6881966516231953 -0.2598334797959841 -0.252238364252964 -0.4344774922414462 -0.4993465004995029 -0.9484916731016353 -0.08884788539149376 -1.5389602951618317
-0.6087679082228402 -0.28667712100495757 -0.2905960411635239 -0.3244497121393126 -0.15280447015779725 -0.49574817362157586 -1.5400289919482812 0.3728565265532267
-1.2212499472815475 -0.09008000160653261 -0.25299547220705243 0.3324900245695316 -0.09776770525440169 0.17879842081916594 0.13360133117442036 -0.7060539033780171
-1.657158132826333 0.35339181860896635 -0.0702807048523288 -0.6295057260630452 0.4882076415533956 -0.8553230334326334 -0.9212584351740929 -0.7675522393422709
0.38310294130123995 -0.3753474910828329 0.614902743690529 -0.27252282398117283 -0.11401982638226828 -0.6079628381525076 -1.963640116020987 -1.0079086542131117
-0.23704508040351768 -0.47849512232825314 -0.3124166067636511 0.8863877407187136 0.6890633452498826 -0.6405235123247819 1.1350826697932326 -0.5882559265617212
00000000: 8ba0 6385 c3fc d5bf e55a ad4d 8d80 d0bf
00000010: af08 de7e 91df ca3f c09a 040c 20d1 e8bf
00000020: 4a17 2bf8 322b f4bf 71a9 a312 b633 ccbf
00000030: 7a1f 7468 1484 e4bf 4e0b 41c0 734d d13f
00000040: 64b9 c150 e157 f9bf 7d4c 2cce c9c4 0dc0
00000050: 0592 7f07 5840 dabf 70a5 c2e5 9556 ddbf
00000060: 5b3e f0d2 499d febf 88da 7f42 b65f fcbf
00000070: da55 02b4 a58e efbf 7036 c84a dc8c a7bf
00000080: 9cd4 71f2 dd68 f63f a6e2 4e0c 3a43 d8bf
00000090: dfee 54ad c5ef f73f db16 ae68 f6a0 ecbf
000000a0: f40f bd8b 269a e0bf b3f2 910f 4def d8bf
000000b0: b0b4 2075 6f60 f73f 4344 613c 44e9 f1bf
000000c0: c574 59d4 f600 cb3f 52f2 a72f e6fd 863f
000000d0: 85d2 8974 8aec e9bf 89c8 734b db2c c2bf
000000e0: 1c0b 593f 3c7c 8dbf bf61 2867 be3c a8bf
000000f0: a9db ff86 0f69 e6bf 6c7a c1cc c2a3 cfbf
00000100: 7f6b 2b15 efcd e2bf cac4 a119 4904 e1bf
00000110: 3b74 802c 1511 dc3f b17a 1849 9129 b23f
00000120: f701 cf60 e898 cf3f 4fc1 0db4 5f57 f13f
00000130: b72b 675a fbe8 d93f 76a5 873e 0738 cebf
00000140: 8c50 c19e c4f8 e2bf e66f d260 05b1 d23f
00000150: 38c2 13c9 f318 eebf 01cc 42c4 f8fe e2bf
00000160: cbb3 a90e 0e50 02c0 c32e ae2a b519 eebf
00000170: a9cf 5d6d 5796 dd3f e15f fb2e ae8d be3f
00000180: c7bc caf6 f258 d7bf 02f1 1af8 4410 d5bf
00000190: af55 6e91 1ffa ebbf f42e 95f5 59e0 cbbf
000001a0: b148 b9ad 2a5a e3bf c691 6e81 61fc dbbf
000001b0: 5b4b 4cf6 464a f6bf cc0a 1042 7013 eb3f
000001c0: 617a f2cb e515 01c0 be78 8e4c ee2b 9e3f
000001d0: 6f8b fbef 0e0f e6bf 5b30 d74b 1c8f d6bf
000001e0: f343 c642 7662 d33f 4cc0 507d fa84 0040
000001f0: 1ddb 66ef c56b aebf 1199 dd06 33f2 e8bf
00000200: 2d6f dc65 1660 c93f a7cb 04b1 1eb5 cfbf
00000210: a06d d59e c103 d13f 0760 ae9c 25b9 d3bf
00000220: 22e2 f077 69da e8bf 9eda 13e6 3969 d63f
00000230: cc6c ff5e 679f f1bf a389 9190 f74e bb3f
00000240: 9a28 0e4b 06a5 bc3f 45a1 f097 d564 ce3f
00000250: 2b32 9218 b058 c33f e1b9 396b e3db 83bf
00000260: 65ed 49cc aa48 b43f d5b2 6338 4359 f43f
00000270: 4859 aa43 3a67 c03f 5212 0a49 49b1 eb3f
00000280: 7f8a 6d93 ba2c e0bf bb6c 40d3 8050 c13f
00000290: a317 57b7 9e0e c93f 6399 a976 b5ec dabf
000002a0: 2e4e 1743 0a28 d7bf aaa9 16e2 59a0 a23f
000002b0: cd21 2548 715b c63f 0a57 6ee4 fcde e6bf
000002c0: f97f 6da7 3331 bcbf 0747 9dd2 4b21 debf
000002d0: b095 6cbd 52ce d13f 516b 6caf f2e3 a6bf
000002e0: b7e5 5f0f 0e9f e63f fc41 819b 7625 dc3f
000002f0: 107c acf1 5fa5 b93f 4588 5c44 c241 d13f
00000300: 0016 72c7 b918 dd3f c6cf 5ba1 62e7 e2bf
00000310: 2ee6 05f3 464c e5bf 85ee 63dd dc68 d13f
00000320: 9927 7e73 b26b dcbf f1fb 761b 52c3 bb3f
00000330: 635f 42b1 8908 c8bf f9dd eb2e 817d b43f
00000340: f5de 5fa6 fa0c c43f 489e 0c29 1175 a03f
00000350: ac9d d826 a4f6 c73f f1c8 00f2 ba75 e63f
00000360: 4f59 3d0a 5332 d33f 8012 b633 31bf ee3f
00000370: 5ecd 8f89 c5d9 d63f b0b4 886c c91e c33f
00000380: 1499 18ef 78b4 cfbf 3943 270c f42b dc3f
00000390: dd31 1b21 3fb0 bcbf a50c 5930 9a37 e5bf
000003a0: ec3a dcd3 5fb8 e13f f5ef 5989 7c42 b33f
000003b0: 7685 625d 318b 9fbf db39 e2ab 2786 c5bf
000003c0: a42d 0445 12fc d03f 6395 2324 702c e13f
000003d0: 596e e041 cb1d bd3f 7504 5f89 cb4d ba3f
000003e0: 5476 571b 996a d4bf 98d3 19da 15d6 74bf
000003f0: d581 15c5 12e2 e0bf 55fe 6446 93f4 efbf
00000400: c375 59e7 6e7f e4bf 0b68 9f83 b02d d4bf
00000410: b201 86da b808 ea3f 557b d8b9 7d7b d63f
00000420: ee88 ead4 a78a e3bf 0a6e ce73 b3a8 e73f
00000430: 2079 aa06 4a4e e1bf 341f 0556 b635 cfbf
00000440: 56a7 4615 7dbb f03f 4429 0d42 9ca9 f7bf
00000450: 0542 f0cd 5f07 e6bf bb85 71a2 1bd5 b93f
00000460: 77c7 04a8 b198 c2bf 4060 6335 4540 dd3f
00000470: 0493 f031 f617 ee3f 7a57 57c2 091c afbf
00000480: a999 4182 39d0 bf3f d241 08d2 8e0f c63f
00000490: 6700 5f18 75d6 c5bf 754c a650 1360 e3bf
000004a0: 4619 2fd9 c73f cc3f 8843 0889 a362 e93f
000004b0: c619 1a4e 13be c13f 6df9 8291 f08d e03f
000004c0: af68 77e6 e26d efbf bc84 1091 40b4 cfbf
000004d0: 8b69 2242 5c48 e0bf 7d85 3a5f bc88 dcbf
000004e0: 52e6 4809 0aa7 e5bf 5f6f 921c cbdb e0bf
000004f0: e6a5 3271 c11e c9bf c828 c993 3c8f fa3f
00000500: 3be8 d777 b549 d03f de74 028b 8923 e2bf
00000510: ff05 4397 47ac eabf df20 9364 b441 e73f
00000520: eb87 f1d8 27af c93f 2e9d dfa2 b09f ea3f
00000530: 5e98 d6fd 1a77 eebf cd5c dcf7 8447 a63f
00000540: b332 175e bae5 f1bf e32b 8e85 d040 c43f
00000550: 4f91 313e 251c dd3f e11a 612a c676 d33f
00000560: 2522 12c4 7786 f1bf c151 1f8c adcf d23f
00000570: b374 5806 cd44 ce3f a038 022b 548c dfbf
00000580: 2925 080f b57a e23f 9d3e 9117 1036 dabf
00000590: bf87 27a6 7fca bc3f e30b 59b0 af1d da3f
000005a0: e16f 1e5b fa44 e5bf 5bda 9d23 0ce9 903f
000005b0: 4611 ed7d 1567 aabf 3678 a37e f3be ea3f
000005c0: 68a2 9c34 1845 ecbf 982b 0bc9 54e7 d3bf
000005d0: 4cfd e879 2a81 a43f 65a3 2848 4473 e9bf
000005e0: 968b d0fb f8e9 e83f 3663 9372 56b8 dc3f
000005f0: d643 dcac a61a d9bf 044b 1c6d e3e6 b43f
00000600: ee2e 49c7 2bbf e1bf 3775 8d8b 2203 c3bf
00000610: 6eec 32d2 518f bdbf c453 0c84 3603 c7bf
00000620: f68b c8c2 2751 e6bf d0d3 8c4a b82d dd3f
00000630: 395e eab2 1186 dabf 1ee9 9b11 9ee6 f0bf
00000640: b0cc 315b a09e d4bf eba4 cd00 56cb 783f
00000650: 443a de57 8b14 e63f e1c7 3481 0bea a1bf
00000660: 7890 3745 3152 fabf 764f da0b d147 c9bf
00000670: fc47 b4cf 5157 cdbf 55a0 d4f5 73b0 f6bf
00000680: cb06 fefb b405 e6bf d54b 889a 1ca1 d0bf
00000690: 40d5 5061 ac24 d0bf 539b 01af 7ace dbbf
000006a0: 4a1d 4106 4bf5 dfbf befe 8f35 0b5a eebf
000006b0: bd41 132a bcbe b6bf 4e00 99d4 949f f8bf
000006c0: 577c 15d6 067b e3bf 1693 cefe ea58 d2bf
000006d0: ee3d 4923 2099 d2bf 0470 b5b9 c8c3 d4bf
000006e0: 0e53 01cd 188f c3bf d468 308c 56ba dfbf
000006f0: 98f4 b470 f5a3 f8bf 655c e99e e1dc d73f
00000700: 370e 7d62 3d8a f3bf 9f76 eca4 7b0f b7bf
00000710: 6095 caeb 1331 d0bf 966e 713d 8447 d53f
00000720: ff30 ace8 4d07 b9bf 6754 ffdc dde2 c63f
00000730: 4e50 0c32 d919 c13f 6418 075b fe97 e6bf
00000740: e4a1 0c3f b883 fabf cb5d e6b7 f89d d63f
00000750: bd6d e190 eafd b1bf 88bc 4231 e924 e4bf
00000760: 9443 8843 cb3e df3f 447a 0369 ce5e ebbf
00000770: 6694 47f8 f27a edbf b24a beb6 c98f e8bf
00000780: 95f9 f832 c284 d83f e387 b57b b105 d8bf
00000790: 44e3 cb84 48ad e33f b569 1a92 0371 d1bf
000007a0: 014e 6841 6730 bdbf 2d8c 617b 6e74 e3bf
000007b0: d3c7 f6e5 116b ffbf 0436 33d3 6420 f0bf
000007c0: dc61 0142 7e57 cebf e380 6c01 aa9f debf
000007d0: 37bd 3139 a2fe d3bf 5dca bed2 495d ec3f
000007e0: 2d0f 9792 ce0c e63f b220 382a 2b7f e4bf
000007f0: f64a 1072 4c29 f23f 3b58 c817 fed2 e2bf

rnn.bias_hh_l0 f8 [256]
-0.320641299140793 -0.19314975820217745 0.2495999330968156 -0.8565849736667941 -1.2054295099091688 -0.20581654582140455 -0.5800504990920474 0.2437661292535029
-1.531103956538188 -3.758415879108308 -0.3395249466396153 -0.4629475677016507 -1.9441948642523974 -1.779322305692094 -0.9676893130114752 0.1513589533532461
1.5841225327724475 -0.36059885873285974 1.3643397589466548 -0.8669134838134711 -0.6659694532649801 -0.3918801244069939 1.5918505084803685 -1.1175893410293294
0.28824553841233214 0.14686650176462407 -0.8790437365665424 -0.06684122022813001 -0.07661381548234952 -0.08116543003797548 -0.5507997106750331 -0.3425631731542624
-0.604079226347819 -0.4940690130589493 0.36506478162647343 0.2530434003787963 0.17324040867789722 1.145932227573315 0.22355368212146615 -0.1979386203595776
-0.5664478517233043 0.17921418028139688 -1.042884783963091 -0.4619279136153535 -2.3133238156355858 -1.0395705302812355 0.32576639705004445 0.11669696471233208
-0.5063894156291593 -0.3253590391066284 -0.9290247437190222 -0.16146109513135748 -0.7279242681782254 -0.42086179687819736 -1.3061119999663178 0.792861629394182
-2.1204272653697367 -0.04683415146099047 -0.7569944262180508 -0.37845386177355417 0.42878382166331486 2.0077273198622065 -0.06215885088334196 -0.8034629800647811
0.18491304193673427 -0.11040576594822683 0.18052185963251122 -0.33315649319548063 -0.7699936776253407 0.3709430006123654 -1.2241101972675204 0.15366867570403858
0.15865162272362712 0.28375659507696965 0.20430566024550947 -0.01873738630749065 0.15095547127741774 1.2996443226540222 0.044543670334591494 1.0690020193147285
-0.6368750546647037 0.2859235942604256 0.22584181620748886 -0.4826363089145154 -0.19795607318267872 -0.04733610501413877 0.0935036875983044 -0.6494897984546057
-0.01456431472388058 -0.460054891756146 0.45046053586915163 -0.040529807962420554 0.7508193093810145 0.28807700751806464 -0.08179416095983072 0.3310428600399278
0.3196059087716552 -0.7142786557947136 -0.6827444937509342 0.40915637965349877 -0.4169562193497903 0.05825451655890381 -0.28391777782666555 0.02607163389245297
0.14047463535074847 -0.004277611960505782 0.16610938629422214 0.7688066996691058 0.16859493613208892 1.1065351138100579 0.29229612048876213 0.27336024331580344
-0.16551125752557036 0.3112560176787522 -0.05822863455540258 -0.6176913685125389 0.7393473458667785 0.16303926924040152 -0.24450304157711442 -0.2975502367521116
0.24741751422762812 0.5670978653039785 0.23009015663449042 0.07950790444648786 -0.2911621586807484 0.007202588573259617 -0.4842839931771277 -0.9240575253861124
-0.805242090205561 -0.30478397349145686 0.7214352088485991 0.30749225043284584 -0.43016930840193307 0.5857575755684993 -0.4678679232781936 -0.40305982065387697
1.1659145998805456 -1.4583414869435547 -0.668081577752735 0.1498032441464 -0.2823091931727937 0.3618402680272101 0.9803473538528146 -0.1547810810549656
0.02435395174106454 0.1954995328710722 -0.3941603267430646 -0.7523836356580342 0.18313049952684818 0.9912438709890182 0.01413281918595757 0.4586864738010095
-1.1274506719158444 -0.24392586251000323 -0.7035737375438871 -0.5059729062287134 -0.7889433974116307 -0.43887583272907477 -0.1951415767883157 1.6250524959928485
0.19254418447928884 -0.6750599947005512 -0.7926172302324583 0.7009216036176645 0.1900030490679108 0.7692295515415908 -1.0601272393730905 0.030650435930672716
-1.181169994513032 0.1806014802099005 0.49730306695553417 0.2403737552271363 -1.0223183336512747 0.2396098041183669 0.24568197426643182 -0.5297517133957556
0.6198496949520326 -0.2565668891811542 0.041981542053269524 0.27662627431363346 -0.8729239164272246 0.014071749733796988 -0.06100892996486234 0.6511302714022846
-0.724008866794147 -0.36405722149055425 -0.12914322387542382 -0.8301003429270228 0.6706424128536768 0.48260556401287397 -0.3725929827060669 0.12769075788336515
-0.37449455128211717 -0.37274194301691665 -0.1294557196551274 -0.20655502567447723 -0.6066641859400759 0.24578219144612748 -0.4304958162042322 -1.084761819277055
-0.3347201004573381 0.17131111772037746 0.7384888080285392 -0.1900710613939622 -1.5682417050639075 -0.2510215546250196 -0.24771202341849494 -1.3618897267824794
-0.7129800990080256 -0.3139720061164427 -0.21913538995734555 -0.553982554940761 -0.3793470470740815 -0.9912165954010151 -0.12881725516058032 -1.59434919281921
-0.637607526190448 -0.30363204964150864 -0.12634338744553114 -0.23190500746362852 0.011272424363912383 -0.5142960959943931 -1.6017641004430447 0.47566115754801425
-1.1408055070359266 0.0292896989445064 -0.29035813714502456 0.1552833592920309 -0.17240034990772218 0.3196764872397009 0.09729840701822957 -0.6828695145020515
-1.5589605236401451 0.1407000496050954 -0.06417571401237095 -0.6464958214400124 0.4614018979783 -0.8294413853689752 -0.7686449443541588 -0.7917133397298416
0.21040660419739055 -0.3548708816143778 0.5621414869957237 -0.3050184418476849 -0.02778857979164985 -0.5894464913402554 -2.170909695193123 -1.0716048598291172
-0.1889619985620484 -0.37651647759959006 -0.27564134559993564 1.014693831550467 0.679282103832953 -0.6306183528513614 1.0344580637799503 -0.5176521237615525
00000000: 4ca0 6315 6385 d4bf 5eb5 5a9b 21b9 c8bf
00000010: bc07 defe e3f2 cf3f d89a 04e4 2469 ebbf
00000020: 4c17 2b74 7049 f3bf c1a9 a352 3258 cabf
00000030: 4e1f 7410 c68f e2bf 3f16 8280 ba33 cf3f
00000040: 3cb9 c1dc 667f f8bf 564c 2c58 3c11 0ec0
00000050: 1c92 7fd7 c6ba d5bf 3ea5 c2d5 eea0 ddbf
00000060: 493e f012 6c1b ffbf 8eda 7faa 1a78 fcbf
00000070: f655 0294 4ff7 eebf 1bf3 4ded ba5f c33f
00000080: 61d4 71de 9058 f93f 35e2 4e3c 0d14 d7bf
00000090: 3bef 54ed 55d4 f53f ce16 ae58 c1bd ebbf
000000a0: 130f bd2b 9f4f e5bf e5f2 915f 9014 d9bf
000000b0: dab4 203d 3878 f93f 3e44 615c a5e1 f1bf
000000c0: 6cba 2c6a 9d72 d23f 8a7e fa82 85cc c23f
000000d0: 72d2 8954 2021 ecbf b990 e796 811c b1bf
000000e0: d420 eb87 f69c b3bf 8731 94f3 41c7 b4bf
000000f0: 60db ffb6 26a0 e1bf 1bbd 6016 8eec d5bf
00000100: 6e6b 2bf5 9d54 e3bf 2388 43a3 d39e dfbf
00000110: 1574 80ac 385d d73f b91d 46f2 dc31 d03f
00000120: d301 cfe0 bd2c c63f d0c1 0d08 bd55 f23f
00000130: 8a58 ce34 689d cc3f bea5 877e 0d56 c9bf
00000140: 4650 c13e 5720 e2bf bfde a481 7df0 c63f
00000150: 49e1 89f4 a7af f0bf e398 8518 3a90 ddbf
00000160: c3b3 a9ea af81 02c0 b117 57b5 14a2 f0bf
00000170: e5cd 5d4d 5bd9 d43f eb5f fb2e dadf bd3f
00000180: 8a5e 6593 5734 e0bf e9f0 1ab8 aed2 d4bf
00000190: de55 6e19 92ba edbf ee2f 95d5 c1aa c4bf
000001a0: 6a49 b9d5 274b e7bf dc91 6e51 66ef dabf
000001b0: ba4b 4cb2 d5e5 f4bf 850a 105a 1f5f e93f
000001c0: 557a f291 a2f6 00c0 42c3 b859 a5fa a7bf
000001d0: c88b fb5f 4c39 e8bf 3f30 d78b 9638 d8bf
000001e0: e842 c6b2 3171 db3f 53c0 5057 d30f 0040
000001f0: a2db 66ef 48d3 afbf 1199 ddfe f7b5 e9bf
00000200: 6b6f dc05 3bab c73f 4997 0962 8d43 bcbf
00000210: b4d8 aa1d 571b c73f 6f60 ae9c 6f52 d5bf
00000220: 24e2 f0c7 c9a3 e8bf 9ada 13b6 87bd d73f
00000230: fd6c ff92 f495 f3bf cec3 4848 6aab c33f
00000240: 5d14 8745 b24e c43f 4550 f86b 1129 d23f
00000250: fd31 9218 b026 ca3f fbdd 9cb5 e42f 93bf
00000260: a1f6 2446 8252 c33f 93b2 63d8 57cb f43f
00000270: 8f68 a98e 6dce a63f 1709 85dc a11a f13f
00000280: 288a 6dcb 4761 e4bf 1636 a079 924c d23f
00000290: 9717 5777 62e8 cc3f 8d99 a966 83e3 debf
000002a0: b49d 2ee6 9f56 c9bf c157 e91d 703c a8bf
000002b0: 2f45 4a90 dbef b73f 5a57 6ed4 9ec8 e4bf
000002c0: 9bf7 6b3b e5d3 8dbf 2447 9d12 8a71 ddbf
000002d0: c595 6c6d 58d4 dc3f 5f6b 6caf 52c0 a4bf
000002e0: 7ce5 5f37 b606 e83f ae41 818b da6f d23f
000002f0: 0084 534e 76f0 b4bf e887 5c64 ce2f d53f
00000300: 6c16 7257 6c74 d43f f6cf 5be9 5edb e6bf
00000310: 1ae6 05fb 0ad9 e5bf 39f0 633d 9e2f da3f
00000320: 5a27 7e23 69af dabf f3f7 ed36 89d3 ad3f
00000330: 792f a178 b52b d2bf cc7b afbb 85b2 9a3f
00000340: e9de 5fa6 12fb c13f 6b09 9bb7 6685 71bf
00000350: c59d d886 1243 c53f bbc8 0082 109a e83f
00000360: 22b1 7ad4 8494 c53f 9209 db29 5eb4 f13f
00000370: 5bcd 8fc9 fab4 d23f c259 44f6 bb7e d13f
00000380: a798 180f 792f c5bf 9442 275c 9eeb d33f
00000390: 7b5e 36c2 24d0 adbf 040d 59b0 20c4 e3bf
000003a0: 1a3b dcc3 bba8 e73f 32f6 ac84 78de c43f
000003b0: 6b51 ac2b e04b cfbf b31c f125 100b d3bf
000003c0: 035b 088a 60ab cf3f 8395 236c aa25 e23f
000003d0: 3136 f020 9873 cd3f 3c04 5f49 a15a b43f
000003e0: ff75 579b 66a2 d2bf 012b e625 7680 7d3f
000003f0: e102 2b4a 82fe debf 4dfe 6416 e191 edbf
00000400: 4875 590f 8bc4 e9bf 4168 9fa3 9481 d3bf
00000410: 5601 864a ff15 e73f 1f7b d8f9 f3ad d33f
00000420: 4712 d5d9 e487 dbbf 356e ceab 86be e23f
00000430: 22f2 544d 8cf1 ddbf cd8f 026b bbcb d9bf
00000440: 66a7 4611 96a7 f23f 4829 0de2 5d55 f7bf
00000450: 2d42 f09d ec60 e5bf 54c4 38b1 c02c c33f
00000460: 0c63 0294 5a11 d2bf 1f60 6315 6428 d73f
00000470: 4793 f069 015f ef3f 4dd6 95d0 ddcf c3bf
00000480: 5362 0609 3ef0 983f 9642 08f2 2006 c93f
00000490: 2b7f 2f3c ec39 d9bf 7c4c a6d8 8613 e8bf
000004a0: 3219 2ff9 d170 c73f cd43 0811 45b8 ef3f
000004b0: 8eba a1e1 aaf1 8c3f 05f2 0583 1e5b dd3f
000004c0: 5cb5 3bb7 090a f2bf eb84 1071 f638 cfbf
000004d0: 5a6a 2212 ad83 e6bf c142 9d17 ee30 e0bf
000004e0: 12e6 4839 063f e9bf 85df 24a9 8a16 dcbf
000004f0: eda5 3231 66fa c8bf c728 c90b 3700 fa3f
00000500: 0ad0 afaf 49a5 c83f 2775 026b 179a e5bf
00000510: 3c06 43cf 1e5d e9bf b920 9324 f36d e63f
00000520: e987 f118 0552 c83f b49c df4a 879d e83f
00000530: 8b4c ebfa 47f6 f0bf 3ab6 b8ef d362 9f3f
00000540: 1633 1782 12e6 f2bf df2b 8e05 f31d c73f
00000550: b291 313e d0d3 df3f 8f35 c234 91c4 ce3f
00000560: 9322 1278 6a5b f0bf 16a3 3eb8 88ab ce3f
00000570: f173 58c6 8172 cf3f 8d1c 81dd b9f3 e0bf
00000580: 5325 0807 cfd5 e33f b63f 9187 976b d0bf
00000590: ee12 4fcc 9a7e a53f 610c 59b0 3eb4 d13f
000005a0: f56f 1e23 feee ebbf 7fb5 3b47 a6d1 8c3f
000005b0: 5713 edfd 8f3c afbf 2678 a326 0fd6 e43f
000005c0: dfa2 9ca4 142b e7bf f92b 0ba9 b64c d7bf
000005d0: fac0 85e1 c387 c0bf 6aa3 2898 2e90 eabf
000005e0: da8b d013 e775 e53f 2d63 9372 02e3 de3f
000005f0: 0244 dc3c 90d8 d7bf 1c25 8eb6 2b58 c03f
00000600: 605c 92fe b7f7 d7bf d2ba c605 01db d7bf
00000610: 1976 1949 0192 c0bf 3754 0c24 6570 cabf
00000620: fe8b c802 cb69 e3bf 5da4 1975 ca75 cf3f
00000630: 475e ea52 3e8d dbbf 1ee9 9b35 2f5b f1bf
00000640: 6bcc 31db 0d6c d5bf d96d 06d0 85ed c53f
00000650: 263a de47 b3a1 e73f 9731 4da0 3f54 c8bf
00000660: 6d90 379d 8417 f9bf 8427 edb5 bc10 d0bf
00000670: 2b47 b40f 07b5 cfbf 41a0 d4e1 4cca f5bf
00000680: a706 fea3 bbd0 e6bf ea4b 880a 1e18 d4bf
00000690: 2eaa a1e2 a00c ccbf 8dcd 809f 39ba e1bf
000006a0: 4e1c 41d6 3847 d8bf 8ffe 8fdd 0bb8 efbf
000006b0: 7d9f 0975 157d c0bf 0500 994c 7482 f9bf
000006c0: 6b7c 15e6 4767 e4bf 1993 ce1e b56e d3bf
000006d0: 227c 9226 052c c0bf acde 6a33 10af cdbf
000006e0: f4c6 ea2f ff15 873f 6334 1816 1d75 e0bf
000006f0: aef4 b464 d3a0 f9bf bf5b e97e 3b71 de3f
00000700: 590e 7d46 bd40 f2bf 422c 4e6c 1efe 9d3f
00000710: 5095 ca4b 3a95 d2bf 6ada e23a 53e0 c33f
00000720: 8618 56f4 3611 c6bf c8a8 7f5e 9475 d43f
00000730: 19a0 1864 8ce8 b83f 3d18 072b 11da e5bf
00000740: 9fa1 0c97 80f1 f8bf 30bb cc8f 7502 c23f
00000750: d56d e1d0 d16d b0bf 7dbc 4201 18b0 e4bf
00000760: 9e43 88d3 9b87 dd3f 517a 03a9 c88a eabf
00000770: 4a94 4748 bd98 e8bf 9b4a be36 b755 e9bf
00000780: 5cf2 f185 9aee ca3f 3d88 b55b 34b6 d6bf
00000790: dce2 cb24 10fd e13f 6c69 1a12 6c85 d3bf
000007a0: 6433 a105 9c74 9cbf 098c 61e3 bedc e2bf
000007b0: ed63 fbe6 055e 01c0 2936 3323 4b25 f1bf
000007c0: cb61 0122 e82f c8bf b680 6c91 d818 d8bf
000007d0: f1bc 3199 1ba4 d1bf 2065 5f99 2f3c f03f
000007e0: 3b0f 97d2 adbc e53f a620 388a 062e e4bf
000007f0: 3d4b 10e6 238d f03f 9358 c82f 9b90 e0bf
