models/modelRNN_lang3_OddaMustFollowedByEvenb.pt (torch, 511867 bytes, 9 tensors)

rnn.weight_ih_l0 f4 [256, 300]
000000 51 52 66 3f 21 1f d9 bd d5 87 29 bf 79 67 4c bf
       0.89969355 -0.106016405 -0.6622289 -0.79845387
000010 aa e6 90 bf c2 68 66 3f 93 41 07 3f 9e 7d 40 bf
       -1.1320393 0.900036 0.52834433 -0.75191677
000020 66 0f 56 3f 6c 44 be be a2 a7 2e 3f 9d d7 a6 bf
       0.83617246 -0.37161577 0.6822454 -1.303455
000030 c6 c4 0a bf 14 7f 37 3f cc 6b 61 bf 48 10 ab 3f
       -0.542065 0.7167828 -0.8805511 1.3364344
000040 df 1f 27 bf 01 51 07 40 08 89 9b bf fb 7c bf 3f
       -0.65283006 2.114319 -1.2151194 1.4960016
000050 be d6 b1 be a7 34 b3 3f 92 1a ce 3d b6 18 20 bf
       -0.34734148 1.4000443 0.10063662 -0.62537706
000060 96 06 98 be 7b 94 d8 bd 21 64 13 c0 35 d0 10 3f
       -0.29692525 -0.105751954 -2.3029864 0.565677
000070 76 12 09 bf 0c e4 6d bf 45 a1 65 3f 22 33 11 be
       -0.53543794 -0.92926097 0.896992 -0.14179662
000080 21 a8 90 bf ec a6 48 be ac d9 2a bf 8b f4 0f bc
       -1.1301309 -0.19594926 -0.6673839 -0.008786331
000090 12 2b 83 3f 8c 67 52 3f 2a 8f 27 bf 45 a4 db bd
       1.0247519 0.8218925 -0.65452826 -0.10724691
0000a0 2c 61 50 3e dd 62 34 bf 29 17 c8 be 56 3b 2a 3f
       0.20349568 -0.70463353 -0.3908017 0.6649679
0000b0 e7 9d 8d be fc d9 24 3f f0 6b 80 3e a4 6b 85 bf
       -0.27659532 0.6439512 0.2508235 -1.0423474
0000c0 6e d8 82 3f 23 03 cd 3e 91 13 ae 3d 87 48 87 bf
       1.0222299 0.40041456 0.08499826 -1.0569009
0000d0 ad 5a b5 bf 15 50 89 bf 81 20 a5 3e 1d 79 3f 3e
       -1.4168297 -1.0727564 0.3225136 0.18698545
0000e0 04 58 95 3c 46 e0 34 3e 13 08 2f bf cd f7 37 3f
       0.018230446 0.17663679 -0.68371695 0.7186249
0000f0 61 02 57 bf bd 9d 52 be fd 61 c2 be fd 32 0c c0
       -0.83988005 -0.20567985 -0.37965384 -2.190612
000100 73 18 15 bf 2c 80 78 bf 69 93 7a bf db a7 f6 3e
       -0.5824043 -0.97070575 -0.9788118 0.4817494
000110 fa f5 1f bf 58 83 39 3e 3d 8e 69 be 37 bb 49 3f
       -0.62484705 0.1811651 -0.22808166 0.7880129
000120 20 a9 2a 3e 54 16 f4 be ba 62 a8 bf e8 6a 09 3e
       0.16666079 -0.47673285 -1.3155129 0.13419688
000130 91 61 89 3e 5d c0 01 3e 5b 85 4e be 3e 51 3e 3d
       0.2683225 0.12671037 -0.20168059 0.046464197
000140 ae 72 77 3e 58 a3 99 3f df d5 c3 bf 40 67 09 bf
       0.2416484 1.2002974 -1.5299643 -0.5367317
000150 1b a8 cb 3b 50 ce cf be 20 83 28 3e be 88 a3 3e
       0.006215108 -0.4058709 0.1645627 0.31940264
000160 e6 0d 32 bd 68 66 63 bf 5f e0 ba be 4b de 08 3f
       -0.043470286 -0.88828135 -0.36499307 0.5346419
000170 40 7d 4a bf cb d0 5c 3f a3 4b 02 bf c8 9c 54 bf
       -0.79097366 0.8625609 -0.5089666 -0.8305173
000180 32 05 10 be 1c 64 91 bd 71 98 34 bf 0a a0 57 3f
       -0.14064482 -0.070991725 -0.7054511 0.84228575
000190 c8 1e ad bd 1e 6b 1c bf 8c 5c fc bd a8 42 50 3e
       -0.08453137 -0.6110095 -0.123223394 0.20337927
0001a0 4d 52 95 bf f2 a5 01 bf 6e 33 1f bf a8 f7 06 be
       -1.1665741 -0.5064384 -0.6218785 -0.13180411
0001b0 3a 0d 74 3f b3 42 16 3f b1 1e ab bf 5e b1 bf be
       0.9533268 0.58695525 -1.3368741 -0.37440008
0001c0 22 26 f1 bf 3e 85 8b 3f 15 16 84 3d 0f 0b ad bb
       -1.8839762 1.0900037 0.06449524 -0.0052808593
0001d0 57 99 05 bf 30 31 9b 3e 0d af ca be 55 bf d2 3e
       -0.52187103 0.30310965 -0.39586678 0.411616
0001e0 cf b0 0d 3f 9d 25 fd 3e 29 fa 5d 3f b6 b3 07 bf
       0.55347914 0.4944276 0.8670984 -0.5300859
0001f0 d2 eb 3b 3e 89 8c 98 bf 56 06 1f 3f 00 c8 d6 bd
       0.18351677 -1.1917888 0.6211904 -0.10487366
000200 27 81 a7 3e 9d 24 7e 3e 44 e7 12 bf 14 3e 84 3f
       0.32715723 0.24818654 -0.57384133 1.0331445
000210 b4 63 d6 be d1 88 00 bd 23 90 74 3f 2c 32 ae 3e
       -0.41872942 -0.03138048 0.95532435 0.34022653
000220 35 cc 6c 3f f5 5c 7c 3f 09 b5 00 bf 6e d8 3d 3f
       0.92499095 0.9857934 -0.5027624 0.7415837
000230 c4 69 1c be 9b 77 9a be 35 0d 5d be 6c a1 9e 3f
       -0.15274721 -0.30169377 -0.2158707 1.2393012
000240 6c f7 10 be 5f 9b b8 3e 34 50 4f bd d3 5f 54 3f
       -0.14156884 0.3605604 -0.050613597 0.82958716
000250 13 24 2c bf ef aa 45 3e a0 3d 85 3e b5 7a 25 3e
       -0.67242545 0.19303487 0.2602358 0.1616009
000260 5d 4f bf be c6 b4 9e 3f 96 b0 b3 bf d3 8a c8 3f
       -0.37365237 1.2398918 -1.4038265 1.5667366
000270 96 cb 10 be 37 0f d1 3c 7e 43 9d 3f 3e 1a 2b bf
       -0.14140162 0.02551995 1.2286222 -0.6683692
000280 f8 95 f9 3d 86 98 36 3e 5e 45 63 3e 73 d6 38 be
       0.121868074 0.1783162 0.2219443 -0.18050556
000290 9d 97 bb 3e 12 44 3f bf 19 ba 10 bc 08 93 d7 be
       0.3663911 -0.7471324 -0.008833432 -0.42104363
0002a0 68 01 fb be 6c 07 1a bf d8 b2 d5 3e c2 af 80 bf
       -0.4902451 -0.60167575 0.4173801 -1.0053637
0002b0 f4 e6 b4 bf c3 c3 2c 3f e8 7a b2 be 2b ca 4a 3e
       -1.4132981 0.6748621 -0.34859395 0.19803683
0002c0 26 e6 84 3f 0d cd 25 bf 23 d7 86 be af e6 89 3f
       1.0382736 -0.6476601 -0.2633601 1.0773524
0002d0 17 48 0b 3e e6 54 58 bf f9 ee 33 3e b5 a6 11 3f
       0.13601719 -0.84504545 0.1757163 0.56895
0002e0 ec 98 57 bf dc 61 55 bf 37 52 b2 3f 31 36 a9 3f
       -0.84217715 -0.83352447 1.393134 1.3219663
0002f0 14 9b 85 3e 77 d3 50 3d 8e 0f f2 3e 7b b3 03 bf
       0.26094878 0.05098292 0.47277492 -0.5144574
000300 7b 14 3f 3f ae a3 84 bd b0 5b 95 be ce e8 7b be
       0.74640626 -0.06476532 -0.29171515 -0.24600527
000310 ff 0d d5 3e 90 7d 9b 3e 0e 15 15 be b6 ea 12 3f
       0.4161224 0.30369234 -0.14558813 0.5738939
000320 d7 58 b0 3d 04 12 63 3e 19 6b 8c 3e cc 58 6b 3e
       0.08610695 0.22174841 0.2742546 0.22983092
000330 4c 7e ed be 40 69 9b 3f 4a 4b 9f be 42 e9 63 bf
       -0.4638542 1.2141495 -0.31112128 -0.890278
000340 c7 a7 18 3e 88 8d 0d bf 5a 23 76 3e fb b8 b2 bf
       0.14907752 -0.55294085 0.24036923 -1.3962702
000350 c2 e5 7d 3e c3 bd 05 3d ef 74 4c bf b6 da a3 be
       0.24794677 0.032651674 -0.79865927 -0.320028
000360 66 8d 3c 3e ec e8 95 bf 20 14 b0 bd 2b 91 23 bd
       0.18413314 -1.1711707 -0.085975885 -0.039933365
000370 10 a2 59 be 53 9f 01 bc 49 5b 25 bf d4 63 96 bf
       -0.21253228 -0.007911521 -0.64592415 -1.1749215
000380 8b 99 8e 3f 98 6d 3e 3f 90 6f 92 bf ff e4 8e 3e
       1.1140608 0.74385977 -1.1440296 0.27909085
000390 64 ec 93 3e 2d 82 9a 3d 0f 45 6f bf 9e de d9 be
       0.2889129 0.0754436 -0.9346475 -0.42552656
0003a0 ab 44 d1 bd 58 ef 15 be f9 19 16 be 93 d5 f4 bc
       -0.102181755 -0.14642084 -0.14658345 -0.029886996
0003b0 cb f5 a9 bd 1f ae 08 bf bb ab 51 3f 47 36 27 3d
       -0.082988344 -0.5339069 0.81902665 0.040823247
0003c0 9b 5d 42 be d5 f0 98 3e b6 85 27 3f 3c e3 29 bf
       -0.1898102 0.2987124 0.654384 -0.6636236
0003d0 13 50 06 be 4d b9 32 3e 05 ad 9a be 95 42 55 3f
       -0.13116483 0.17453499 -0.30210128 0.8330472
0003e0 43 86 59 3f f2 16 f2 bd 6f 49 1c bf 48 34 b2 3e
       0.8497049 -0.11820783 -0.6104955 0.34805512
0003f0 c6 d6 99 3f 7f db 9a 3e 7c 81 14 bf be 9f 83 bf
       1.2018669 0.30245587 -0.5801008 -1.0283124

rnn.weight_hh_l0 f4 [256, 64]
000000 57 26 24 40 a1 d0 28 3f c0 8e b9 be 02 6b a5 3e
       2.56484 0.6594334 -0.36241722 0.32308203
000010 ef 78 73 3f f6 79 7b 3f b3 5d 8b bf c1 ee fe be
       0.95106405 0.9823297 -1.088797 -0.4979153
000020 6c 8d 6a 3f 96 e1 08 3f a0 36 b6 3f eb 6b 0d bf
       0.9162204 0.53469217 1.423542 -0.55242795
000030 b4 1b e7 be 90 0c 2e be bd 09 ad 3e a5 7c 26 3f
       -0.45138323 -0.1699698 0.33796492 0.6503394
000040 9e c7 83 be 38 04 f2 3d 74 ff 01 bf 32 27 5d bf
       -0.25738233 0.11817211 -0.50780416 -0.8638793
000050 3b 58 07 3f d3 1a 4a bd df c5 85 3e 7d a7 a7 3e
       0.52869004 -0.049341988 0.26127526 0.3274497
000060 65 a7 a3 3e 69 14 42 bf 59 bb c1 bd 3c bd 1b bf
       0.3196365 -0.75812393 -0.09459562 -0.60835624
000070 f6 dc 3b 3f 90 e0 94 3d a7 8b 2e 3d e9 f0 3d 3e
       0.73384035 0.072693944 0.04261365 0.18548931
000080 e9 3f f2 3e 9e 55 aa 3f f8 42 a0 3d 69 2f 6c be
       0.47314385 1.3307378 0.07825273 -0.2306496
000090 8d 5d 96 3c 2c af 21 3f 61 44 6f bf 42 56 fa be
       0.018355155 0.63157916 -0.9346371 -0.48893934
0000a0 5e f3 70 bf 51 a4 81 bf 76 d7 21 3f 60 c7 13 3f
       -0.9412135 -1.012827 0.6321939 0.577261
0000b0 e7 ee 5d 3f 24 2a 5d 3c 9c d0 d9 3d ca 60 35 3f
       0.8669266 0.013498817 0.10635492 0.70850813
0000c0 a9 a2 8d bf 76 fb 37 bf 24 11 37 3f eb db fe 3e
       -1.1065265 -0.71868074 0.7151053 0.4977716
0000d0 8d b8 d0 be bc 18 ce 3d 12 aa 88 bd ab c8 9d 3e
       -0.407658 0.100633115 -0.06673063 0.3081716
0000e0 36 f0 f4 3e c4 a4 f8 bd a8 06 13 3f ec 8f 01 3f
       0.47839516 -0.121408015 0.5743203 0.5061023
0000f0 54 e7 1e be c6 5a fe be a3 58 1f 3f 93 9c 6f bd
       -0.15517932 -0.4967863 0.62244624 -0.05849893
000100 06 29 ad bd d5 df 47 40 d1 7d 5f bc 6b dd d1 3c
       -0.0845509 3.1230366 -0.013640837 0.025618276
000110 9c 55 9e 3f d3 5a 03 3f 9b 18 47 bf 4d c4 b1 be
       1.2369876 0.5131046 -0.7777192 -0.34720078
000120 01 31 bc be d4 14 04 bf cb a2 4c bf bf a7 b5 3d
       -0.36756137 -0.5159428 -0.799359 0.08869886
000130 9b de d1 be c6 e1 f5 3e 84 4f 18 be 70 98 77 be
       -0.40990147 0.48023814 -0.14874083 -0.24179244
000140 81 50 c5 3d b0 19 79 3f 2d eb 5a bf 41 27 51 be
       0.096344955 0.9730482 -0.855151 -0.2042513
000150 f5 70 10 bf af 9c 48 bf 72 d1 be 3e 42 91 3b bf
       -0.5642236 -0.7836408 0.3726917 -0.7326852
000160 f2 35 fd be f2 1c 8c be 02 ca 66 bf 48 4d 1b 3e
       -0.4945522 -0.27365834 -0.9015199 0.15166199
000170 60 d4 87 bf f6 9c 34 bf 41 df c4 3d 13 af 5d 3e
       -1.0611687 -0.70552003 0.09612895 0.21648817
000180 4c 1c 31 3f 0b e5 3a bf 56 0d 63 3e 74 9a af 3e
       0.691838 -0.7300574 0.22173056 0.34297526
000190 f9 9d 23 3d f8 8a 2e be aa 6f 2b 3f ba f8 35 3e
       0.039945576 -0.170452 0.6696726 0.17770663
0001a0 31 b1 a9 bc 63 ef 46 3f 99 22 ab bf 70 6e 89 bf
       -0.020714374 0.77709025 -1.3369933 -1.0736828
0001b0 8c a4 21 3f 85 4c 7b be fb d0 ca 3d f0 16 38 3f
       0.63141704 -0.24540909 0.09903141 0.7191
0001c0 f1 9c ad 3f 85 01 57 3d fd dd f7 3d eb 3b 1b bf
       1.356352 0.052491684 0.12102888 -0.606383
0001d0 76 13 b9 3e 6e c6 70 bd 1b 0b 98 bf ee 98 87 3d
       0.3614766 -0.058782987 -1.1878389 0.06620966
0001e0 1f 10 0f 3f 75 b7 cf 3e c0 87 54 3f a7 a8 25 bd
       0.55883974 0.40569654 0.8301964 -0.040444043
0001f0 17 9e 98 be 17 0b 24 bf 16 18 fb be 17 af e0 be
       -0.29808113 -0.6407942 -0.49041814 -0.43883583
000200 76 ee 14 bd 6f 0f 18 bf 87 00 82 bf 0b 2b 32 3e
       -0.036360227 -0.5939855 -1.0156411 0.17399232
000210 15 e7 bb be 2d 31 c3 3e 1f 0c f2 3d 7f f3 b8 3e
       -0.3669974 0.38123456 0.11818718 0.36123273
000220 04 df b6 3e 73 20 f3 be b8 16 29 3f 44 a0 82 bf
       0.35717022 -0.47485694 0.6605029 -1.0205159
000230 6d 7e a5 3f 1f e8 c7 bd 47 54 88 be e4 b7 16 3f
       1.2929207 -0.097610705 -0.266268 0.58874345
000240 d9 1a 63 3e a9 b4 64 bf 85 5f 8e 3e e4 55 00 3f
       0.2217821 -0.89338166 0.2780725 0.5013106
000250 af 0d ee 3e d7 19 e5 3e cf c3 55 bf 6d be b1 3e
       0.46494815 0.44746277 -0.83501905 0.34715596
000260 c6 1d 82 3e 89 1d 18 3e 4a 65 b1 3f 07 b6 15 3f
       0.2541334 0.14855017 1.3859036 0.58480877
000270 76 d1 2d 3f 1f 52 d0 bf a8 06 0f bd 51 e6 94 3e
       0.6789774 -1.6275061 -0.034918457 0.29081967
000280 c5 6b db be 13 e2 ab bf 54 f1 4a 3e 98 7f 39 3f
       -0.4285566 -1.3428367 0.19818622 0.7246032
000290 23 0a 17 bf ce 36 cc be fc 3b 10 bf 01 af d4 3b
       -0.5899984 -0.39885563 -0.5634153 0.0064905887
0002a0 3e a8 f2 3d 31 ae 4f bf 68 f8 28 3f 0c 22 d9 be
       0.11848496 -0.8112517 0.6600404 -0.42408788
0002b0 8a e9 03 bf e0 24 95 3f f0 c3 b5 3e c7 72 10 3e
       -0.5152823 1.1651878 0.3550105 0.14106284
0002c0 55 62 76 be 24 a4 74 3e e3 18 9d bd 07 19 a3 3f
       -0.24060948 0.2389074 -0.076707624 1.2742013
0002d0 e3 bb 85 3f e4 02 a8 bd 58 02 b6 3f b7 89 bb be
       1.0447963 -0.08203676 1.4219465 -0.36628506
0002e0 87 82 e5 bf 64 48 ca bf c8 ec 81 3f c8 62 af 3e
       -1.7930459 -1.5803342 1.0150385 0.34255052
0002f0 8c 84 de 3e bb 57 77 be 61 62 9b bf 83 eb 24 3f
       0.434605 -0.2415456 -1.2139398 0.6442186
000300 de 71 d5 3e 93 0c 77 be 7e df 54 bf 9f b7 2c 3e
       0.41688436 -0.2412589 -0.8315352 0.16866921
000310 ae ef 5e 3e f0 e1 76 be 1b 85 27 3d 90 c7 f1 3d
       0.21771118 -0.24109626 0.040898424 0.11805642
000320 1e 36 66 3f ae 84 b3 bf 72 d8 69 3d 17 cc 3d 3f
       0.89926326 -1.4024866 0.057091184 0.7413954
000330 27 93 d8 3e 25 cf 1e 3f ba 6a db 3d 2e 81 31 3d
       0.42299768 0.6203483 0.10713716 0.043336086
000340 eb ef 36 bf 7e db 3d 3e a5 0a f4 3d a8 d2 3d be
       -0.71459836 0.18540761 0.11916093 -0.1853739
000350 9c 8f 03 3f 39 0e 6f 3e c0 53 ef be 0a cf 4d bc
       0.51391006 0.2334527 -0.46743584 -0.012561569
000360 36 70 6b 3e 69 31 b8 3e bf c0 01 be 57 d5 bf 3e
       0.22992024 0.35975197 -0.12671183 0.37467453
000370 19 ca 1f 3e eb 1e a6 3e ec 4d 64 3e 90 1d 58 3f
       0.15604438 0.32445464 0.2229535 0.8442011
000380 fc c7 8b bd 6e f3 05 3f fc 16 aa 3e fa b4 11 bf
       -0.06825253 0.5232457 0.3322066 -0.56916773
000390 c1 00 3a bf c8 b1 11 3e 13 97 4a bd 6d 04 77 3e
       -0.726574 0.14227974 -0.04946048 0.24122782
0003a0 ad fc 14 bf d5 ff 5b bf 2e 6f ed 3e f1 92 83 3e
       -0.5819805 -0.85937244 0.46373886 0.25698045
0003b0 b2 21 d1 bd 4b 9f 2a bf 26 69 66 be 31 53 7e be
       -0.10211505 -0.6664931 -0.22501048 -0.24836423
0003c0 3e e4 03 bf ce 36 a0 3e 75 24 b5 3d af c2 54 3f
       -0.51520145 0.31291813 0.08844844 0.83109564
0003d0 3a 91 2d be 50 05 ff 3d dc be 22 bf 10 a5 c3 be
       -0.16949931 0.12452185 -0.6357248 -0.3821187
0003e0 c0 95 b2 bf 6d f1 d8 be b0 13 25 3b 00 44 96 3e
       -1.395195 -0.42371693 0.0025188737 0.29348755
0003f0 6d 0c 82 be cf 32 a0 3d e5 9c 32 3f e0 9f 04 bf
       -0.25400105 0.07822191 0.6977065 -0.5180645

rnn.bias_ih_l0 f4 [256]
000000 67 b7 42 be c9 b0 af be 30 9d 8d bf e3 df 83 bf
       -0.19015275 -0.34314564 -1.1063595 -1.03027
000010 f7 d3 c3 bd fe 90 32 bf 68 b3 9a be 11 dc ed 3e
       -0.095619135 -0.6975249 -0.30215 0.4645696
000020 08 8c 51 3d ed e2 14 bf 3c 66 1f bf fb 8b 47 be
       0.051158935 -0.5815876 -0.6226537 -0.19486992
000030 59 da 3b bf 0f 36 ed bd d3 4b db 3d da c2 54 bf
       -0.7338005 -0.115825765 0.10707822 -0.8310982
000040 d6 dc 05 bf 49 ed de bf 9d cc de bf 17 80 b0 be
       -0.52290094 -1.7416164 -1.7406193 -0.34472725
000050 ba 40 3d be 23 30 ee bf ee c7 12 bf 29 49 8c bf
       -0.18481722 -1.860844 -0.5733632 -1.0959827
000060 97 87 9a be 1d 73 a7 3c b0 7b c2 be 8d de 97 bf
       -0.30181572 0.020440632 -0.3798499 -1.1864792
000070 a4 e5 b1 bd e4 1b d4 be d5 49 d1 bf 05 7d 1f bf
       -0.086863786 -0.4142753 -1.6350657 -0.6230014
000080 94 49 94 3e 60 68 0f c0 65 0b 03 bf 63 78 6e 3f
       0.28962386 -2.2407455 -0.5118926 0.93152446
000090 5b fa 24 3f a7 6e 05 bf 7c e1 28 be 3c 08 c5 be
       0.6444451 -0.5212197 -0.16492265 -0.38482845
0000a0 c0 9b 04 bf ee 11 b9 be 15 ab 66 bc 3e e5 b6 3d
       -0.51800156 -0.36146492 -0.014078875 0.08930443
0000b0 f0 ce e5 bf b2 aa d1 be a9 9d 44 3d dd 0f 6a be
       -1.7953777 -0.40950543 0.04800192 -0.22857614
0000c0 6a 85 15 be 0e d6 55 be 27 46 71 bf 8d f4 70 bf
       -0.14601675 -0.20882437 -0.9424767 -0.94123155
0000d0 d1 6d 91 bf b0 47 90 bf a7 41 f0 be 80 a4 b8 bf
       -1.1361638 -1.1271877 -0.4692509 -1.4425201
0000e0 de b6 8c 3e d9 bd 4d bf 0d 02 9c bf 73 d7 b6 bf
       0.27483267 -0.8036781 -1.2188126 -1.42845
0000f0 cd 75 6d bf e6 40 33 3f 0c b8 5c bf fd 59 80 bf
       -0.92757875 0.700209 -0.86218333 -1.0027462
000100 e6 4a 79 3f d6 9a 69 3f d9 b4 eb be 1a 30 48 bf
       0.9737991 0.91251886 -0.46036413 -0.781984
000110 a4 1c 0c 3f c6 cd fb 3e c6 dc fd 3e 0e 17 80 bf
       0.547312 0.4918043 0.495825 -1.0007036
000120 3b ca 1f 3f e4 68 e9 bd f1 73 d2 be 4b af 6c be
       0.62417954 -0.113969594 -0.4110408 -0.23113744
000130 63 56 02 bd a1 0d 8e 3e ce d6 1c be d4 da 83 bf
       -0.031820666 0.27744773 -0.15316316 -1.0301156
000140 ad 31 5e be 39 5b 95 3e f0 92 cb 3e b5 4b 31 3d
       -0.21698637 0.2917116 0.39760542 0.04328509
000150 53 35 b2 be 6f 68 4c bf d0 7a ed 3e 25 0b 81 bf
       -0.34806308 -0.79846853 0.4638276 -1.0081526
000160 12 46 e7 bd b9 a7 4b be 33 bb 03 3f 45 69 20 be
       -0.11292662 -0.198882 0.5145752 -0.15665157
000170 e2 8a 59 3f 6f 85 81 3e 6a 51 d1 bf 7c f8 49 bf
       0.84977543 0.25297114 -1.6352971 -0.7889478
000180 b4 e0 18 bf b9 3b 92 3f 1c fa d8 be a0 80 22 bf
       -0.5971787 1.1424476 -0.42378318 -0.63477516
000190 aa 9b f3 3e 03 a3 d2 be 09 c6 01 c0 d8 9d e6 be
       0.475797 -0.41139993 -2.027712 -0.450423
0001a0 97 ab 36 bf a9 4b 4a be b0 1b 42 3f b8 bb e8 bd
       -0.71355575 -0.19755425 0.758235 -0.113639295
0001b0 53 d4 11 3e 7b 0d 1d 3f 66 d6 48 3d 5b e7 0d bf
       0.14241152 0.61348695 0.04903259 -0.55431145
0001c0 8a 95 60 bf 42 9c 7d be cd 14 36 bf 04 43 84 bf
       -0.8772818 -0.24766639 -0.7112549 -1.0332952
0001d0 76 53 78 3e c2 91 29 3d 7d de 02 3f 0c 0a 5a bf
       0.24250588 0.04139877 0.5112074 -0.8517158
0001e0 c2 ed 3f 3f c1 02 c6 be cc 49 77 bf ea 7a 08 be
       0.74972165 -0.38673976 -0.9659698 -0.13328138
0001f0 b1 d4 0c bf b6 8b 75 3d 9e 38 93 3f 83 b3 10 3f
       -0.5501204 0.05994769 1.1501653 0.56523913
000200 04 41 b1 be 5c 4c 6f bf 2f b0 1c 3e fe 68 e4 3c
       -0.34619915 -0.9347589 0.15301584 0.027882095
000210 60 67 98 3e 6d d1 af be bd 3b 65 3f 7b 5e 9d bd
       0.2976637 -0.34339467 0.8954428 -0.07684036
000220 c7 0f b0 bd 5e c5 05 be 73 6d 06 3e 5d ce a8 b9
       -0.08596759 -0.13063571 0.13127689 -0.0003219721
000230 ad d9 e8 3e 45 a9 15 3f 58 25 c2 3e 83 ec 1f be
       0.45478573 0.5846141 0.37919116 -0.15617566
000240 02 16 23 bf fa 16 1d 3f 21 11 4c be 1f 34 34 3f
       -0.63705456 0.61363184 -0.19928409 0.7039203
000250 b6 a5 71 3f 48 da e8 3e 9d 13 3d 3e d0 c4 40 3f
       0.9439348 0.45479035 0.18464513 0.7530031
000260 42 99 60 bf bd 13 0f 3e b8 f1 20 bf 8c ad 96 3e
       -0.8773385 0.13972373 -0.62868834 0.2942928
000270 0b 38 f2 bc 6f 47 32 3c 84 8c f6 be 21 98 ce 3e
       -0.029567739 0.010881289 -0.4815408 0.4035044
000280 e1 a0 e9 3e 16 57 3f 3f 62 84 74 bd 87 bb 89 bf
       0.45630553 0.7474226 -0.059696563 -1.0760354
000290 59 f8 8a be b3 84 92 3f 57 65 28 bf f5 eb 26 be
       -0.271426 1.1446747 -0.6577963 -0.16300948
0002a0 38 43 34 be 0e 57 98 3c d7 59 a9 3d 99 25 47 3e
       -0.17603767 0.018596198 0.08269089 0.19447936
0002b0 c7 6c af 3d 8e 70 20 bf da 35 5a bf 09 f1 07 bf
       0.085656695 -0.62671745 -0.8523842 -0.53102165
0002c0 82 79 b7 3e aa 38 16 3d ef 79 4f 3f f3 7e 10 bf
       0.3583489 0.036675133 0.8104543 -0.5644371
0002d0 a9 f3 4f bf f9 fb 37 bf bb b0 cb be 7c ea 1f bf
       -0.8123117 -0.71868855 -0.39783272 -0.6246717
0002e0 cd b9 73 3c bc 61 39 3e 99 99 d3 3e 5d 22 4c 3f
       0.014875841 0.18103689 0.41328123 0.79739934
0002f0 72 61 51 be d5 19 c1 bf 4f 75 00 3e fe d7 d9 be
       -0.20447329 -1.5086008 0.1254475 -0.425476
000300 24 4e 99 bf 2f 3e af bf 3e bf 95 bf f2 15 31 bf
       -1.1976972 -1.3690852 -1.1698987 -0.6917411
000310 fa e2 96 be 8b 4a 81 bf 17 ef 49 bf ea 1c 4c 3f
       -0.29470044 -1.0100874 -0.7888045 0.7973162
000320 28 1e 8f be 8f 44 7f bf b7 cd 81 bf 9b 7b 48 bf
       -0.27952695 -0.9971399 -1.0140904 -0.78313607
000330 0f 75 fc be 72 9c 6b bf 39 dd 5e bf 26 a3 bf bf
       -0.4930806 -0.9203559 -0.8705631 -1.4971664
000340 a6 1c 14 bf 74 1b 31 3e bf 05 44 bd 6c 8e 90 be
       -0.57856214 0.17295629 -0.047857042 -0.2823366
000350 d7 83 98 bf c2 f9 00 c0 26 df 69 be ae a9 4e bf
       -1.1915234 -2.015244 -0.2283903 -0.8072766
000360 77 9d 65 bf 31 41 c9 be b6 36 8c be a0 ee 06 c0
       -0.896934 -0.3930755 -0.2738549 -2.1083145
000370 72 4a f6 be 47 9b f1 3d ed 60 8f bf bb 4e a2 bf
       -0.48103672 0.11797195 -1.1201454 -1.2680277
000380 80 12 0f bf e1 28 a7 bf 54 63 03 bf c9 03 3d 3f
       -0.55887604 -1.305935 -0.5132344 0.738339
000390 b8 27 b9 be 20 6b 19 bd 80 73 87 be 03 26 ae bf
       -0.36163116 -0.037455678 -0.26455307 -1.360535
0003a0 31 96 34 be 38 03 4c bf 5c 9d b5 be 35 1c 4c bf
       -0.17635418 -0.7969241 -0.35471618 -0.7973054
0003b0 28 94 c0 bc ed 0a 53 bf 7b 46 a4 bf 26 77 34 bf
       -0.023508146 -0.82438546 -1.2834009 -0.70494306
0003c0 a1 d1 f0 be 60 82 10 bd 68 0e 92 be 75 e9 9f bf
       -0.47034934 -0.035280585 -0.28526616 -1.249312
0003d0 cd 02 90 be 27 e4 10 c0 a4 b9 05 bf 1d 58 98 bf
       -0.28127137 -2.2639253 -0.5223639 -1.190189
0003e0 59 9a ee be 51 08 c3 bf 45 9e 88 bf a0 8d 62 bf
       -0.46602133 -1.5236913 -1.06733 -0.8849735
0003f0 59 6c 71 bf 0a ad 1d 3e 04 bf f6 bf 7f 59 2f bf
       -0.9430595 0.1539804 -1.9277043 -0.68495935

rnn.bias_hh_l0 f4 [256]
000000 e7 3d 42 be 18 f3 9e be 41 c2 73 bf 96 05 93 bf
       -0.18968926 -0.3104484 -0.9521828 -1.148608
000010 b4 a9 10 be 3d e0 54 bf 89 22 90 be 1b 32 ea 3e
       -0.14127237 -0.8315466 -0.28151348 0.45741352
000020 7c d4 4a bd 64 eb 07 bf 78 92 04 bf 32 e1 be be
       -0.049519047 -0.5309355 -0.51785994 -0.37281185
000030 ed da 28 bf 26 c4 83 bd 38 3e a2 3e ea 6f 65 bf
       -0.65959054 -0.06433897 0.31688094 -0.8962389
000040 c1 94 fb be ab 24 e6 bf bd cf e8 bf 9f 29 84 be
       -0.49136928 -1.797994 -1.8188397 -0.25813004
000050 ee 0e 82 be a7 83 01 c0 ac d1 12 bf e2 ef 64 bf
       -0.25402015 -2.0236604 -0.57351184 -0.8942853
000060 7b b0 9a be fe 82 7b 3d 7d 08 bf be c7 5c 7e bf
       -0.3021277 0.06140422 -0.37311164 -0.99360317
000070 35 c5 a2 3c 56 56 08 bf 3f 9f dd bf d5 07 25 bf
       0.019869426 -0.5325674 -1.7314223 -0.64465076
000080 2a 49 d9 3e 49 d1 18 c0 9f e2 22 bf b2 88 81 3f
       0.42438632 -2.3877738 -0.63627046 1.0119841
000090 fd 8c 20 3f 5e 67 bb be 50 6d 4d be 71 65 ce be
       0.6271513 -0.366023 -0.2006123 -0.4031177
0000a0 da 02 3e bf 90 31 d0 be ad 54 c2 bd 1d b3 59 3e
       -0.742231 -0.40662813 -0.09488807 0.21259733
0000b0 7e 32 f7 bf e9 bf 9b be cd 21 b2 3b 23 80 9e bd
       -1.9312284 -0.30419853 0.0054361583 -0.07739284
0000c0 e3 9f 8e be 69 af 4c be b4 ee 82 bf 5f b9 6c bf
       -0.2785636 -0.19988789 -1.0229096 -0.92470354
0000d0 ee 2e 88 bf 12 c0 91 bf 9d 22 ba be 07 4d b2 bf
       -1.0639322 -1.138674 -0.36354533 -1.3929757
0000e0 7a ff 52 3e fa b0 6e bf 2b fc 97 bf 6d 9a c2 bf
       0.20605269 -0.93238795 -1.187383 -1.5203377
0000f0 3d 73 69 bf 10 3d 19 3f 69 75 7c bf 95 de 72 bf
       -0.91191465 0.598588 -0.98616654 -0.94870883
000100 eb de 53 3f dd c7 3c 3f 4f 8d 76 be b6 d6 65 bf
       0.8276202 0.7374247 -0.24077342 -0.8978075
000110 f5 a4 00 3f a2 22 a4 3e b3 f2 dd 3e 5b f0 84 bf
       0.50251704 0.32057673 0.43349227 -1.0385851
000120 9d 9f dd 3e 22 8f 2a be 7f f6 63 be 3f 34 8e be
       0.43285838 -0.16656163 -0.22262 -0.27774236
000130 af 47 2c bc 2d 61 fe 3d a7 35 7e be 8c ce 50 bf
       -0.010515138 0.124208786 -0.24825154 -0.81565166
000140 5b fa 48 be 3d 3c 59 3e 35 c4 8d 3e be 7c c1 3d
       -0.19626753 0.21214385 0.27688757 0.09447621
000150 18 02 b2 be bc d0 3c bf 67 97 f8 3e 39 66 68 bf
       -0.34767222 -0.73756003 0.4855301 -0.9078098
000160 9f 4f 3f be fa 04 9a bd 63 98 00 3f 25 02 91 be
       -0.18682717 -0.075204805 0.50232524 -0.2832195
000170 ca 6c 3d 3f 87 ed b5 3e 5d 03 b8 bf 74 ad 45 bf
       0.73994124 0.3553278 -1.4376026 -0.77217793
000180 f8 7c ec be 3d 25 98 3f 7e a1 e8 be a4 79 06 bf
       -0.46189094 1.1886364 -0.4543571 -0.5252936
000190 44 a3 f3 3e 17 2e d6 be f7 97 f9 bf 04 78 d4 be
       0.475855 -0.4183204 -1.9499501 -0.41497815
0001a0 14 60 27 bf f5 7c 07 be 1c b2 49 3f 15 e6 96 bd
       -0.6538098 -0.13231261 0.787874 -0.073681034
0001b0 c4 6c a6 3e 96 79 2e 3f 53 7e 9f 3d bf 2b 01 bf
       0.32504857 0.68154275 0.07787766 -0.50457376
0001c0 ea 2b 55 bf 9a 77 c7 be 10 48 69 bf e2 75 6e bf
       -0.8327013 -0.38958436 -0.91125584 -0.93148625
0001d0 0c 89 1f 3d 00 14 c5 bc c0 e4 8d 3e cc 0e 59 bf
       0.038949057 -0.024057388 0.27713585 -0.84788203
0001e0 a6 91 33 3f ba c6 98 be 5f f6 8a bf c6 39 11 be
       0.70144117 -0.29839116 -1.0856436 -0.14182195
0001f0 15 c6 09 bf 7e dc 17 3d 06 41 8c 3f 3f 0a 3a 3f
       -0.53817874 0.037075512 1.0957344 0.72671884
000200 d8 a0 ee be 6d 74 64 bf 05 ce 02 3d 6b b4 15 bd
       -0.4660709 -0.8924015 0.031934757 -0.036549013
000210 16 10 b1 3e 8b 9b 9e be 27 b7 79 3f 0d fc 2d bd
       0.34582585 -0.30978045 0.97545093 -0.042476702
000220 ce 5c 56 be b5 4e 2e bc 0b e1 c9 bd 38 1b d4 3c
       -0.2093384 -0.010638882 -0.09857377 0.025891885
000230 3b 12 be 3e ec 27 15 3f b1 5c 6a 3e c2 71 21 bd
       0.37123284 0.5826404 0.22886921 -0.03941513
000240 a8 d2 d6 be d0 ce 1c 3f 4c a5 e8 bd db 5c 16 3f
       -0.41957593 0.6125307 -0.11359653 0.58735436
000250 f4 de 5b 3f 5e df 11 3f 6c 83 92 3e 26 30 57 3f
       0.85887074 0.56981456 0.28615892 0.84057844
000260 a8 eb 45 bf 97 6d 34 3e 4f 10 06 bf 8c 16 b0 3e
       -0.7731271 0.1761993 -0.52368635 0.34392202
000270 4f 24 66 bd 07 4a a1 bd 00 f8 20 bf a2 7f 08 3f
       -0.05618697 -0.07875448 -0.6287842 0.5331975
000280 c9 78 da 3e e8 5d 1c 3f 72 51 be bd a8 64 84 bf
       0.42670277 0.6108079 -0.09292878 -1.0343218
000290 e9 e4 77 be 43 e7 7f 3f 67 bd 47 bf 10 b9 36 be
       -0.24208416 0.9996225 -0.7802338 -0.17844033
0002a0 d8 34 81 be 89 79 a2 3d 7e a0 db bb d8 7e 43 3e
       -0.2523563 0.07933337 -0.006702482 0.19091356
0002b0 73 fa 94 3d c8 48 fe be dc 11 59 bf ec 37 b5 be
       0.07274332 -0.49664903 -0.84792876 -0.35394228
0002c0 9b 98 9c 3e 56 49 7b 3d 5f 05 50 3f 28 3c c1 be
       0.3058518 0.061349235 0.81258196 -0.37741208
0002d0 be d4 24 bf 49 29 4b bf 83 3b fe be c5 03 00 bf
       -0.6438712 -0.7935987 -0.4965478 -0.5000575
0002e0 49 51 6b bc cd 74 09 3e 97 3b ee 3e 36 50 58 3f
       -0.014362642 0.13423462 0.46529838 0.8449739
0002f0 96 f6 77 be d7 2a b4 bf 93 39 71 3e 10 c2 cb be
       -0.24215159 -1.4075574 0.23557119 -0.39796495
000300 a3 a9 8c bf f7 ad c4 bf 79 f4 9f bf d6 e4 32 bf
       -1.0989269 -1.536559 -1.2496482 -0.69880426
000310 0e df 99 be 86 53 7c bf 69 4a 3d bf a4 96 2b 3f
       -0.3005299 -0.98564947 -0.73941666 0.67026734
000320 fd 40 36 be 7c 08 56 bf c2 b4 63 bf f3 ac 34 bf
       -0.17798229 -0.83606696 -0.8894769 -0.705764
000330 ab c7 ac be 86 31 4b bf 85 93 79 bf 96 50 c3 bf
       -0.33746085 -0.7937244 -0.9749072 -1.5258968
000340 c0 89 02 bf f2 e4 bb 3e b6 82 34 be 7b 3e 58 be
       -0.5099144 0.3669811 -0.17627987 -0.21117584
000350 20 7a 80 bf 7f 11 fc bf da 68 3d be e2 5b 35 bf
       -1.003727 -1.9692839 -0.18497029 -0.7084333
000360 84 c7 4a bf d3 98 b2 be 8a 82 74 be 5d a6 0c c0
       -0.79210687 -0.3488222 -0.23877922 -2.197654
000370 52 e9 0f bf 75 e6 13 3e 80 15 6f bf 33 e5 b7 bf
       -0.56215394 0.14443381 -0.9339218 -1.4366821
000380 47 05 1b bf 0d 23 9b bf 7b 02 32 bf f5 39 3b 3f
       -0.6055493 -1.2120072 -0.69535035 0.7313531
000390 f2 c4 9a be ff 17 11 be d9 5a 81 be 41 fe ab bf
       -0.30228382 -0.1416931 -0.25264624 -1.3436967
0003a0 ba 29 03 bc 32 90 3f bf c2 f0 ac be 43 5f 18 bf
       -0.008005554 -0.748294 -0.33777434 -0.5952036
0003b0 cb 92 56 bd b9 19 42 bf ee 11 a4 bf 05 98 2f bf
       -0.052386086 -0.758205 -1.2817972 -0.6859134
0003c0 5b eb b4 be 6d 1a ab 3d 4c f4 b1 be 96 9c 96 bf
       -0.35335812 0.0835465 -0.34756696 -1.1766536
0003d0 b6 d1 ae be 67 38 15 c0 54 b8 c1 be 11 c6 a1 bf
       -0.34144372 -2.3315675 -0.37835944 -1.263857
0003e0 ff 2d c4 be ac ae d4 bf 5c 80 87 bf 5f cb 83 bf
       -0.38316342 -1.6615806 -1.0586047 -1.0296439
0003f0 26 a2 69 bf 89 05 40 3e 56 93 fc bf ea ea 28 bf
       -0.91263044 0.18752111 -1.9732463 -0.6598345

rnn.weight_ih_l1 f4 [256, 64]
000000 67 80 21 bf 1c c1 32 bf f7 c9 d1 3e 8a 00 85 3e
       -0.6308655 -0.6982591 0.409744 0.25976974
000010 77 8d da be 69 9b 8a be 9a 4d c9 bc 2f 35 33 bf
       -0.42686054 -0.27071694 -0.024573136 -0.70003027
000020 f9 ae 32 3e e3 14 4b 3f 8d cd 58 be 7e 74 3d 3e
       0.1744956 0.79328746 -0.21172161 0.1850147
000030 dc 61 4d 3f c7 28 2c bf 38 9b 21 bd ac 79 1b bc
       0.80227447 -0.6724972 -0.03945467 -0.009489458
000040 8e e1 bd 3e ab d0 0d bf 49 59 b6 3b 06 10 05 3d
       0.37086147 -0.5539653 0.005564843 0.032485984
000050 73 3f 3f be 4e a8 bc bd 13 f9 0e bf 2c b6 cb 3c
       -0.18676548 -0.09211789 -0.5584881 0.02486714
000060 5c 5e 89 3f 1c 5e 25 bf 11 40 43 be 1d 0d b5 bd
       1.0731921 -0.64596725 -0.19067408 -0.08840392
000070 18 db 42 bd a5 6a 8c be 46 7a 0b 3c 4a 68 f6 bd
       -0.047572225 -0.27425113 0.008513039 -0.1203161
000080 af 81 dd 3b 5b 4a e7 3e e3 ff 36 3f 32 d8 bb 3d
       0.0067598443 0.45173916 0.714842 0.09172095
000090 ff 66 aa be 4a 6b 21 bc 58 e0 8e 3d 88 68 ad 3e
       -0.33281705 -0.00985224 0.06976384 0.33868814
0000a0 07 3c 3c be 8f 65 10 bf ab 5a 01 3f 73 ea 95 3e
       -0.18382274 -0.56404966 0.50528973 0.29280433
0000b0 fb bf 7e bf e3 60 85 3f 33 ee b5 be 82 a3 03 3d
       -0.9951169 1.0420192 -0.35533294 0.032138355
0000c0 4c 1d 5a bf aa ef 03 bf d7 f8 cb 3e 72 6e 5b be
       -0.85200953 -0.51537573 0.39838287 -0.2142885
0000d0 0b ae 11 bf 55 3f 66 3d 3c b8 84 bc da 39 3f 3e
       -0.56906193 0.056212742 -0.016201131 0.18674412
0000e0 1b da eb 3c 14 53 82 3e 8c 84 0c be a7 e4 1d bf
       0.028790524 0.2545401 -0.13722438 -0.6167702
0000f0 cd 29 4c 3e b6 7b cc 3e 46 6b ee bd 63 04 69 3f
       0.1993782 0.39938134 -0.116415545 0.9102232
000100 c8 bf 65 bf 1c 72 80 3e e0 ec c1 3d bf 19 b4 3f
       -0.8974576 0.2508706 0.094690084 1.4070357
000110 c0 a2 ea 3d cd a9 e2 be 97 87 40 3f 84 2b d8 3f
       0.11456823 -0.44270173 0.75206894 1.688828
000120 cc 57 2a 3f 20 26 e8 be f6 09 dd bd 63 4a 86 bd
       0.6654022 -0.45341587 -0.107929155 -0.06557157
000130 e0 32 0a bf fd 32 f6 3e 7a 4e e3 3f 54 17 4e 3e
       -0.5398388 0.48085776 1.7758324 0.20126086
000140 3c a6 3f be 95 11 ab 3e ed df 02 bf 7c 98 28 be
       -0.18715757 0.33411852 -0.51122934 -0.16464418
000150 bd 08 de 3e 79 2d 7f bf a0 86 76 3e ab 42 d2 be
       0.43366042 -0.9967876 0.24074793 -0.4106649
000160 c2 54 c6 be a6 41 28 40 79 d7 34 bd ce 03 94 be
       -0.3873654 2.6290069 -0.044150803 -0.28909153
000170 58 7b 24 be f5 87 10 be 65 1e a7 3e 7f f2 4e bf
       -0.16062677 -0.14114363 0.32640377 -0.8083877
000180 55 b0 9c bd f6 69 d4 3e 94 b5 68 3f 50 43 35 3e
       -0.0765082 0.41487092 0.90902066 0.17701459
000190 98 e4 1b 3f 33 a9 b0 3e e4 eb ac 3e 9c 64 58 3f
       0.6089568 0.3450409 0.3377372 0.8452852
0001a0 0d aa 97 3f d4 d8 e9 be c1 a0 ab bf 99 4b 81 3f
       1.184877 -0.4567324 -1.3408433 1.0101196
0001b0 98 57 d7 3e 46 64 92 3d 3a 40 e7 be 76 31 b5 bf
       0.42059016 0.07148032 -0.45166188 -1.4155719
0001c0 13 f6 03 3f 66 83 13 40 33 dd 7b bf 02 34 c0 3e
       0.51547354 2.304895 -0.983844 0.3753968
0001d0 a8 c7 4b 3e 66 3e 02 3f 0c 6d c2 be e8 c5 8f 3e
       0.19900382 0.5087646 -0.3797382 0.28080678
0001e0 1e 24 6c 3f 50 26 8a 3f 9f e1 91 3d 64 5f 51 bf
       0.9224261 1.0792942 0.07123112 -0.8178618
0001f0 28 32 eb 3e 40 c6 49 bf 6b 40 33 3c e9 d0 4c 3f
       0.45936704 -0.7881813 0.010940651 0.8000627
000200 a0 39 ef be 1e 53 80 3e 72 68 eb bd 45 aa 0a bf
       -0.46723652 0.25063413 -0.11494531 -0.5416606
000210 83 56 5e 3e 83 c6 be 3e b5 a7 a1 be 31 4a 05 bf
       0.21712689 0.37260827 -0.31573263 -0.5206633
000220 07 49 c9 3f ce 0e 44 bf b3 69 e9 3e cf 73 08 3f
       1.5725411 -0.7658509 0.45588455 0.5330171
000230 74 9d 65 3e 23 14 c2 bf 12 99 21 bf 3f 52 ee bd
       0.22423345 -1.5162395 -0.6312419 -0.11636781
000240 66 27 04 3f 7d 05 44 bd 5a b7 e0 3c 0a 0d 11 3f
       0.5162262 -0.047856797 0.027431179 0.5666052
000250 b2 96 b7 bf b0 06 72 bf fd 8c 8b 3e c4 a1 d2 3c
       -1.4342864 -0.94541454 0.27256003 0.025711901
000260 ab a3 fb 3e 5e e3 40 bf 24 da c4 3e a1 ae 40 bf
       0.49148306 -0.75346935 0.38447678 -0.7526646
000270 6b 5c 52 bf 7a 1c 22 bf 6f 5f a2 3f cb 03 c4 bc
       -0.8217227 -0.633247 1.2685374 -0.02392759
000280 69 e3 dc be 99 cc e6 bd 0b d1 c0 3e 2f d4 28 3f
       -0.4314225 -0.11269493 0.37659487 0.65948766
000290 10 5a a8 be 1f 73 9f 3e 1c 0a af 3e bf 72 d5 3e
       -0.32881212 0.31142518 0.341874 0.41689107
0002a0 7d 21 25 3e 19 48 8e 3f d6 ce 49 be be 89 31 3f
       0.16126056 1.1115752 -0.19707808 0.693508
0002b0 ab 8e 80 bf cb 0b c8 be 3c 6d d3 3e 9b 9d 59 3d
       -1.0043539 -0.39071497 0.41294277 0.05312882
0002c0 63 02 e2 bf 78 01 9f be 2e 78 8a 3d 36 27 8e bc
       -1.7656978 -0.31055808 0.06761204 -0.017352682
0002d0 8e f0 4b be b3 c9 0c bf 07 69 8b 3f f8 14 c1 bd
       -0.19915983 -0.5499527 1.0891427 -0.094278276
0002e0 84 4d a4 bf 90 4e 55 be 9c d2 77 be 8c 4b 15 3e
       -1.2836156 -0.2083075 -0.24201435 0.145796
0002f0 f0 58 49 3e 83 6a 8c 3f 38 ba c6 3e d6 89 84 bc
       0.19662833 1.0970005 0.3881395 -0.016179007
000300 37 08 dd be e0 fe e3 3e a5 be bf 3f 53 6d 5b 3e
       -0.4317033 0.44530392 1.4980055 0.21428423
000310 12 fe fc 3e 2c a2 63 be 7f 1e b7 bd 8a 2a 4e bf
       0.4941259 -0.22229832 -0.089413635 -0.8053366
000320 64 c6 23 bf c0 ca 89 bd be a8 91 3e e8 df 9a 3d
       -0.63974595 -0.067281246 0.28449053 0.07562238
000330 f9 b9 85 be f2 bf e4 be 52 dc f3 3d 74 69 2d 3f
       -0.26118448 -0.44677693 0.11907257 0.67739034
000340 1c ac eb 3e e5 07 d4 3e c7 33 51 3d 47 ea 81 bd
       0.46029747 0.41412273 0.05107477 -0.06343513
000350 70 a9 81 be ae 69 10 bf 9a 0a df be 7d 8a 4e 3e
       -0.25324583 -0.56411254 -0.43562776 0.20170017
000360 90 fd 41 3f a6 39 5d 3d 51 e2 6f be 60 14 82 bf
       0.7577753 0.054010056 -0.23426177 -1.0162468
000370 07 05 06 3f 76 f1 a1 be 6f 6f ff 3e 6a 5f b8 3e
       0.5235142 -0.31629533 0.49889705 0.36010295
000380 ac 42 b7 be 0e 25 59 be 20 8d 15 3e 6f a5 b0 3e
       -0.35793054 -0.21205541 0.14604616 0.34501216
000390 61 2c 9e 3e ea f5 82 3f 23 a7 25 3f a3 85 77 3e
       0.30893233 1.0231297 0.64708155 0.24172072
0003a0 1c e1 bb bd b0 3e 7c 3e 22 13 2a be 53 f3 ad 3e
       -0.091737956 0.24633288 -0.16608861 0.33974704
0003b0 80 69 d3 be 4f 84 89 3c 3e b5 d5 3c b6 30 9b be
       -0.41291428 0.016786722 0.0260874 -0.303106
0003c0 bd b0 4a ba 83 79 ad be 1b 35 1d 3d 74 77 23 3e
       -0.00077320245 -0.3388177 0.038380723 0.15963537
0003d0 aa cb 3d be b8 06 83 be 3f db 11 bf 79 8a 78 bd
       -0.18534723 -0.25591063 -0.5697517 -0.060678933
0003e0 6e 9d 26 3f 4e 37 32 be c1 c0 91 3e d0 28 c6 bd
       0.6508397 -0.1740391 0.28467372 -0.09675753
0003f0 3d 34 39 bf 46 1b 7f bd 30 bc 4d bf 32 7d d3 3e
       -0.72345334 -0.06228187 -0.80365276 0.41306454

rnn.weight_hh_l1 f4 [256, 64]
000000 18 3c 4b 40 c3 a0 26 be 73 c1 c1 bf 43 3f 8e bf
       3.1755428 -0.16272263 -1.5137161 -1.1113056
000010 f2 e2 88 3f 94 ae ce bd 90 8d f4 bf 0e c2 44 c0
       1.0694258 -0.10091892 -1.9105701 -3.0743442
000020 94 8a 66 bf 50 38 7a bf fe a8 89 3f d7 f2 01 40
       -0.90055203 -0.97742176 1.0754697 2.0304468
000030 3b 45 7b 3f bf 78 68 be d5 26 a7 b9 06 cc 9a bd
       0.9815251 -0.22702311 -0.00031881654 -0.07558446
000040 23 c3 8a bf c4 a0 c8 be e8 21 f0 bf 20 d9 fa 3e
       -1.0840801 -0.39185154 -1.8760347 0.48993778
000050 9b a7 38 40 c6 84 ad 3f a2 39 8f bf 95 d3 54 be
       2.8852298 1.3556144 -1.1189463 -0.20783837
000060 db a0 2e 40 69 f3 47 40 35 ae f4 bf a8 1d a7 bf
       2.7285678 3.1242316 -1.9115664 -1.3055925
000070 19 ab 20 40 e5 e7 8d bf 69 cb e6 3e cf 43 b4 3f
       2.510443 -1.1086394 0.45077065 1.4083194
000080 79 bf 35 bf de 7b e8 bd 55 6a dd bf 30 33 f1 bf
       -0.7099529 -0.11351751 -1.7298075 -1.8843746
000090 f3 7a 77 bf 1f e2 13 bf 38 11 29 40 51 56 b5 3e
       -0.9667198 -0.5776691 2.641676 0.35417417
0000a0 27 9f 1e c0 73 ef aa bf 20 49 b9 3e 56 93 ce bf
       -2.478464 -1.3354324 0.36188602 -1.6138713
0000b0 8f 09 44 3f 84 0e 9b 3f 06 92 12 40 a0 a2 0f bf
       0.76577085 1.2113805 2.2901626 -0.5610752
0000c0 9a 0a a2 be 45 0f 41 c0 e8 a1 3d bf ce 82 c8 3e
       -0.31648713 -3.016557 -0.74075174 0.39162296
0000d0 64 a3 c8 bf ea e9 d5 bf 08 62 f1 3d 2f 68 2a 3f
       -1.5674863 -1.671201 0.11786276 0.6656522
0000e0 0e 8a e2 be d1 97 ec bf 95 34 d6 bf a7 0e b4 bf
       -0.44245952 -1.8483831 -1.6734797 -1.4066972
0000f0 3d 6e c8 bf 6c cf f1 bf 95 ce 9a be 0c 5a 1c c0
       -1.5658642 -1.8891425 -0.30235735 -2.442996
000100 d6 42 6d bf 1b 10 c3 3e 08 e1 b2 bf 6f 45 68 bf
       -0.9268011 0.38098225 -1.3974924 -0.9073095
000110 f7 7c 88 3e a2 9c bf bf ad 0f 59 bf d7 51 8d 3f
       0.2665784 -1.4969676 -0.84789544 1.10406
000120 53 78 22 be d0 a1 3e 3f ac 51 80 be 35 7e e0 be
       -0.15866213 0.74465656 -0.2506231 -0.43846288
000130 67 a5 8a bd 05 e9 f4 be 30 05 a1 be 9d c5 1f bf
       -0.06769829 -0.4783403 -0.3144927 -0.6241091
000140 a9 07 c3 bf 07 3f b3 3e 2d d8 ac 3f 04 83 52 3f
       -1.5236713 0.35009024 1.3503472 0.82231164
000150 da 11 f9 bf 31 14 8f 3d 9f 98 84 bf 2c 55 1a be
       -1.9458573 0.06986273 -1.0359076 -0.15071553
000160 a8 48 28 3f 80 c7 60 3e ac b4 06 39 cc d5 f3 3d
       0.65735865 0.21951103 0.00012846541 0.11906013
000170 33 f8 2e bf d5 a5 a4 bf 5d 87 ff 3e f2 e3 07 c0
       -0.6834747 -1.2863108 0.4990796 -2.1232877
000180 e2 c9 32 be 3b 1b 80 bc 19 31 a1 3f 46 67 01 be
       -0.17459825 -0.015637984 1.2593108 -0.12637052
000190 fc de 1d 3f 17 3c a1 3f 93 09 8d 3e e9 16 45 bf
       0.6166837 1.2596463 0.27546367 -0.76988083
0001a0 fc e1 46 3e f3 ea 01 be c5 ef 4b 3f b6 a3 78 bf
       0.19422144 -0.12687282 0.79662734 -0.97124803
0001b0 80 5f da 3c 44 b4 8c 3f f2 10 20 3d 4a d7 ac 3f
       0.026656866 1.0992513 0.03907866 1.3503201
0001c0 53 58 93 3e 58 86 2a bf 3f 4f d2 3d c9 e0 82 3e
       0.28778324 -0.6661124 0.10269021 0.25562122
0001d0 5f 57 ae bf 16 a8 b4 bd 5a fd 11 bf 1c f8 91 3e
       -1.3620414 -0.08821122 -0.5702721 0.28509605
0001e0 55 1b 42 be f2 a7 90 be b8 f1 bd 3f 68 31 b8 bf
       -0.18955739 -0.28253132 1.4839392 -1.4390078
0001f0 35 9e d9 3e a6 29 94 3d f8 a8 c1 bf 38 a0 e3 3d
       0.42503515 0.07234506 -1.512969 0.11114544
000200 46 d7 99 3d 2f b9 b0 be 48 4c 03 bf 93 2f db bf
       0.07511763 -0.34516284 -0.5128827 -1.7123893
000210 85 ea bb 3e e7 cf a1 3c 7c 26 42 bf 4d 7d 66 3d
       0.36702362 0.019752456 -0.7583997 0.05627184
000220 d7 0d ea 3e ee 79 eb be 4d 20 a5 3e 69 50 8a bf
       0.45713684 -0.45991462 0.32251206 -1.0805789
000230 09 c6 07 3f 16 03 38 bc 40 c6 2e be 68 23 55 be
       0.5303655 -0.0112312045 -0.17067814 -0.20814288
000240 be 99 85 bf f3 fb e5 be 7e 84 17 3f db 58 51 3d
       -1.0437543 -0.44918784 0.5918654 0.05111013
000250 cf c7 a2 3f a7 f3 e2 3f 67 bd a3 bf 2d a4 32 bf
       1.2717227 1.7730607 -1.2792176 -0.6978176
000260 41 42 96 3f 62 7b 43 3f 23 51 89 3e e0 fd 93 be
       1.1738969 0.7636014 0.26819715 -0.2890463
000270 6b d4 40 3f 8e f4 2e bf 21 48 d1 3e 48 8d bd 3f
       0.75324124 -0.6834191 0.40875342 1.4808741
000280 1d 1f 94 bf 86 43 60 be 8c c0 be bf 12 f1 9d bf
       -1.1571995 -0.21900758 -1.4902511 -1.2339194
000290 6b 6d 12 bf 0c bb e8 bd b2 1e 99 3f ea 05 5d 3d
       -0.5719821 -0.11363801 1.1962492 0.05396072
0002a0 16 6a d6 bf dd 37 57 bf 4e e4 3f 3f e9 05 3e bf
       -1.6751125 -0.84069616 0.7495774 -0.7422777
0002b0 a5 87 85 3f 20 c2 38 3f ee ce 40 3f ee 5d c3 3d
       1.043202 0.7217121 0.7531575 0.095394
0002c0 9a 49 59 3d 5b f0 27 c0 06 ad 04 3e 1b d5 24 3f
       0.053048708 -2.6240451 0.12956628 0.64387673
0002d0 f6 2f fb be f0 3f d6 3e 5e 5b 8e 3f 49 48 75 3f
       -0.4906003 0.41845655 1.1121633 0.95813423
0002e0 a5 96 46 bf 15 9e 87 bf 98 26 1f c0 0f 9d 8d bf
       -0.77573615 -1.0595118 -2.4867306 -1.1063555
0002f0 f6 8e dd be 4a 08 58 3e a0 ed f6 3d 87 e1 14 bf
       -0.43273133 0.21096912 0.12057042 -0.5815663
000300 c8 69 2d bf 8a 5a 3d 3c 0f 28 d2 3f 07 f8 14 bd
       -0.67739534 0.011557231 1.6418475 -0.03636935
000310 41 ba 92 bf 2b 86 36 bd dc 96 10 3f e5 ff cc bf
       -1.146309 -0.044561546 0.56480193 -1.6015593
000320 df 9b da 3e 2e cc 92 bf 9a cb 03 bf f6 f1 ab bf
       0.42697045 -1.1468561 -0.51482546 -1.3433216
000330 fa bd d4 3f 47 d1 9a 3f 09 b9 2f bf f2 c4 7c 3e
       1.6620476 1.2095116 -0.68641716 0.24684504
000340 c7 1f 7f be 75 c9 92 be 7b 78 ae bf f5 90 6b 3e
       -0.24914466 -0.28669325 -1.3630518 0.23004515
000350 a5 f2 74 bf e6 f4 13 be cc f3 a0 be 8b 5e b0 3f
       -0.95682746 -0.1444889 -0.31436002 1.3778852
000360 f9 be c2 be 57 33 ba 3f 5c 23 97 be ad e0 bb 3f
       -0.38036326 1.4546918 -0.29519165 1.4677941
000370 62 56 b9 bf 4b 2a 69 bf 41 77 9d 3e 04 6b 3e bf
       -1.4479487 -0.9108016 0.30755046 -0.7438204
000380 05 1e 5e 3f 89 fb f6 be b7 90 2d be 81 84 50 3e
       0.86764556 -0.4823878 -0.16949736 0.20363046
000390 f0 dd 50 c0 64 d4 e8 bf 15 78 ac 3f c3 17 04 c0
       -3.263546 -1.8189816 1.3474146 -2.0639503
0003a0 a0 4e 24 bf 26 5b d0 3f 16 be 78 3f 9d bd b1 be
       -0.6418247 1.6277816 0.9716505 -0.34714976
0003b0 73 06 02 3e f5 dc e0 3f ad 21 89 3f 0c 9e ba 3f
       0.12697773 1.7567431 1.0713402 1.4579482
0003c0 5c 84 c7 3d 78 04 7c bf 0e 12 10 3b 30 07 0a bf
       0.097420424 -0.9844432 0.0021983418 -0.5391722
0003d0 ab bd d6 be 74 18 08 bf 7a df 80 3f a2 60 d2 3e
       -0.4194158 -0.5316231 1.00682 0.4108935
0003e0 80 27 aa 3f a5 76 b7 3e d2 83 09 40 cb b2 15 c0
       1.3293304 0.35832706 2.1486707 -2.3390377
0003f0 de 1e 28 bf 69 5a e0 be 6f 17 6e bf b1 b9 83 3f
       -0.656721 -0.43818977 -0.93004507 1.0291044

rnn.bias_ih_l1 f4 [256]
000000 bc 76 65 bf 7f c5 0d 3f 75 2e dc bf f1 d4 a1 be
       -0.896343 0.5537948 -1.7201678 -0.31607774
000010 d1 26 e0 be 5e 30 49 3e 11 cd 2d be ac 78 e1 3d
       -0.43779615 0.19647357 -0.16972758 0.110093445
000020 a2 b4 e0 3e 13 24 50 be 1c 7e e2 3d e3 c8 df be
       0.43887812 -0.20326261 0.1105921 -0.43707952
000030 1d 0e 80 3f ec 41 14 bf 5f 88 79 3f a0 c9 15 bf
       1.0004307 -0.5791309 0.9747371 -0.5851078
000040 d5 61 8b 3f e1 53 68 3f af 2c 6c 3e 9b c6 8c bc
       1.0889231 0.9075299 0.2306392 -0.017184546
000050 0b ac 22 bf 2a 37 83 bf 1d 24 0b bd fe 27 e3 be
       -0.63543767 -1.025121 -0.033969987 -0.4436645
000060 99 d3 96 3e e8 ef 00 be 19 a0 b2 be b7 cd 51 3f
       0.2945831 -0.12591517 -0.3488777 0.8195452
000070 a4 fa 0b bf 54 57 33 bf 9a d3 34 3f 61 98 70 be
       -0.5467932 -0.7005513 0.7063538 -0.23495628
000080 86 68 8d 3e 9a de ca be b6 f9 11 bf 98 02 b2 3e
       0.27618808 -0.39622957 -0.57021654 0.34767604
000090 92 7b 01 bd 3f a1 a7 be 29 4c d9 be 8f 20 42 bf
       -0.031611986 -0.32740209 -0.42440918 -0.7583093
0000a0 a5 f9 5e 3f 84 d0 b3 be d4 f1 94 3f a8 1f b8 bf
       0.8709968 -0.35120022 1.16363 -1.4384661
0000b0 de 37 3e 3f 12 1c d8 be bd 2b 4b 3e 01 be 88 bf
       0.74303997 -0.42208916 0.19840904 -1.0682985
0000c0 f0 bb 0d bf 29 27 e8 be 73 69 97 be 87 ca 93 3e
       -0.55364895 -0.45342377 -0.2957264 0.28865454
0000d0 60 40 c7 3e 14 44 24 bf c8 26 39 be 83 f9 bd 3f
       0.38916302 -0.6416638 -0.180812 1.484177
0000e0 22 d7 ce 3c db d2 64 3e 30 15 6f 3e 39 bd 3e bf
       0.025249068 0.2234606 0.23347926 -0.7450748
0000f0 cb 35 32 bf a0 68 03 be d0 d6 ef 3e 01 40 d9 3d
       -0.6961333 -0.1283288 0.46843576 0.10607911
000100 a3 26 a3 3b 9e fc 67 bf 7c e2 b1 be fc 7b 3e 3f
       0.004978971 -0.9061984 -0.34743106 0.74407935
000110 f3 bd 48 3f 8f 49 f5 be 8e 47 0e 3f 99 64 e3 be
       0.7841484 -0.47907683 0.55577934 -0.44412687
000120 00 f0 96 3e 3b 11 eb 3e 5f 2c 2a bc 26 98 7d 3e
       0.2947998 0.45911583 -0.010386555 0.24765071
000130 ad f5 a7 bf ef cd aa be 98 a4 53 bf 2a d7 79 bd
       -1.3121849 -0.3336024 -0.82673025 -0.060996212
000140 a0 f7 91 bf 52 d6 69 bf 68 fc e8 bd 16 df ce 3e
       -1.1403694 -0.9134265 -0.11376268 0.40404576
000150 a0 15 3d 3e 84 a4 44 bf 17 bc 1d 3b 23 b3 83 3f
       0.1846528 -0.7681353 0.002406841 1.0289043
000160 55 34 9a be 2c 27 3d be 91 27 43 bf 36 51 af bf
       -0.3011805 -0.18471974 -0.7623225 -1.3696659
000170 a5 f1 29 bd eb 32 af be 97 8d f3 3e 17 7d 33 3f
       -0.041490216 -0.34218535 0.47568962 0.70112747
000180 3e 15 d1 bd 1a 47 78 3f 49 49 82 3f 8f d8 b1 3e
       -0.1020913 0.9698349 1.0178615 0.34735534
000190 af 6c c8 be ff 52 6c bf 5b 23 a6 bf 6c ff 49 bf
       -0.3914542 -0.9231414 -1.297954 -0.7890537
0001a0 df ff 6a bf d4 68 7c be 87 4a 9b be 9b 42 45 bf
       -0.9179668 -0.24649364 -0.30330297 -0.77054757
0001b0 f6 a1 9e bf 4a 21 ad bf 0c f2 35 bf bd 82 45 3d
       -1.2393177 -1.3525784 -0.7107246 0.048220385
0001c0 52 f0 c5 be 01 c9 b7 be 1c 7b 2a bf e1 61 06 bf
       -0.38659912 -0.3589554 -0.665941 -0.524931
0001d0 dc c8 df 3e 7e 8e 46 be 5f 07 30 be e0 19 b7 bc
       0.4370793 -0.19390294 -0.17190312 -0.022351205
0001e0 c4 95 88 3e d9 56 26 3f 32 e3 b1 3d be 6a 37 bd
       0.26676762 0.6497627 0.08685912 -0.04477953
0001f0 ca bd 86 be b0 10 a3 be 90 73 c4 3e 64 ef 5d be
       -0.26316673 -0.3184867 0.38369417 -0.21673352
000200 e5 1f 9e 3e 6d e6 56 bf 11 a3 8e be 6e c5 1d be
       0.3088371 -0.8394535 -0.27858785 -0.15407345
000210 fe 3f 1a bf 36 97 72 3d da 2d 5b 3f 9c 68 83 3f
       -0.60253894 0.059226237 0.8561684 1.0266299
000220 39 45 a9 bc 70 5d 2f bf 52 51 15 3d 1a a6 86 3f
       -0.02066289 -0.6850195 0.036454506 1.051944
000230 3f c8 5d be 34 8b ba bc d2 47 83 be 78 bb 17 bf
       -0.21658419 -0.022771455 -0.25640732 -0.5927043
000240 14 3b 13 be 2a 6a be 3e 58 ed 19 bf 94 57 63 3f
       -0.14378005 0.37190372 -0.6012778 0.8880551
000250 e2 aa 52 bf 25 d4 0b 3f d6 40 21 3f ab dd 90 3e
       -0.82291996 0.5462058 0.62989557 0.2829412
000260 fb 44 67 3d 99 7f a8 3d d5 a8 26 bf 97 c9 5b 3e
       0.05646227 0.08227462 -0.6510137 0.21463619
000270 90 6c 51 bf 5c 53 33 be a2 ef 82 bf f9 29 39 be
       -0.8180628 -0.17512268 -1.022938 -0.18082418
000280 c8 71 c9 bd bc 7d e1 3e ff 65 d4 3e eb 3a 9d be
       -0.09836155 0.4404124 0.41484067 -0.30709013
000290 53 09 6f 3f 8a ba e1 be 6f 54 a0 3e 05 1f 9a 3e
       0.933736 -0.4408763 0.31314418 0.3010179
0002a0 d0 68 92 3e 58 b4 4a 3f cb ed 78 be 1a d3 4b 3f
       0.2859559 0.7918143 -0.24309461 0.7961899
0002b0 f5 40 eb be e9 85 1d bf 81 f1 28 bf 43 d5 42 3f
       -0.45947996 -0.61532456 -0.65993506 0.7610666
0002c0 e3 ef c3 3e 2e 7a 1b 3e 37 56 49 3e 4c 05 bf 3e
       0.38268957 0.15183327 0.19661795 0.3730873
0002d0 23 06 a7 bd 3e e4 48 3f 8a ae 1c be 07 4d ca be
       -0.08155467 0.7847327 -0.15300956 -0.39511892
0002e0 86 66 43 3f 5e 1d 87 bf 7e 48 c4 be 08 ef 66 3e
       0.76328313 -1.0555837 -0.38336557 0.2255212
0002f0 26 3f 38 be 9c a0 1d bf 75 8b 61 be 64 10 2c 3e
       -0.17992839 -0.61573195 -0.22025855 0.16803128
000300 89 cb 8c 3e 21 2c aa be 4b e7 0e be 09 fb d5 3e
       0.27499035 -0.33236793 -0.13955419 0.41793087
000310 58 21 c3 3e 7e 35 a9 3e 8b c5 74 3e 3b 3a a6 bf
       0.38111377 0.33048624 0.23903482 -1.298652
000320 71 5e 83 bf fd de d3 be 37 44 4b be b4 31 7c be
       -1.0263196 -0.41381064 -0.1985024 -0.24628335
000330 27 ff a4 3b 4f 74 f0 be ec 9f 43 3f d0 90 18 bd
       0.0050352993 -0.46963736 0.76415896 -0.03724748
000340 e5 c3 38 3f e3 69 b1 3e e6 ac 6b 3f ff a5 f0 bb
       0.7217391 0.34651098 0.920607 -0.007344007
000350 8c a9 5f be 1e be 53 bf c0 18 ff 3c 82 c2 b3 bd
       -0.21842021 -0.8271197 0.031139731 -0.08777334
000360 d2 24 c4 be d2 e1 9a be c5 f9 a6 bf b7 59 2e bd
       -0.38309342 -0.30250412 -1.3044974 -0.042566027
000370 31 ee 46 3e 20 f0 2b bf 29 6d 44 be 66 b8 89 bf
       0.194268 -0.67163277 -0.19182266 -1.0759399
000380 e7 6d d6 bd b1 63 59 bf d4 8b da be 93 16 c9 be
       -0.10470181 -0.8491774 -0.42684805 -0.39275035
000390 1b 43 49 be 2e a1 b0 3e a8 d5 4a 3e 8d 60 75 bf
       -0.19654505 0.3449797 0.19808066 -0.9585045
0003a0 6a 09 73 bf ca 43 5a bf 06 43 82 3f a0 4c 3f bf
       -0.9493624 -0.8525969 1.0176704 -0.74726295
0003b0 e6 83 2a 3f 5a 7e 81 bf 34 d9 38 be 31 12 aa 3e
       0.6660751 -1.0116684 -0.18051606 0.33217004
0003c0 79 fe 34 bf 97 99 46 bf f5 26 2b be 18 02 69 3e
       -0.70700794 -0.7757811 -0.1671408 0.22754705
0003d0 41 a6 85 bf 23 74 75 3d 90 ce e7 be 76 26 f7 3e
       -1.0441362 0.05992521 -0.45274782 0.4827153
0003e0 c8 0b 27 bf 35 7d 81 bf a0 c0 9f bf c6 8c ac bf
       -0.6525235 -1.0116335 -1.248066 -1.3480461
0003f0 fc f8 1e bf 10 22 a8 be 28 df 80 3e a0 cd 72 be
       -0.6209867 -0.32838488 0.25170255 -0.23711252
