models/modelRNN_lang5_abNumbothEven.pt (torch, 511747 bytes, 9 tensors)

rnn.weight_ih_l0 f4 [256, 300]
00000000: afcd 04bf 3ce4 6d3f 44f1 96be bc9d 703f
00000010: 4446 bdbf 0efe 4b3d ddf6 dbbe dc05 183f
00000020: ed28 1ac0 c665 0840 c7bd 5cbe ec94 2dbf
00000030: 84ac bcbf 8d2c c73e c4a5 093f b381 9bbf
00000040: f4f0 73bf 3fe5 213f 5eb6 cdbd 0c48 9a3e
00000050: a85b 42bf 018b 91bf a180 4b3f 74a2 9d3f
00000060: 0f56 513f c922 2cc0 f9ef 15bf 8b4c eb3e
00000070: 5086 f83e 8930 5940 acd5 5c3f 4d7f 3ebf
00000080: e449 653e 5174 45bf fc46 af3e 6e12 3e3f
00000090: 8e1f bfbd e8ae fcbe 175e 0cbf 3a48 1940
000000a0: 981a 28be 90e1 743f 4c72 64bf 7695 6b3f
000000b0: d7ec 633f 1c57 613d 30d6 7b3d 41bb b93f
000000c0: ce33 73bd 0ecf 813f 341e 1b3f dc4e 9abe
000000d0: 7f79 c6be 77a4 5a3f bdb7 55bf 83d6 0ebf
000000e0: 982d bfbe e8dd e73e aff5 673e 6296 e83d
000000f0: f594 e1be 6c9b d53e 5fa1 b4bf 3a80 7ebe
00000100: f22e 9dbf b435 283f 4c18 df3f 8377 5b3d
00000110: 51f6 a73f 4f63 153f 49ce 9b3f 29e8 cb3f
00000120: 9ee0 c7bf de5b b5bf 38d9 89bf 5ab5 eebc
00000130: 7c37 0bc0 e208 9bbf de7b cc3f 1fdb 61be
00000140: 9376 c4bf 2523 a1bf bd69 8c3f cd89 d73d
00000150: 321a f0be 4260 8fbf 6e94 9b3d 5c77 e8bd
00000160: c748 27bf 6853 f23f 2555 02bf fc4b dfbf
00000170: 4d5e 50bf 776d a73f 3aa7 14c0 e5b2 84bf
00000180: fc4f f8be fad0 b83d ac3c 0abf 4f3e 20bf
00000190: b158 8fbf 87e1 df3f 08cf eabf 0a69 25bf
000001a0: dd00 613f 1d34 1d3f 1098 403f a0ed f63e
000001b0: 67da f13e 77b0 0b3f 2332 f73d cbad c83c
000001c0: 3579 673f d8fe 9a3f 8184 573e ee67 703f
000001d0: 9375 3e3f adee 8abf 8dbf e63e bb34 4c3f
000001e0: e249 2b3f 618e 623f f107 c23f f8c7 823f
000001f0: a36c 003f 877f a83e 260d 1fbe ce65 ea3f
00000200: f6b6 9f3f 5879 b43f e73c b03e b7dd 8fbf
00000210: 07fd 82bf 2545 52be 3194 97be 3067 093f
00000220: b114 dabf 324b 793f 8523 b9bf 0a88 b73e
00000230: 98c4 92bf 9654 5c3f e863 24bf e0fe af3f
00000240: 8e9b 5e3f 650e 4e3f c49c d03e c56e 153f
00000250: 79c7 953f 1a9a 76bc 1720 3e3f b235 183e
00000260: d8a2 9abf b570 6dbe 4010 cdbf 3226 b5bf
00000270: 0f6c f8be 233e f8bf 1712 8c3d dc5a ac3f
00000280: 2d82 a1bf 223f 543f 5abd c03e 51bb b8bc
00000290: fd86 5b3f 2bb7 2d3f 565d 2c40 ebf7 b4bd
000002a0: e385 07c0 642e bb3f 7142 a03f 5d05 233e
000002b0: 4896 cbbd 7771 c43f 6171 793f 1761 793f
000002c0: 8ecc 233f 920d 4d3f f32b cabf 691a 9cbe
000002d0: 5ffa 323f 9849 213f 525d 953f 26f7 9abf
000002e0: 077b 82bf 34bd 3abf b393 4abf 2248 6abf
000002f0: 2b8b a13e 3427 d53e 72a2 99be b830 cabd
00000300: fdc9 023f 9626 b83f 12de 0e3d fb62 e8bf
00000310: b40d a63f 666e 513e a9f2 21c0 31cc 85bf
00000320: 6080 1ebe bfc5 ddbf 2541 c0be 7099 66bf
00000330: a3e2 8cbe 942d d43e ee49 0540 7515 82bf
00000340: abde 9abd 2cc2 17bf f7e2 bdbc af63 9dbe
00000350: 2cb7 eb3f d5de b93d 7bf3 64bf 66b6 93bf
00000360: da2b 59bc f451 d1bf e714 2f3f e1d6 b53e
00000370: fb10 df3f 4a6d 1b3e 2aa3 7abf 844b 8040
00000380: 91de cf3f 5adc 01bf 7ddc 74bf cec3 a9be
00000390: 227d bcbe f14a afbe 7bd8 b43f 545b b3bd
000003a0: 6439 56bf 97b5 663f 2c6e 9abf 34ff 2bbf
000003b0: 66c5 afbf 6501 50c0 5f09 35bc 5d06 723f
000003c0: 3c72 4abe 6928 c9bf daa0 a13e 8c4c bbbf
000003d0: 55ea 91bc 8d80 8f3f d864 acbf 75cd c73e
000003e0: 9811 b73e 4d26 0ec0 9b8e 7a3c b788 06bf
000003f0: e068 edbd f370 c9be 0b42 8abe d9f5 f23e
-0.5187635 0.92926383 -0.29480946 0.93990684 -1.4787068 0.049802832 -0.4296178 0.5938394
-2.408748 2.1312118 -0.2155677 -0.6780536 -1.4740148 0.38901177 0.53768563 -1.2148956
-0.9528954 0.63240427 -0.100445494 0.30133092 -0.75921106 -1.1370546 0.7949315 1.2315202
0.8177194 -2.689623 -0.58569294 0.45956835 0.48539972 3.3935874 0.8626354 -0.74412996
0.22391468 -0.7713061 0.34233844 0.7424687 -0.093321905 -0.49352193 -0.5483107 2.3950334
-0.16416395 0.9565668 -0.89236903 0.92024934 0.89033264 0.055014715 0.061483562 1.451027
-0.059375577 1.0141313 0.6059296 -0.3013829 -0.3876457 0.85407203 -0.8348349 -0.5579607
-0.37339473 0.4528649 0.22652315 0.11356808 -0.44058958 0.4172014 -1.4111747 -0.24853602
-1.2279952 0.65706944 1.742929 0.053580772 1.3122045 0.5835466 1.2172328 1.5930225
-1.5615423 -1.4168661 -1.0769415 -0.02913921 -2.1752615 -1.2112086 1.5975301 -0.22056244
-1.5348686 -1.258885 1.0969769 0.1052433 -0.46894985 -1.120125 0.0759667 -0.11350891
-0.65345424 1.8931704 -0.5091117 -1.7445064 -0.8139389 1.3080281 -2.3227067 -1.0367094
-0.48498523 0.09024234 -0.5399883 -0.62595075 -1.1198941 1.74907 -1.8344431 -0.646134
0.8789194 0.61407644 0.7523203 0.48228168 0.4723694 0.5456614 0.1207011 0.024496933
0.9041932 1.2109022 0.2104664 0.93908584 0.74398154 -1.0854088 0.45068017 0.7976796
0.6690961 0.884985 1.5158674 1.0217276 0.50165766 0.32909796 -0.1553236 1.8312318
1.247771 1.4099531 0.34421465 -1.1239537 -1.0233468 -0.20534189 -0.2960525 0.53673077
-1.7037565 0.97380364 -1.4463965 0.35845977 -1.1466246 0.8606657 -0.64214945 1.3749657
0.8695611 0.80490714 0.40744603 0.58372146 1.1701499 -0.015051389 0.74267715 0.14864233
-1.2080946 -0.23187526 -1.6020584 -1.4152281 -0.48519942 -1.9393963 0.06839388 1.3465228
-1.2617851 0.82908833 0.37644464 -0.022550257 0.8575285 0.6785762 2.6931968 -0.08836349
-2.1175468 1.4623532 1.2520276 0.15920015 -0.09940773 1.5347127 0.9743863 0.9741377
0.63984 0.8009883 -1.5794662 -0.304889 0.69913286 0.6300292 1.1669104 -1.2106674
-1.0193795 -0.7294495 -0.7913162 -0.91516316 0.3155149 0.41631472 -0.30006748 -0.098725736
0.5108946 1.4386775 0.03487975 -1.8155206 1.2972932 0.2045227 -2.5304358 -1.0452939
-0.15478659 -1.7325972 -0.375497 -0.9007788 -0.2751666 0.41441023 2.0826373 -1.0162798
-0.07562002 -0.5928066 -0.023179514 -0.30740115 1.8415275 0.09075705 -0.8943402 -1.1540039
-0.013255084 -1.6353135 0.6839127 0.35515502 1.7427057 0.15178409 -0.9790522 4.009218
1.6239797 -0.50726855 -0.9564894 -0.331572 -0.3681422 -0.34236863 1.4128565 -0.08757654
-0.8368132 0.90120834 -1.2064872 -0.67186284 -1.3732116 -3.250085 -0.0110495975 0.9454096
-0.1977014 -1.5715457 0.31568033 -1.4632735 -0.017811934 1.1211106 -1.3468275 0.3902394
0.3575561 -2.2210877 0.015292789 -0.5255236 -0.11592269 -0.39343986 -0.27003512 0.47453192

rnn.weight_hh_l0 f4 [256, 64]
00000000: a822 0240 12c6 aebe d887 d0bd b282 e93d
00000010: 008f 023f 759d 13bf 2524 0e3f fb38 77bf
00000020: bf90 1e3f 26bd 433f 2b8f 65bf 6ff9 603e
00000030: 7b27 3ebf 0885 333f 16b2 90bf 4f74 493f
00000040: 0614 f5be dfcf a63f eda9 133d b2af 7f3f
00000050: 6bd2 9abe 80e6 4e3f 1f7b 343d bb12 f3bd
00000060: 39f7 0bbf ba92 f03f 267c 173e c6fd 923f
00000070: 30f2 663f 49a3 69bd 1a6d 9dbf 557f 60bd
00000080: 6c10 8cbf 120c ca3e 3134 6ebf c24d cd3f
00000090: b596 5e3e 6056 46bf 3222 cabe 075d dcbe
000000a0: 510d 803e e143 20bf a551 613f 938d bc3e
000000b0: c4bb ad3f eb2c 2bbf 100f f3bf c3ea 4f3f
000000c0: d76b f83f 281b 53bf 3688 84be 1bc4 483e
000000d0: 69a1 7cbf 2818 80be 9660 613f 4a7a 293e
000000e0: 2e49 383f 88b9 c73e a6bf 883f 6b77 793f
000000f0: be6d c9bf 0706 38be 3972 fc3d 57e6 7fbd
00000100: b71d 39bf 56c7 853f 5066 57bf 06af 58bf
00000110: 222b 2f3f ec76 a53d cc27 d53f 4bb4 98bf
00000120: 50a6 8bbe d845 58bf 59dc 75bf 6b37 b43f
00000130: d990 d33e cd75 733e 17c8 b23f 9bce 7c3e
00000140: 7ae7 f73e 38e5 d4bd f39a b3bf 5257 093d
00000150: fdb8 0fbf 0d68 2a3f 9e96 1ac0 a5d9 76bf
00000160: 5b47 02be fca4 eebf e8c0 b63e 40b0 1a3f
00000170: d7cb 2abf ba86 e0be dedf b53f ae3e 6f3f
00000180: de20 c6bd 21cc 083f 57c7 3cbf 12bf 263f
00000190: 93c8 153d 82ff 13c0 f2ff 17bd 6574 51be
000001a0: f35b 393f 0cf4 4d3f 1f55 8f3e a45a 143f
000001b0: 63a9 413f e7f2 f23e eb62 4dbf 4aff d33e
000001c0: 234f b53f aeac 50bf be9d 81bc c252 913d
000001d0: f448 35be 60b0 8c3e 0fde 3f3f 0cfe 40bf
000001e0: 49d4 8ebf 1f03 883f eb04 8cbf 2bf5 cfbf
000001f0: 6b53 f0bf 8349 323f 1d13 01c0 e0fb 3640
00000200: 7e16 253f 3220 35bf b77a 943e 32ff 503f
00000210: bfdc 1f3d f7c8 2c3f 879d 1fbe c886 08bf
00000220: 7f99 0d3f b279 b1be e45c 7d3f 95a6 f43e
00000230: 56ce 5b3f 1218 fe3c deb9 a73e a2bd a93e
00000240: 3ee5 a53e 8ee6 293e b884 b7be 91e0 083e
00000250: 91dc 2c3d 06ea 303f 8d75 023f 4d23 69be
00000260: 1b15 0e3f aa59 8c3f a2b4 193f 247b 0fbf
00000270: 98b3 6d3f 42d7 19bf cb5a 2b3f f586 e03b
00000280: f8fe 7d3d 5942 62be 7ced 03be e99d 57be
00000290: 988e 453f 70c8 703e 55cd 00be bfe5 a73e
000002a0: 48f8 24bf f4f0 9b3f 5bb2 37bd dde0 d23e
000002b0: 1e98 33bf ef7c 183f 3a30 1d3f 3e97 1bbf
000002c0: cf33 0bbf 4c8f 863e bd01 e5bf feb5 1d3f
000002d0: 41a2 653f 5685 25be d77a 2fbf 73d5 653f
000002e0: ed04 20bf a817 053f bc20 08bd 505d 463f
000002f0: fc33 4ebe 1464 1ebd 661f 77bf e35d dc3d
00000300: f207 97bf c8bc df3f a8ee d73e d58c 233f
00000310: 5506 233f 111e d73f 808a 9f3f 4316 183e
00000320: 20ee 173f 75e7 1e3f 4736 abbf 0cb1 d03e
00000330: 21fb cf3f 6538 bbbf 6f6c 8b3e 7247 2c3e
00000340: 782f f7bd 3239 193e f21d 40c0 d4da 9fbe
00000350: af3e 89bf 13e5 843e ac2c 07c0 7a04 f73d
00000360: d65f c33d 735f 63bf ccbc 093d 85eb a23f
00000370: 593f 86be 555d 8dbf de31 663f 63ce 25bf
00000380: 6f83 013f f255 68bf f916 7f3f 5a3f c6bd
00000390: 6d9c c8bf 33cc 70be 51d8 89bc 93a2 68bf
000003a0: 1f0e ef3d 717c cb3e c6bc 49be a9eb bf3d
000003b0: db6d 943f 0157 c4be dbb8 ffbf d7a0 4d3e
000003c0: 2726 0f3b 6037 9ebe d8f5 a0bf c04a c7be
000003d0: 2e52 68bf 807a 9fbe 6710 063f f72b 0fbf
000003e0: a7d1 383f 0ebd 45bf 1cfd e1be 35b3 41bf
000003f0: 13fb 893e 8d38 ac3f 2a6c 26bf f2c9 833f
2.0333652 -0.3413549 -0.1018216 0.11401881 0.5099945 -0.57662135 0.555239 -0.9657132
0.61939615 0.7646049 -0.8967158 0.21970151 -0.7427899 0.70124865 -1.1304348 0.786931
-0.4786684 1.3032187 0.036050726 0.99877465 -0.3023866 0.80820465 0.04406273 -0.11868807
-0.54674107 1.8794777 0.14793453 1.1483696 0.902133 -0.057040486 -1.229892 -0.054808933
-1.0942512 0.39462334 -0.9304839 1.6039355 0.21737178 -0.7747555 -0.39479214 -0.43039724
0.2501016 -0.62603575 0.88015205 0.36826763 1.3572927 -0.66865414 -1.8988972 0.8121759
1.940791 -0.8246331 -0.2588517 0.19606058 -0.9868379 -0.2501843 0.88038003 0.16550556
0.71986663 0.39008737 1.0683486 0.9744784 -1.5736616 -0.17971049 0.12326474 -0.06247553
-0.72310966 1.0451458 -0.8414049 -0.84642065 0.6842519 0.08079323 1.665277 -1.1930021
-0.27275324 -0.84481573 -0.9603935 1.4079412 0.41321447 0.23775406 1.3967313 0.24688189
0.4841879 -0.103952825 -1.4031662 0.03353054 -0.56141645 0.6656502 -2.415443 -0.9642585
-0.12722532 -1.8644099 0.3569405 0.60425186 -0.66717285 -0.43852788 1.4208944 0.93455017
-0.09674238 0.53436476 -0.7374167 0.651353 0.036568236 -2.31247 -0.037109323 -0.20454557
0.7240593 0.8045051 0.2799463 0.57950807 0.7564909 0.47450945 -0.8022906 0.41405708
1.4164776 -0.8151349 -0.015822288 0.07095863 -0.1770361 0.27478313 0.7494821 -0.75387645
-1.1158534 1.0625952 -1.0939001 -1.6246694 -1.8775457 0.6964342 -2.0167916 2.8591232
0.64487445 -0.7075225 0.28999874 0.816394 0.03902888 0.6749415 -0.15587436 -0.5333066
0.5531234 -0.3466316 0.98969865 0.47783342 0.8586172 0.031017337 0.32758993 0.3315249
0.3240146 0.16591856 -0.35843444 0.13366915 0.042202536 0.6910709 0.5096062 -0.22767372
0.55500954 1.0964863 0.6004125 -0.5604727 0.92852163 -0.6009408 0.66935414 0.0068520256
0.062010735 -0.22095622 -0.12883562 -0.21056332 0.77170706 0.23513961 -0.12578328 0.3279247
-0.6444135 1.2182908 -0.044847827 0.41187182 -0.7015399 0.59565634 0.6140171 -0.6077765
-0.5437593 0.26281202 -1.7891155 0.61605823 0.89700705 -0.16164145 -0.68546814 0.8977882
-0.62507516 0.5198922 -0.033234343 0.77486134 -0.20137018 -0.03866966 -0.96532285 0.10760095
-1.17993 1.7479486 0.42174268 0.6388677 0.63681537 1.680605 1.2464142 0.14852242
0.59347725 0.62071925 -1.3375939 0.40760076 1.6248513 -1.4626585 0.27231166 0.16824129
-0.12069601 0.14963225 -3.0018277 -0.3122164 -1.0722255 0.2595602 -2.1121016 0.12061401
0.09539764 -0.8881752 0.033627316 1.2728125 -0.26220205 -1.1044108 0.8991984 -0.64768046
0.50591177 -0.9075614 0.9964443 -0.09680052 -1.5672737 -0.23515396 -0.01682678 -0.9087307
0.11672615 0.3974338 -0.19700918 0.093711205 1.1596025 -0.3834763 -1.9978288 0.20080887
0.002184281 -0.30901623 -1.2575026 -0.38924217 -0.90750396 -0.31148148 0.5236878 -0.5592646
0.72194904 -0.772416 -0.4413842 -0.75664073 0.26949367 1.3454758 -0.65008795 1.0296004

rnn.bias_ih_l0 f4 [256]
00000000: 42f6 84bf 7d83 8dbe 5b4f 53bf 2a9a 283e
00000010: 9d16 26bf 3936 35c0 dab5 8c3f dd0e 1cc0
00000020: 6eba a6be 0f1c e63e 324d db3e c716 cabe
00000030: 053a c6be 3a8e 08bf e489 2bc0 dda0 69c0
00000040: cf50 2f3f 5ca1 73bf da48 883e cc62 b63e
00000050: 9480 1a3d 7eb9 21c0 b6c4 d3be d451 53be
00000060: eb14 03c0 f7db f4bf c0ab 2ec0 1f74 7dbf
00000070: 704e 01c0 fb3c a73f 9fb0 9ebf 1b0f 91bf
00000080: 854e a43f 024b 9fbe 0be2 02c0 1cce e23e
00000090: 7281 b03e 2ff2 b7bf 613f 8a3f b99d abbd
000000a0: c2bd adbc 0565 dd3f fac5 1bbe 0e43 0a40
000000b0: 6859 6fbf 09c4 d4bd 10d0 b4bd 3683 2b3f
000000c0: 4351 333e a4e7 1fbf e184 e9bf 39f3 20c0
000000d0: 4431 1ac0 cee7 61bf bd0b 02c0 eb97 82be
000000e0: cb4f 90be 168d 2d3e 7fa1 1a3f 2969 ccbf
000000f0: 564c e4bf 1f44 8b3e 6779 fcbf 5954 4cc0
00000100: 2f07 c13e 2913 3cbf 4b8c 9dbf 55fd e7be
00000110: e3c9 a13e ce5f 633f 7025 ccbf 8951 e43f
00000120: 1cad c93d 8c74 6dbf 7379 223f 8756 3dbe
00000130: af1c 853f 236a 8a3f c128 dfbf 4877 063e
00000140: 57f4 a73e 4083 5e3e bb60 db3b b7fc 94be
00000150: a160 b5be 5cef 3cbf eaee 5d3f 5195 c13d
00000160: d33d 603f 09e3 73be f5f2 1b3f 4447 abbe
00000170: 4143 afbf f096 7dbf 3988 0b3e e975 25be
00000180: 155f 15bd 50a8 e5bd b9c3 83bf e687 85be
00000190: cf59 483e 3aed 903f 1857 2dbf 1082 b03e
000001a0: 57e1 3d3f 6c82 dabf 53a8 8cbe 51df 87bf
000001b0: 075f bd3d 78ba 44bf 34ad b03e b00c d03d
000001c0: 9fc2 10bf 3e27 073e d903 983f ea83 863f
000001d0: e893 a43f 7a0e 6c3e be4a b6bf f249 873f
000001e0: 2968 0e3f 73be 483e c9ac 30bf bfe6 9ebf
000001f0: e21b 9ebe 8b10 053f ea2c abbe 34ed 14c0
00000200: bf28 bdbe 8d54 db3e 5f1f 783f 8f65 843e
00000210: 77c4 383f 0241 e9be 45cc 12bf 863c f6be
00000220: 7df2 63be 8fd0 c9bf 0cd4 4f3f 0088 6e3e
00000230: b852 fa3f ca34 a7bf 0d37 96bf 8aca 11bf
00000240: ae82 5e3f 5394 493e e4e6 c2be 5914 de3e
00000250: 22b5 6fbe 5d24 cd3f c8a8 89bf 85ca 85be
00000260: 9225 0cbf d571 34be 5851 773e 8237 d23f
00000270: c952 353d 4836 88bd 8b9d 22bf 61b5 b83e
00000280: da68 973f 91e7 3a3f 0dca c0be 11df 94bf
00000290: 29c7 75bf ba77 51bd cb4a 0ebf 517a abbe
000002a0: bd9c 883e f0b4 b9be 1ea9 923e 8189 c03e
000002b0: 66ef d03e f7b1 46be 9041 c23e fa7a 84bf
000002c0: fa40 ba3f 3abb 4fbd 6e42 eabd 6946 e9be
000002d0: 6997 89bf 63cb e53f 6933 fbbe 8a9c 55bf
000002e0: 11db 11bf a027 8c3f 6685 cbbe 6141 a93e
000002f0: ccfa 67bf efa9 173f 7484 eb3e 556a 163f
00000300: a139 84bf 03cc e4be 908b 7dbe f0f2 c03e
00000310: cb52 283f b7bd dbbf 32cc 553c e3a7 583f
00000320: 7ec5 14be 263d 5c3f 83ae 8c3f 032c 80be
00000330: 463f f8bf 0bb6 acbf 7223 3cc0 0815 11bf
00000340: 4d03 aabf 936b c3bd 03cf 3dc0 466d 0c3e
00000350: 6ece f3be 2f30 35bf f97b 58c0 0019 593e
00000360: 86ae d43f fac4 39c0 1141 303f e4ea c0bf
00000370: 9ad9 43c0 2cda 4f3f a47a 69bf 622b 683f
00000380: acd2 ab3f 7c09 973f 8100 99be 83e7 f1bd
00000390: d075 e03e 8d6a 983f 68b7 37be 8f27 ea3e
000003a0: 0c64 bb3d 6262 bcbd e4ba c8be 881c 823f
000003b0: 4488 29bf 566a 133f b309 6ebf e18f 1d3c
000003c0: 1b53 8fbf 5a20 53bf 3f50 9e3f 9d6b 5c3f
000003d0: f2ba 9bbe cd65 97bf c1cc f0bf 05b0 eb3f
000003e0: 259d a83f cd64 443f 405c e0be 304a 4ec0
000003f0: 26df 46c0 dc37 4fbf 5843 e4bf e7bd 0fc0
-1.0387652 -0.2763938 -0.8254296 0.16465059 -0.64878255 -2.8314345 1.0992997 -2.4384072
-0.3256411 0.44943282 0.42832333 -0.39470503 -0.3871614 -0.5334202 -2.6802912 -3.6504433
0.6848268 -0.9516809 0.2661808 0.3562225 0.037720278 -2.5269465 -0.41361016 -0.20636684
-2.0481517 -1.9129628 -2.7292328 -0.9900531 -2.0204124 1.3065485 -1.239765 -1.1332735
1.2836462 -0.31111914 -2.0450466 0.44297874 0.3447376 -1.4370784 1.0800592 -0.083796926
-0.021208648 1.7296454 -0.15212241 2.1603427 -0.934958 -0.10388953 -0.08828747 0.66997087
0.17511468 -0.6246283 -1.8243676 -2.5148451 -2.409257 -0.8824433 -2.0319664 -0.2550653
-0.28185877 0.16948351 0.60402673 -1.5969592 -1.7835796 0.2720041 -1.9724549 -3.1926482
0.37700793 -0.73466736 -1.2308439 -0.45310465 0.3159934 0.8881806 -1.5948925 1.7837383
0.09847471 -0.9275596 0.63466567 -0.18490039 1.0399379 1.081364 -1.7434312 0.1313144
0.32803604 0.21729755 0.006694881 -0.29099056 -0.35425285 -0.73802733 0.8669268 0.09452308
0.87594336 -0.23817076 0.609176 -0.3345281 -1.3692399 -0.9905844 0.13626184 -0.1615826
-0.03646763 -0.11213744 -1.0294105 -0.26080245 0.1956551 1.1322396 -0.6771102 0.3447423
0.74171966 -1.7071052 -0.2747217 -1.0615026 0.09246641 -0.7684703 0.34507143 0.1015867
-0.5654697 0.13198563 1.1876174 1.0509007 1.2857637 0.23052397 -1.424156 1.0569441
0.55627686 0.196039 -0.6901365 -1.2414168 -0.30880648 0.5197837 -0.33432704 -2.3269777
-0.3694515 0.42837945 0.9692287 0.25858733 0.7217478 -0.4555741 -0.5734294 -0.4809305
-0.2226047 -1.5766772 0.8118293 0.23294067 1.9556494 -1.3062985 -1.173555 -0.56949675
0.8691815 0.19685487 -0.3806678 0.433749 -0.2340894 1.6026722 -1.0754633 -0.26131073
-0.5474483 -0.17621548 0.24152124 1.642319 0.044268403 -0.06650978 -0.6352164 0.3607588
1.1828873 0.7300959 -0.37654153 -1.1630574 -0.9600702 -0.05113957 -0.55582875 -0.33491758
0.26682082 -0.36270857 0.2864465 0.37604907 0.40807647 -0.19403826 0.37940645 -1.035003
1.4551079 -0.050715663 -0.11438452 -0.4556153 -1.0749332 1.7952694 -0.4906266 -0.83441985
-0.56974894 1.0949593 -0.39750212 0.33057693 -0.9061706 0.59243673 0.4599949 0.58756
-1.0330087 -0.446869 -0.2476027 0.37685347 0.6575133 -1.7167271 0.013049172 0.84631175
-0.14528462 0.86030805 1.0990757 -0.25033578 -1.939431 -1.3493055 -2.9396634 -0.56672716
-1.3282257 -0.095420025 -2.96576 0.1371356 -0.4761843 -0.7077665 -3.3825667 0.21200943
1.661576 -2.9026475 0.68849283 -1.5071683 -3.0601563 0.8119228 -0.9120276 0.90691197
1.3423667 1.1799769 -0.29883197 -0.118117355 0.43839884 1.1907517 -0.17941058 0.45733306
0.09149942 -0.091984525 -0.39205086 1.0164957 -0.6622355 0.5758413 -0.9298355 0.009616823
-1.1197237 -0.8247124 1.2368239 0.86101705 -0.30416065 -1.1827942 -1.8812486 1.8413092
1.3172957 0.7671631 -0.4382038 -3.223278 -3.10737 -0.8094461 -1.7833052 -2.2459657

rnn.bias_hh_l0 f4 [256]
00000000: 52f3 97bf 8537 72be 4127 6dbf c400 aa3d
00000010: 71b5 21bf 132a 35c0 9250 643f 49de 15c0
00000020: 7d52 70be 69d8 ed3e 5f26 ea3e 842b 6abe
00000030: 1bc1 a1be 2233 07bf 3654 30c0 488b 6cc0
00000040: 1f2b 163f c5d8 6dbf adfb 653e 3443 c13e
00000050: 032b 94bd db84 28c0 6be3 f8be fb31 b8be
00000060: aa1e 0cc0 00dd edbf bf95 27c0 93c6 92bf
00000070: 6bdb ecbf 4875 993f 82bd 9ebf 6cef 7fbf
00000080: 8d0a 9b3f 64af dabe 4bfa 05c0 cb3a 973e
00000090: f796 233e 4ef3 c3bf 833e 973f a0fe 30bd
000000a0: 4a9b 43be b5a0 ed3f 6e96 95bd e0fa 0440
000000b0: 3a8c 6ebf d37d e3bd 9341 abbd 3524 2c3f
000000c0: 6333 6b3e 8269 23bf fe2b dcbf 0f2b 18c0
000000d0: ebc1 11c0 93f1 5dbf 5591 eabf f593 0dbe
000000e0: 87b4 8abe 4c89 083e 0de4 2c3f ceca bebf
000000f0: f8a7 ecbf c279 863e 9d1a 0dc0 cc82 4ec0
00000100: 5906 d63e f178 3cbf bcb4 a0bf 1bfb dabe
00000110: 7da6 e13e 1a4c 803f dd65 d0bf 89bb d33f
00000120: e243 9fbc 88f4 63bf e93e 103f aad8 f7bd
00000130: 496b 713f 8817 9c3f d7c8 fbbf fdde 4a3e
00000140: 34a4 813e 04a2 cc3e 4bab 473e f729 09be
00000150: 5068 07bf d6c0 72bf d1ce 653f 4902 2a3e
00000160: 18e5 823f 6c2b a7be c670 2c3f 373f 35be
00000170: 90f4 b1bf 1a64 88bf 8b98 103e ad9a 3ebe
00000180: 49da 33bc cb0a c5bc eb35 98bf f2af a5be
00000190: f69c 6bbc 65cc 833f 012e 1dbf ab49 ec3e
000001a0: fd29 6a3f f69d dfbf 690a 66bd 76a2 77bf
000001b0: fb50 7a3e e1ab 44bf 95f0 813e 87da e43d
000001c0: 66a9 fcbe ca03 313e 8034 a13f 9ffb 8b3f
000001d0: cf62 883f 424f 8c3e d590 b6bf 67e1 813f
000001e0: 8f79 313f 9246 003e b067 0fbf b9ec a0bf
000001f0: d1be 7bbe f297 eb3e 117b bfbe d05a 0cc0
00000200: 1e12 e4be 43c2 f23e 4929 693f 48ec cc3e
00000210: 1de3 5f3f 837d 26bf 5086 07bf ed23 f2be
00000220: 9db9 97bd ef3d c1bf f372 6f3f a4f6 9f3e
00000230: 2e95 ff3f a8e7 acbf cd98 8ebf f629 10bf
00000240: 5bdc 833f a9d2 a13e c7f0 a8be aa8b 1d3f
00000250: 56fe d9bd 3e49 bc3f 092d 75bf d1c8 8abe
00000260: 3db6 f1be 5cc0 91be 6995 9b3d 8d67 dc3f
00000270: c8e5 163a bfc9 e5bd 1dfd e2be 4a6d ca3e
00000280: c876 953f 5f4b 6c3f c8ac 8fbe 2e0f a0bf
00000290: f7d6 55bf c546 b03d ce08 0dbf 552b 73be
000002a0: b105 6a3e ce30 9dbe 9aa1 443e 053e 273e
000002b0: 5385 913e 6637 adbe 00a1 903e 76d9 7fbf
000002c0: bc01 b53f d0f2 9dbd b530 9abd 8968 04bf
000002d0: 5aa4 83bf 5959 e13f c4e7 31bf ecfc 30bf
000002e0: a3ca 11bf e840 853f 9eb8 aabe f02f c53e
000002f0: bf4b 78bf f30d df3e 80d7 173f ff9a 183f
00000300: 83f6 78bf 80ca 1abf a94d 96be 23b7 103f
00000310: 363f 2a3f c749 ebbf fbfa 47bd 540e 543f
00000320: 8ba0 47be 3d7d 543f 1cb4 933f b3af 97bd
00000330: 621d 05c0 3908 adbf e63d 35c0 5cf8 1bbf
00000340: 8f64 acbf 9adc 54bd 98da 43c0 3a6c 733c
00000350: 35ee fdbe 7ae5 19bf b400 59c0 4c16 6e3e
00000360: 3698 df3f 9e82 2ec0 3045 093f 673e c1bf
00000370: 5846 4ac0 3535 4c3f 5415 7dbf cafb 843f
00000380: 29c7 ad3f 34de 8b3f 7f48 99be 0aa7 3dbe
00000390: bd67 ea3e 933b b03f 6084 09be 6e57 873e
000003a0: d131 803e 0db4 4fbe 66dd 8fbe b8d7 623f
000003b0: 7342 4abf e51b 1c3f 4dd6 6dbf ce4b 143e
000003c0: 1976 8fbf 2fd2 6fbf 01f6 903f e5e6 803f
000003d0: cb73 89be d459 89bf 0588 efbf d4a2 d03f
000003e0: 7c97 a53f e918 6e3f dc9d babe efdf 46c0
000003f0: b2a8 41c0 7541 36bf 28bb e7bf d546 14c0
-1.187113 -0.23653992 -0.9263802 0.08300927 -0.6316748 -2.830693 0.8918544 -2.3416922
-0.23468967 0.4645417 0.457324 -0.22868162 -0.3159264 -0.528124 -2.7551398 -3.696001
0.5865955 -0.9290889 0.22459288 0.37746584 -0.07234766 -2.6331089 -0.48611006 -0.35975632
-2.1893716 -1.8583069 -2.6185148 -1.146685 -1.8504461 1.1988916 -1.2401583 -0.99974704
1.2112595 -0.42711937 -2.0934017 0.29537043 0.15975557 -1.5308626 1.1815952 -0.04321158
-0.19102207 1.8564669 -0.07304083 2.0778122 -0.9318272 -0.111079834 -0.08362117 0.6724275
0.22968821 -0.6383287 -1.7200925 -2.377628 -2.2774608 -0.8669674 -1.8325602 -0.13825972
-0.27090856 0.13333625 0.6753548 -1.4905641 -1.848876 0.2626477 -2.2047493 -3.2267332
0.41801718 -0.7362204 -1.2555156 -0.42769703 0.44072333 1.0023224 -1.6281086 1.6541606
-0.019441549 -0.89045 0.56345993 -0.12101872 0.9430433 1.2194681 -1.9670666 0.19811626
0.2532059 0.39967358 0.19498937 -0.13394915 -0.52893543 -0.94825494 0.897687 0.16602434
1.0226164 -0.32650316 0.6735958 -0.17699896 -1.390276 -1.0655549 0.1412069 -0.18613692
-0.010977336 -0.024052998 -1.1891454 -0.32360798 -0.014380684 1.0296751 -0.6139832 0.46149954
0.9147032 -1.7470081 -0.05616227 -0.9673227 0.24444954 -0.76824766 0.25378862 0.11174493
-0.4934799 0.17286602 1.2594147 1.0936164 1.0655154 0.2740422 -1.4262949 1.0146912
0.6932611 0.1252692 -0.5601759 -1.2572242 -0.2458451 0.46014363 -0.3739858 -2.1930428
-0.44545072 0.47413835 0.9107862 0.40024018 0.8745592 -0.65035266 -0.5293932 -0.47293034
-0.0740845 -1.5097026 0.93534774 0.3124286 1.9967401 -1.3508196 -1.1140381 -0.5631403
1.0301622 0.31606033 -0.329962 0.61541235 -0.10644214 1.4709852 -0.95771843 -0.27106336
-0.4720935 -0.2846707 0.07596857 1.7219101 0.0005756286 -0.11220121 -0.44333735 0.39536506
1.1676874 0.9230251 -0.2806151 -1.2504632 -0.83531135 0.08607248 -0.5509156 -0.23746999
0.22853734 -0.30701298 0.19202271 0.16332252 0.2842203 -0.33831328 0.28247833 -0.99941194
1.4141154 -0.077123284 -0.075288214 -0.5172201 -1.0284531 1.7605392 -0.6949427 -0.6913593
-0.56949824 1.0410433 -0.33343977 0.38513136 -0.9699058 0.4356533 0.593132 0.59611505
-0.9725115 -0.6046524 -0.29356125 0.56529444 0.665027 -1.838189 -0.048823338 0.82834363
-0.19494836 0.830036 1.153934 -0.07406559 -2.0799184 -1.3518134 -2.831903 -0.6092584
-1.3468188 -0.051968195 -3.060217 0.014857346 -0.495958 -0.6011578 -3.390668 0.23250693
1.7468326 -2.7267222 0.53621197 -1.5097169 -3.1605434 0.7976869 -0.9886067 1.038934
1.3576404 1.0927186 -0.29938123 -0.18520752 0.4578227 1.3768181 -0.13429403 0.2643389
0.25038007 -0.20283528 -0.280986 0.8861041 -0.79007643 0.60980064 -0.9290512 0.14482042
-1.1207916 -0.9368009 1.1325074 1.0070463 -0.26846156 -1.0730538 -1.8713385 1.6299691
1.2936854 0.9300676 -0.36448562 -3.1074178 -3.0259213 -0.7119363 -1.810399 -2.3168232

rnn.weight_ih_l1 f4 [256, 64]
00000000: cca0 cf3e 65dd 333f 6138 f23f 0d3a ca3e
00000010: 061d 52c0 06af c8bf 31c1 3dc0 1c42 aa3e
00000020: 1b21 973f 3366 1ac0 7a98 3f40 1e0c 05c0
00000030: caf5 b4bf 9727 343f 2e18 eabf 83d8 7a3f
00000040: bd7a 25c0 3b6b 61bf 8eb5 bf3f 4684 593f
00000050: afcc b5bf cc3c 79be 8bfb 803f b7e9 60bf
00000060: 86c4 ce3d d274 ae3f 8885 7c3c fd5f 97c0
00000070: dea6 3d40 0d35 8f3f 0374 1c40 ea28 523f
00000080: 9b0c 3b3f 694e 13bf a6d7 983f 47d7 b8bf
00000090: cf91 843f 2811 463f f6dc d8bf 4fc4 ec3f
000000a0: b4c4 b6bd ef4d acbd 1a4d bb3f 92a7 bcbf
000000b0: eb86 1ac0 75ca 4b3f 1cc8 3c40 b386 09c0
000000c0: 6bfa 27c0 4552 833f b7cf 3fbf 2ec5 0f3f
000000d0: f23e a33f 1465 13c0 775b 19c0 adba 4f3f
000000e0: 2df2 dc3f 0c8e d8bf b1c3 c1bf 07bb 6940
000000f0: 6314 ce3e 3901 413f 370d c2bd 2aa7 68c0
00000100: 21b9 d9be 365d c73f 17e0 5b3f 70f1 3fbf
00000110: baff d03f cd7f 25bf 9a0b 823e 2236 613f
00000120: 17d5 c9bf 7e4b 28bf 74b9 3d3f e8a0 d33f
00000130: e9be bbbf d1f0 863f b81c dcbf 4978 af3e
00000140: fdc6 933f 0dca 2f3e 4a34 5f3f 3657 b03e
00000150: 32ed 0140 5110 b9bf 726a c93f 1edf 34c0
00000160: a6cf 383e a65a 3e3e 438e 22bf 8718 a53f
00000170: d528 c03f 3103 8b3f 11a5 dbbe 8129 a83f
00000180: 916e 4a3f 4a7c 10bf 35b3 983e 0a4e 57bf
00000190: d6b7 26c0 e1ce 3fbf b6f6 9f3e 5cf2 9cbf
000001a0: f5b1 923e 5cff 7ebf 493f cfbf 2acd 6abe
000001b0: 665b 3d3e ed20 8ebe 3d93 973f 0e42 61be
000001c0: a9c8 7ebe 3f64 9dbd 56b6 4dbe 360b 3b3e
000001d0: dc3a a13d 29b5 2d3f c9d0 fd3d 271d f93f
000001e0: a077 e6bf 2b0f bf3f a9e4 0abe db14 023e
000001f0: dfd5 923f f5cd d43f 46c6 d0be 6145 12c0
00000200: 873a 3e3f 47bc 52bf c74c 59bf 5398 1d3e
00000210: 327d 7dbe 888c f73f b4e8 11bf 4075 d6be
00000220: f70e 6f3f eb45 d13c 7382 c83f 04e5 673f
00000230: 1404 2c40 4d2f e9be 31b2 203f cfa8 b63f
00000240: 9c81 d2bf aa49 cbc0 00ae 42bf b76f f4be
00000250: 9259 ab3f ed6a 5abf e739 a9bf ff83 76bf
00000260: 84f7 e9bf d782 27c0 7c5d 4a3e 7cb8 c6bf
00000270: 3417 bbbf 2f46 43bf ff3a c53f 9aa2 4440
00000280: 1bee 05bf aa24 ebbe a65f 0e3f 6bf3 cbbe
00000290: 4a53 bb3e f9e5 953d f101 6a3e 7192 b6bf
000002a0: 2b28 923e 844f 483f a303 973e f9e0 3e3d
000002b0: b125 2d3f db8a 53bf e207 553f 926c c6be
000002c0: 8c75 a4bf 398e 2240 b33b 50bf b9cc acbf
000002d0: cb00 143e ef8d e7be 9b48 ef3f f707 f93e
000002e0: 72cd d0be 64c8 4ebf 5ea0 7cbc d71f 053e
000002f0: 8f2d 993f a8cd 46bf 893a d8be 993a 513f
00000300: 97c7 a53e 2ba7 8a3e d808 69bf e752 4abe
00000310: b260 9e3f d2b3 68bf d6bd 3bbf dc87 e9bd
00000320: c5eb d93d 5489 10bf dea8 2bbe 7f3e b63f
00000330: 49bf 58be 57e1 fc3e b07d fdbe 326c 9cbe
00000340: 26de 053f caf2 1fbf 1ba1 d73e cd19 0d3f
00000350: 2e5e 16be 0ae3 1c3e 9251 8a3f ec12 eabf
00000360: 5acd d5bd 6e0c 6a3f 4b5c b83e 9067 8ebe
00000370: 68a0 3f3f 1926 983e 302a c03e 45b1 213d
00000380: fdca 8d3d 57c7 233f 4691 263c 3f4f 87be
00000390: 49e2 60bf fc43 19bf bde4 4bbf fc8b d6bd
000003a0: 9bc9 b43e 9968 e13e 7a72 dfbf b57f b1be
000003b0: 1f52 923f d101 4bbf 26b0 62bf 576d 7e3e
000003c0: b292 f33f 73a9 14be fb32 043f 8b15 1ebf
000003d0: 9141 8bbf 5677 de3e 63cc c4bf 858e c93e
000003e0: 5529 6a3c d143 b6bf b3c5 173f 6525 0740
000003f0: 8d0c 343e 1b1c cb3e 43e3 39be 4903 b6bf
0.40552366 0.70259696 1.8923455 0.39497414 -3.2830215 -1.5678413 -2.9649165 0.33253562
1.1806978 -2.4124877 2.9936814 -2.0788646 -1.4137509 0.7037291 -1.8288629 0.9798662
-2.5856164 -0.88054246 1.4977281 0.8496746 -1.420309 -0.24339598 1.0076765 -0.8785662
0.100960776 1.3629401 0.015412696 -4.7304673 2.9633098 1.1188065 2.4445808 0.8209368
0.7306611 -0.5754152 1.1940811 -1.4440697 1.0356997 0.7736993 -1.6942432 1.8497409
-0.08924237 -0.08413302 1.4632905 -1.4738638 -2.4144847 0.796058 2.9497137 -2.1488464
-2.6246593 1.0259482 -0.7492632 0.5616025 1.2753584 -2.3030443 -2.3962076 0.8114422
1.7261406 -1.6918349 -1.5137845 3.6520402 0.4024993 0.7539249 -0.09475177 -3.635203
-0.42524055 1.5575321 0.8588881 -0.7497778 1.6328042 -0.64648134 0.25399476 0.87973225
-1.5768155 -0.6574019 0.74111104 1.653348 -1.4667636 1.0542241 -1.7196264 0.34271458
1.1545101 0.1716692 0.8718916 0.34441537 2.0301023 -1.4458104 1.573561 -2.826118
0.18047962 0.18589267 -0.63498324 1.289811 1.5012461 1.0860349 -0.42899373 1.3137666
0.7907496 -0.5643965 0.29824224 -0.84103453 -2.6049705 -0.7492505 0.31242913 -1.2261462
0.28651395 -0.996084 -1.6191188 -0.22929826 0.18491897 -0.27759495 1.1841809 -0.21997854
-0.24881233 -0.07685136 -0.20089087 0.18265995 0.07872555 0.67854553 0.12393338 1.9462022
-1.8005257 1.4926504 -0.1356379 0.12703268 1.1471518 1.6625353 -0.4077627 -2.2854846
0.74308056 -0.8231854 -0.8488278 0.15390138 -0.2475479 1.9339762 -0.569957 -0.4188633
0.9338221 0.025546035 1.566481 0.90583825 2.687749 -0.455439 0.627719 1.4270266
-1.6445804 -6.352742 -0.7604675 -0.47741482 1.338671 -0.85319406 -1.3220795 -0.9629516
-1.8278661 -2.6173608 0.19762224 -1.552505 -1.4616456 -0.76278967 1.5408629 3.0724244
-0.52316445 -0.4592641 0.556147 -0.3983415 0.36586982 0.073192544 0.22852303 -1.426344
0.2854627 0.7824633 0.29494962 0.04660127 0.6763564 -0.8263375 0.83215153 -0.38754708
-1.2848372 2.5399306 -0.81341094 -1.3499976 0.14453427 -0.45225474 1.8694032 0.4863889
-0.40781742 -0.8077452 -0.015419094 0.13000427 1.1967028 -0.77657557 -0.4223216 0.8173004
0.32378837 0.27080664 -0.9102912 -0.19758187 1.2373259 -0.90899384 -0.7333654 -0.11402866
0.106406726 -0.56459546 -0.16763636 1.4237822 -0.2116672 0.4939067 -0.49509954 -0.30551296
0.52292097 -0.6247984 0.421151 0.55117494 -0.14684364 0.15320984 1.0806143 -1.8287024
-0.10439558 0.91425216 0.36007914 -0.27813387 0.74854136 0.29716566 0.37532187 0.039475698
0.069234826 0.63976043 0.010166472 -0.26427647 -0.87845284 -0.5986936 -0.796459 -0.10475919
0.35310063 0.44025114 -1.745681 -0.34667745 1.1431311 -0.79299647 -0.8855003 0.24846397
1.9029143 -0.14517765 0.5164029 -0.6175162 -1.0879384 0.4345042 -1.5374874 0.39366546
0.014292081 -1.4239446 0.5928604 2.1116574 0.17582913 0.3966988 -0.181531 -1.4219753

rnn.weight_hh_l1 f4 [256, 64]
00000000: c142 d9bd 03dd 88bf 1add 25bf 28ce cfbe
00000010: f079 6c3e b4d8 bc3c a0fd 9e3e 130a 28bf
00000020: 200a 4fbf dedf 4f3f deb3 8e3f ca24 c3bf
00000030: d6a3 81bf 6e57 2a3f 8352 b63f 5ebb 65bf
00000040: 0cca 0b3e 97e4 7dbf 78a4 0e40 fb37 e83f
00000050: 0830 9c3e 9706 ad3e 96c4 87bf 6c3e d63d
00000060: 4f4c 823f e15c 513f bfe8 19bf a5b4 143f
00000070: 34c6 713f 688c 0cbf 34af 5a3f cf37 1dbe
00000080: 0dfb bbbf 97da d4bf dcf4 c13f 8b81 54bf
00000090: 987a 01c0 69e5 c43e 4fec e6be 815d edbe
000000a0: 6402 803f dfa1 d93f 3817 cabe 05f4 da3f
000000b0: a4ac c8be 729c 8e3e f2ff 57be bd42 e83d
000000c0: d439 663c 1339 25bf 2c25 04bf 97f4 053e
000000d0: a156 f33f c436 dfbe 97de 1b40 b0e1 c03e
000000e0: 94cc 9d3f 335f 6b3e b571 10bd 4ea1 3cbf
000000f0: e1c5 2abe 4708 d7bf 9691 133c a72d f8bf
00000100: f327 0f40 0efa a63e 13c4 cf3e b78f ca3e
00000110: 680f a53d 7df3 663e 03d8 be3c 2787 b8bf
00000120: d837 ffbe 1eff da3f 0cb3 bc3f c666 37bf
00000130: 7c7e fb3e 542e 02bf 83ad babf 3e17 0e3f
00000140: b78e ac3c f59d 1540 14bc 32bf 0a24 973f
00000150: 0e30 1ec0 916a 143f 6799 eb3e aa14 d8bf
00000160: b35a 823f b447 a33e f7ed 3a3f bffc 0e3d
00000170: b87b 8bbf 97f2 47be d8b4 97bd 9a0e 90be
00000180: 5a8d 8a3f 15cf 4f3f 2967 ebbe 5fbe e6be
00000190: 6e1b 28bf c206 32bf f8bb a93f f942 973f
000001a0: feee 1ebf 5201 56be 6cc6 d73c df2e 1c3b
000001b0: 68ba a9bf fdfb 9c3d fac9 7a3f 8e5d 2abf
000001c0: 768e f03e 71e0 cdbe 7034 9f3f ba09 fbbe
000001d0: 524f e1be e8b9 0940 0cd5 8b3f 48e6 37bf
000001e0: c26b 44bf 7813 0240 20d1 e73e 8101 e23f
000001f0: f4d1 c43e 0860 f6bf b62d a1bf cae3 20bf
00000200: 967c 72bf 8907 70bf 1212 103f 68fe d93f
00000210: 2532 22bf 1b61 1840 ba77 7040 3486 4ac0
00000220: 3310 4940 dc51 f23f 247e f83e 8208 9cbd
00000230: 7f70 933f b187 2a40 46d0 3fbf 6306 f6be
00000240: c154 b8bf 5565 1dbf 99b6 80bf 1ca0 c0bf
00000250: 6396 a33f c5da 0dbd 4ebe 52bf ccd3 28bd
00000260: cf5e 97bf a561 0640 7bf4 e33e 921d 7abe
00000270: 431a 9b3e 933e 893f 3bce 8ebf c29b 853f
00000280: 8533 a63c 52ec 8fbf a507 ca3d df19 85bf
00000290: 20ee 693c 4039 743f 7da7 57bf 861a 243f
000002a0: a285 2bbf 0372 59bf 347d 193e 6657 00bf
000002b0: 4b17 04bf a3fe 923e 6e61 16be be82 5b40
000002c0: df7e ed3e 8186 10be c40c ddbd 524f b6bf
000002d0: e8b6 85be 152a 2c40 5a18 fabd 56b3 03bf
000002e0: d14c 8f3f 4038 55be 58ec ba3f c843 9cbe
000002f0: 66ff 813f 9481 2340 41ec 4c40 51bf 37c0
00000300: 30d4 dabe 382f 403d 09f8 b43e 6cc1 f23e
00000310: 7fc5 5f3f 5f27 22c0 c78a 7dbf de6c d53f
00000320: 8972 e4bf a3bd bebf b896 ae3e 9c45 60bf
00000330: 8a2f acbf 34e0 69bf 55b5 0140 1ece b93e
00000340: fff3 8e3f 9b29 12c0 65f2 963f eea3 b83d
00000350: 2063 80bf 3d69 ec3e efae 7dbe e030 ab3e
00000360: bb79 513f eb01 d8bf be27 5cbf 218b 1fbf
00000370: 3610 e0be 473c 443f 8ef6 d53f 6128 4f3d
00000380: 58e4 49bf ad02 213e 6a78 66bf 2d25 f6be
00000390: 0588 a33f cde7 0a3c f3b5 fabe 5aa8 88bf
000003a0: 4ede f53e be13 f0be a613 a03b 8b12 ae3f
000003b0: 1d7d 40be eee2 c33f 7e07 863f 6856 2e3e
000003c0: d277 53bf a228 c1be 0c46 1cbf 611f 29bf
000003d0: 6e9f 943e 1eb1 11bf 214b 0640 b572 0abf
000003e0: fb99 9d40 8095 3ac0 0f23 c7be 302a 06bf
000003f0: c229 0b3e a97b 083e a7ba 413f 93e2 0a3c
-0.106084354 -1.0692447 -0.647905 -0.40586972 0.2309339 0.02305255 0.31052876 -0.6564037
-0.80874825 0.8120097 1.1148641 -1.5245602 -1.0128124 0.6653966 1.424393 -0.89739025
0.13651294 -0.99176925 2.2287884 1.8142084 0.30505395 0.3379409 -1.0606868 0.10461125
1.0179538 0.81782347 -0.6012077 0.5808814 0.9444306 -0.5490174 0.8542359 -0.1535332
-1.468599 -1.6629208 1.515285 -0.83010167 -2.0231075 0.38456276 -0.45102164 -0.463604
1.000073 1.7002524 -0.3947084 1.7105719 -0.39194214 0.27853733 -0.21093729 0.11340854
0.014051873 -0.64540213 -0.5161922 0.13081585 1.9010812 -0.4359647 2.4354608 0.37672186
1.2328057 0.22985534 -0.03526469 -0.7368363 -0.16677047 -1.6799401 0.009006878 -1.9388932
2.2368133 0.32612652 0.4057928 0.3956277 0.08059579 0.22553821 0.023296362 -1.4416245
-0.49847293 1.7109106 1.4742141 -0.71641195 0.49119937 -0.5085194 -1.4584202 0.55504215
0.021064145 2.337766 -0.69818234 1.1807873 -2.471683 0.5797511 0.46015474 -1.6881306
1.0183929 0.31890643 0.73019356 0.034909006 -1.0897131 -0.19526134 -0.0740754 -0.2813614
1.0824387 0.8117536 -0.45977142 -0.45067117 -0.65666854 -0.6954156 1.3260489 1.1817313
-0.62083423 -0.20898941 0.026339732 0.0023831648 -1.3260012 0.076652505 0.9796444 -0.66549003
0.4698369 -0.40210298 1.2437878 -0.49030858 -0.4400583 2.1519718 1.0924392 -0.71835756
-0.76726925 2.0324383 0.45276737 1.7656709 0.38441432 -1.9248056 -1.2592075 -0.6284758
-0.94721353 -0.937615 0.56277573 1.7030764 -0.63357764 2.3809268 3.7573075 -3.164441
3.1416137 1.8931231 0.48533738 -0.0761881 1.1518706 2.664532 -0.74927175 -0.48051748
-1.4400865 -0.61482745 -1.0055724 -1.5048862 1.2780269 -0.034632463 -0.8232163 -0.04121761
-1.1825808 2.0997097 0.4452246 -0.24425343 0.30293474 1.0722221 -1.1156687 1.0438159
0.020288238 -1.1243994 0.09864739 -1.039852 0.014277965 0.95399857 -0.8423994 0.6410297
-0.6700078 -0.84939593 0.14989167 -0.5013336 -0.5159804 0.28709897 -0.14685604 3.4298549
0.46385857 -0.14113809 -0.107934505 -1.4242957 -0.2611611 2.6900685 -0.12211676 -0.5144552
1.1195318 -0.20822239 1.4603376 -0.30520463 1.0156066 2.5547838 3.2019198 -2.871052
-0.4274001 0.04692003 0.35345486 0.47413194 0.8741073 -2.533653 -0.9903988 1.6673849
-1.7847453 -1.4901623 0.34099364 -0.87606215 -1.3452008 -0.9135773 2.0266926 0.36290067
1.1168212 -2.2837894 1.1792723 0.09015642 -1.003025 0.4617404 -0.24773763 0.33435726
0.8182637 -1.6875585 -0.8599814 -0.6232167 -0.43762368 0.76654476 1.6715868 0.050575618
-0.7886405 0.15723677 -0.9002749 -0.48075238 1.2775885 0.008478117 -0.4896694 -1.0676377
0.48021168 -0.46890062 0.004885155 1.3599409 -0.18797727 1.5303628 1.0471036 0.17025149
-0.82604706 -0.37726313 -0.61044383 -0.66063505 0.29027885 -0.56910884 2.0983355 -0.5408128
4.9250464 -2.9153748 -0.38893935 -0.52408123 0.13590148 0.13328423 0.75675434 0.008476871

rnn.bias_ih_l1 f4 [256]
00000000: 6336 a5bf 8925 50bf 2b06 993e 24b5 c2bf
00000010: 9f9e c4bd 7a20 96bf 50f1 86bf 6586 f1be
00000020: 0592 b4be 2e1c d3be 8317 0ebf 570d edbe
00000030: 6075 2abf 67f0 833e c017 85bd 1de9 39bf
00000040: 3815 01be 4dea 19bf 00ba d8bf 599f 60be
00000050: 98f8 88bd 0d69 a2be 4f60 dbbf 6cd9 22bf
00000060: f4e2 e13e 8cf9 cf3e 2435 8fbf 748d 7bbf
00000070: 48da b0bf 1663 633e 6c69 4cbf 7b17 e1be
00000080: 37e0 03bf c6d8 713e 8a22 53bf 75a2 35bf
00000090: 56b5 7abf 4c35 fe3d e9e9 3ebe 7211 82bf
000000a0: 830c 10bf e5c0 bdbd e19b 16bf a0b2 a6bd
000000b0: 8cb7 31bf f7c9 493e f010 15be 10f7 98bd
000000c0: 3d74 d93e 8d7d ed3e afba 07bf 8bf1 f33e
000000d0: 2405 48bf 5a50 75bf 439c 65bf e333 04bc
000000e0: 4b3c cbbf 5a35 a4be 523b 2d3f d77f 613e
000000f0: 5afe 953e 7594 eebe d721 92be d49e bcbe
00000100: b135 80bd bd13 bebe 4fa7 b7be aeff b2bf
00000110: 9bf8 14bf c8f4 943c c595 4e3f dfeb 7abe
00000120: 840b 0b3f 5f01 e2be bc7c 0f3f 6b08 dbbe
00000130: 5d6e 87bf 6bb4 3abe 4a0f 41bf 4d40 efbf
00000140: d623 24be be53 4e3e 8f8d 5bbe 7c38 123f
00000150: a68e 89bf 8e35 4d3f 0be0 59bf a03c 113f
00000160: 3487 193f a6f3 3dbf bb03 043e c287 05bf
00000170: 2452 573e a865 39bf c148 873f b05a 61bf
00000180: e99f 2c3f a8ed 8dbf f23b 8dbe 0df5 2fbe
00000190: ccfa 72bf a64b 14bf 7e44 b23d b67b 21c0
000001a0: 7980 cc3d d026 a53f 52d0 e9be 6e93 77be
000001b0: 2133 0b3f d3e4 0dbf e357 bfbe f9c0 6fbf
000001c0: e748 32bf db03 1bbf 64ec 1ebf 47c3 44be
000001d0: c6c4 74bf cd32 dcbd 69ae 663f ca0f a6bf
000001e0: 4db4 98be 666a 37be 694f 123f b8b1 44bf
000001f0: eb28 a4bd 74ef 9ebf 9b6b 37bf 7927 103f
00000200: 81f8 82be 55ae 4cbe e6f8 fe3e 3e6b f3be
00000210: a556 713e ee4d 3cbe 702f a63d 3178 52bf
00000220: e953 383f babc 1dba c2f0 87bd 9c0e 3f3f
00000230: 7e10 99bd 0b0b ea3e 6771 29bd 4a39 35bd
00000240: 5ab7 353f f0e0 f5be 165f 993f 9900 9f3f
00000250: c0e6 d93e 0d84 593e 0dba 593f 6b1d 90bf
00000260: e878 613e 0574 763f fe20 af3e 0839 833e
00000270: a916 983e 8c97 b43e 786d 20bf 05f9 18bf
00000280: 9fd3 c8bf b9c4 27be 7a3c 5bbe 81d8 083f
00000290: c8b4 40be 4b90 953f 2efd 673e 34e1 1fbe
000002a0: d46d 603d 668e 6dbf 9203 17bf fb67 b4bf
000002b0: 6cd5 013e 43b8 a9be 8b26 95be e7cc 833e
000002c0: 3bf5 853e 6c5f 09be 5523 4bbf 5822 8abd
000002d0: 9887 7b3f 8ec8 5d3e 48d1 36bf 40c6 6fbf
000002e0: 14a7 5d3e dd20 97bd 0109 5e3f 5bc7 96bc
000002f0: 7cd8 c7bf 368f 9d3f 2dfc 003f 0ca7 b0bd
00000300: b1b3 0ebf e99c b4bf 2eac 77bf 517e 1fc0
00000310: b000 6cbe e76c 9ebf f7d4 89bf 578a acbd
00000320: 680e a33b b274 28bf 9b64 a13e da51 253e
00000330: bfd6 a93e 3fb4 59bf 0004 aabd 3cb3 ccbf
00000340: 0b8c e73d 1f14 62bf cb56 f4bf c107 92be
00000350: 161b 87be a933 4c3e fff9 4abf 49d3 013e
00000360: 9e29 8abc 4b64 7cbe 9d3b 1abf d2fb bb3e
00000370: 5096 7cbf 847a b73e 428d 9fbe be5a 9bbe
00000380: 06fd 95bc 989b 9e3e 9105 e5be 1ae1 ff3d
00000390: 2508 75be 8824 27bd f416 6bbf 9cd7 e63e
000003a0: bb9f 7fbe 62a6 a6bf d52b 84bf f708 973f
000003b0: 284f 77be e923 c8be 3210 f93d f7ff e6be
000003c0: 93fe 6bbe 8c57 053f 1124 4fbf 6ceb 2cbf
000003d0: 2059 efbd 52f8 3ebf 8b75 16bf 3e6c 84be
000003e0: f08c edbf dd39 ad3e 12e6 8fbe 7367 83bd
000003f0: 71e8 773f 54f1 3cbd dc8e 233f f3b5 8b3e
-1.2907223 -0.81307274 0.29887518 -1.521153 -0.09600567 -1.1728661 -1.0542393 -0.47172847
-0.35267654 -0.41232437 -0.55504626 -0.4629924 -0.6658535 0.2576935 -0.064986706 -0.7262133
-0.1260575 -0.6012314 -1.6931763 -0.21935786 -0.066880405 -0.31720772 -1.7138766 -0.6361301
0.44118464 0.40620077 -1.1188092 -0.98262715 -1.3816614 0.22205767 -0.7984836 -0.43963227
-0.51514 0.23617849 -0.8247458 -0.70951015 -0.97932947 0.12412509 -0.18643917 -1.0161574
-0.5626909 -0.09265307 -0.588316 -0.08139539 -0.69420695 0.1970595 -0.14557242 -0.074689984
0.42471495 0.4638485 -0.5301923 0.4764522 -0.78132844 -0.9582573 -0.8969156 -0.008069011
-1.5877775 -0.32071954 0.6766864 0.22021423 0.29295617 -0.4659764 -0.28541443 -0.36839926
-0.06260241 -0.37124434 -0.35869834 -1.3984277 -0.5819184 0.018183127 0.8069728 -0.2450404
0.54314446 -0.4414167 0.56049705 -0.4277986 -1.0580555 -0.18232886 -0.75413954 -1.8691498
-0.16029295 0.20149133 -0.21440719 0.5711744 -1.0746658 0.8015984 -0.8510749 0.5673313
0.5997193 -0.74199903 0.12892048 -0.52160275 0.21027428 -0.7242074 1.0569078 -0.88029003
0.67431504 -1.1088152 -0.27584797 -0.17183323 -0.94913936 -0.5792793 0.0870447 -2.5231757
0.09985442 1.290247 -0.45666748 -0.24177334 0.5437489 -0.55427283 -0.3737174 -0.9365383
-0.6964249 -0.6055276 -0.62079453 -0.19215117 -0.9561275 -0.10751877 0.9010988 -1.2973568
-0.2982506 -0.17911682 0.5715242 -0.7683368 -0.08015617 -1.2416825 -0.7164857 0.5631023
-0.25580218 -0.19988377 0.4979927 -0.47542757 0.23568209 -0.18389103 0.08114517 -0.8221465
0.72003037 -0.0006017197 -0.06637718 0.7463167 -0.07473849 0.4571155 -0.041367915 -0.04424409
0.709829 -0.48023176 1.1982143 1.2422057 0.4255886 0.2124178 0.85049516 -1.1258978
0.22018778 0.9627078 0.3420486 0.2562945 0.29704788 0.3527187 -0.62667036 -0.59754974
-1.5689582 -0.16383637 -0.21409789 0.5345536 -0.18818963 1.168466 0.22655174 -0.15613252
0.05479224 -0.9279541 -0.5898982 -1.4094232 0.1267907 -0.33148393 -0.29130968 0.25742266
0.26163658 -0.13415307 -0.7935079 -0.06744832 0.98253775 0.21658537 -0.7141309 -0.9366188
0.21645766 -0.07379315 0.8673249 -0.018405607 -1.5612941 1.230933 0.5038479 -0.08625612
-0.5574294 -1.4110385 -0.967471 -2.4920847 -0.23047137 -1.2376984 -1.0768117 -0.08424824
0.0049760826 -0.6580306 0.31522068 0.16144505 0.3317165 -0.8504066 -0.08301544 -1.5992198
0.11306008 -0.8831195 -1.9088987 -0.2852154 -0.26387852 0.19941582 -0.79287714 0.12678255
-0.016865548 -0.24647634 -0.6024721 0.3671556 -0.9866686 0.3583566 -0.3116246 -0.30342668
-0.018309128 0.30978084 -0.4473081 0.124941066 -0.23928888 -0.040806323 -0.918319 0.45086372
-0.24963276 -1.3019526 -1.0325876 1.1799611 -0.2415129 -0.39089897 0.12161292 -0.4511716
-0.23046331 0.5208671 -0.8091441 -0.67546725 -0.11686921 -0.74597657 -0.58773106 -0.25863832
-1.8558636 0.3383321 -0.28105217 -0.06416216 0.9683905 -0.046128586 0.6388986 0.27287254

rnn.bias_hh_l1 f4 [256]
00000000: 2c2f 8ebf 64b1 7ebf 7f4d b13e e478 babf
00000010: 8b30 98bd 492d 94bf ac20 8ebf 431c c7be
00000020: 951f c6be 0068 f6be 93f9 f1be 59e9 99be
00000030: c99b 15bf 2105 c93e f792 bdbc b9ec 0fbf
00000040: 7911 3d3d 75fe 44bf 9c5e d6bf 0e0d 99be
00000050: 8cea 3bbd 1d8c a7be 7eac c8bf 355e 14bf
00000060: 8a82 163f c38c a53e c590 63bf 1947 4cbf
00000070: 2a3d bcbf 3a0d 913e ef8e 74bf dfcd d6be
00000080: d5f3 29bf e1ec 9e3e d0e2 44bf 5a31 1abf
00000090: 7183 60bf 6c5d a23d a90c 57be 0c53 7ebf
000000a0: 3267 10bf b4a7 03be f739 0bbf e0db 5dbe
000000b0: 6f85 51bf 784f 463e 0a78 99bd 8b81 f53d
000000c0: 5e8c cc3e ffe8 f73e c33e 24bf a953 183f
000000d0: 9dd2 64bf 8b3e 76bf 7c2a 3bbf f253 87bd
000000e0: f7b3 ddbf 9e44 89be a724 2c3f cd6a 783e
000000f0: 395f 193e f975 9dbe dde6 d9be d2d3 e5be
00000100: 984c 57be 579d c6be 270c b0be 90af c9bf
00000110: 11df 32bf 848c 1a3e aa14 423f a4c8 72be
00000120: 28b4 163f 8e67 edbe 37af 053f a925 01bf
00000130: 9fd3 69bf bdca f9bd 0a2b 3abf 4fce d3bf
00000140: e585 0fbe 1161 5c3e 7ff1 f8bd f772 443f
00000150: 96e7 70bf cbe0 473f 09c7 4bbf 0599 063f
00000160: f592 3d3f e32a 54bf be27 aabd 40be a6be
00000170: a86e 1a3e 82fc 31bf 57a4 713f 502b 3abf
00000180: 550e 3d3f eabc 9dbf a950 debe 446c babe
00000190: 1eb2 75bf 065d 07bf 1e66 d83d e068 29c0
000001a0: 7226 113d fee4 ae3f facd c6be ace6 c2be
000001b0: 448d 013f 173d 04bf 0eb9 febe a1d4 7cbf
000001c0: 3073 33bf 1685 44bf 609e 33bf f2b1 9abe
000001d0: 5011 5dbf 3b0f 03be 860c 7a3f 3575 94bf
000001e0: 9734 eabe ff6a 9cbe c69c 3b3f c825 44bf
000001f0: b4e0 bdbd 251a 94bf a397 2fbf 9aaa 0e3f
00000200: d0da 9dbe 5d37 a4be d28f c13e b74e 2abf
00000210: 04ce cb3e d480 0cbe c284 3d3d c7e3 4ebf
00000220: 04c2 513f 8fd5 40bd e06f bbbd daf4 4e3f
00000230: 66bc adbd 62e7 0e3f 6816 93bd b1f5 97ba
00000240: 5d82 463f ed35 01bf 8238 9c3f ebd1 b63f
00000250: 3ac4 033f c8be 7f3d 73e0 543f 82ad 9cbf
00000260: 9e85 943e 9d9a 873f 48d8 fa3e c4be 983d
00000270: 4643 8b3e 04ba 9b3e ba42 ecbe d868 21bf
00000280: 830c c2bf 05e9 87be c8f7 52be 70b7 083f
00000290: baba 33be af36 a73f 130e 453e 6bd5 0a3d
000002a0: d732 c6bd 2fb4 66bf 2625 0abf 1fb1 a3bf
000002b0: 1c16 7c3d 5ed6 b2be cb59 bdbe 6bd2 b93e
000002c0: 5f53 2a3e 139b 873d 18f9 22bf 5aa5 23be
000002d0: 993a 8f3f f4f9 573e 3c44 1dbf 731e 70bf
000002e0: 2b4c 4f3e bc7c 1cbe b12c 673f 78af 3f3d
000002f0: 19ba b8bf f878 9d3f df9d e83e 821e 463d
00000300: 2786 d8be da03 bbbf 23ed 81bf a43f 1cc0
00000310: 203d 8bbe cc13 86bf c94a 80bf 0338 3fbe
00000320: 03c5 e23d 1834 1ebf 20b7 043f b46f 3d3d
00000330: 5727 813e 868d 50bf ed99 dc3c 5a3e c5bf
00000340: f116 c43d 7356 4bbf c5f9 fcbf 07e0 6dbe
00000350: 9f01 bcbe c87a b43e c8bf 4dbf aa84 593e
00000360: 9e1f 0ebd bb83 89be dbbe 0dbf ba04 a83e
00000370: 08cc 4cbf da21 5b3e 6a90 94be 30bd dabe
00000380: 340c c9bc de3c b53e 30ab ebbe 4431 03bd
00000390: d56a 45be 1b13 4f3b 56c7 4cbf fa3b ae3e
000003a0: 8dee e9be a2b2 99bf 9143 8abf 4203 803f
000003b0: e9ab 20be ad04 dcbe 80f5 013e be07 0fbf
000003c0: 8b0e aabe 046b be3e 3701 46bf d229 2fbf
000003d0: fbd4 cdbc 24df 40bf 444c 02bf 9186 ebbe
000003e0: 7da8 febf 0973 9d3e 2084 04be e065 e6bd
000003f0: 4495 5f3f cf90 0f3c 401d 3d3f 32f4 873e
-1.1108146 -0.99489427 0.34629437 -1.4568143 -0.07431134 -1.157632 -1.1103721 -0.3888875
-0.3869597 -0.4812622 -0.47260723 -0.30060843 -0.58440834 0.39261726 -0.023141367 -0.56220585
0.04615924 -0.7695077 -1.6747622 -0.29892772 -0.04587798 -0.32724085 -1.567764 -0.5795625
0.58792937 0.32333955 -0.88892776 -0.79795986 -1.4706166 0.28330404 -0.955306 -0.41953942
-0.66387683 0.310401 -0.7690859 -0.60231555 -0.87700564 0.07927975 -0.21000923 -0.9934547
-0.56407464 -0.12856942 -0.5438532 -0.21665907 -0.8184423 0.19366252 -0.07493599 0.11987599
0.39950842 0.4841995 -0.64158267 0.59502655 -0.8938387 -0.96189183 -0.731117 -0.06607808
-1.7320546 -0.26810163 0.6724343 0.24259491 0.14977731 -0.30754068 -0.42558947 -0.4488817
-0.21025312 -0.38791916 -0.34384272 -1.5756702 -0.6987162 0.15092665 0.7581278 -0.23709351
0.58868647 -0.46368068 0.5222048 -0.5044809 -0.91338533 -0.121968724 -0.7272192 -1.6547335
-0.1401592 0.21521403 -0.12155437 0.7673792 -0.9410337 0.7807738 -0.7960058 0.5257724
0.74052364 -0.8287794 -0.083083615 -0.32567024 0.15081275 -0.6952592 0.9439139 -0.7272234
0.73849994 -1.2323277 -0.43420914 -0.36410725 -0.9597491 -0.5287632 0.10566352 -2.647026
0.035437055 1.3663633 -0.38829023 -0.38066614 0.5060618 -0.51655716 -0.4975056 -0.98761946
-0.7009764 -0.76765573 -0.70163536 -0.30213886 -0.8635454 -0.12798779 0.9767536 -1.1598269
-0.45743248 -0.30550382 0.7328609 -0.7662015 -0.09271374 -1.1570479 -0.68590754 0.5572907
-0.30831003 -0.3207349 0.3780504 -0.6652636 0.39805615 -0.13721019 0.046269186 -0.8081631
0.8193667 -0.047078665 -0.09152198 0.80842364 -0.084832 0.5582181 -0.07182008 -0.0011593607
0.7754267 -0.5047291 1.2204745 1.4282812 0.5147129 0.062437803 0.8315498 -1.224045
0.29008192 1.0594059 0.48993134 0.07458261 0.27199763 0.30415356 -0.46144658 -0.63050604
-1.5160068 -0.26544967 -0.20602334 0.53404903 -0.175517 1.3063563 0.1924365 0.033894937
-0.09677666 -0.9011869 -0.53962934 -1.2788428 0.061544523 -0.34929174 -0.3698257 0.3629335
0.16633366 0.06621375 -0.63661337 -0.15981045 1.1189758 0.21091443 -0.6143224 -0.9379646
0.202439 -0.15281957 0.9030257 0.0467982 -1.4431792 1.2302542 0.45432946 0.04836894
-0.4228985 -1.461055 -1.0150493 -2.4413843 -0.27195072 -1.0474792 -1.0022823 -0.1867371
0.11072733 -0.6179824 0.51841927 0.046249107 0.25225326 -0.8146595 0.026928866 -1.5409653
0.09574688 -0.79428786 -1.9763724 -0.23229991 -0.36719987 0.35249925 -0.8037076 0.21242014
-0.03469812 -0.26858315 -0.5536935 0.32816106 -0.79998827 0.21399632 -0.2901643 -0.42722464
-0.024541952 0.35398 -0.46029043 -0.032029405 -0.19279034 0.003159708 -0.7999166 0.34030133
-0.45689812 -1.200764 -1.080187 1.0000994 -0.15690579 -0.42972317 0.12691307 -0.5587119
-0.3321422 0.3719102 -0.77345604 -0.6842319 -0.025125971 -0.75340486 -0.5089762 -0.46001104
-1.9895169 0.30751827 -0.12941027 -0.112499 0.87337136 0.008762552 0.73872757 0.26553494

fc.weight f4 [1, 64]
00000000: 7ee9 02bf b4a4 4b40 5ec2 2b3f fb27 69c0
00000010: 618e d43e fe05 0f41 2fe5 d6c0 b051 1bc1
00000020: f603 e4bf 049e 10bd 7945 ef3f c419 c2bd
00000030: b073 d43f b284 85be 0f24 a33e 4f07 fbbe
00000040: 02a0 d8bf dbb0 4340 4958 3041 3579 203f
00000050: 085e ae3f a210 653e 1a6a 79bf 94e3 18bf
00000060: f88c ca3d 4639 46bf 645e 2fbf a936 813d
00000070: 196b d13e 35e9 353f 80d6 b7bd c41c 233e
00000080: 0835 6ebf eb91 afbf 8cb3 8bbe 3f78 88bf
00000090: 60ca 78be 6a45 de3e d61e 17c0 c27c 8040
000000a0: a323 7b3f 46e0 0c3f 364f 82c0 d0c0 023c
000000b0: d52d 91bf 7608 5b3f 7652 663f bf51 c9c0
000000c0: 8cb4 953f f93b d53f c35d c13e 8205 38c0
000000d0: 8d0f e23e 9c84 913f c676 1b3d 7832 e1be
000000e0: 5e95 0240 4101 8d3f 3d67 c93d e9d1 09bf
000000f0: b786 313f 4b1d 763f 84aa d03f d56e 003f
-0.5113753 3.1819277 0.67093456 -3.6430652 0.41514876 8.938963 -6.7154765 -9.707443
-1.7813709 -0.035306945 1.8693076 -0.09477571 1.6597805 -0.260778 0.31863448 -0.49029014
-1.692383 3.0576694 11.021554 0.6268495 1.3622446 0.22369626 -0.97427523 -0.59722257
0.09890169 -0.7743114 -0.68503404 0.06309254 0.40902022 0.7105897 -0.089764595 0.15928942
-0.9304967 -1.3716406 -0.2728542 -1.0661696 -0.2429595 0.43412334 -2.361257 4.015229
0.9810125 0.55029714 -4.0721693 0.00798054 -1.1342112 0.85559785 0.89969575 -6.291229
1.1695724 1.6658927 0.37766847 -2.8753362 0.4415249 1.1368594 0.037955068 -0.43983817
2.0403666 1.1016008 0.09834144 -0.5383592 0.69346184 0.9613845 1.6302037 0.50169116
