models/modelRNNQ_lang2_extTomita.pt (torch, 407395 bytes, 10 tensors)

rnn.weight_ih_l0 f8 [256, 1]
00000000: a6b6 a2ae 62ab c03f 944d 4004 4acd bb3f
00000010: 959d 3b06 944c bf3f 4793 4454 9a1a e0bf
00000020: 033c a77a 264f b6bf 7c71 df8b 119d e23f
00000030: a348 4c85 fa9f b8bf 7f78 e179 5d78 f63f
00000040: efa1 b604 6ae8 c4bf 1946 c892 1276 d2bf
00000050: fad5 c045 3d51 e33f 937a c57e 96af 0040
00000060: 3ba7 99e9 0531 c7bf 142e 2ca4 c24e babf
00000070: b0b8 05ff 61ce a83f 0bd8 2920 a733 b0bf
00000080: a048 43e1 e998 d03f b798 b185 8c78 cfbf
00000090: 868b 4fea b71b de3f be9b 2b01 c0e5 733f
000000a0: bfba 80b3 bc4d c73f 819f 4a4d 7fa4 d4bf
000000b0: 1287 1aec 147b c8bf 4f4e 4acf 1a54 e23f
000000c0: a76f 680a 2d76 f83f ad6e b4c6 726e e93f
000000d0: 5ca0 5d86 e808 ba3f 6b6d c4c1 c94f e43f
000000e0: bc3b a690 d065 b43f f445 fcdc 7fe9 d93f
000000f0: 528c 6e90 6981 bbbf 2876 a1e4 181d de3f
00000100: 9087 10ac dc3e ea3f f904 5a1f 7be9 ef3f
00000110: 8239 d108 9b2c c03f 0671 66dd e4dc ee3f
00000120: 3ae0 d1ba 8042 f33f 67b8 fa79 b69d c7bf
00000130: ac5f a1f1 7473 bbbf 5ba1 e2cb 684d c53f
00000140: 7980 5f63 768d c73f 6344 4147 cda1 d4bf
00000150: df3e 9a7e 2bc2 cdbf 884b a8ba a301 e0bf
00000160: 6efc 6d9b 7bfb a63f d74c 0b59 71d4 a23f
00000170: 467f 4fe9 cd87 dcbf 0b69 22ee 4e13 cabf
00000180: 7846 8aa3 e6cd b63f c3c6 af2e 4859 cebf
00000190: d323 a337 2d5d b7bf 19fd 968b cd20 d8bf
000001a0: d6c1 c119 dbbc f43f 6faa c41d 6015 f63f
000001b0: a404 7b45 c45f f03f d3ea fc20 cfe8 9fbf
000001c0: 1219 58e8 fa4f bf3f de17 10c7 0262 b33f
000001d0: 019c caff b90e bf3f 4337 6d62 194e f03f
000001e0: 5c02 1b98 a7ab c4bf 7cc8 1d71 9329 e23f
000001f0: 8703 a009 bcce c83f eb06 e6b9 a3bc d3bf
00000200: 0385 599e dc14 d23f 4770 4d14 9f9a d63f
00000210: fccb b31a caa3 d63f fdd8 ce1d 227d ce3f
00000220: 4581 7030 a154 c4bf b731 ea24 3d63 d73f
00000230: 1943 36f4 d826 00c0 520a 1388 984d 0840
00000240: 93d2 62e1 9367 f03f 66f9 56db 4b2c e63f
00000250: 34b7 0533 0074 acbf eecc c4c4 10e2 d43f
00000260: 4ff1 5503 f4ac f2bf b656 ae50 8209 e53f
00000270: 1290 b0e1 b3ef ef3f 7690 8571 6a2c d0bf
00000280: fd20 7d1c 8b6a d03f 6231 f560 0958 d53f
00000290: 8520 2cc8 90a9 b53f f4be f3eb fef3 75bf
000002a0: f70e bcd3 980b c7bf 4c69 8bd3 33a1 e53f
000002b0: 3a4d e345 8630 d23f 88f3 0db0 c25a d63f
000002c0: 5b55 8080 29ce b1bf 3b9a ebaf 9df3 dabf
000002d0: f04b 9e89 94ca dd3f d60d 654c 79cd c3bf
000002e0: 6ba2 b16c f161 e33f 3f2c f2e9 adcf dfbf
000002f0: b278 273f cd0a f43f de5f 8706 2a6e cb3f
00000300: dc51 4121 6680 e63f 82cd 1b6b bc53 c23f
00000310: e30b e799 c02e a5bf d2ef a054 b52f 0540
00000320: a6d4 70f2 4cd2 e93f 6149 ffc0 5856 e83f
00000330: dd70 f98b 9ca7 c2bf 783c 7e2a 663b b6bf
00000340: 8cd7 a089 5f20 c3bf 3b88 4765 c895 cf3f
00000350: d45f 5879 7617 cc3f e1a2 3bf8 6991 c73f
00000360: dffc 6225 de65 da3f 95d8 bf8a 3197 e13f
00000370: 6f5e 4913 4091 0340 acbd 710d 053e e5bf
00000380: 1650 332f 8210 a4bf 66db c3b9 88bc e63f
00000390: a153 0d79 b316 bb3f e00d f5ba 9ecd e43f
000003a0: 3e26 9b6a 0401 dd3f 4aec cc33 f7fe f13f
000003b0: 4009 93f4 0daf ef3f b790 0996 6e12 babf
000003c0: bb4c e560 dbac da3f 9259 44c5 a840 dc3f
000003d0: a64f c224 b883 c2bf e60b 9304 1f87 ec3f
000003e0: c89a f6b7 66a9 cd3f bef2 11f4 abdb f53f
000003f0: da27 0a84 a228 c93f 3c56 737d d30c e0bf
00000400: f1b9 707b 5ec3 c53f 0a1a c9c9 220b b8bf
00000410: f063 f238 47d9 ccbf b2ca 730b 01c6 dcbf
00000420: 2431 d413 ee57 d73f db64 3dc0 3882 c63f
00000430: 2a0d fe4f 550d 1840 2e65 e20a 4449 0940
00000440: 8105 c270 f8b7 c13f 9c71 d607 669b d5bf
00000450: 02a8 edda 0424 ef3f c958 ec43 6615 d5bf
00000460: 120b 2941 20b6 1140 8a63 0f76 942f b53f
00000470: 2c66 efcf 7b01 b73f c1f7 1dea 6b90 1140
00000480: c17c 3e98 f462 d73f 7171 0e4f 9cca ebbf
00000490: e082 0f6b 3081 c63f c73d d0f7 e726 db3f
000004a0: fd0a 4403 8316 b63f ea89 561e 09dc c7bf
000004b0: 9400 4aca f21c d9bf b578 ae5c 7436 dcbf
000004c0: a89e 0033 5321 13c0 6aec 1f8e 617b ecbf
000004d0: 8232 3acf 970c b93f 9cc4 d981 b546 eb3f
000004e0: b75b a162 29d0 f53f d837 48ad 61d6 d33f
000004f0: d926 9937 8d4e e73f 3957 69d6 f486 d13f
00000500: 9485 c1f1 7258 eabf 88db 3423 503c e1bf
00000510: 9b67 63ba 7204 d1bf 6d8a 5772 0f5f 1640
00000520: ed62 7e1d f5a2 eebf 3b15 0dbb cdc2 d23f
00000530: 4e15 5ee2 96ee fcbf b7a0 c95d 160f d83f
00000540: 2fe8 e5db 872b e53f b19a 1414 50be abbf
00000550: 504f a975 2e5c d7bf bc99 9dc5 b2c7 d1bf
00000560: 6316 a4f0 344b e33f 15da 04c5 9a0b ec3f
00000570: 70c0 6073 ec18 d63f f5a0 0681 d53e d03f
00000580: 00b1 754a fb8b e8bf eb2a 3cb9 8cba e0bf
00000590: 9408 ae4f 822b bfbf 77f8 119a 8212 c7bf
000005a0: 200f 9c59 8a7d 0740 c050 36ce ce0b f13f
000005b0: 53e9 8058 c3b4 f5bf 5a2f 7874 ce07 cdbf
000005c0: 7e44 1d1e dcf6 c4bf f350 7ff0 3aaf d1bf
000005d0: 1284 dc88 9be0 e53f 2036 a226 2609 e8bf
000005e0: 07f4 648e f3cb d63f ac02 bcbd 6e42 b7bf
000005f0: 7da9 8b30 7d85 a2bf 9f90 8c27 51db e1bf
00000600: a711 0a33 f60e d53f d153 fdf7 41da e43f
00000610: f1aa f6dc 60af c53f 4f6d d613 d4d4 c63f
00000620: 0d3c 10a4 c890 bc3f a512 fe40 9ea1 0fc0
00000630: 9177 bf05 413d ce3f 280d 265a eb18 a63f
00000640: f114 0eae 4dc0 e33f 109e 98f4 7145 bfbf
00000650: 567f fe66 bf87 c13f dc5f 1b56 7ec8 b8bf
00000660: b2ab e1eb cf96 c1bf ec52 fee3 1788 c9bf
00000670: f608 4a04 ded4 95bf ba00 6a15 fa19 d93f
00000680: 9634 47e7 48fd b1bf 8750 e0f7 1921 d43f
00000690: 2899 982f ce41 0dc0 c9a1 9f1f 2297 5f3f
000006a0: e298 5232 e369 d8bf 04b7 4942 a148 c0bf
000006b0: 697e bbc9 5812 d03f f868 507d 74c2 11c0
000006c0: a639 116d 815c bcbf 4c9d eb24 a88c bbbf
000006d0: 1e3a ce20 eca9 b03f 8502 ed7e ea2e bcbf
000006e0: 3f3f c0e0 96ea 513f 7c01 3bef 9336 c33f
000006f0: 7943 0a69 4103 e63f bbb5 e5d9 d121 08c0
00000700: a41f c8b8 fe7b c1bf 9334 26c2 2cc2 babf
00000710: 50de d776 2833 eb3f b97a 48ba 84d5 963f
00000720: 466a 83c3 b5e5 bbbf 9296 44fb 9846 d13f
00000730: 795e 3c0c 8136 0240 a045 a803 3ed2 c03f
00000740: 2998 2daf fcd1 c13f 32c5 1e72 481a b03f
00000750: b5fe ecd0 dcd2 e53f 2aab 9fac 7c24 f93f
00000760: 65b5 0068 ab3d a03f 3dc1 6543 9357 bbbf
00000770: 52bb 4ec4 4f08 ba3f 4bfc 32cb 60a6 fbbf
00000780: 599d 5d51 e42f abbf 2897 3eca c7a2 b53f
00000790: fe8c 2b1f 6c54 c63f 2107 4022 585b d53f
000007a0: 2b9c 819b 7bd2 b8bf 4671 d1d2 52d5 bbbf
000007b0: 720a ec8b 6b53 babf e945 2aed 9210 7b3f
000007c0: 49e5 1339 01dd d33f 0e9f dbce ad90 c43f
000007d0: e513 7272 46a0 f93f 54b5 c61f c446 c1bf
000007e0: 81f1 263a 7088 f23f dd42 8fb7 9bf7 de3f
000007f0: 8c76 e8f3 dc93 f73f 2754 2660 f89d c7bf
0.13023026969078905 0.10860121349133173 0.12226224090738065 -0.5032474180085068 -0.08714523786987631 0.5816734058276292 -0.09619107965798661 1.4043860207525822
-0.1633427165045442 -0.28845657667361163 0.6036669123047311 2.0857362655654668 -0.18118356615314632 -0.10276428707236845 0.04844957578721798 -0.06328815970650241
0.2593331050712866 -0.24586636093153455 0.4704417980375911 0.0048577785662251 0.18205984844958853 -0.32254011676786126 -0.19125615623948328 0.5727666901243057
1.5288515478668872 0.7947324639275927 0.10169842987454686 0.6347397598760102 0.07967856914022681 0.40487667637452707 -0.10744342590491954 0.47052595450608914
0.8201735840450386 0.9972510921799361 0.12636125498324807 0.9644646000120083 1.2037360475205916 -0.18450051265739661 -0.10723048113993511 0.1664248462232177
0.18400459148597628 -0.3223756023263091 -0.23248809510959398 -0.5002001424457925 0.044887411807388186 0.03677705966915717 -0.4457888391898347 -0.20371424319893836
0.08907929890326638 -0.2370996692621273 -0.0912655125458877 -0.37700213081184725 1.2961073881270884 1.380218616754657 1.0233805383761956 -0.031161533726144008
0.12231414959396528 0.07571427688534935 0.12131845946224475 1.0190671772756594 -0.16148848464037513 0.5675751885703586 0.1938090369222005 -0.3083886447349033
0.28252330268703946 0.35318734152474857 0.35374691589021245 0.23819376426190067 -0.1588326918145048 0.3654320583816814 -2.018968494325588 3.0378885870752947
1.0252875141278863 0.6929072650889736 -0.055572515705405584 0.3262979432649463 -1.1672248964597036 0.6574107719231594 0.9980105789186402 -0.2527109249697398
0.25650289327724335 0.33349832981618566 0.08461861502667219 -0.005359645641177958 -0.18004141176799468 0.6759280330400457 0.2842117006777759 0.34928958123037335
-0.06955203425635174 -0.42111913852423627 0.46548951567927954 -0.15470806341373472 0.6057059405257638 -0.4970507416371141 1.2526371447525375 0.2142994434241236
0.7031736993326905 0.14318042020714122 -0.04137231711094793 2.6482950793851865 0.8069214568301006 0.7605403680302453 -0.14574009737669416 -0.08684385812215278
-0.14942545147067354 0.2467585081604414 0.21946602749880972 0.18412518139600478 0.41246751452486125 0.5497062406491461 2.445922995258847 -0.663820768602752
-0.0391884501092649 0.7105144146179156 0.10581514077541822 0.6501001025684978 0.4531870881151895 1.1247474692779798 0.9901189591258017 -0.10184374964734642
0.41680035078497796 0.4414464880404917 -0.14464475436090857 0.8914942826598888 0.23173221571524594 1.3661307844151191 0.1965525765156702 -0.5015656900602106
0.17002469088897912 -0.09391992021947018 -0.22538080483062073 -0.44958521002187546 0.3647418206826549 0.17584905039510698 6.0130207537470515 3.1607743120518057
0.13842683320767082 -0.33760977521321833 0.9731468463844524 -0.32943112023475557 4.427857416277009 0.08275726206137626 0.08986638857404533 4.391036661223496
0.36541476123415967 -0.8684827369757341 0.17581753947799594 0.4242496414235259 0.08628100232821719 -0.1864024541983576 -0.3923918700675213 -0.4408236413090763
-4.782543942368342 -0.8900611663697309 0.09784840401898445 0.8523814712663298 1.3633207180734936 0.3099598114212063 0.7283388219741155 0.27386208475705903
-0.8232969972415725 -0.5386124312998257 -0.2658964939306487 5.592832361786901 -0.9573922706650514 0.2931398703261327 -1.8082493631821595 0.3759208598990073
0.6615638060459385 -0.054186346484404686 -0.3650013112103254 -0.27781361864472465 0.6029305171984557 0.8764165733362598 0.3452712179887447 0.25383508300957597
-0.7670875982562677 -0.5227721803542783 -0.1217576450854117 -0.18025238535841812 2.9362990380049183 1.0653827719843747 -1.3566316086931536 -0.22680073439584697
-0.16378356428552715 -0.27632020460192946 0.6836679146837261 -0.7511168245852708 0.356198205048543 -0.09085743076503644 -0.03617469041440111 -0.5580220959132197
0.32903819069204093 0.6516427844568345 0.1694146231578411 0.17837000816948964 0.1115842247529459 -3.953915126565635 0.23624432354602878 0.04315886950919384
0.6172245406638962 -0.12215339871965392 0.1369551899815586 -0.09680928804607397 -0.1374149228825821 -0.1994657386063844 -0.02131983662776179 0.39221050349443554
-0.07027106901587596 0.3145203514734551 -3.6571315496868415 0.0019281228292077227 -0.38146285929032164 -0.12721648918834927 0.25111980152539687 -4.439897497208442
-0.1107865229871324 -0.10761500264526552 0.06509280968587247 -0.11009088133597274 0.0010935281197852057 0.15010308438469255 0.6878974010052011 -3.016513540575685
-0.13659652731462046 -0.10452537288638757 0.8499948807866051 0.022298883313960547 -0.10897384665751372 0.26993393457301196 2.27661332663757 0.13141608408527095
0.13922079614275276 0.06290104662072762 0.6819900589543609 1.5714079611886498 0.03172050137105024 -0.10680504222341809 0.1016893247858495 -1.7281196534602425
-0.05309976094468522 0.08451508224115101 0.17445136568048975 0.3337002119516104 -0.09696171328106178 -0.10872380873610607 -0.1028353897673158 0.006607603007652931
0.3103640611075958 0.1606652507828063 1.6016296835452917 -0.13497211028645018 1.1583101531569755 0.48386280942672305 1.4735993888529348 -0.1845083684426367

rnn.weight_hh_l0 f8 [256, 64]
00000000: 2584 e33f 27b1 d4bf 91d6 d146 763f d23f
00000010: 7a87 33bf f577 d03f 559d 8a67 2831 c1bf
00000020: ba4f 19d1 8c56 a7bf c5e5 4dfb ead6 c43f
00000030: b597 df4f 55ca ddbf 2023 fdbe 8d67 dabf
00000040: 4683 b513 6a0c b3bf b550 b43c 989f d5bf
00000050: dd23 2e39 1cc6 a2bf 9ddb 6220 b938 d53f
00000060: dbc4 3189 0a99 d7bf 7159 3029 9240 dabf
00000070: 4183 e470 9fb0 d83f 3526 b077 1ae1 c5bf
00000080: 34c8 0905 a40b ecbf 391a 3001 1d0b e03f
00000090: 9b47 fa12 e796 b63f 5fda 1430 49cf d43f
000000a0: 714f d03b d116 d3bf 9587 aba9 5080 d83f
000000b0: 6cbb 1606 d863 e83f c62e 350f 45dd aabf
000000c0: bd29 df86 1c8b db3f 1f98 fe51 5e60 e03f
000000d0: 9287 d1f0 44fc d7bf 4ee0 e54d 234b d13f
000000e0: 83c6 c887 27c2 96bf 1ff5 0d9f 5d4f d9bf
000000f0: ca84 b5e1 8eb8 c1bf f99e e3d8 c523 c0bf
00000100: bb42 a23d ac99 c13f 7f85 57e9 92c2 babf
00000110: 6bd2 a08c d592 c6bf 140b ec0a 4a28 d7bf
00000120: b368 5c09 1ea6 a63f ce2e 4592 bda0 e3bf
00000130: 45ad 1d35 a5a3 d03f 98a3 0bb5 ff62 d8bf
00000140: b327 2d3c 48a9 723f 7001 0b49 4e29 ebbf
00000150: ece8 8c87 82e6 ea3f d552 8d11 3f15 abbf
00000160: cf29 03c7 c6c9 a53f 8522 ae02 8850 bbbf
00000170: 2889 dad8 9313 e23f e4bc bce5 8f8c eb3f
00000180: 976e ac6b c68a abbf f2ca 2bd1 e5df d43f
00000190: 2c6e 1da7 2945 e1bf bd0c 7558 aae2 c03f
000001a0: c710 ff86 830a d6bf 0f1a bfd9 926c aebf
000001b0: 9217 223b 8f1f d33f c273 b1b7 03e2 e3bf
000001c0: f9c6 6dec 5c0b e73f d2a4 0f25 480f b83f
000001d0: 8b88 f83b bafb d4bf 628d af5a dbc8 b0bf
000001e0: 405a 3ca6 7047 db3f 5a9f 697b 5772 adbf
000001f0: 751c 5c66 e874 c63f dc5a 6b9d bf7a 823f
00000200: 8f9a b508 041f a83f 8ca0 0e06 7d61 ea3f
00000210: e998 7d89 ec35 d1bf 8b01 3cd3 fee9 d43f
00000220: 88f6 0240 4a1a ebbf dd0c e9da fbca d43f
00000230: f447 d946 1400 e9bf 256b 7fb3 af1a d93f
00000240: 4dd2 909a ef0c d03f 5452 000d 3be4 eb3f
00000250: fcf4 3227 f3bc cb3f 211d 0170 f210 bb3f
00000260: c01d 5fa5 fbd9 e7bf a39a 8010 7f42 d03f
00000270: 7aa1 48a8 f0ce b2bf c2bb cd7f fa2d ebbf
00000280: 6e22 87e4 06d8 e3bf 0cea c43a 5037 c1bf
00000290: 2db3 25d6 a4ab d43f 8e3c bd67 d931 b13f
000002a0: 18e8 d2dd bf68 9a3f d12a c697 ba68 e6bf
000002b0: f963 b203 0bee ea3f 4187 2bbe 28f1 ddbf
000002c0: 1da4 b24a 162c e73f 0e1f e471 52d7 e9bf
000002d0: a367 21b5 3688 aebf 07e6 c737 8181 d8bf
000002e0: 3208 ce61 9aec dabf eeeb ea0d 5bcc b13f
000002f0: cf9b 9fe4 000b e2bf 9ee9 d8ad de35 d33f
00000300: 2935 2a8d 7368 bfbf 5335 3126 dd08 d13f
00000310: 46b4 e063 283a eabf 526f 2349 5941 d2bf
00000320: 7b33 0f7c 9422 babf 8ab6 d016 9bbe f1bf
00000330: 2410 e4d7 03c7 cd3f 1858 7470 2338 a83f
00000340: ccdc 7636 ec27 d73f 6ddc f951 21e9 72bf
00000350: ef94 b7d2 8647 f33f 9ba4 8726 a628 e0bf
00000360: 778d c81b dc17 d5bf 739d 6b2a c56c 99bf
00000370: d783 c073 a0eb df3f f346 5129 4f1d f0bf
00000380: 758e e635 07d1 d13f d74a 4b43 16a1 f23f
00000390: f624 5c35 5559 ddbf 2696 a62d a87e aebf
000003a0: 0cd9 f069 3320 dfbf 77af 75cc 7c8a d33f
000003b0: bcf5 07db 1820 9a3f 9f23 ee22 d1a4 9dbf
000003c0: 7f9f 813a 62e4 d23f 0bbe 4d33 a455 71bf
000003d0: 3602 4b71 5445 c43f 11db 938d 9617 90bf
000003e0: 44d2 40b6 4b55 f0bf 5e3c 687e cc7a dfbf
000003f0: 760a 79e0 7e83 c93f 583b ed88 ef91 ecbf
00000400: 8b1f 0e3b 7412 c6bf 855f c7df d6c6 b2bf
00000410: 6449 22bc d5dc d73f f432 9ab9 0001 ef3f
00000420: 01df 30a8 a463 d0bf b425 9a1f 9530 f1bf
00000430: cf6c 5e82 94c1 ab3f 5167 9e6b 9da5 d7bf
00000440: 3de0 c0da ef1a 883f d8fe 8636 701f e0bf
00000450: 643a 01d3 13f7 cfbf a717 3982 d881 d03f
00000460: 9ed4 5c18 1af5 adbf 3432 f804 60ce d73f
00000470: 7413 4a2d 159f b6bf 357e 1466 767c c7bf
00000480: 56cd d5aa 0bcb d6bf d11d 1f65 9e3f b23f
00000490: 2df2 a801 82bb f2bf 42c1 d37a 79ce debf
000004a0: cee4 f63f 0e45 e4bf 0a85 597e 84ce ca3f
000004b0: 665e b708 3237 a63f f8b4 bbc5 398d f23f
000004c0: 735d 7bce f788 d63f 6c6a dd49 2e90 b3bf
000004d0: e9d6 b917 ed0a dabf e974 db16 5963 d5bf
000004e0: e562 13f2 e47a cebf 9ac5 2d09 52dc dfbf
000004f0: db12 2d57 cecd e7bf 3bdd adc8 1423 f2bf
00000500: cc46 36f6 7d89 ea3f 5b23 b295 c5b8 e23f
00000510: 4431 0e18 2a75 db3f 108f 379f 9e22 e1bf
00000520: 9396 a19e 53ad e63f f233 d319 fb9b cdbf
00000530: 17df 0a0c 1b8f d53f c3ec 11f0 ad5a e4bf
00000540: 141a 67a9 5a5b babf ecec 4f1f 80ee e2bf
00000550: 6698 3701 87e7 d3bf fa4e ec77 ca55 f23f
00000560: 222c 9d79 978f debf fe85 6e12 962c c6bf
00000570: f406 f6b2 6407 c13f 46ee b1cc 3778 f73f
00000580: 4540 4ca6 95d3 d33f 6eaa fb19 65ee ea3f
00000590: 07f4 08b5 0cdc e03f 023e ac76 c0f5 d83f
000005a0: be86 5d8f add7 d6bf 583d e211 5f0e d3bf
000005b0: 11b6 49ce e728 da3f 3bbc e8b1 80a2 b93f
000005c0: 64ff 37d3 4830 d83f fee9 9a0f eecb dd3f
000005d0: 3ccd 607c c3df e8bf 77ef aa12 2a8d e13f
000005e0: 5335 954f edb4 e2bf 617f f228 31a3 a53f
000005f0: ec32 9cb3 63d0 8d3f c0db a080 8826 d73f
00000600: f766 0272 4218 e33f 44ec 886e 8bde f0bf
00000610: f7d0 7f82 2105 e3bf 7b55 c54b c226 0440
00000620: e801 98b6 f44a f43f aa5a 0d78 b502 ddbf
00000630: 2206 43db ee41 fb3f 7aa6 8856 4797 fe3f
00000640: bef0 fa8a 0d4b debf dcf0 8db3 d226 febf
00000650: a780 9b44 51dc f83f 2f39 2993 5dd2 fdbf
00000660: 69c8 713d 6f9e eb3f dbe1 10a7 6873 c63f
00000670: 43ca 17ee 7bba f03f 5f93 52de 15b1 ef3f
00000680: 75e9 2f2e 233f f33f d32d f8fd a7fc d43f
00000690: 4add 6613 924b b13f f28c 095d f6fb c53f
000006a0: c82e ab45 acbf f0bf 9b6d c4f2 ecbc c43f
000006b0: 3ca8 14e3 f4b4 e9bf 3b65 c611 9a5f c1bf
000006c0: bb0c a21c 5797 f9bf 3739 1715 999b c93f
000006d0: 4cc5 f503 b603 ec3f 1596 61a4 b921 f73f
000006e0: e204 fccf af24 fc3f c081 c62c 3f94 dd3f
000006f0: 06ac c7e6 c782 eabf 9070 12e7 aac7 c6bf
00000700: 93c7 a854 08a0 e7bf 5a20 ce4c 0f9e e1bf
00000710: d3a9 7420 052e e0bf 7a60 fa54 0c53 f23f
00000720: 1dca 3585 6a5e f7bf 2284 3d6d 34fb e9bf
00000730: 1778 11af 9278 f5bf b6c8 4c5b 4c7d d8bf
00000740: ea12 3c9f c247 d93f f7f4 50bd b61c dd3f
00000750: 149d 065c 73b0 eebf 84e7 476e 9ad7 fd3f
00000760: 6676 de55 97fe fc3f 3cba 40f9 ad04 aa3f
00000770: 049a f215 ac0b bf3f fe05 8c46 fbe6 c6bf
00000780: 95dc 127a da77 fabf fff6 c984 5119 eb3f
00000790: 29af 0c4a dcdd a73f d62e e77e 7c31 fb3f
000007a0: 7956 e5fb 1dee f73f 3644 a9b7 e1d6 fb3f
000007b0: 618b 664b d26f e4bf e346 2d10 e019 01c0
000007c0: e4ad ad9b 1d00 edbf e1d2 8753 dc46 f1bf
000007d0: ae71 a3f1 4f34 f13f 3305 7b74 4a66 d4bf
000007e0: 4d12 f004 e6b0 d7bf a505 57c6 c9bc c13f
000007f0: e1ed 73db 6ac4 60bf 72e6 458f 9f20 b23f
-0.32331258048185624 0.28512341419205095 0.2573217742157038 -0.13431267791495807 -0.045582199597134346 0.1628087737151828 -0.4654744415296322 -0.4125704159856003
-0.07440817814996334 -0.337865886003111 -0.036667711238869784 0.331587106349099 -0.3687158908642922 -0.4101910974726684 0.3857802011935299 -0.17093211025376012
-0.8764209841158448 0.5013566039277243 0.08824009145089777 0.3251517266793708 -0.29826765862639265 0.38283173150386435 0.7621879691049407 -0.052469404322065524
0.43036568804805225 0.511763725419545 -0.37477229611806095 0.2702110539171415 -0.022225015318503082 -0.3954690984026729 -0.13844476719808646 -0.12609170046129473
0.1375022221514167 -0.10453146168540249 -0.17635602347003795 -0.3618340593967997 0.04423612465161977 -0.6133716446724635 0.2599881190023619 -0.3810424106618995
0.004555971306055828 -0.8487922121640121 0.8406384131879157 -0.05289647187479366 0.042555057328701566 -0.10669755998072546 0.5648898349211651 0.8609084593826108
-0.05379314483999769 0.32616563250409947 -0.5396927131618603 0.1319172794265792 -0.3443917101215103 -0.05942210109747147 0.29880123877261966 -0.6213396632916715
0.7201370828390444 0.09398318199932312 -0.32786422592665393 -0.0655648323441276 0.426235353793718 -0.05751298314572635 0.1754427432826763 0.00902318667560336
0.0471116314536647 0.8244004362395727 -0.268916258114031 0.3267819464527057 -0.8469592333055553 0.3248891485020076 -0.7812596687092523 0.39225380448412955
0.25078954786593927 0.8716101888590608 0.21670379079834123 0.10572734102708072 -0.7453592519677201 0.2540586148410659 -0.07347015484322653 -0.8493626114048924
-0.6201204741892761 -0.13450053090657865 0.3229763118059051 0.06716688902564469 0.0257902125492607 -0.7002842869126998 0.8415579864696375 -0.4678441865090584
0.7241317233030063 -0.8075344299731755 -0.059632978068022945 -0.3829043431029224 -0.4206911044240115 0.06952447023188288 -0.5638431992818996 0.3001629541137393
-0.12268755146415757 0.266166007325258 -0.8195993376481361 -0.2852385725252492 -0.10209014920037689 -1.109034623262604 0.2326359562067647 0.04730330226645679
0.3618116886022562 -0.004616861493210595 1.2049625617158275 -0.50496203923571 -0.32958128655646796 -0.024828987802633273 0.4987565164938678 -1.0071555723156365
0.2783830667851597 1.1643278721500587 -0.4585774441807894 -0.05956006581554289 -0.48634038301260385 0.30532760588425084 0.025513065689656264 -0.028949039227459058
0.2951894351340271 -0.004232064636070297 0.15836577922711265 -0.01571498145218714 -1.0208241576448396 -0.4918700441784888 0.1993254276331588 -0.8928144144391394
-0.17243817218354382 -0.07334654773091927 0.3728536927457269 0.9688724160237983 -0.25608173775570725 -1.074360965200282 0.054211274065176 -0.3694833327259533
0.011770128119778284 -0.5038376870142782 -0.24972770503014197 0.25792515484897155 -0.058510604356720494 0.3719711349993162 -0.08836490970322847 -0.18348579391839484
-0.3561429184257653 0.07128324478900729 -1.170778280719911 -0.4813522052272853 -0.6334296464257478 0.20942741555612826 0.04338985783004716 1.159478924174719
0.35210986294028784 -0.07641877463667307 -0.4069168788622464 -0.33418872100976543 -0.2381254369745626 -0.49782229324690663 -0.7438728048951718 -1.1335647429494446
0.829283696062896 0.5850551532504186 0.42902614926494587 -0.5354760274608186 0.7086580370202732 -0.2313226581667603 0.3368594758608067 -0.6360692681186254
-0.10295645366486667 -0.591613827854784 -0.31100630873550583 1.1459450420852009 -0.4775141418110157 -0.1732356634138767 0.13303812731106002 1.4668500896358565
0.30978909721398323 0.8416009433252165 0.5268615279998138 0.38999950017111484 -0.35691393852730957 -0.2977521586080534 0.4087466730623826 0.10013584464535168
0.3779470503504767 0.46557189487398876 -0.7773148946056732 0.548481975994476 -0.5845858148910942 0.04226068138927875 0.014557627600447508 0.3617268806587468
0.5967113711114668 -1.054332191254404 -0.5943763302625759 2.518925277671483 1.268299782998037 -0.4532903358826085 1.703596931926207 1.911933267614954
-0.47333086559570947 -1.88447828424892 1.553788440702229 -1.8638587711789787 0.8630901527487939 0.1753969970466319 1.0455283451562003 0.9903668730008625
1.2029144100366385 0.3279209118051913 0.06755936597516157 0.1717517809184766 -1.0467951508934892 0.16201555112716623 -0.8033394274873511 -0.1357300364295869
-1.5994483107067896 0.2000609734518066 0.8754530026764455 1.445733682741211 1.758956730307823 0.46217326519584034 -0.8284644610806715 -0.17796837122739761
-0.7382852223874913 -0.5505444049931711 -0.5056176790142736 1.1452754325346448 -1.460550804473889 -0.8119146474456367 -1.3419367636302064 -0.38264759937295467
0.3950048975969326 0.45487755287088255 -0.9590393826846673 1.8651375110480055 1.812156043458708 0.050816952396747855 0.12127185378867728 -0.17892399735141845
-1.654261090135866 0.8468406289609617 0.04661453632283347 1.6995816189909667 1.4956340636903447 1.739961354662467 -0.6386500809352179 -2.137634397870771
-0.906264118251269 -1.0797999632751998 1.0752715529443821 -0.31874333739331745 -0.37017202837185864 0.13857385811392678 -0.002046784120123255 0.07081029174687517

rnn.bias_ih_l0 f8 [256]
00000000: 3246 acdd b1e2 f1bf 9ac3 959a 32f6 eebf
00000010: 4c12 421e 385d f9bf 02fd 3ea1 67cf c73f
00000020: 55f1 bfc8 f98f fc3f 305b fd4a 9984 c73f
00000030: bffd 1fe9 9c09 f43f f390 5a56 f32d ed3f
00000040: 46fb bcdf 208f 9c3f aef5 7b73 6e60 e0bf
00000050: 720d d36c 93c0 d23f c0c8 827e bea5 d03f
00000060: 217d bf78 d041 953f 254c 88a3 e413 f4bf
00000070: 06eb 9318 f1fb e2bf d23a d087 d064 dc3f
00000080: 9383 6c37 cfca b8bf bdd2 1334 f22a d63f
00000090: 7822 3b94 a4e7 e23f f4a8 7745 c067 b53f
000000a0: df78 f958 4305 c2bf a9f8 6a7b fbc5 f3bf
000000b0: bb16 f710 17ed edbf 885c cbcc 7cff f03f
000000c0: 2f3f 58c2 4b0e ca3f 847b 725d 0214 dc3f
000000d0: c821 b0c7 c7af f4bf 9271 c0ad dd9d db3f
000000e0: 494c de52 b5b0 f13f 12e8 8d6a 8aab d4bf
000000f0: 3d40 e8bd b4f8 b93f 40a2 7698 9533 e13f
00000100: 9a69 dfaf 3556 f03f 9917 7605 0edc e03f
00000110: 5c2b c5c4 693d f5bf a8f8 93da e91f cb3f
00000120: 253d d722 14a3 f93f cd62 479f bdbb da3f
00000130: 064a fb42 4771 0240 778d 05e7 828d 73bf
00000140: e87c c251 9f7a d2bf d1ec cbd3 f2ca f5bf
00000150: d553 8727 4c09 b6bf 24d6 451c 26c6 823f
00000160: 2790 6bf6 e060 f73f aa99 b718 bf49 e3bf
00000170: cb3b 5ce6 61f7 ebbf b952 d5b1 c335 e63f
00000180: a370 1a3d f70a dcbf 4ba1 b9d3 260e f63f
00000190: bba3 d46a 6d07 b4bf 640f 8fbf 885b d33f
000001a0: b2c9 7938 1e67 f43f 83ad 6d92 008c c53f
000001b0: 0b0c fec9 9ae7 e53f 92f8 d193 651c e1bf
000001c0: aed6 3979 3e5f eebf 862e 26d8 3ae0 d2bf
000001d0: fddb af1e 5566 f43f 13df 4358 7184 f53f
000001e0: 2c65 22ce cbd1 c63f 99fc 4eb3 bbd8 db3f
000001f0: c432 fc9b 3e46 dcbf 1d30 aae6 94d1 dcbf
00000200: fb48 8b0c 549f c7bf 18e5 bbee adaa ac3f
00000210: 5a09 063b 125f d4bf 6741 8b6f f62d c63f
00000220: e2c6 76e7 58ae c03f e2d2 b442 4d85 d23f
00000230: 2717 6c17 d57c cbbf e303 6e2f 7214 dd3f
00000240: 280b 866b 3857 e93f 491a 5417 d28c e53f
00000250: bbe2 d2b6 b731 c43f 6edc 93d6 6184 b6bf
00000260: 2939 c2ef 893f dcbf fb11 986f 4db6 e03f
00000270: fdb7 79e2 0c64 e33f a3d9 9662 71f5 c7bf
00000280: 2468 0f19 05e2 cb3f 328f d61e 453f bc3f
00000290: f55b af1b 997e ea3f 4b27 dbb8 a53a d93f
000002a0: 63c8 9f34 3394 a73f b1fa 9669 d26b e43f
000002b0: 7854 7539 45f1 d73f 6ed6 6875 a4c6 f03f
000002c0: 36f3 931f c271 d6bf 4386 bfde 6e46 d03f
000002d0: 3fb1 161e 2f34 a73f fc50 54fb c312 d5bf
000002e0: 093a 08be 53f3 e43f f705 683b ba8f dfbf
000002f0: f708 7bff ef05 dabf 396c a102 be94 f03f
00000300: d3d0 6dfa cbf3 ed3f 9c88 7299 889e f73f
00000310: 741c bf8d 97c2 c2bf 9f0a d58e 88d4 c03f
00000320: 285f 1f32 50f9 e03f baea 9fdc 923a dc3f
00000330: c34a 95a6 b4ce c0bf 52b9 ef97 dac8 d0bf
00000340: cd78 f14b 886c f13f 02a4 bb10 f836 bcbf
00000350: 7f23 98d3 00b8 b5bf d0ce 116f e5cf d3bf
00000360: 91ed 7b2c 6729 d03f c0fe fe2d da1f ddbf
00000370: 727a c785 f214 db3f 2330 6c11 d4af b8bf
00000380: 5ff5 b05d e728 e73f 7cd9 5682 f82f d3bf
00000390: 6b24 410e 1cf3 e43f 28c6 8f6d 893e c63f
000003a0: e8cf bd0f eab3 c83f b93e 6d1a a10d d73f
000003b0: 91c5 52a4 2457 cb3f e781 0dfc 619f b1bf
000003c0: b04a fc38 2c69 dbbf 7302 4dcd 5df2 d8bf
000003d0: c00a 097b 25c3 c0bf 605c b93d 9e4c e83f
000003e0: 0fc1 3f7c 4b37 c8bf 154b 6d14 f1d2 c33f
000003f0: bead 3520 985e e03f 5c6b 706b f0c2 babf
00000400: 16f4 7c18 8551 d7bf c14f 207c fd5e f13f
00000410: 1835 4176 fd98 d43f b98e 7648 d2b7 e1bf
00000420: 06e9 9293 eeca c5bf 8675 7bb6 a205 cf3f
00000430: ee3d 3294 e0e3 eabf 6ff6 01c3 2f06 b83f
00000440: 5d09 bd79 00bd e13f 18fa 6377 d071 d13f
00000450: 4568 b4c5 cea9 e73f c5b4 ada4 3628 ddbf
00000460: d062 11f5 f90b e6bf c2c0 ae60 d9d9 e83f
00000470: 7f5d 9a9c 6c63 dbbf 0b33 dd1e 4265 c9bf
00000480: eecd b4fc 345d dbbf c392 6a72 6ab5 eabf
00000490: 8c7f 7105 2985 d33f 46c4 68da 8888 acbf
000004a0: adde 2d2e 4e8e e83f d87a 974a 94b8 c2bf
000004b0: 3c01 d27a 0302 cebf b108 b93e 9072 f1bf
000004c0: 2406 1ec2 822f dc3f b2b5 259c 6a83 f0bf
000004d0: 8fbd 5b06 e362 e2bf 87d7 8116 24e2 c7bf
000004e0: 2895 534b c495 f33f 7067 8051 a9b4 f03f
000004f0: fda2 5803 0afd e13f 6cb4 5a89 3bb4 ed3f
00000500: 1635 076b d18f e8bf 304a 703e a0f5 dbbf
00000510: 8c01 78b7 ba57 f03f 24a5 4c9c 0cab 9a3f
00000520: e34d e71e dc85 f0bf f99d a4ad 7afd e1bf
00000530: eaf7 136a ec98 bbbf 169e e606 63c9 f1bf
00000540: eb90 2dbe 9ebf e2bf 8273 78b7 519f ed3f
00000550: 6717 1d9a 9b1e ec3f b46c 6950 4ce4 eabf
00000560: 41e7 e5bc 4236 f43f d514 24e7 da66 d93f
00000570: c1f1 b4a2 9b28 d63f 85db 19ab c031 cdbf
00000580: b7cb d856 c714 e4bf 933c b1f6 1dc9 d4bf
00000590: b422 5fdf 5a0b cfbf 7ad1 fbe5 de94 cfbf
000005a0: 0907 8b24 e42d 753f e3eb 3721 c67e c73f
000005b0: 35b4 01c7 3496 dabf 4d41 9405 c98b bbbf
000005c0: f40a 3112 40ff e03f 1677 f3b0 73c9 e03f
000005d0: ace1 2b5f 8a5a a43f 0d2b c552 5cd3 f5bf
000005e0: 5aac d778 14b9 d93f bf53 380d c462 eabf
000005f0: ec9c 3124 e265 0040 3b40 e7cd 8992 cbbf
00000600: 4e65 f2df 3f81 e4bf 016b 1128 59ed eb3f
00000610: 5f13 a3fd 2bdf fbbf afbd 0295 a8ec d2bf
00000620: 3723 0cbe cdee b93f 1c7b 5fd0 113b df3f
00000630: 34a3 d8d6 d32c f93f 4448 8909 9391 e73f
00000640: c359 72db 7026 d5bf 6be7 5acd 5a08 e13f
00000650: 97ca 65ab fbf7 dcbf 37fb 44e3 1e14 fb3f
00000660: a23f 2bdb 0f8b a33f 5034 d570 f952 f9bf
00000670: 3c58 7c04 4310 dcbf 402a 28ba b718 e93f
00000680: 42f3 cad5 3bf5 db3f 538f ee9c 96f3 dfbf
00000690: e0e7 747b 6426 d23f a686 03c0 b15b e9bf
000006a0: 9741 2c53 3964 e7bf bd6a e460 daee eebf
000006b0: a90c cc60 0309 f1bf 2259 b027 c8f3 e23f
000006c0: e034 a405 2d52 fa3f 61d6 73fc 48ce e83f
000006d0: 2d0f 9586 f8c8 f8bf 3fa9 9914 fadb 0040
000006e0: e5c8 091e 11a7 a23f 2f2b 71ec c3f2 d3bf
000006f0: edb3 72bd 4f84 f0bf a6ee 9375 363f e93f
00000700: 6319 6138 536f ed3f b4e1 f4fc 4167 fc3f
00000710: a9c5 ebd2 7f3e bfbf fa2d aa55 34c1 e43f
00000720: a1ae ea03 fb2f fa3f ad9c 4ebb e76e d4bf
00000730: 77a7 0351 a6f9 f43f 09fa d064 e299 e6bf
00000740: f22c 8f23 100a b93f 1eec 39e1 f013 dbbf
00000750: e985 b434 2520 e5bf b4df c2d5 43d5 d0bf
00000760: 492e bcd6 81b4 e13f 0af4 7abc 5172 fbbf
00000770: 2393 bb61 3055 c1bf 360f 824f a530 e73f
00000780: c256 91ac fc6d e03f 53c6 915f 58d4 df3f
00000790: 770a b91d 7db1 f2bf fa33 f3bc 0743 e4bf
000007a0: e40f 8b14 a772 f33f 7e26 d186 9376 e23f
000007b0: 160c ecf4 ff97 f43f 00c8 1b8a 8db5 d4bf
000007c0: 13a3 25eb dbb4 e2bf e229 10ca ab3e e5bf
000007d0: 4344 f1b5 270a ce3f 2f14 64c8 b053 e53f
000007e0: 8b13 465a e06e d23f 514d 4d73 ef4c c7bf
000007f0: 3ada 2073 ece5 d53f 0cf9 d3db 5486 e8bf
-1.1178454074000794 -0.9675534266699402 -1.5852585966068942 0.18601699231474106 1.7851503221309788 0.18373409425358878 1.252346907276532 0.9118591963383821
0.02788974156942039 -0.5117714171935199 0.2930038988817706 0.2601162181337138 0.020758874292252764 -1.254856718824848 -0.5932546119723561 0.4436532331755362
-0.09684462645647178 0.3463712223595328 0.5907767195831886 0.0836143655393789 -0.1407856163450054 -1.2358355351457624 -0.9351916629172686 1.0623748779087538
0.20356127728927606 0.4387212669916425 -1.2929151344597916 0.4315103718561427 1.1056416737599355 -0.32297001271911185 0.10145120273978221 0.5375469186593094
1.0210472936656516 0.5268621546426743 -1.3274934469543131 0.21191142246965922 1.6023141251533357 0.4177087836701901 2.305311702054726 -0.004773627603160128
-0.2887342737612486 -1.3620479844383235 -0.08607936825804015 0.0091670014742063 1.4611520410335375 -0.602752254749068 -0.8739480494713175 0.6940630410486711
-0.43816929785840325 1.3784549971115492 -0.07823833330316081 0.30246180254856925 1.2751753049929957 0.16833502912355067 0.6845220513499738 -0.5347164046395554
-0.9491264693922028 -0.29493590458216834 1.2749835203846935 1.3448346565109588 0.1782774693026935 0.4351033450183848 -0.44178738816189544 -0.4502918484292893
-0.1845498143434908 0.05598968066437687 -0.3183026863481665 0.17327766844256162 0.13032065679504173 0.28938609613696376 -0.2147470821729993 0.4543729270154115
0.7918970203466857 0.6734400230059886 0.15776726176206587 -0.0879574917670298 -0.44137810148176243 0.5222537211962498 0.6059631751393223 -0.1871778231995452
0.21783508037225474 0.11034042361148691 0.8279538670275303 0.39420455028868123 0.046052551435324295 0.638161855916982 0.37410097705043865 1.0484966837224436
-0.35069325526983464 0.25429889443157466 0.04532000772755617 -0.3292703585041321 0.6547030173840663 -0.49314742852592935 -0.4066123957565106 1.0363140204197079
0.9360103503409171 1.4762044900931306 -0.14656347676484283 0.13148600553730191 0.5304337481456729 0.44107505364778954 -0.13130815633720347 -0.2622591480020634
1.088997170117682 -0.11021376045722778 -0.08483891645313511 -0.30956397863995466 0.25252703994893816 -0.45506910793117683 0.42315352501274284 -0.09643292832714727
0.7237431363970862 -0.2998029015392587 0.6546764639289341 0.17378347253502224 0.19299054878831545 0.3602068670343033 0.21359689735031087 -0.06883823779708785
-0.4282942348956267 -0.3897928719416434 -0.130955395770874 0.7593527989910278 -0.18918746535155903 0.15487493035706082 0.5115471486182555 -0.10453703520799479
-0.36435058013359034 1.0856909607582426 0.32183777378379963 -0.5536891379637928 -0.1702554913116005 0.24235948477045727 -0.8403170484979776 0.09384439955643996
0.5543215158179852 0.27257167491180345 0.7394784795208201 -0.45557943422211294 -0.6889619623644538 0.7765929115612595 -0.427943375523192 -0.1984026575759333
-0.4275639026484147 -0.8346454844182393 0.3050024560125102 -0.05572917619827726 0.7673712636887636 -0.14625791208432903 -0.23443644997679225 -1.0904695940121594
0.4403998275448393 -1.0320840930465747 -0.5745711445032827 -0.1865887746714032 1.2240641539040755 1.0441067870765117 0.5621385636669342 0.9282510454846835
-0.7675559130090359 -0.43686681840441377 1.021418301272294 0.026043126144178377 -1.032680626599238 -0.5621922866311585 -0.10780217733187639 -1.1116667050899927
-0.5858911241926114 0.9256981452377746 0.8787363061935424 -0.8403684206527005 1.2632472399549928 0.39690277645452215 0.34622851266228954 -0.2280808291868334
-0.627536458609362 -0.32477521029518036 -0.2425340262109522 -0.24673067311926983 0.005170718367198076 0.18355633375162403 -0.4154178565430045 -0.10760170351227778
0.5311584811500709 0.524591298682682 0.039753269307712585 -1.3641017182550883 0.4019213848211557 -0.8245563753322286 2.0497477367058448 -0.2154094939601253
-0.6407775281869961 0.8727231772021186 -1.7419853122421143 -0.2956944899733242 0.1013001049979153 0.4879803213970477 1.5734442131453763 0.7365203081374223
-0.3304712431940084 0.5322698603479074 -0.4526356862835796 1.6924122693742 0.038170333389302216 -1.5827574164898301 -0.43849254072245336 0.784267295444188
0.436842879087454 -0.4992424519098126 0.2835932927733875 -0.7924431562680254 -0.7309843658895713 -0.9666568653513746 -1.0647004872451282 0.5922585272954033
1.6450624676102095 0.7751812868797964 -1.5490651375884668 2.107410584391942 0.03643086902310858 -0.3116922196392577 -1.0323026085200084 0.788966397899874
0.9198394871862486 1.7752094155422187 -0.12204741382063013 0.6485845254077838 1.6367139962193635 -0.31926911632258276 1.3109496273632126 -0.7062847107952744
0.09780979984423135 -0.4230920981860339 -0.6601739911458796 -0.2630166614067051 0.5532845682186657 -1.7154099810134107 -0.1354122616968648 0.7246882012263771
0.5134261484588125 0.4973355229659308 -1.1683322106406686 -0.6331824007444304 1.2154913713902653 0.576974643053475 1.2871093337314554 -0.3235811089244862
-0.5845775215831018 -0.6639002749009786 0.23468490966709696 0.666466132534543 0.2880173570231867 -0.18203538064936223 0.34215842478753056 -0.7663978856578821

rnn.bias_hh_l0 f8 [256]
00000000: 2146 ac25 a3d8 f0bf 92c3 95e2 024f efbf
00000010: 4312 422a 4699 f9bf 7df8 7d42 fe06 b23f
00000020: 7cf1 bfa4 cb88 fa3f 035b fdaa 3d1f c63f
00000030: f7fd 1f51 2f2a f33f 2d48 2d3f 9a02 f03f
00000040: b89e f79b 4cfa cc3f ddf5 7ba3 0b3c e0bf
00000050: ec0d d3bc d03a d53f ce91 05dd a0c1 cb3f
00000060: 05fb 7ef1 4c97 8f3f 754c 8833 6a88 f5bf
00000070: 0deb 9398 b604 e3bf a93a d017 6b68 da3f
00000080: c883 6c37 7383 b2bf ccd2 1334 fb26 d63f
00000090: 0147 7668 3559 da3f 7aa9 77c5 3f13 b63f
000000a0: 1b79 f958 36a3 c2bf 98f7 6a33 4018 f2bf
000000b0: 3b17 f720 aa03 ebbf 745c cb78 4e2b f03f
000000c0: c83e 5802 4805 cd3f db7a 721d 6588 d93f
000000d0: c721 b01f f898 f6bf 5e39 e036 e340 e43f
000000e0: ba4c de8e 392a f33f 7ee8 8dba 1910 ddbf
000000f0: 6a7e d07b e2d7 ab3f 0ea2 76c8 1de9 e03f
00000100: e369 dfc7 8d20 f23f 7c17 7615 accf e43f
00000110: 4e2b c590 bc07 f5bf 5701 7f52 0b87 703f
00000120: 2b3d d722 8299 f83f c9b0 a327 df21 e33f
00000130: df49 fb9a dd75 0140 16b2 e05c 797b aebf
00000140: c8fa 8443 a8d7 c7bf b5ec cb1f 9926 f5bf
00000150: e653 87e7 b73c b8bf c744 777c 3a10 b3bf
00000160: 2e90 6bca a77c f63f a899 b710 2a22 e3bf
00000170: bc3c 5c86 825d efbf 2053 d551 aacd e03f
00000180: 1c38 8d56 aa00 e0bf 66a1 b9e3 c39b f53f
00000190: e972 ad54 905b 963f f30f 8f1f 8a8b d83f
000001a0: 9bc9 794c a6dc f53f 25b9 b6c9 accb a53f
000001b0: c70b fe29 5ca7 e33f a8f8 d183 cff0 e1bf
000001c0: 35eb 9c48 d8b8 f0bf 9a2e 26e8 c7e6 d8bf
000001d0: 11dc af4e c6a8 f43f c5de 438c 632e f73f
000001e0: 5932 1157 d8a6 d03f c07d a771 1ab7 e13f
000001f0: 4d19 fe65 8876 e0bf 6430 aa26 e194 d8bf
00000200: 6492 1619 8b29 b3bf 940d a208 a59b b2bf
00000210: b311 0cf6 6803 c1bf 1282 169f dc15 bc3f
00000220: 84c2 49c4 268d 94bf d3d2 b402 db0a d13f
00000230: e516 6c17 831f ccbf 8e03 6e7f a4ce d53f
00000240: 260b 860b 169f e63f bb19 5427 83a1 eb3f
00000250: c91e 97b6 1bfd 913f c4db 9396 2614 babf
00000260: 2939 c22f 368b dbbf a611 983f 50f3 e53f
00000270: d1b7 793a d0f8 e03f 376c 4b11 265f d8bf
00000280: 2ca0 3d64 6b4d a63f 0521 adbd 12f3 a03f
00000290: d05b af8b 83a6 e33f f192 6d84 7b47 e03f
000002a0: e21d b025 8d3d b5bf 12f5 2d73 75f1 dd3f
000002b0: c9a9 ba04 414c e03f 46d6 688d c015 f13f
000002c0: bff2 93cf b8d6 dcbf 5e0e 7f3d 123a c73f
000002d0: f552 e961 56c6 a3bf c9a0 a8b6 c6f5 c7bf
000002e0: f739 088e a51e e63f 0703 b47d 6ac1 e0bf
000002f0: 0709 7b7f 771c d2bf 9ed8 42a5 1591 ee3f
00000300: 3bd1 6d12 c893 ef3f 9088 72f1 7c78 f63f
00000310: ed6d fc36 2d93 abbf 4d15 aadd 0eab bc3f
00000320: ffbd 3ec4 fed1 db3f e6ea 9f9c 4268 d73f
00000330: be28 551a ca4b a5bf 9272 df4f 4db5 cabf
00000340: d478 f1fb ae7a f13f 60d4 5de8 0c11 cbbf
00000350: 2423 9813 ddc1 b9bf 71ce 11cf 46cb dabf
00000360: f1da f7b8 0a4e ce3f 0c7f ff1e f63a e1bf
00000370: bb7a c7d5 2ddd d33f f92f 6cd1 f5c6 b4bf
00000380: 61f6 b03d 9395 e53f 95d9 56f2 02fd d4bf
00000390: 6b24 411e b718 e53f e08d 1f1b bd63 b43f
000003a0: fecf bdef 6cf0 c03f 893d 6d4a 818b d93f
000003b0: 8ec5 5264 c758 cb3f 2182 0d7c 0cb1 b9bf
000003c0: ac4a fc18 c936 dbbf 6402 4d6d 2242 dabf
000003d0: 3915 12f6 e163 bdbf 3e5d b905 ef38 e53f
000003e0: c282 7fb8 c821 bfbf 74a5 360a 341f d13f
000003f0: fbac 3560 e2b4 e53f 94d7 e0d6 0706 a7bf
00000400: 43f4 7ce8 77a5 d4bf ed9f 4070 a421 ee3f
00000410: 9a34 41f6 f16a d03f 501d ed20 7b50 dbbf
00000420: 2ae9 9273 ecfa c2bf 4fba 3d7b 371d d23f
00000430: ad3d 329c e5a4 e7bf 0ffb 8041 d3db c33f
00000440: fc09 bdf9 df6d e03f 1efa 63a7 6ebe d23f
00000450: e167 b4a5 f7f2 e53f 6cb5 ade4 6638 d9bf
00000460: e962 11f5 4226 e6bf bec0 ae60 cb8d e73f
00000470: d85d 9a5c 9b8d dfbf 6399 6ecf ff48 d7bf
00000480: d6cd b4bc eb9e dbbf 4792 6aba 5206 e9bf
00000490: 767f 71c5 1af0 d43f 0532 9ab6 f55e c1bf
000004a0: c9de 2d3e 1583 e63f c17a 972a 0883 c4bf
000004b0: cb00 d21a f087 c6bf b010 72b5 d5be efbf
000004c0: 8e07 1ed2 0b92 d43f efb5 25a0 821e f2bf
000004d0: 69bd 5b66 c2c0 e7bf cad6 81b6 67dd ccbf
000004e0: ef94 53bb eb6d f53f a1ce 002b 5333 eb3f
000004f0: 50a3 5893 74af e03f 0eb4 5a99 d125 ea3f
00000500: 8c34 076b 0674 e7bf f024 38f7 e7af e0bf
00000510: cf02 f00e dcdf ed3f e0d5 ec18 c305 b5bf
00000520: fc9b cedd 4c3d eabf b69d a44d 76fe e2bf
00000530: 7fe2 4fa8 9962 9bbf fb3b cd8d 98c5 eebf
00000540: ea90 2df6 6b64 e1bf b839 bc8b 2cb0 f03f
00000550: 2e17 1d1a 3690 ef3f be6c 69f0 9a6f ebbf
00000560: 59e7 e528 000b f43f 3d15 2417 1100 df3f
00000570: dbf1 b472 ca08 d23f cbed 8cf5 441f d1bf
00000580: c9cb d826 674e e0bf 973c b176 4063 d6bf
00000590: 9822 5f1f 9166 c5bf 5fa2 f74b 6a18 bebf
000005a0: 564f b73d 17f8 b7bf bff5 9b70 784f d03f
000005b0: aab4 0177 d2db dcbf fa41 9405 d2b5 b1bf
000005c0: 4d0b 31e2 a33d e43f 2c77 f348 20d2 e03f
000005d0: daf1 95ef 89a8 b03f ff2a c592 cb16 f5bf
000005e0: c6d5 6bf4 cc59 e23f cb53 38f5 9d06 e8bf
000005f0: 7e39 633c 4b0e ff3f 16a1 f376 0147 d4bf
00000600: e465 f22f 79ea e1bf 316b 1188 24d8 ed3f
00000610: 6313 a3a1 41ae fbbf ab7b 05ea 0ced cebf
00000620: f647 187c 4ce9 ac3f 147b 5f60 395c d73f
00000630: fca2 d83e bce9 f73f 2948 8991 dfa2 e53f
00000640: 8959 729b 5330 d6bf 9dcf b59a 6726 d33f
00000650: 3fe5 b265 ce52 e0bf 3efb 44c7 6864 fc3f
00000660: 44d0 ca56 bd5e c23f 8234 d584 a3f3 f7bf
00000670: 9b58 7c34 de63 d8bf 472a 2872 56c1 e93f
00000680: e079 e5da eac8 e33f a447 7746 a5fe e0bf
00000690: b2e7 745b 2e80 d43f b786 0368 7c55 e9bf
000006a0: e141 2c03 b10a e9bf 916a e4f8 13d5 edbf
000006b0: 601a 9851 91fe edbf 4b59 b00f a9a5 e33f
000006c0: e234 a4d5 d016 fc3f ccd6 7304 7a2d ec3f
000006d0: bf0e 95ce 01b4 f5bf 54a9 99b6 e381 0040
000006e0: 1071 8227 455e c83f 442a 71fc 837b debf
000006f0: f1b3 7271 4d87 f0bf b8ee 9375 86c7 e73f
00000700: a119 61d8 a8eb e83f 91e1 f46c cd38 ff3f
00000710: 29e3 75a9 f9c1 c6bf 575c 544b 19ab de3f
00000720: b1ae ead7 2883 fa3f 113b 9d96 ebcb c4bf
00000730: b3a7 0369 1f84 f63f baf4 a1b9 6cfc debf
00000740: b32c 8f23 2bde b83f cbea 3921 99e6 d1bf
00000750: c585 b454 c12d e6bf 10c1 854b 0666 c7bf
00000760: e75d 78fd 0228 d73f f4f3 7a2c 4fdf fdbf
00000770: cc83 90bb 216b 4ebf fd0e 8277 0aa9 e03f
00000780: ca56 9194 d729 e13f 5cc6 910f 845e d73f
00000790: 750a b9a5 b527 f4bf ca66 e609 ce7e dabf
000007a0: 4f10 8b64 273c f23f 324d a21d ccfe da3f
000007b0: f90b ec94 4069 f63f 1092 37d4 cd0c cfbf
000007c0: 16a3 25b3 e9e5 e3bf f729 10e2 c01d e5bf
000007d0: 7ba3 f8ea 61f5 d43f d113 6480 2b42 e33f
000007e0: 6113 46ba fd1f da3f a3a6 a6b9 7658 d5bf
000007f0: 0eb2 4146 3f01 cc3f 61f9 d363 0d24 e7bf
-1.052889964256231 -0.9783949304092963 -1.5999204302508054 0.07041920779554008 1.658397334626982 0.17282839631180744 1.1977990311569309 1.0006353824469543
0.22638852706517354 -0.5073297684718302 0.3317148059834085 0.21684656898572857 0.01542530166613921 -1.3458044064507508 -0.594325349811102 0.4126231892159163
-0.07231826880571568 0.3461292275017456 0.41169486237878067 0.08623121806127712 -0.1456058439679929 -1.1309206017026323 -0.8441973346568611 1.0105728834658096
0.22672367205131239 0.3989498889513194 -1.412346004277525 0.6329208442491951 1.1978087979121441 -0.45410769670673534 0.05438144456297496 0.5284565844822866
1.1329477126624787 0.6503506106534895 -1.3143888144574762 0.004035038211384587 1.5374776230781417 0.5978847288329457 2.182551585000723 -0.05953578242074202
-0.1862688378987143 -1.3219233743719034 -0.09467648890070243 -0.074466376673871 1.4054334551847307 -0.5979204489238343 -0.9801647781586307 0.5251056288057931
-0.5000812235318821 1.3505286117088757 0.021833663147265012 0.38351681787412345 1.3663695323308278 0.04256954157186702 0.6141796894229338 -0.560645825826005
-1.045128139156714 -0.38908574744048396 1.2912047456463862 1.4488254050356073 0.26018341543821105 0.5536014766511741 -0.514469336704488 -0.38408688331469976
-0.07485265123848134 -0.07268744908110697 -0.1329165650751186 0.10970858463270641 -0.020069699984051073 0.26628756775180057 -0.2197116722456293 0.3407374615126678
0.7069196915693723 0.8634658592352972 0.017567093867710413 -0.1018699758168245 -0.4303718058007627 0.6859513513632478 0.5303727285479402 -0.38080741585662586
0.04355941389695803 0.0331045013941225 0.6140763977263024 0.5087258898243744 -0.08297044916263688 0.46786247489929267 0.5093083469740175 1.0678105853852613
-0.45060558577806015 0.18145969393491418 -0.03862256951530255 -0.187187995137043 0.6912410520615698 -0.5236103491916716 -0.28298747491147974 0.9552105167156417
0.9867897376957794 1.4044160300768773 -0.053857243501820175 0.11198513900497638 0.4346920887428211 0.3657385377443191 -0.04159385272449033 -0.20865789794961082
1.0924520341427995 -0.2114578375436933 -0.10061437347770813 -0.4186570188678394 0.23675664931916843 -0.5384474378042525 0.31037469746471985 -0.08116089213234536
0.674508686533681 -0.32794259706442946 0.659267005053278 0.0796468917101758 0.13233720499158602 0.3991397120307388 0.21364681624031018 -0.10035779980308536
-0.425218843841473 -0.4102865283385084 -0.1148053384550466 0.6631999122427386 -0.12160925392482638 0.2675294971218911 0.6783306006522304 -0.044967884998569435
-0.32259938911358094 0.9416067306929087 0.25652741478263297 -0.4267871686501694 -0.1482825817418612 0.2830332473303416 -0.7388790178974226 0.1551460332720684
0.5134124639228612 0.2928730616257854 0.6859091030521506 -0.39406750041856387 -0.6921705996020054 0.7360588920910442 -0.49301799815426994 -0.36383052117380127
-0.4315747587999942 -0.7820218697493794 0.3271548202665068 -0.135710443650524 0.7035013403355715 -0.1602487762420051 -0.17602349576555407 -0.9920452636584027
0.3214139511038575 -1.1324487930063432 -0.7422801970659921 -0.22550674830897882 1.3393361394349161 0.850015243521245 0.5214178922516144 0.8171165461732259
-0.7329132166284054 -0.5214729145529002 0.9335766116856464 -0.08211917265437974 -0.819982941834382 -0.5935622707810839 -0.02674331750674463 -0.961620594936789
-0.5435085113681712 1.0430112322243144 0.9863539228469784 -0.8573736854117653 1.2526856992321511 0.484379074667533 0.2817865486320252 -0.26753353099385596
-0.5095706709602094 -0.3498078497986596 -0.16719259292428457 -0.11756004671736651 -0.09362931496371849 0.2548504924487495 -0.4509168779539531 -0.06918060909470816
0.632524434833934 0.525650160295958 0.065071698181732 -1.3180652363977854 0.5734619878627931 -0.7508077420667346 1.940989719285056 -0.3168338452947109
-0.5598722397291422 0.9326346070841735 -1.7300430597253686 -0.2416092055018145 0.056467428348824386 0.365003913988333 1.4945642905169612 0.676131996393683
-0.34669962101306645 0.2992190371362485 -0.5101081835083859 1.7745139869654873 0.14351622331526148 -1.4969821156294363 -0.38109545827445296 0.8048507909418924
0.6182760501213203 -0.5310846687591391 0.3203235524302911 -0.7916852981108694 -0.7825551092119519 -0.93226050006645 -0.9373251527438917 0.61397221626502
1.7555702538841662 0.8805513464892214 -1.3564470357531915 2.0634226098674535 0.1903768961827912 -0.47628879215759334 -1.0330328399243138 0.7431061073725322
0.7787670351179267 1.9513677841297048 -0.17779465460241653 0.4791930423393231 1.6570213732001486 -0.16247315267761356 1.4072565176124783 -0.48415678146541163
0.09714002245088942 -0.2796995949244489 -0.6930853514097001 -0.18280104339238124 0.36181711914966147 -1.86701886534797 -0.0009282984457322728 0.5206348737851553
0.5363576795304763 0.3651437904401058 -1.2596947167918675 -0.41398955313489394 1.139686005351013 0.42180159467644096 1.4006963555591467 -0.24257824766313307
-0.6218155383076887 -0.6598820128722868 0.32747695871744725 0.6018273837695408 0.4082025832251955 -0.3335244000432828 0.21878806047915628 -0.7231509160772412
