models/modelRNNQ_lang8_balParenthesis.pt (torch, 409531 bytes, 10 tensors)

rnn.weight_ih_l0 f8 [256, 2]
0	0xbfc17c20691936e9	-0.1366005433250657
1	0xbfe7a9f385569d76	-0.7394960026039559
2	0xbfb708c0480da7cc	-0.08997728118052278
3	0xbfb6e2ff929ccce0	-0.08940121964842573
4	0x3fdaad7fb5d4e1d7	0.4168395305346428
5	0xbf8e6ce47ce9f018	-0.014856133520190482
6	0xbfc92e114f581e40	-0.19671837209920007
7	0x3fccdf1147c6971a	0.2255574799029823
8	0xbfd3a1675c35e840	-0.3067263031476877
9	0x3fcdff5efd759778	0.23435580612129647
10	0x3fba8d48ed9579a5	0.10371833610904575
11	0x3fbb58168f1c2e43	0.10681286806009731
12	0xbfcf776a3f12c23d	-0.24583175735235044
13	0x3fe24a13d5a2400b	0.571542660954948
14	0xbfd9709c1e09d26f	-0.39749815877374933
15	0xbfa73cca2aa337ed	-0.045385663704663994
16	0x3fc942db4b6d5e00	0.19735280211419592
17	0x3ffae5ef9ad3a291	1.681136708061022
18	0xbfd9c376f48c2e21	-0.40255521661376475
19	0x3fd2e9115e8cea4a	0.2954753325790632
20	0xbfd81ae0c905a070	-0.3766405070405261
21	0xbfe501566f2d1024	-0.6564132853895939
22	0xbfcc7a2cf3acd414	-0.22247850321005613
23	0x3f6504d23f0bf473	0.002565775525339259
24	0xbfd2d94862ce1966	-0.2945118870633422
25	0xbfe46069c4beeb00	-0.6367691843691716
26	0x3f97ea17f087b29f	0.02335393338755642
27	0xbfcaad7098185917	-0.20841796328085913
28	0x3f8a5c3b73dfab51	0.012871231530842716
29	0xbfdc1e6804e34d91	-0.43935585477194034
30	0x3f938f08ceb811ba	0.019100320450904575
31	0xbfe173001465c05f	-0.5452881239307422
32	0xbff503101e791177	-1.313247794184546
33	0xbff231024da2d01d	-1.136965087190226
34	0xbfc6b5589c77f43e	-0.17740924491946147
35	0x3fe148ab65b35746	0.5401207910860897
36	0xbfd3a3fadde6e7c6	-0.3068835417758432
37	0xbfe8af6a497e16f0	-0.771412986316788
38	0xbfde44671828a0d2	-0.4729249702381938
39	0x3fd055dedfae87bc	0.2552411255256819
40	0xbfdd7f81a86cafde	-0.46090737769804757
41	0xbfbf290654493d35	-0.12171973760381578
42	0x3fc2594ac534a707	0.1433499777715996
43	0x3ff00e79a8406cd3	1.0035339901285638
44	0x3fc600a2b11ab501	0.17189439437553491
45	0xbfb0174c0696e2d1	-0.06285548363565431
46	0xbfd793e1727d4df7	-0.36840091877567666
47	0x3fd0217fc35fb233	0.2520446212718383
48	0xbfd00fad7be854a7	-0.2509568891558253
49	0xbfd330437030ff4d	-0.2998207660311792
50	0xbfd3ba08ccf75580	-0.3082296373007338
51	0xbfe4ac5b33b514a6	-0.6460395822438343
52	0xbfe94ce2ea9b5dc1	-0.7906355459371569
53	0xbff2f64a5d21cfb2	-1.1851295125934311
54	0x3fae42509c320799	0.059099692408394584
55	0xbfbb7ef9a545af47	-0.10740623745885812
56	0xbfe40192ad714a36	-0.6251920115995009
57	0xbff6db7ab47aefc5	-1.4285838174828183
58	0xbfb35321c9f0b3b5	-0.07548724346334164
59	0x3fe02f53ca5ffef8	0.5057772591244136
60	0x3fc3d2c91ed81efe	0.15487016683641025
61	0xbfbb6e2dd62a31ac	-0.10714994887002288
62	0xbfb070e34286efcc	-0.06422253011891071
63	0x3fb1a9090db1be3e	0.06898552498182028
64	0xbfec404cc9ad30a7	-0.8828491152758219
65	0x3fe3d84fe74e6d2d	0.6201552884771552
66	0xbfd04ed8e77a1797	-0.2548124561802693
67	0x3fdda3cacd44aa8c	0.4631220821926625
68	0xbfd0f95bcf57b1e2	-0.2652196430997532
69	0xbfdd0128bc24ea08	-0.4531957471223511
70	0xbfcc46f3cb203dbb	-0.22091529291399845
71	0xbf9a9a5f2363c4b4	-0.0259795060491725
72	0xbfbcc460b79cf9a0	-0.11237148745292425
73	0xbfe65f14b82bc195	-0.6991065594757396
74	0xbfb08fccce2fb562	-0.06469421418997492
75	0xbfc1bc86df4878a7	-0.1385658827065914
76	0x3fd0530e7841171e	0.2550693678243635
77	0xbfbf2a49a870267d	-0.12173900949724188
78	0xbfba06158f8fb484	-0.10165533785739639
79	0xbfe0b5420e759e30	-0.5221262247477565
80	0xbfeabd6228adf57d	-0.8356180948755277
81	0xbfe51bd3cb20024c	-0.6596468894277421
82	0xbfee69fb12e851da	-0.9504371041571702
83	0x3fef724c15a6f308	0.9827022955792879
84	0xbfb4098a898df3c1	-0.07827058656944443
85	0x3f8d93ee690f615c	0.014442312794856242
86	0xbfd6816711411a39	-0.3516481083392225
87	0x3fd0344cebf3caee	0.2531921676847294
88	0xbfc27106e6e666d9	-0.14407430910505672
89	0xbfd25f484e4d5784	-0.2870655789059742
90	0xbfc8d78218b25f1d	-0.19407678800484343
91	0xbfe3c8783be4ac01	-0.6182213945188552
92	0xbfcf3e750473d439	-0.2440935394039643
93	0x3fda37d8338b28fb	0.40965848001054866
94	0xbfd827bbd6e447da	-0.3774251555015532
95	0xbfedb1a81f1735c5	-0.927936611865953
96	0x3faf3331e125b652	0.060937460645487676
97	0xbfd5e9b6a33df182	-0.3423897356185749
98	0xbfd1f0523961a242	-0.28029304126406285
99	0xbfd4ef6163d83370	-0.32711062193339213
100	0xbfa546cbffed46af	-0.04155576228243995
101	0x3f7a55b29a69e204	0.006429383915581347
102	0x3f53354dee12dd7e	0.001172376731387675
103	0x3feb2712fd6b8031	0.8485197972877413
104	0xbfcb34bdee63e687	-0.21254705562732942
105	0xbfd1a1f2ea2bf6b0	-0.27550957554181377
106	0x3fc888bd4b52075d	0.1916729562545311
107	0xbfaac2a1738bac7c	-0.052266164164245205
108	0xbfd098afd7a03b38	-0.2593192678186145
109	0x3fbdaa58b4637b73	0.11588053134935965
110	0xbfbfbcc4564334b8	-0.12397410493868477
111	0x3fcf0411c411b19e	0.24231168817221954
112	0x3fd1ca6e37ca5050	0.2779803795649558
113	0x3fd8e7b80246f4c0	0.38914299223308646
114	0xbfc730cb35d7b2e5	-0.18117656830818088
115	0xbfd8d8461baddde2	-0.3882003088287701
116	0xbfc380800a573a9c	-0.1523590136043439
117	0xbfae8d6d9138172c	-0.05967275998777519
118	0xbfd0ce897450b08e	-0.26260601385980287
119	0xbfe4498b11b0f147	-0.6339774461298838
120	0x3fb5b2fec5f7d61c	0.08476250012594061
121	0xbfeb4c73375c15b4	-0.8530822831386815
122	0xbfd707cadcc71d9b	-0.35985061226207343
123	0x3ff0c7c4a2af07d2	1.0487715105850737
124	0xbfebf80fd1682858	-0.8740309801080555
125	0x3fe5a5cd4ad1841c	0.6764894925401026
126	0xbfeba0afd1723317	-0.863365086626433
127	0x3fd12589e4349154	0.26791617665937406
128	0xbfa4e34f15bf77ae	-0.040796729473853474
129	0xbfe1fa50c60d706a	-0.5618060939991782
130	0xbfaa96c416fcb634	-0.05193150311093256
131	0xbfbfbea7ecf82b63	-0.12400292907129322
132	0x3fb494bb5e804af2	0.08039446885258508
133	0xbfd1389ccf7774a5	-0.2690803552666899
134	0x3fa99ce5318c42e5	0.05002514104683601
135	0x3fc585606e963a18	0.16813283347842467
136	0x3f9464da55a62ac0	0.019915973165135936
137	0x3fc34ddd2ba58998	0.150813719093162
138	0x3fd609d46747cb35	0.34434995733242896
139	0x3fe0366d80876eae	0.5066440115292232
140	0x3fe407c45ccf618e	0.6259481251427574
141	0x3fd840c56972a37c	0.3789533166660062
142	0x3fdaa8883dec72dd	0.41653638884763017
143	0x3fe49792495caccf	0.6435023720599932
144	0x3fe20a6e4212f23d	0.5637732782848343
145	0x3ff82848f2a013ea	1.509835193400472
146	0x3fe18a56accea31e	0.5481370329990545
147	0xbfb741a62c82eb99	-0.09084547602371486
148	0xbfc48481001cfa51	-0.16029369836356236
149	0xbfeae5449843ea80	-0.8404868101054745
150	0x3f973bd5ffdee36d	0.022689193479638648
151	0xbfcd19f68af4197f	-0.22735482964362672
152	0x3fbfcb5eb10c2f2a	0.12419692823840181
153	0xbfe2d504f57964ea	-0.5885033411424534
154	0xbfdaf90eb551c9c6	-0.4214512606332871
155	0xbfc685618a159399	-0.1759454654922166
156	0xbfc09ccffd66d188	-0.12978553650976843
157	0xbfe24553c00099e2	-0.5709627866788731
158	0xbfaf7841f6ebfb43	-0.06146436824018633
159	0xbfdf75b3a588616e	-0.49155894437128367
160	0xbff1d3f5bee84fc5	-1.114248033268255
161	0xbfefce557bd68339	-0.9939372461995851
162	0x3fbfc64e404a9f41	0.12411965436569707
163	0x3fdbf82f4bbbf693	0.43702299495621694
164	0xbfd6a5c9cf27332e	-0.35386891584203084
165	0xbfdf0a3f36549a2a	-0.48500042253218345
166	0x3fe7894218ee8219	0.7355051505038005
167	0x3fecf6386decf6bb	0.9050562045083191
168	0x3fe439883735b9da	0.6320229605024068
169	0x3fef226b934ed109	0.9729516865832305
170	0x3fdf48b629233c2d	0.48881296174380645
171	0x3ff49a3a5ee24922	1.2876533228305296
172	0x3fe808bfba247dd9	0.7510679851147258
173	0x3fe870342cde1d19	0.7636967541047027
174	0x3fe0d96e36f4b270	0.5265418122631456
175	0xbfd1df2cc14a18fe	-0.27924651027605296
176	0xbfd85dadfd4ebc16	-0.38071775185648116
177	0xbfc3e2bd7beaac2b	-0.15535706091518028
178	0xbfc9b143a3725714	-0.20072217446129825
179	0xbfe75987e64fe5b3	-0.7296790598185708
180	0xbfe088370f9e14ff	-0.5166278176335765
181	0xbfee2d15f0118b23	-0.9430036248053039
182	0xbf9d1ae4e64ac2f6	-0.02842290549841927
183	0xbf8097c906a71a4b	-0.00810200740387503
184	0xbfe71f7ac94cf3d5	-0.7225927287723787
185	0xbfef4abf30082581	-0.9778743684884575
186	0x3fb82e37e3907fc5	0.09445523553631492
187	0x3fe85c1434b0bb23	0.7612401036365991
188	0x3fd2c0bcb6772746	0.29301374262705726
189	0xbfd710c565f97da4	-0.3603986259313052
190	0x3fb2885e12f59444	0.07239330256341342
191	0x3fc17fa94f68639d	0.13670841576893347
192	0x3fd72dbca6534b0f	0.36216655962668737
193	0x3f915cc5170d024c	0.016955451518926787
194	0xbfc3aefd2d463b7a	-0.15377773962651614
195	0x3fe00588dae77def	0.5006756091569836
196	0xbfdd931f7771ba41	-0.46210467018582696
197	0xbfc73df04f3ae1cc	-0.18157771938946465
198	0x3fbb66f4edd03bdd	0.10703974538795032
199	0x3fc40ad347a1a0c9	0.15658036229729635
200	0xbfcafb3ada45b983	-0.210791927889158
201	0xbfd91d9547cefabc	-0.3924306107764257
202	0xbfd386f2b0813b4a	-0.3051115726165575
203	0xbf9b7500cad247d8	-0.02681351888583791
204	0x3fba0f3b254fcd0d	0.10179490719729163
205	0xbfc65ceb30042833	-0.17471065372984781
206	0x3fcc68b714067c83	0.22194565275001218
207	0xbfd23146872600a2	-0.28425753782358687
208	0x3fc1d464e23d5646	0.13929425284247737
209	0xbfe5c0d5750ff1b7	-0.679789284360189
210	0x3fc8d4969cdba454	0.19398768099861974
211	0x3fc9cd810b893c57	0.2015839868858815
212	0x3fb33ee37fa98b0e	0.07517835489992938
213	0x3fc4029f846101c1	0.15633005107703293
214	0x3fe05a3391cef264	0.5110109184093514
215	0x3fc144de080ebcbe	0.13491416352687752
216	0xbfbfe65cc4f8b605	-0.12460880097270184
217	0xbfd3a9b50478fc6f	-0.30723309933450244
218	0xbfc53f622c73a3f5	-0.16599681063169638
219	0xbfc18d5505d1acaa	-0.1371256140149389
220	0xbfb1d1b0851baa3e	-0.06960585832317975
221	0x3fe3a877cba3f8f4	0.6143149354318482
222	0xbfe825cd0eedf3eb	-0.7546143809882983
223	0xbfe769bec3f39a44	-0.7316583468608049
224	0xbfc295b6ad7fd1a8	-0.1451938960232273
225	0xbf90f621a86ff604	-0.016563917070007164
226	0xbfd6dc5527d0d478	-0.357198037035523
227	0xbfe19bbdd201d142	-0.5502614118291052
228	0x3fc5312f30ecf024	0.16556348694746348
229	0xbfa1d64efd25a7f7	-0.03483816948103418
230	0x3fbc9fc53f17da38	0.11181290426598245
231	0x3fdcd5ad64507156	0.45054182812034094
232	0xbfa006f860127ff6	-0.0313031785274233
233	0xbf8a24857b35892a	-0.012764971563858103
234	0xbfb1abff9773cfcb	-0.06903073737686254
235	0x3fb5116226e85856	0.08229649972813155
236	0x3fcfb21b7ccca91a	0.24762290567134287
237	0x3fe50bc45b16473d	0.6576864031833122
238	0xbfb88ea5a63ba834	-0.09592662151740755
239	0x3f6a42b821a245de	0.0032056423488675398
240	0x3fd83552ca1fe8a3	0.3782546018479797
241	0x3fb613b943f003bc	0.08623845966941607
242	0xbfcc7e6030d42c40	-0.22260668167322883
243	0xbfac0c604e15c954	-0.054781922847626646
244	0x3fc63fd6092acc0f	0.17382312247863793
245	0xbfd732d5d22c79ac	-0.36247773670938943
246	0xbfd1dc992c7d617d	-0.27908925385192856
247	0xbfdee4a2966edece	-0.48270477953654456
248	0x3fafcefe8fd24858	0.06212611680634045
249	0xbfe4be120a5aeb8a	-0.6482019617318298
250	0x3fdc715934643e66	0.44441824070324853
251	0x3fe7473b90268452	0.7274453940809826
252	0x3fe4f8e4d6eaf71a	0.6553825566877294
253	0x3fd952428f15fdba	0.3956457516978521
254	0x3fd7441f82306ee4	0.3635329028490857
255	0x3fe6f64335a190e4	0.7175613448603397

rnn.weight_hh_l0 f8 [256, 64]
0	0xbfb461b2385d8a17	-0.07961572528942217
1	0x3fd25c591265d6aa	0.2868864707628328
2	0x3fbb17f80b217876	0.10583448669192017
3	0xbfa833a1936bc36b	-0.047268914457055576
4	0xbfd0575835e2a496	-0.2553310896133295
5	0x3fdd8cfaf78f9469	0.4617297570787913
6	0xbfd263fcce5e993b	-0.2873527541472815
7	0xbfdebb50a203dec3	-0.4801827985934148
8	0x3fc0042d244df134	0.12512745163611216
9	0x3fd359d55974993b	0.30235799537549085
10	0xbfaf94311f51b16a	-0.06167748935044666
11	0xbfc960743ab5f222	-0.1982560431169001
12	0xbfd31e1951291c24	-0.2987120907386631
13	0xbfc3332a34866362	-0.1499989277333738
14	0x3fc9df22867e96f3	0.20212203566659745
15	0xbfb0d099797f9e3f	-0.06568297592422655
16	0x3fbcd381dd0fad4b	0.11260234496119385
17	0xbfca09a292cdf530	-0.20341903846921516
18	0xbfb13a51846e1440	-0.06729611857561313
19	0x3fd127dfc3e89ca5	0.26805872089102883
20	0xbfb4085727a8f809	-0.07825226515066687
21	0x3fc5e86c2f615ab2	0.1711554747914384
22	0xbfa6ea9568dbf594	-0.04475848107356764
23	0xbfe5cf0177008ca4	-0.6815192531834282
24	0xbf8e840800369af8	-0.014900267130383935
25	0x3fbde65c23c17683	0.11679626343672038
26	0xbfd1d380364afb63	-0.2785339861110769
27	0x3fbbb5d178f10f1e	0.10824307634998973
28	0xbfe033d79b479ae2	-0.5063283951575068
29	0xbfcbb0baa620c238	-0.2163308440372178
30	0xbf848e976e1bd2cd	-0.01003759674811402
31	0xbfd4a67f5f0012c4	-0.32266220357295716
32	0xbfa5e6568e5c2626	-0.04277296531479306
33	0xbfc0b8d67f1d8769	-0.1306408043556602
34	0xbf6cd3142cbd411b	-0.0035186189688049103
35	0xbfd79d4a61af1a88	-0.3689752534814166
36	0x3fc62ff8dfbc8a94	0.17333899426110533
37	0xbfb0b4ad65769417	-0.06525691725853765
38	0xbfb74f3e69fd0e1d	-0.09105291450128346
39	0x3fdc30906a8fb04c	0.44046411901831983
40	0x3fb80808ec1bf95e	0.09387260212313239
41	0x3fc3d3ff434f902c	0.15490713869724126
42	0x3fd6713306b8f622	0.3506591382646055
43	0x3fbd4351acdba57b	0.11430845709005226
44	0xbfa9ba34f19e531a	-0.05024877023166692
45	0xbfcbbd54e252902f	-0.21671544123557981
46	0x3fac96510d4ca775	0.05583432471605835
47	0x3fcc3875595ce15f	0.2204729734746804
48	0x3fdf2ae035457101	0.4869919319369416
49	0x3fb3bb1f82999a3a	0.07707402170635982
50	0x3f9cfe39fa40af05	0.02831354703827939
51	0x3fc6431363a69fbd	0.17392198911443116
52	0x3fb535e645eae4b1	0.08285369116755949
53	0x3fe0a837cd31a201	0.5205344207470831
54	0x3fafae83a3d836d5	0.061878312826690575
55	0xbfd81e5d3134c512	-0.37685327344213804
56	0x3fd58db58e2c9d01	0.3367742432041752
57	0xbfb13fecd787f9a5	-0.06738167058936158
58	0x3fc7f45fe5bff52c	0.18714522093061114
59	0x3fd2c27cbc0d5925	0.29312055935351317
60	0x3fbc43dbe4b325e9	0.1104104455327143
61	0xbfb098133b47ee35	-0.06482048222817911
62	0x3fad33dd68390e88	0.05703632256748131
63	0x3fabf3caf84819ae	0.0545943668440033
64	0xbfe81a91703f09b2	-0.753243178587857
65	0xbfd98f371de9cf6b	-0.3993661682245519
66	0x3fcde7f247682960	0.23364094244636657
67	0x3fe6e0e4a404eeba	0.7149527743817636
68	0xbfd84fc3f2cae3a0	-0.3798684950848443
69	0xbfb62232d09fbb2e	-0.0864593276344123
70	0xbfe4a44fee0d9b7f	-0.6450576447940505
71	0x3fca226e9525b4d4	0.20417578013021986
72	0x3fb53bdbb530a8cf	0.08294461415849529
73	0x3fda5f0ad762f29f	0.41205092462386433
74	0x3fa94a3ec6985502	0.04939457105880686
75	0x3fd9b2e54c6bc593	0.40154392683970136
76	0x3fc2080784310afe	0.14087003664652537
77	0xbfc6694b54668423	-0.17508832570186525
78	0xbfbb1a3a9a0eda72	-0.1058689714544501
79	0xbf908558e2c012b2	-0.0161336792371169
80	0xbfc128f5f354c6c1	-0.1340625227108401
81	0x3fdfaa27cd5de936	0.4947604661498589
82	0x3fe04774a1d4458a	0.5087226067282
83	0xbfe39807111c0bac	-0.6123080572291335
84	0xbfdcaa10df6db11e	-0.44787999934375644
85	0xbfdf12cb631ef978	-0.48552212409767703
86	0xbfd542d29832bc0a	-0.3322035299597138
87	0xbfd6bdd3fa8a1568	-0.35533618418442936
88	0xbfd1a219cc85a572	-0.27551884625298506
89	0x3fd41a95799f4bc5	0.31412255170033304
90	0xbfd2949ed112cc2b	-0.29032106797530116
91	0x3feba2bd1f1c0d55	0.8636155707940057
92	0x3fe053dce0184f41	0.5102371575216936
93	0xbfee97a2c7926be2	-0.9560102365388696
94	0x3fce8ece0fa73742	0.23873306049648063
95	0xbfe8bbc1f77db4c1	-0.7729196389970171
96	0xbfe3ecac6a61eb63	-0.6226408078940547
97	0x3fb53c6ee32ab30d	0.0829533867460663
98	0x3fca1cd37866a1cb	0.20400470141363622
99	0xbfd5feac38f8ccdd	-0.3436689907422997
100	0xbfc7e76e78065c9b	-0.186750229459652
101	0x3fdd9005b8cce446	0.4619154267016409
102	0x3fda52c24cd39064	0.4113012075670268
103	0x3fe65173e2a24faf	0.697442953724467
104	0x3fdc3f85464ad0c7	0.44137698997952807
105	0xbfd40a9365b69f7d	-0.3131454938215866
106	0x3fbae6d59e86f6af	0.10508475418370254
107	0x3fe0c4dfd1f5596b	0.5240325070142665
108	0xbfe77e31d8800be8	-0.7341546276587652
109	0xbfd2614d1ebabcba	-0.2871887970058641
110	0xbfe54dff7982ae10	-0.6657712338687265
111	0x3fc72f2a2d110de7	0.18112685394781566
112	0x3fe9d3b8b99d75e9	0.8070949197096385
113	0x3fe4adbdb64a01b7	0.6462086258252872
114	0x3fd996ba6afe4df1	0.39982471893856003
115	0xbfe115a4a1c2016a	-0.5338919791538903
116	0x3fcf0a96bf8875cb	0.24251064636420802
117	0x3fe3d5195c33d65b	0.619763069231975
118	0x3fd77dba80a4924c	0.36704886019495997
119	0xbfebe96044586346	-0.8722382864826634
120	0x3fb137dc93e96e0f	0.06725863085869598
121	0xbfd5c8695ed291cd	-0.3403571535111752
122	0xbfd0e3451dcf780c	-0.26387145911383025
123	0x3fd978134b1cc3bf	0.39795381865684115
124	0xbfde2e0b38a168e8	-0.4715602925331397
125	0x3fe39486a0d56033	0.6118806020049362
126	0xbfa568789ff7dd8f	-0.04181267693268886
127	0xbfe46b52a6d7c8c5	-0.6381009348536045
128	0xbfc0a796233373e6	-0.13011433333204464
129	0x3fb91eb914f21381	0.09812504540793833
130	0xbfb21d7de8ff4972	-0.07076250971230083
131	0x3fc2d434c2d8f754	0.14710101617850546
132	0xbfd7d0b5bf90cf3b	-0.372113644672243
133	0x3fd32a1a96d3c629	0.2994448159143724
134	0xbfb12bbe597b5a2f	-0.06707372364631035
135	0x3f8f4a8f00c0cfc4	0.015278928003773624
136	0x3fd18b13faf59522	0.2741136503958207
137	0x3f9deca73953d927	0.02922307288550843
138	0x3f7e5fc284eade1f	0.007415542450579986
139	0x3fc468dadf2a45fe	0.15944991966948402
140	0x3f92424e59b919f1	0.017831062532673362
141	0xbf8e7e9058a63c25	-0.014889838891376137
142	0xbfcc043e33feb766	-0.21887948550050423
143	0x3fb1e86cc7413f31	0.06995277275677549
144	0xbfc1f6eadc2ec892	-0.14034782172308674
145	0x3f7987b23bf8a4da	0.006232925632084741
146	0x3fc9b1e6cb0d1940	0.20074162401778928
147	0x3fc8b373f3621bca	0.19297646888682457
148	0x3fd69ac900308839	0.35319733637345824
149	0x3fab193177c6ba80	0.05292658412087281
150	0x3fc2567a31a4b2c9	0.14326407836906288
151	0x3fc37e5e3d44aed4	0.1522939490472398
152	0xbfb8ad091674ed32	-0.09639031217823371
153	0x3fd1a7778413534a	0.27584636590954814
154	0xbfd7a89eeed34358	-0.36966679880884135
155	0x3fd01d7f087a2662	0.25180030658575536
156	0xbf7ae11a2f51842d	-0.006562330517312848
157	0xbfc2743f73da0fb2	-0.14417260319544095
158	0xbfb4035ac13be327	-0.0781761857759987
159	0xbfc4ed2a92c68330	-0.16348774115342612
160	0xbfbc1799c16dbf30	-0.10973511669521652
161	0xbfc096299f0e7aea	-0.12958259836610547
162	0x3fc168f24d59b088	0.1360152127921348
163	0xbfb96c084f9854e9	-0.09930469458807391
164	0xbfccde09d20493dd	-0.22552607302455288
165	0x3fa79afa1eb6cd6d	0.046104255913998006
166	0x3fbacd49637429ff	0.10469492605276541
167	0x3fc130b2652d0835	0.1342986101172429
168	0x3f9718a4fbd41b66	0.022554948683161234
169	0x3fc80fff0d04f3e2	0.18798816810331603
170	0x3fcc78d7481b34e9	0.22243777294935477
171	0xbfc11cf1f2667f65	-0.13369583450275538
172	0xbfdcb41856e3a629	-0.4484921310928223
173	0xbfcc6e0a310778c3	-0.22210814851763958
174	0xbfd2131b2cee3493	-0.2824161471151651
175	0x3fd1f6ba8b7769ab	0.2806841241814719
176	0x3fda598ce207cf65	0.4117157180146392
177	0x3fd7df38edf7115f	0.3729994129064575
178	0x3fc220108f223f4f	0.14160353650049237
179	0x3fc4108f828999a3	0.15675538896466631
180	0x3fd4c9e91a0a47c6	0.32482364218696735
181	0x3f6ba3bd888e406e	0.0033739759277935854
182	0xbfc4049b3944a4e6	-0.1563905744199367
183	0xbfdeb57031db41fe	-0.4798241125945707
184	0xbfc48cfdb7d7cc0b	-0.16055270649630446
185	0x3fa112f9af617bff	0.03334789529684911
186	0xbfc3a91422526a80	-0.15359737087131364
187	0x3fc0b8ff0f7b64cc	0.13064563995320666
188	0xbfc0fcfa2d6fad63	-0.13272025316778543
189	0xbfc0a71f36afcb24	-0.13010015650032714
190	0x3fb8e95b39ab64f1	0.09731073530146596
191	0x3fdb4778ce423056	0.42623729841648605
192	0x3fc95c75b5cca8d9	0.19813414933134402
193	0x3fe46d2c679fa9a8	0.6383268379116105
194	0x3fb620f72e6fd11e	0.08644051440916597
195	0xbfd1d2a4ff7fe48e	-0.27848172141200045
196	0xbfbe25a5b27715a5	-0.11776195151386178
197	0x3fa7d1134ebbdc81	0.04651699386698117
198	0xbf8dc64ba6deca87	-0.014538374929405918
199	0xbfc8ea5367f42dba	-0.19465105605955363
200	0x3fc9078601dd3164	0.1955420979596837
201	0x3fd0460f18a3b3de	0.2542760601634749
202	0xbfe05f6169b638df	-0.511643129795427
203	0xbfd5bd82b6c74a28	-0.3396918091722534
204	0xbfd2c25961c7d912	-0.2931121306313723
205	0x3f89d06da32f3702	0.012604576628202139
206	0xbfd62414d70b41e1	-0.34595223427188954
207	0xbfd6e0a76fe8e13b	-0.35746179512672754
208	0x3fe0f62573d0561a	0.530047155569892
209	0xbfcf27c4a693d446	-0.24340112813630038
210	0xbfbd237ad6bf8fcf	-0.11382262938383224
211	0x3fcbf41c2870310e	0.21838714575313428
212	0xbfcc21acc635c746	-0.21977767637468498
213	0x3fcf4d3ee26ba816	0.24454484992685427
214	0x3f91bd38d2c322f9	0.0173233870162077
215	0xbfe09f9c44616ace	-0.5194836936528533
216	0xbfe094646fbea41a	-0.5181142981065279
217	0xbfc64c35b38f6d95	-0.17420073764411073
218	0xbfe27e6aed0b4978	-0.5779318456427935
219	0xbfb887c880c65410	-0.09582188743509357
220	0xbfcab87d97e634f2	-0.208755206269792
221	0x3fd673ae7101fffa	0.35081063304824023
222	0xbfc3bf8b2c90acf3	-0.15428294826538255
223	0x3fc2664ec7a4dfb9	0.14374718425983504
224	0xbfd48fd2e3fb9151	-0.3212783075707835
225	0xbfbe07ccc05b3a55	-0.11730651565742652
226	0x3f671daa61041b64	0.0028217628206478763
227	0xbfe5b8839234c39d	-0.6787736754978259
228	0x3fb81e50fb3466af	0.09421259053160712
229	0xbfc716d77b8989f6	-0.18038457424252358
230	0xbfb4710830d7a1ba	-0.07984973137320753
231	0x3fcb57208d9472da	0.21359640992240864
232	0xbf8c1eadc7d32830	-0.013730390225095673
233	0xbfc5afae7db26317	-0.16942387712040194
234	0x3fd1107c71adb552	0.2666312322752066
235	0x3fc80b7d235d141b	0.18785061098802278
236	0x3fc304dbe6d8aa0e	0.14858578464311772
237	0x3f625c3a000dfa0a	0.002241242677370585
238	0x3fa3c847e1059aff	0.038637396067136
239	0x3fd73bce76fc05cc	0.36302529925896176
240	0x3fd6ee97a78e7728	0.3583125244421006
241	0x3fbab48f5297a5b5	0.10431762472548807
242	0xbfb35d8e98683375	-0.0756463167273987
243	0x3fd69fb73b4941b0	0.3534982756582634
244	0x3fdb14189d746939	0.4231015718120435
245	0x3fc790ce1cd1de6f	0.18410660178391278
246	0x3fb644c013ce1236	0.08698654635924971
247	0xbfc22ce46bd71336	-0.14199500337249454
248	0x3fceb29ee687d84f	0.23982607132319564
249	0x3fd185fdf533ec71	0.27380322404469043
250	0x3fb23ab2479f1e58	0.07120813606808818
251	0x3fe176ada9f83f5c	0.5457371062966376
252	0x3fb5eb7548354d84	0.08562405598541117
253	0xbfce79d68f127568	-0.23809320436422898
254	0x3fd247a71cfc9e80	0.28562333899251513
255	0xbfd42339635b6c5b	-0.31464991286128957

rnn.bias_ih_l0 f8 [256]
0	0xbfd32e56a644f3e1	-0.2997032760356984
1	0x3fa42e2a6666ff42	0.03941471576717827
2	0xbfbb6737f2a8d60b	-0.10704374002747145
3	0xbfb61ebf196d1b9f	-0.08640665407902624
4	0xbfd68d0526094781	-0.3523571845481613
5	0xbfd2f1454295af34	-0.29597598555004656
6	0x3fbffd7482a7af46	0.12496116819209843
7	0x3fd79a038d21f5df	0.36877526075826766
8	0x3fcf3d15aed9d54c	0.24405165708200582
9	0x3fd119ca550d7ba0	0.2671991186706979
10	0xbfca18f71c8f1cb2	-0.20388687986835446
11	0xbfdac337fb230e2a	-0.41816520238009736
12	0xbfd359aa82f6a3a4	-0.3023477820339002
13	0xbfcc1c1a29ccc965	-0.21960761109364593
14	0xbfdf35632de3109a	-0.487633509456154
15	0xbfd509a882c33302	-0.3287144925096045
16	0xbfb04e8171c80f11	-0.06369790103786623
17	0xbfbb196a225a7693	-0.10585654581742636
18	0xbfd5af963549395c	-0.33884196475709927
19	0x3fd1dc610d54a587	0.2790758733923088
20	0x3f955b3fcf0819c9	0.020855900775154788
21	0x3f7f822ac9c81773	0.007692496434634199
22	0x3fd234dbacd977a1	0.2844762027724475
23	0x3fcaeca9b476898f	0.21034737884208396
24	0xbfe31c1049996035	-0.597175735233583
25	0xbfe08b9dd1e34e12	-0.5170430278180354
26	0xbfb735b2314ddca2	-0.090663086926599
27	0x3fbf7eacb32ad106	0.12302665113640296
28	0xbf8049e431bf0def	-0.007953436630379477
29	0xbfcc0cdd9820a943	-0.21914262703041673
30	0xbfb7927f0408e02f	-0.09207910393240647
31	0x3f855f73446bb8ef	0.010435963178192923
32	0x3fcca9a12641b1e0	0.22392668121336978
33	0xbfa83a9a17df67ba	-0.04732209721960552
34	0xbfd5140cc9479261	-0.3293487516041634
35	0xbfdb8c29944cbb17	-0.4304298351516293
36	0xbfdd3ea8eff1925d	-0.45694945747371724
37	0xbfc731cfdcda5052	-0.18120764049365562
38	0xbfd6c77e2e49b106	-0.35592607994364334
39	0x3fa29157d97cdece	0.03626513032798827
40	0xbf50710b05a0ef30	-0.0010035140644637057
41	0xbfb47c5c954286c8	-0.08002260822334073
42	0xbfdcba25e379efbd	-0.4488615724037535
43	0x3fbab43ea434e684	0.10431281575156431
44	0xbfe03413c7543b1f	-0.5063570874352513
45	0xbfe309a383dd2271	-0.5949266028847672
46	0xbfd2745cc658e454	-0.288352197359534
47	0xbfdc1af720d8eff5	-0.4391458340430739
48	0xbf8522542273ac3a	-0.010319382954966472
49	0xbfce0377ed74ffb5	-0.2344808492143763
50	0xbfd05db68a926cf1	-0.25571979076785484
51	0x3fa9effe35466512	0.05065912628487913
52	0x3fa35b1eaeb18fc8	0.03780456430902707
53	0xbf94d8c91272e1d4	-0.020358220816634034
54	0x3fb1ab11d7af6b69	0.06901656642678024
55	0xbfd1ee0a9002194b	-0.28015388549137715
56	0x3fdf42f5ce699ecb	0.4884619251010746
57	0xbfdd4b9eb20ce929	-0.4577404726766355
58	0xbfd6aa651e17bace	-0.35415008486499466
59	0xbfd74cd6dc352b80	-0.3640648985353252
60	0xbfd4bcb4b7e75d79	-0.32401769599297087
61	0xbfdb4598a77c4638	-0.42612282138825064
62	0xbf8ff0387e1798d7	-0.015594903324153737
63	0x3fb288f6f6662a11	0.072402415424371
64	0xbfb3cc8f6ccd7232	-0.07734009176551451
65	0x3fde6eee1d2de85d	0.47552063798469196
66	0xbfd95083d33ebfa9	-0.3955392420712039
67	0xbfc474d095821f5e	-0.15981490421494987
68	0xbfd062709c12d84a	-0.2560082935482383
69	0x3fa10ac3ff17d7f3	0.03328526009492796
70	0xbfb9b7fad64fbc02	-0.10046355945790711
71	0xbfe1a60a05059fbf	-0.5515184496007278
72	0x3fd6dfd3eb480c5a	0.35741136528685546
73	0xbfc863956a1c122d	-0.19053905182967537
74	0xbfbd8ec0afe9ff95	-0.11545948309685479
75	0xbfdbf08578d714f6	-0.4365552597121928
76	0xbfcc89053246c093	-0.2229315276613347
77	0xbfd11fec22cb4d9b	-0.26757338903299804
78	0xbfd3a70ab9c6535f	-0.3070704282957219
79	0xbf86572930799e7e	-0.010908433715669515
80	0xbfd185f2222ee615	-0.2738004049129768
81	0x3fbfe57972c1d486	0.12459525157631121
82	0xbfcd957cd18cedfa	-0.23112449867208779
83	0xbfdf22255c23bfca	-0.48645910261165837
84	0xbfd7ffd42657a5b9	-0.3749895452916366
85	0x3fd558769762a71e	0.33352436813093955
86	0xbfe12b94164e4224	-0.5365696368845119
87	0xbfcedc1e16618c9f	-0.241092453888176
88	0xbfd857e257891810	-0.380364022716436
89	0xbfdf2c18279c45bf	-0.4870663058109947
90	0xbfc196c49969d214	-0.1374135731781655
91	0xbf8930ef5b664220	-0.01230036733321166
92	0xbfcfff93c8f10e7b	-0.24998709975817576
93	0xbfc6da50e82d27f4	-0.17853747688997113
94	0x3fc25341e9b0b1e7	0.14316581640868195
95	0xbfb77de672e5dff5	-0.09176483445287416
96	0xbfa7e33d7b8b46c4	-0.04665557988267957
97	0xbfc8061637c71dae	-0.1876857540466807
98	0xbfca05f628ad1e57	-0.20330693231720673
99	0xbfd0701443a113b8	-0.25684076885618934
100	0xbfcdd598ee5830ad	-0.23308097494044003
101	0xbfb03535e6185236	-0.06331192843965358
102	0x3fb125b7e410b897	0.06698178594590086
103	0x3fc0b0fe23eb7185	0.13040138963596007
104	0xbfd29f7304266144	-0.2909820118452624
105	0xbfcf08cd2f2e2506	-0.242456100499375
106	0xbfd95d78bd8c8a26	-0.39633005629198903
107	0xbfdd46df17edccb6	-0.45745065056616896
108	0xbfde2489f366714b	-0.4709801556544064
109	0xbfdee84919256df1	-0.48292758422550636
110	0x3fa4b92694206aa7	0.04047508772074098
111	0xbfdd3aeed403583a	-0.4567219801368797
112	0xbf97f7ce97e0ffe8	-0.0234062462043311
113	0xbfc8f8217c72ff20	-0.19507235123273237
114	0xbfc1013715ce3bc4	-0.1328495842430738
115	0x3fc24281b382096e	0.1426546217445081
116	0xbfdca2d789855149	-0.44743908338320587
117	0xbfc61e9756966446	-0.17280856826690377
118	0xbfdd0e3f24c16872	-0.45399454678921025
119	0xbfc7c1a44f49e38e	-0.18559697982325613
120	0xbfd4882ffcdb61c1	-0.3208122224146131
121	0xbfd4a5cf2ad0e16f	-0.32262019330257535
122	0xbfe804c05eecf64a	-0.750580010797145
123	0xbfd27f1316011aca	-0.28900601528986825
124	0xbfd1a574c10fdaf0	-0.27572363713936365
125	0xbfd8189d93b5707b	-0.37650241303141
126	0xbfdc6687d9ea5274	-0.4437579753951362
127	0xbfd2711383a3eafc	-0.2881516252088401
128	0xbfb46c7722ebc7d1	-0.0797800503021613
129	0xbfbf90981b4a4999	-0.12330008188499732
130	0xbfbc3d03925afae4	-0.11030599902276667
131	0xbfb499bb648f52f0	-0.08047076420855226
132	0x3fb0cce5449551fa	0.06562645840069328
133	0x3fc05dba562bfc96	0.12786034782036343
134	0x3fc0a19a48605c8e	0.12993172201160913
135	0xbf50da06d3b73654	-0.0010285441083967188
136	0xbfb02a348851af0d	-0.06314400032141183
137	0xbfcc636cf426ffd3	-0.22178422852993993
138	0x3fc4f992cb340997	0.16386637613329633
139	0xbf8ba19f040a4042	-0.01349186163977845
140	0xbfb6f5d7baa177c3	-0.08968876177229305
141	0xbf784bcd5ac7e3ad	-0.0059316655792764185
142	0x3fc0df455046b615	0.13181368274438002
143	0x3fc013aaa0e84168	0.12560017449187488
144	0xbfc118a4f2b65b82	-0.13356458522022413
145	0x3f6dd4cd30e98bbd	0.0036415107381783927
146	0x3fa810b38ad2071e	0.047002421089031396
147	0x3fd3047574d5907a	0.29714714440911616
148	0x3fd11c7b620cf907	0.26736340117703644
149	0x3f80d6dd7591c880	0.00822232260745559
150	0x3fccffba826fd646	0.22655421608912912
151	0x3fc2ae2e2b6ec524	0.1459405624459943
152	0x3f9f05d7e75850fa	0.03029572820203528
153	0xbf92b89dcb36c377	-0.018282380607789386
154	0x3fc8860d5fa0508d	0.1915909497189471
155	0xbf7609eb35c14272	-0.005380553044304836
156	0x3fc4018387b07692	0.15629619718031457
157	0x3f9b1b0231c75dad	0.02647021702600021
158	0x3fac1c50e3f5984c	0.054903533770627705
159	0x3fc028cce7945569	0.12624512965764303
160	0x3fbc8726a55b6a53	0.11143724000013693
161	0x3fb3233e436308c9	0.07475651879488789
162	0x3fc5404c560fe1cc	0.1660247249817658
163	0x3fb29daf19aa4700	0.07271856667128063
164	0x3fb9860348895174	0.09970112343700582
165	0xbfc176967054351b	-0.13643150791941924
166	0xbf973060f4603de1	-0.022645487704776705
167	0xbfc0aa8788e9d545	-0.13020414529061433
168	0x3fc332aea65e61e5	0.14998419879408612
169	0x3fcf05c753a534c3	0.2423638494896406
170	0x3fc88dda2c7543c0	0.19182898684314686
171	0xbfbf5adfed63c8b1	-0.12248038812302543
172	0x3fc5384d49454ec9	0.16578069760963945
173	0xbfb8ad0dd4b4e4ca	-0.0963905948928129
174	0xbfa83f2716fa6f94	-0.04735681682106399
175	0xbfd0f4763585835c	-0.26492076136314835
176	0xbfd228bc1a1e7829	-0.283736253268105
177	0xbf959a84e173ea3b	-0.021097255955263555
178	0x3faf83937ee5c494	0.06155072139780163
179	0x3fb196a872942b8b	0.06870510861715055
180	0x3f9c9bd9593dd73b	0.02793826682269372
181	0xbfc18d0d6206bf2f	-0.1371170738834677
182	0xbfbd274b52ef1ac9	-0.11388083243137283
183	0x3faf1b9e203d633d	0.060757581172487175
184	0xbfb970591d5f2690	-0.09937054602701267
185	0xbfb22d8b1c6f5994	-0.07100743717396646
186	0xbf7ec67825cf7a4e	-0.007513493849698861
187	0x3fa6044d0ac43a5c	0.04300156361033622
188	0xbf8379815828c38d	-0.009509096625238711
189	0xbfc3b70f9f24d63e	-0.15402407904336884
190	0x3fd463bc27130cfe	0.31858733955250773
191	0x3fc98d2e30953e31	0.19962098476615744
192	0xbfd512b2a57cdfba	-0.3292662254420936
193	0xbfab5cae4cfd8ed2	-0.0534414738638397
194	0xbfa3120328a997f5	-0.03724679824226477
195	0xbfd81567a7484f27	-0.3763064511888267
196	0xbfd22dd1afbf3cde	-0.2840465751914517
197	0xbf8c310f53edb44b	-0.013765449284358541
198	0x3fa8263c951c4bfb	0.04716672249028161
199	0x3fd32a7260393443	0.2994657458955922
200	0x3fd9fb5ecd755ee4	0.40596742691330534
201	0x3fc39191e1e8cfbc	0.1528799393723811
202	0xbfd7b86d9111cc7d	-0.370631591481647
203	0xbfe03ba92d98860d	-0.5072828188460236
204	0xbfd957d4451e6b58	-0.395985667704442
205	0xbfda2fbece5e7896	-0.4091641440699133
206	0xbfdbb905bb553f6b	-0.4331678704665964
207	0xbfb5d176a5f9b88a	-0.085227408906322
208	0xbfc2857cb2a58f7a	-0.14469870303139115
209	0x3f7f5b37b25fdb2b	0.007655351224449085
210	0xbfd1a3ec53bffa95	-0.2756300752516066
211	0x3fdb8eab293ad9fd	0.4305828001628525
212	0xbf639bd6f17e0820	-0.0023936460601712423
213	0x3fa2b93042cc92d5	0.036569126276196386
214	0x3fe0a6aa968db7a4	0.5203450146197963
215	0x3fcf8b40ba79c365	0.24643715958839177
216	0xbfe4a5ea993b2caf	-0.6452534668727788
217	0xbfe371bc8b09d452	-0.607633849677436
218	0xbfc0b0c3d4ca2f72	-0.1303944386494283
219	0x3f86c02a4fe6d25c	0.011108713687329068
220	0xbfced4b658c8a386	-0.2408664639963513
221	0xbfd2f1e2e861992d	-0.29601357167702497
222	0xbfd161eff77d76c7	-0.2716026226897665
223	0xbfc93b537960843d	-0.19712298800098607
224	0x3fb5e4a9b23182b8	0.08552036858010126
225	0xbfa020f257e43999	-0.03150136301893553
226	0xbfc708738a1293e9	-0.17994541398834876
227	0xbfd20406b741dbcb	-0.28149574180809783
228	0xbfe20733508d9b89	-0.5633789609245109
229	0xbfd6e75bbd76644c	-0.35787099363512165
230	0xbfd5411956e1542a	-0.33209832653421023
231	0x3fcdec044c0ab0e4	0.23376516068436282
232	0xbfa3e6f6b50b0bba	-0.038871488189691175
233	0xbfcc3f4a56f69349	-0.22068146940469038
234	0xbfe2faa1bb42f439	-0.593094697709268
235	0x3f9a4e416f81c9f2	0.02568914645275728
236	0xbfda74b334e32407	-0.41337280430576623
237	0xbfe6bb322a8cb0ea	-0.7103510695501687
238	0xbfd892888e86cdbd	-0.3839436904774763
239	0xbfd8fa2a26df8507	-0.3902688388462398
240	0xbfbfaa279ffc32b8	-0.12369010597121644
241	0xbfded73b0a2863b9	-0.48188663475007903
242	0xbfd66231e78d9178	-0.34974334347341296
243	0xbfb6809445aaecb1	-0.08789946270819617
244	0x3faf05a934ce379f	0.06059006471251326
245	0xbfb404ac8efbbb17	-0.07819632044605061
246	0x3fbd3fbc814575df	0.1142537894824822
247	0xbfccadb72c237b54	-0.22405137686925036
248	0x3fbbc4f3db66eaaa	0.10847400766844353
249	0xbfdecd831fddfdd1	-0.4812934695437124
250	0xbfdee945ba15f086	-0.4829878155940225
251	0xbfd330dd42822285	-0.29985743994669917
252	0xbfd573fb99f8b9b8	-0.3352040294293164
253	0xbfdee0d31150944e	-0.48247219744582004
254	0x3fd2d72cc3e7aac2	0.29438323146193224
255	0x3fcbd7198a91ac4d	0.21750182405534915

rnn.bias_hh_l0 f8 [256]
0	0xbfc5c2530c89f1f9	-0.16999281036613903
1	0xbfc0ca6ce6664113	-0.13117753267261686
2	0xbfa8cb1ee551bd0e	-0.04842468785579444
3	0xbfd1861ac65b486a	-0.27381009455451155
4	0xbfd0952826094744	-0.25910381044842645
5	0xbfc9c695452b5d62	-0.20137277486240196
6	0x3fc4102fe153d728	0.15674398901290343
7	0x3fc94c7dba43f085	0.19764682383527457
8	0x3fd0078eb76cea6f	0.2504612723602468
9	0x3fd61519050d7a77	0.34503770345137447
10	0xbfcead5b3c8f1cb1	-0.2396654172609707
11	0xbfd7d156bb230e53	-0.372152025938907
12	0xbfd2420812f6a3c2	-0.2852802453222091
13	0xbfd6341354e6689c	-0.3469284371473209
14	0xbfdf50652de31099	-0.48928193551206217
15	0xbfcceeefc5866a09	-0.22604176659372424
16	0xbfc4b42db8e40d0a	-0.16174861457702888
17	0xbfba77e5a25a769a	-0.10339198316293122
18	0xbfd58ea9b5493972	-0.33683245376314297
19	0x3fd930dc0d54a488	0.39360715200252416
20	0x3fc28c56d9e104ea	0.14490781439420825
21	0xbfb03ac293637a17	-0.06339660738328977
22	0x3fe0e0f2666cbf11	0.5274593353733242
23	0x3fd2aec5aa3b40ca	0.29191724418798215
24	0xbfe43f85d1996078	-0.6327542394383405
25	0xbfd9c28633c6988d	-0.4024978166220386
26	0xbfc51435b8a6ea21	-0.16467925564013888
27	0x3fb6e9b9732ad364	0.08950385152531976
28	0xbf6b3260c6fc24b7	-0.003319920557150437
29	0xbfb99b96304156d3	-0.10003031423670032
30	0xbfc7a22562046ed6	-0.18463580404283303
31	0xbfc3332f8bb94278	-0.14999956438488815
32	0x3fd52f22c320d5c9	0.3310019403027949
33	0xbfbaa1884befb4a0	-0.10402728895106117
34	0xbfcc1938928f2a71	-0.21951968342030484
35	0xbfdebabdf44cbb49	-0.4801478276958063
36	0xbfe1c3e357f8cb0a	-0.5551621168327483
37	0xbfc1cdf05cda509d	-0.1390972569830681
38	0xbfc36b863c935866	-0.1517188831118716
39	0xbfb6eea8d341958d	-0.08957915456411154
40	0xbfb05320ac168d80	-0.06376842690820261
41	0xbfc488bd4aa14779	-0.1604229559330255
42	0xbfe1a9beb1bcf6f8	-0.5519708129356493
43	0x3fca5fcb321a75a4	0.20604839273884779
44	0xbfdaa6dd1ea869f9	-0.4164345549958451
45	0xbfe2161cfbdd227d	-0.565199367448329
46	0xbfd4bff9e658e468	-0.32421729559752643
47	0xbfd5921950d8f05c	-0.33704216857200264
48	0x3faf8bb277631817	0.06161267955171484
49	0xbfc68d904d74ff9c	-0.17619518072205842
50	0xbfa6f82ad4936d90	-0.04486211628838099
51	0x3f944fea6a8cc44b	0.01983610415772245
52	0x3f81ceb6bac62bde	0.008695056509869955
53	0xbfb4d759c49cb90f	-0.0814109902391673
54	0x3fa5e0ee2f5eced9	0.042731707842362084
55	0xbfd218dae0021962	-0.2827670276241375
56	0x3fe043a03734d5a7	0.5082551077127179
57	0xbfdd0c7e320ce923	-0.45388750922906435
58	0xbfdee07bbe17ba90	-0.4824513775228434
59	0xbfd8e9699c352b9b	-0.38924637083680985
60	0xbfd4a90807e75d74	-0.322816856115842
61	0xbfcad305aef88439	-0.20956488650793562
62	0x3fcba852b81e8169	0.21607431402390923
63	0xbf791e3c999d4e80	-0.006132351607294972
64	0xbfc400fcd666b388	-0.15628014057929485
65	0x3fd144422d2de867	0.26979116832774824
66	0xbfd3fb27e33ebf51	-0.31220433418183285
67	0xbf83b793582241a8	-0.009627486350184025
68	0xbfca23a67825993f	-0.2042129599241864
69	0xbfab3f8480e82e0c	-0.0532189757687683
70	0xbfc5b5efeb27e0e1	-0.1696147821637686
71	0xbfe4097705059fda	-0.626155385788475
72	0x3fd5e485fb480c58	0.3420729593200966
73	0xbfc5de66aa1c122d	-0.17084964090476387
74	0xbfb77b36efe9ff53	-0.09172385556484856
75	0xbfd96d0058d714d0	-0.3972779147700978
76	0xbfcf81f3b246c013	-0.246153318451889
77	0xbfd23a1fa2cb4d98	-0.2847975816523216
78	0xbfdbdcff79c65325	-0.4353636445242038
79	0x3f71d3b59f0cb178	0.004352292497781789
80	0xbfc475b6445dd30e	-0.15984228456695643
81	0xbf9d3d3734f8ae59	-0.028553831680410677
82	0xbfdaa6b208c67227	-0.4164242826171027
83	0xbfe16feb9611da98	-0.5449121409463542
84	0xbfd126e65657a470	-0.26799925262327573
85	0x3fdde8fa9762a70f	0.4673449018833801
86	0xbfe0a4a6664e420b	-0.5200988767774687
87	0xbfd1d11ddb30c71f	-0.27838846593214045
88	0xbfe0522edbc488b5	-0.5100321094835382
89	0xbfe445e3c3ce1ebf	-0.6335314583129373
90	0xbf918e19cb4e8fd8	-0.017143633874766667
91	0x3fb4c48bd493367d	0.08112405719585954
92	0xbfd58720a478878a	-0.33637252866366707
93	0xbfab761820b4a321	-0.0536353626178594
94	0x3fce02f689b0b36b	0.23446542475849283
95	0xbfa5e3c565cbb8ed	-0.04275338046669384
96	0xbfc41f1b7ee2ced0	-0.15719932265857617
97	0xbfca840ad7c71e64	-0.2071546128847671
98	0xbfc079a6e8ad1e33	-0.12871252404350883
99	0xbfb34f0fce844755	-0.07542513648902845
100	0xbfd50589972c1989	-0.3284629799167296
101	0xbfa5820bcc30a67d	-0.04200779788545803
102	0xbf99893a6fbd3b31	-0.024937546796816427
103	0x3fc0cae3c3eb70ef	0.131191702522194
104	0xbfe017be02132d5a	-0.5028982201123811
105	0xbfd33826e7971291	-0.30030224434111924
106	0xbfd9dba8ed8c8a0f	-0.4040319747747682
107	0xbfd85df057edcc8c	-0.38073357188040613
108	0xbfe04ec599b33894	-0.5096157075838783
109	0xbfe240a76492b9f3	-0.5703923191375097
110	0xbfb3b02975efcea8	-0.07690676812472452
111	0xbfd3116b14035864	-0.2979381270828354
112	0xbfadea28cbf08215	-0.058427119154888775
113	0xbfd1b30ade398199	-0.27655288411735907
114	0xbfd0fed97ae71dbe	-0.2655547809813149
115	0x3fd2cc9c19c103bb	0.29373838915858713
116	0xbfdaa655e985514b	-0.41640231899988994
117	0xbfb4c5662d2cb4b5	-0.08113707163711832
118	0xbfe63390e260b6dd	-0.6937946721497742
119	0xbfc362534f49e2ab	-0.1514381539489212
120	0xbfd4b630ccdb61cc	-0.32362003331720923
121	0xbfd3028f0ad0e0f4	-0.29703117424243364
122	0xbfe29d4f96ecf6cc	-0.5817029903189108
123	0xbfd31e41c6011ad1	-0.29872173630103044
124	0xbfd2d566810fdb52	-0.2942749271746169
125	0xbfda6ef1d3b570a1	-0.41302152323420144
126	0xbfdb9ad019ea525e	-0.43132402926247504
127	0xbfd8334cb3a3ea6c	-0.37813108008382446
128	0x3f87c230e8a1dfcc	0.01160085878312591
129	0xbfbb27e21b4a48af	-0.10607731977714495
130	0xbfb8fc88525afaa2	-0.09760334025029718
131	0xbfa8ba80491eac15	-0.04829789059234472
132	0x3fb8c4b6c4954eb4	0.0967516164721996
133	0x3fc88972162bfca6	0.19169450838669383
134	0x3fbaeae210c0b70c	0.10514653119090783
135	0xbfc0370a4da76e7d	-0.12667969505024593
136	0xbfb5b1084851b1aa	-0.0847325493393273
137	0xbfb97b1aa84dfeb8	-0.09953466996193583
138	0x3fd184e1b599ffa4	0.2737354539349275
139	0x3fb13ac19f7ebcae	0.06730280059740565
140	0xbf93b337ea85f0aa	-0.019238351525459642
141	0x3fb6a961ea538712	0.08852207156044425
142	0x3fc74db53046b614	0.18205895287739848
143	0x3fbcc51b81d07c13	0.11238262099549017
144	0xbfcff9cd12b67684	-0.24981082357128426
145	0xbfb9bd63d678b3e2	-0.10054611192818144
146	0x3fc05ad1c2b48434	0.1277715874394133
147	0x3fc6b9a869ab1abd	0.17754082831944187
148	0x3fc9d820e419f5ab	0.20190821779025944
149	0xbfae0e9a229b901f	-0.058705155109948
150	0x3fd81888f137ebd1	0.3764974933289383
151	0x3fc4942a4b6ec494	0.1607716434787433
152	0xbfa8a6d90c53d645	-0.04814794803125414
153	0xbfa015f8659b60f1	-0.031417620089713945
154	0x3fce04645fa0500f	0.23450903577088453
155	0x3fbcabbd0ca3e1d6	0.11199552115056774
156	0x3fc2947be7b07647	0.14515637219385466
157	0xbfa2f621e71c5227	-0.037034091436144494
158	0x3fc15d7858fd69e7	0.13566498131952118
159	0x3fccd04d879454ff	0.22510689849938356
160	0xbf510ca6a925409d	-0.0010406138940944117
161	0x3fc692ec61b182e0	0.1763587452906199
162	0x3fa58964d83f7e05	0.04206385745760247
163	0xbf9dca3e9956dc6a	-0.02909181414517229
164	0x3fb5700cc8895187	0.08374099632175645
165	0xbfc28ce9105434e2	-0.1449252443057168
166	0x3fb282da42e7f2df	0.07230915196846464
167	0xbfc1747088e9d543	-0.1363659542582046
168	0x3fc0805a265e6120	0.1289169967028636
169	0x3f8240e33a537d9f	0.008912825791809463
170	0x3fbb607bd8ea9b53	0.10694097562609998
171	0xbfbd6359ad63c9e6	-0.11479721530103112
172	0x3fb91929928aa8ab	0.09804019763638176
173	0xbf9d915c52d39277	-0.028874819331479586
174	0xbfcce980e5be9fd1	-0.22587596147536584
175	0xbfc43a112b0b0c36	-0.15802206613270336
176	0xbfd49800ca1e7892	-0.32177753198801284
177	0x3fad7fd88f460f08	0.05761601208635453
178	0xbfbbedf5008d1efd	-0.10909968627413132
179	0xbfa6dd871ad7a331	-0.04465887262978752
180	0x3fc0e3ff6b27b983	0.13195793850122692
181	0xbfc110eb6206bf2f	-0.13332884108012297
182	0xbfb7122552ef199a	-0.09012063288455466
183	0x3f440d280f595c0c	0.0006119199376354314
184	0xbfbc1a4b5d5f27d4	-0.10977622060377651
185	0x3fb16ae02390a6d7	0.06803704136168719
186	0x3fa768387b461602	0.045717015312259704
187	0xbf61c02753bcb158	-0.0021668212993032725
188	0x3fb05b0954fae823	0.06388910603246294
189	0xbfa4c274fc9358ca	-0.040546089012126155
190	0x3fd31bf367130d2c	0.29858098092900565
191	0x3fc1d76b50953e37	0.1393865722152314
192	0xbfcb1da86af9af95	-0.21184258674054193
193	0x3fc18132acc0a0c6	0.13675530848673229
194	0xbfc2797eca2a646e	-0.14433274146429959
195	0xbfc4d7ed2e90a54a	-0.16283955358202667
196	0xbfd743113fbf3c8d	-0.36346846795363136
197	0x3f82f32cac1248fb	0.009252881051257314
198	0x3fc809bfc5470c81	0.1877975190419399
199	0x3fd42199f0393460	0.31455086192437953
200	0x3fdfe06d4d755f78	0.49807293476396053
201	0x3fcd821fa1e8cef2	0.2305335560391693
202	0xbfdf82d80111cc59	-0.4923610697216581
203	0xbfd90e823b30fd25	-0.3915105417290355
204	0xbfdd7237251e6b0c	-0.46009615540394644
205	0xbfd7aedc5e5e7730	-0.3700476571628881
206	0xbfd431307b554020	-0.315502281610863
207	0xbfbca66765f9b782	-0.111914122005798
208	0xbfcf8a6152a593e8	-0.24641052756774617
209	0xbfb7234984da01cc	-0.0903821896881773
210	0xbfcfd601e7800407	-0.24871848872865618
211	0x3fdf217c693adc85	0.48641882206306547
212	0xbfb5a9edf78bf454	-0.08462416928883104
213	0xbfc0d69eaf4cd4c8	-0.1315496784169794
214	0x3fdd42518d1b7404	0.45717276363376436
215	0x3fcb4fc63a79c3a5	0.21337201934104857
216	0xbfe1a982393b2ce4	-0.5519419782443973
217	0xbfe3c2cf9b09d451	-0.6175306346982642
218	0xbfc643d634ca2f67	-0.17394521310449848
219	0xbfbb338db6032a4c	-0.10625539487515673
220	0xbfcd38c8f8c8a342	-0.2282954420818673
221	0xbfd023bb68619a21	-0.252180911955664
222	0xbfc604822efaee84	-0.17201258939700292
223	0xbf9d3362cb043130	-0.02851633419145222
224	0x3f60ed66462fc041	0.00206632590697356
225	0xbf74202ebf21e033	-0.004913504222820153
226	0xbfc813484a1293c9	-0.1880884515459498
227	0xbfd487d28741dc0e	-0.3207899399635047
228	0xbfe4fc1fe08d9b0d	-0.6557769189647346
229	0xbfc89ca49aecbc85	-0.19228036465344558
230	0xbfd1bcc6e6e153d1	-0.2771470312775906
231	0x3fbe375158156fc0	0.11803158188325735
232	0xbf8d1e8ed42c4361	-0.014218440866473338
233	0xbfc5997236f691de	-0.16874530490635115
234	0xbfe41b954b42f49a	-0.6283670873596237
235	0x3fb7b6e95be06d9e	0.09263475888331249
236	0xbfda0ee044e323ed	-0.40715796210548555
237	0xbfe4eb37828cb0f2	-0.6537129926487337
238	0xbfd73e79ee86cd9c	-0.3631882504807551
239	0xbfd1f16af6df84e8	-0.2803599749441461
240	0x3fa9616cc0079e61	0.04957141727555548
241	0xbfe40881d514399a	-0.6260384713839813
242	0xbfd129b3778d919f	-0.26817022967431997
243	0xbfcbe97a22d571d3	-0.21806265545718748
244	0x3fb357575a671965	0.07555147130105906
245	0xbfc00f69877ddbca	-0.125470343740487
246	0x3fcd8dd5a0a2bb04	0.2308909448961104
247	0xbfc6e43c2c237a2a	-0.17884018092350235
248	0x3fcbb36f6db37870	0.21641342979905032
249	0xbfe3dddbafef07d6	-0.6208322941022242
250	0xbfe28eb47d0af341	-0.5799200479737935
251	0xbfd8e926c2822255	-0.38923043246226047
252	0xbfd45897b9f8b9ac	-0.31790726815497794
253	0xbfd7f81851509500	-0.3745175165261827
254	0x3fd33ac7f3e7aacc	0.3004627115139271
255	0x3fb23a22552359a2	0.07119955614630283
