models/modelRNN_lang6_amod3b.pt (torch, 511599 bytes, 9 tensors)

rnn.weight_ih_l0 f4 [256, 300]
000000 74 8f 06 c0 05 37 22 3d f7 3d aa 3e fb 06 9d 3d
       -2.1025057 0.039603252 0.332504 0.07667347
000010 13 cc ab 3e 7d d8 9d 3f 75 7c 1d 3f d0 72 c2 3e
       0.33554134 1.2331692 0.6151803 0.3797822
000020 7d 77 ab 3f a2 8e b9 3f c6 8c e9 3f 4f 6d cb bc
       1.339584 1.4496653 1.8246086 -0.024832396
000030 c5 07 d8 be 50 ee 63 c0 c2 62 ce 3e 25 3d 00 bf
       -0.42193428 -3.5614204 0.4030972 -0.500933
000040 fc a4 15 3e fd 55 9b 3f fb 08 00 40 bf e1 80 bf
       0.14613718 1.2135617 2.0005481 -1.0068892
000050 26 4d 97 bf e7 6a 58 bf b3 26 ce 3d 5b c7 cc 3f
       -1.1820419 -0.8453812 0.10065975 1.5998338
000060 b2 81 cf be 4d c0 cf bf b6 b1 e4 3e cb 0c dd bf
       -0.40528637 -1.623056 0.44666833 -1.7269529
000070 74 6f 3f 3e 61 0e e4 3e 89 b6 a9 3f b3 b5 c9 be
       0.1869486 0.4454222 1.325883 -0.39396438
000080 cc e1 b0 3e 5b ee 95 3e c3 5f c4 bf 87 45 94 bf
       0.3454727 0.29283413 -1.5341724 -1.1583718
000090 8b d5 0d 3f a9 f8 58 3f f7 1c 85 3f 44 e8 32 3f
       0.55403966 0.84754425 1.0399464 0.6988566
0000a0 26 a4 13 c0 b1 7d 0a bf 37 bb a7 3f 0d 3b 91 bf
       -2.3068938 -0.5409804 1.3104008 -1.1346146
0000b0 dd 17 e8 bc 49 6c 21 3e 65 1b ac 3f 24 2f 01 40
       -0.028331691 0.15763964 1.344586 2.0185022
0000c0 48 81 3d 3a 96 a6 ca 3d 7b 1f 14 bf 54 56 1d bf
       0.0007229042 0.09895055 -0.57860535 -0.6145985
0000d0 4e 76 e2 3f e9 1e 36 3f 65 2d 0b bf 6c 6f 6c bf
       1.7692354 0.71140915 -0.5436614 -0.92357516
0000e0 b7 61 95 3d 11 30 70 3d 20 e1 b7 3f 4a a0 30 c0
       0.07294028 0.05863959 1.4365578 -2.7597833
0000f0 85 68 bb 3f ce 95 58 3f 45 b6 42 3f 30 fc b9 3f
       1.4641272 0.84603584 0.7605937 1.4530087
000100 c4 87 71 bf 91 2c 85 bf 26 98 09 bf 56 1c 0a 40
       -0.94347787 -1.0404226 -0.53747785 2.1579795
000110 70 f8 68 3f 44 7e 52 bf 97 a3 91 bf 2c 21 26 c0
       0.91004086 -0.82223916 -1.1378049 -2.5957747
000120 64 4f e8 3f bd 8c a9 be 67 41 77 3f 42 2a 87 bf
       1.8149228 -0.33115187 0.9658417 -1.0559771
000130 48 81 cd 3f 49 ea bc bf 8a 27 b8 3e fb f8 72 bf
       1.6055079 -1.4758998 0.35967666 -0.94911164
000140 db 96 e2 3f 4a a6 31 bf 5e 26 10 3f ac 91 ed 3e
       1.7702287 -0.6939436 0.56308544 0.464002
000150 88 da da be 6a b3 c1 3f b8 58 32 bf 7b 83 ac bf
       -0.4274485 1.5132878 -0.69666624 -1.3477625
000160 cf a2 ce be 9a 72 05 40 56 af 4d be a1 87 98 3f
       -0.40358588 2.0851197 -0.20086417 1.1916391
000170 d0 de 8a 3f a6 de 72 3f a0 5c 11 bf d6 c8 f5 3e
       1.0849247 0.94870985 -0.5678196 0.48004788
000180 e4 f4 1e 3f 12 2e d9 3f 06 bc a9 3e 5c db b2 3f
       0.62092423 1.6967185 0.33151263 1.3973193
000190 03 10 a1 3e fc f2 b0 bf a4 57 c0 3e 89 13 21 bf
       0.31457528 -1.3824153 0.37566864 -0.62920433
0001a0 d3 f1 17 be d5 cc 20 c0 79 d2 31 bf d3 1d 8f 3f
       -0.14838342 -2.512502 -0.6946178 1.1180977
0001b0 80 64 fc 3d 02 8c 2d 3f a7 57 cf 3e 05 05 e4 3d
       0.12323856 0.6779176 0.4049656 0.1113377
0001c0 c1 81 d9 3f 51 74 46 3f cd 82 a1 bf 23 df b5 3f
       1.6992723 0.77521235 -1.2618042 1.4208721
0001d0 d9 54 22 40 ef d0 70 bd 3b d4 17 40 ee 3f b0 3f
       2.5364287 -0.058793005 2.3723285 1.376951
0001e0 0e 18 b7 bf b0 9f e0 be 2a 93 79 3e b2 34 cd 3f
       -1.4304216 -0.43871832 0.24372545 1.6031706
0001f0 f7 72 9d bf 0f 16 31 c0 22 89 f6 bf 78 7a d1 3e
       -1.230071 -2.7669713 -1.92606 0.4091375
000200 6a e9 2f 3f ac c7 48 bf 83 b8 05 c0 72 68 00 be
       0.68715537 -0.78429675 -2.0893867 -0.12539843
000210 06 75 a5 3e 86 a5 90 3e f6 3f a9 bf eb 42 8e bf
       0.32315844 0.28251284 -1.3222644 -1.1114172
000220 b8 2f 16 c0 0c 7a b8 bf 66 38 c1 bf 2d 2b e2 3e
       -2.3466625 -1.4412246 -1.5095336 0.44173566
000230 f1 c2 56 bd 78 3a f8 3f e6 b3 78 40 d6 60 9d bf
       -0.052432004 1.9392843 3.8859801 -1.2295177
000240 4c 8f 1f bf 17 a4 a3 be cc 70 02 3f b8 0a 38 3f
       -0.6232803 -0.31961128 0.50953364 0.71891356
000250 19 84 91 bf 95 d4 36 bf 25 b1 c1 3f 1c 5b 85 3f
       -1.1368438 -0.71418124 1.5132185 1.0418429
000260 ff 46 23 c0 9a d5 78 3c 78 b0 5f 3f 08 ff ab 3f
       -2.5512083 0.015187645 0.87378645 1.3437204
000270 9b 9e 46 be d3 46 05 be 45 9d 39 c0 26 43 8e bf
       -0.1939644 -0.13015299 -2.900224 -1.1114242
000280 74 2a fc bf 84 36 31 c0 bd 96 8f bf 12 f4 e5 bf
       -1.9700456 -2.7689524 -1.1217877 -1.7965109
000290 a3 be fd 3e 20 ff 87 bd 78 3d 55 3f 3f 56 3c bf
       0.49559507 -0.06640458 0.8329692 -0.735691
0002a0 fb b7 ef 3e 36 2b 6d 40 88 d5 ec be 92 70 ae 3f
       0.46820053 3.7057624 -0.4625666 1.3628104
0002b0 3f a6 06 3f b9 78 bf 3e 81 ef 0c be 03 10 b8 3e
       0.5259742 0.37396792 -0.13763238 0.35949716
0002c0 6a 33 d1 3e 56 6c db 3f fb ab 44 40 eb 80 c4 be
       0.40859538 1.7142437 3.0729969 -0.38379607
0002d0 7f c0 b7 bf 82 af 9a be 0d 52 ec bf 11 ff 37 3f
       -1.435562 -0.30212027 -1.846254 0.71873575
0002e0 cb 83 a9 bf 71 e1 f6 3c 98 f2 61 be 55 eb b0 3f
       -1.3243345 0.030136796 -0.22065198 1.3821818
0002f0 2c 8f 52 3f d0 88 42 3f 5b 8c 22 3f 10 42 c1 3e
       0.8224971 0.7599001 0.63495415 0.37745714
000300 1e 5b ba be 7e f4 3c bf 0c 4c d2 bb 7a 25 e5 be
       -0.36397642 -0.73810565 -0.006417757 -0.44755155
000310 33 ec 91 bd d3 e7 ba 3e ea 8e d6 3f fa 02 e3 bf
       -0.071251296 0.36504993 1.6762364 -1.7735283
000320 c5 37 00 be 6a 97 15 3f 6b ba 17 3e d0 10 88 bf
       -0.12521274 0.58434165 0.14817207 -1.0630131
000330 fa 3f cb bd 30 37 6a bf b6 c6 33 be 83 a0 95 3f
       -0.09924312 -0.9149046 -0.17556271 1.1689609
000340 bd f2 5a be a0 51 a6 3f 33 2a 5f 3e 79 b3 a8 bf
       -0.2138166 1.299366 0.21793441 -1.3179771
000350 93 14 a7 bf 34 f0 e6 be 3e e3 59 3f 6e 32 53 bf
       -1.3053154 -0.45105135 0.8511237 -0.82498825
000360 66 3e 72 bf 87 68 3e bf a6 0e db 3e ae f7 b5 be
       -0.9462646 -0.74378246 0.42784613 -0.35540527
000370 39 b7 90 bf af 7c 3b 40 02 d9 20 bd b4 fa 74 3f
       -1.1305915 2.929485 -0.039269455 0.9569504
000380 dd 30 d7 3d a3 95 3d 3f 16 01 99 3e 95 2c 4b be
       0.10507367 0.7405645 0.2988364 -0.19841225
000390 ac 56 88 be 9c 41 f8 be ee d0 a1 bf ef 58 07 40
       -0.26628625 -0.48487556 -1.2641885 2.114803
0003a0 2f 56 cb 3f fa c9 26 3f 5e d0 b8 be 6f 69 b0 3f
       1.5885676 0.6515194 -0.36096472 1.3782176
0003b0 01 fa 92 bf 2a 27 44 c0 70 2b 53 3f 63 88 4d bf
       -1.1482545 -3.0648904 0.82488155 -0.80286235
0003c0 8d 4b 8e 3f 34 48 54 bf ae 1c 62 bf c0 68 f2 bf
       1.1116806 -0.82922673 -0.8832501 -1.8938217
0003d0 0a 78 d0 3d 84 cb f5 be 18 9f 5a be 9e 2b 25 3f
       0.10179146 -0.48006833 -0.21349752 0.6451968
0003e0 7d a2 20 3f af 8f d8 bf 9d 2f 8f bf 45 bf c0 bf
       0.6274794 -1.6918849 -1.1186405 -1.5058371
0003f0 87 ad 14 3f 38 cd 09 3e c7 6c f8 3e 83 b2 2f 3d
       0.5807728 0.13457191 0.4852049 0.04289485

rnn.weight_hh_l0 f4 [256, 64]
000000 1a 39 a9 3f 91 fa a4 be 75 c4 73 3f 2a 67 01 c0
       1.3220551 -0.32222417 0.95221645 -2.0219216
000010 78 e7 06 40 3f 9e 20 c0 ff 37 bc 3e f6 de 7d 40
       2.1078777 -2.5096586 0.36761472 3.9667335
000020 e7 ef 7b bf 56 0c 94 3f 99 01 8b 3d aa bb 81 bf
       -0.98412937 1.1566265 0.06787414 -1.0135396
000030 4c aa 8e 3f 7d 57 cc 3e e2 74 00 c0 78 41 8f 3e
       1.114572 0.39910498 -2.007134 0.27979636
000040 74 74 05 c0 2f 1a fa bf 86 9f 89 bf 11 45 d6 be
       -2.0852327 -1.9539241 -1.0751808 -0.41849568
000050 3b 98 74 c0 06 99 15 3f a0 7c 20 3f 91 64 69 bd
       -3.8217914 0.5843662 0.6269016 -0.056980673
000060 f4 b4 bd 3f 9e c9 26 bf 41 e0 95 bf d7 23 9d 3c
       1.4820848 -0.65151393 -1.1709062 0.019182129
000070 dd d3 44 3f a9 f1 90 bf 24 22 19 bf 96 a8 23 bf
       0.7688578 -1.1323749 -0.5981772 -0.63929117
000080 bc ed 80 c0 36 af 89 3f 09 2b 00 3f 8a fc 0c bd
       -4.0290203 1.0756595 0.50065666 -0.034420528
000090 22 dc 1b 3f b7 f4 33 bd 01 64 de bf 0e 19 6d 3e
       0.6088277 -0.04393455 -1.7374269 0.23154089
0000a0 71 ad 96 3f 9d 12 7b 3f 20 f2 bd 3f b3 53 87 bf
       1.177168 0.98075277 1.4839516 -1.0572418
0000b0 3a 99 63 bf 41 a3 9b bf 1e 8b 8d 3e 24 cc 56 bf
       -0.8890568 -1.2159196 0.276452 -0.83905244
0000c0 af 1f ab be e7 d9 b5 3f 82 1c f5 be 0b ac b8 3e
       -0.3342261 1.4207124 -0.47873312 0.36068758
0000d0 1e 1c 91 3e 31 97 61 c0 a1 25 06 bf de 45 03 c0
       0.28341764 -3.524853 -0.5240117 -2.0511394
0000e0 77 40 63 be 27 70 24 bd 74 db 52 3e 64 eb ef 3f
       -0.2219256 -0.04014602 0.20591527 1.874371
0000f0 54 cb 66 bf 09 a5 a0 3f 20 64 80 3f 09 03 22 c0
       -0.90154004 1.2550365 1.0030556 -2.5314353
000100 4c fa 9e 3d 86 6c c5 be 51 a5 98 bf f0 c2 9a bf
       0.07762584 -0.3855936 -1.192545 -1.209074
000110 4b f0 9e 3d d5 6d d0 3e fb 69 87 3d 76 32 08 3e
       0.07760676 0.40708795 0.06612011 0.133005
000120 8f 4b 13 3f 45 6a a9 3f af a6 be bf 3f d3 d3 3c
       0.5753717 1.3235556 -1.4894618 0.025857566
000130 4e fe 83 be 6f 55 37 40 c9 4b e9 3e bf 69 b2 3f
       -0.25779957 2.8645895 0.45565632 1.3938521
000140 f2 e0 2c bf f6 2a 5b bd c2 12 23 3f 5b 38 69 3f
       -0.6753074 -0.053507768 0.637005 0.91101617
000150 50 de 19 3f 0a e6 c9 be c3 de 8b bf ad 7e db bf
       0.60104847 -0.39433318 -1.0927356 -1.7148033
000160 3d ce 72 3c a6 5e 99 3f 40 a4 63 bf 58 2e 5e 3f
       0.014819679 1.198201 -0.889225 0.86789465
000170 45 88 d4 be 79 37 dd 3e 42 96 66 be 2b b5 33 bf
       -0.41510215 0.43206385 -0.22518256 -0.70198315
000180 d3 68 af 3c d8 37 bd 3e 22 f8 a9 3f 62 a8 8f 3f
       0.021412289 0.36956668 1.3278849 1.1223261
000190 9f 52 98 3f 4a 10 0a bf 42 18 1c 3f 5b 70 25 bf
       1.1900214 -0.53931105 0.60974514 -0.64624566
0001a0 0a d3 1e bf 73 18 95 3f 01 20 67 be ce fe 8a 3f
       -0.6204077 1.1648086 -0.22570802 1.085901
0001b0 1c ec e5 bc e8 17 4b bf 48 02 09 3f bf dd d1 bf
       -0.028066687 -0.79333353 0.53519106 -1.6395797
0001c0 ac b8 b5 3e 80 15 00 3e 5a fd be 3e 10 e7 fa 3e
       0.35492456 0.12508202 0.37302667 0.49004412
0001d0 6c dd a8 3f 3e 0e 39 3f c9 6c 61 be ca 80 65 3e
       1.3192573 0.72287357 -0.22014154 0.2241241
0001e0 7e f4 05 3f 56 b6 a9 3f 9d 10 fe 3c e5 75 c0 3f
       0.5232619 1.325877 0.031013781 1.5035979
0001f0 d1 9c bc bf ad c9 b8 bf 6f d9 b1 bf 23 ec f3 3c
       -1.4735357 -1.4436547 -1.389448 0.029775685
000200 de 0d 8c bf 74 27 3d 3e 4f 26 40 40 28 34 b2 3e
       -1.0941732 0.18472081 3.0023382 0.34805417
000210 02 d0 3e 3f e7 ba 57 bf d3 ec e6 3f 37 56 45 c0
       0.74536145 -0.84269565 1.8041023 -3.0833871
000220 07 f6 8f 3f 82 4f 5d bf de 30 62 3f 5a 15 bf bf
       1.1246957 -0.86449444 0.88355815 -1.4928391
000230 7b 74 6e 3f 7f f8 81 bd 57 db 12 3f 46 d4 dc 3f
       0.93146485 -0.06346225 0.57365936 1.7252281
000240 72 76 a8 3e 38 88 0b 40 1a 00 a9 be b7 02 4a 3f
       0.32902867 2.1801891 -0.3300789 0.7891039
000250 25 e1 9f be cf ad 88 bf c9 7a c0 3e 2c c3 0a bf
       -0.3122646 -1.0678042 0.37593678 -0.5420406
000260 99 d5 13 3f db 2a 4e bf ed d9 0b 3e 64 63 57 bf
       0.577478 -0.8053414 0.13657351 -0.84136033
000270 72 4e 06 bf ae cc e5 bf 90 93 fc be b7 c2 86 3e
       -0.5246345 -1.7953088 -0.4933133 0.2632043
000280 e2 13 4f bf 4a 61 8d be 70 53 2e be 56 d9 f2 bd
       -0.80889714 -0.27613288 -0.17024016 -0.1185786
000290 65 43 0b bd ef 81 49 bd 92 8e 8d be a3 ea 4f bf
       -0.03399982 -0.04919618 -0.27647835 -0.812174
0002a0 0e 19 8b 3f 9b e1 48 bd fd 85 d0 bd 36 40 cb be
       1.0867021 -0.04904328 -0.10181806 -0.39697427
0002b0 c6 a8 63 3f 3b 0f 83 3e d1 c7 b6 bf 81 47 0c 3f
       0.889294 0.25597557 -1.4279729 0.54796606
0002c0 f7 e6 8b bd ba b7 07 40 aa a4 51 3f 35 79 10 3f
       -0.068311624 2.1205888 0.8189188 0.5643495
0002d0 c6 13 a1 be 39 f2 4c 3f 8d 67 1d 3d f6 b8 13 bf
       -0.31460398 0.800571 0.03842883 -0.57704103
0002e0 1c 83 0d bd fc 4c 4c 3e e4 c7 a9 3f 8d 25 10 bf
       -0.034548864 0.19951242 1.3264127 -0.563073
0002f0 c7 86 93 3f ea e4 fe 3e f8 f8 8d bf 70 cb 28 bf
       1.1525506 0.49784023 -1.1091604 -0.6593542
000300 52 9f e2 3f bd f6 92 3e 30 9d 0d 3e 1b 8c 6c 3f
       1.7704871 0.2870387 0.13829494 0.92401284
000310 1e 5b c7 3c 4b 10 02 3f ad 9e 81 3e eb b3 f6 3f
       0.02433544 0.5080611 0.25316373 1.9273657
000320 37 ae b8 3f 66 c3 21 3f 6a 13 80 bf 50 ef 19 3f
       1.4428166 0.6318878 -1.0005925 0.60130787
000330 e4 cb 03 3e 3c 23 ca be 60 ee cf 3f a6 a2 3a bf
       0.12870747 -0.39480007 1.6244621 -0.7290443
000340 1a b4 72 3f 2f 8c 34 bf 20 e4 9b be 41 fe 84 3e
       0.94806063 -0.70526403 -0.30447483 0.2597523
000350 85 6c 1d 3f f6 e8 c6 3e f6 09 2d 3e 99 41 7c bf
       0.6149371 0.3884961 0.16898331 -0.98537594
000360 6c e3 41 3f 54 20 d6 3e cf fe 55 bd 3f 4b 90 be
       0.75737643 0.4182154 -0.052244958 -0.28182408
000370 94 18 c9 3e 65 dc 28 bf ba 16 7e 3e f4 e1 7e bd
       0.39276564 -0.65961295 0.24813357 -0.062227204
000380 f3 fe 4e 3f d6 fd 07 3e 7d 6c c1 be 27 ec 9f bf
       0.8085777 0.13280424 -0.37778082 -1.2493943
000390 8d 89 64 3f 22 e0 25 c0 36 76 3d bf af ab 43 3e
       0.89272386 -2.591805 -0.740085 0.19108461
0003a0 8c 2b d4 3e 31 97 28 be 34 98 84 bf 56 a2 25 be
       0.41439474 -0.16463925 -1.0358949 -0.16175207
0003b0 08 bd 43 bd 72 93 b8 3d fb 21 42 bf 9a 82 ac be
       -0.047787696 0.09012498 -0.758331 -0.3369339
0003c0 8f 2e 22 3f 3c a2 f9 3d d2 49 1f 3f a3 34 67 3f
       0.6335229 0.12189147 0.62222016 0.9031469
0003d0 48 87 b4 be 49 4f 89 bf b2 62 12 bf 80 2f b9 3f
       -0.3525946 -1.0727321 -0.5718185 1.4467621
0003e0 9f f9 af 3d 47 32 3b 3e f0 34 82 be 52 85 75 3e
       0.08592533 0.18280898 -0.25431013 0.23976639
0003f0 7d bd 8d bf 90 7c 7f 3e 18 34 23 c0 19 87 5f 3e
       -1.1073452 0.2494986 -2.5500546 0.2182888

rnn.bias_ih_l0 f4 [256]
000000 92 9f 07 c0 e0 80 52 bf d9 a0 f3 bf ea 3c 2a bf
       -2.1191144 -0.822279 -1.9033462 -0.664992
000010 e5 1b 84 3e 0d 8f d6 be be 7f 4e c0 bf a3 bf bf
       0.25802532 -0.41906014 -3.2265468 -1.4971846
000020 68 52 50 bf d1 d0 61 bf 70 29 01 c0 06 dc ea be
       -0.8137574 -0.88209254 -2.0181541 -0.4587099
000030 01 55 c4 bf 86 80 16 c0 41 e9 32 bf 35 31 15 c0
       -1.5338441 -2.3515944 -0.6988717 -2.3311284
000040 8a 03 82 bf f4 ef c0 bf 96 a5 28 bf 82 0d a9 bf
       -1.015733 -1.5073228 -0.65877664 -1.3207247
000050 d0 bb 4e bf bd e2 dc bf 66 82 30 3f a6 cb e5 bf
       -0.8075533 -1.7256695 0.6894897 -1.7952774
000060 bf 13 8c be ce db 03 bf 45 38 04 bf bc ad 37 c0
       -0.27358815 -0.5150727 -0.5164836 -2.869979
000070 7b 67 e5 3e 19 81 04 3f 13 e0 a7 bf 0a ea 00 3f
       0.44805512 0.5175949 -1.3115257 0.50357115
000080 b5 9d 53 bf 1e 34 a7 bf d8 d0 a4 bf 93 f6 89 bf
       -0.82662517 -1.306278 -1.2876234 -1.0778373
000090 66 45 19 c0 3b 6e 9d bf 50 64 e3 be 02 26 85 bf
       -2.3948607 -1.2299265 -0.4441247 -1.0402224
0000a0 85 71 53 c0 cc 34 85 bf ae dd 92 bd aa 5f ba bf
       -3.3038037 -1.0406737 -0.07171188 -1.4560444
0000b0 ac 1b 28 bf 71 be a5 bf 25 0b 37 bf 68 13 be 3d
       -0.65667224 -1.2948743 -0.7150138 0.09281045
0000c0 56 ae 96 bf 94 c2 14 c0 6d 96 4c c0 2f 38 dc bf
       -1.1771953 -2.324376 -3.1966813 -1.7204646
0000d0 6a 6a d5 be 06 7c d2 bf 74 2a ef 3e 04 c0 c9 bf
       -0.4168275 -1.6444099 0.46712077 -1.5761724
0000e0 49 05 79 bf a3 ef 23 be 02 47 16 c0 54 14 ae bf
       -0.9727369 -0.16009383 -2.348084 -1.3599954
0000f0 1e 14 de bf 2e 89 be bf 89 09 f2 bf 3a 26 9f bf
       -1.7349889 -1.4885614 -1.890916 -1.2433541
000100 ae c1 22 bf d8 00 e6 bf 1e f3 e2 3e b5 17 02 3f
       -0.6357678 -1.7969007 0.4432611 0.50817424
000110 28 e2 21 c0 85 97 89 3f 08 6a 9d be f5 0b 56 3f
       -2.5294285 1.0749365 -0.30744958 0.83611995
000120 24 0a 8c be 91 cd 1e 3f bc 1d 09 3f 79 cf 3d bf
       -0.27351487 0.6203242 0.53560996 -0.74144703
000130 80 1c f5 bf 85 05 a9 bc de 51 92 bf 94 c3 33 3e
       -1.9149323 -0.020632515 -1.1431234 0.17555076
000140 3c 58 74 bf 4d 2e 3f bf a9 8d c1 be a0 ff 56 3f
       -0.95447135 -0.74680024 -0.3780339 0.839838
000150 9e 8c 07 be 56 a7 57 bf 55 f6 27 c0 54 a4 7a bf
       -0.13237235 -0.8423971 -2.62441 -0.97906995
000160 05 01 99 3f 24 af bc be 5a 5d ea bf d4 ec c8 be
       1.1953436 -0.36852372 -1.8309739 -0.39243186
000170 55 7c 5b bf 96 e1 7f 3e 5d 52 e6 be 7e 6a 97 bf
       -0.8573659 0.24988398 -0.44984713 -1.1829374
000180 b3 e1 d8 3e 98 40 8d 3e 10 00 97 3b d8 c4 69 3f
       0.42359695 0.27588344 0.0046081617 0.91315985
000190 48 a8 ca be db e2 69 be 0c 74 d6 bf c4 8b d7 bf
       -0.39581513 -0.22840445 -1.6754165 -1.6839528
0001a0 e5 e0 54 bf 06 25 8f bf 3f e1 b9 3d 7e 5f 18 bf
       -0.8315566 -1.1183174 0.090761654 -0.5952071
0001b0 27 61 56 3f ac a5 c6 bf 57 8d cd 3e 07 83 bd 3e
       0.8374199 -1.5519309 0.40146896 0.37014028
0001c0 c9 21 3a bf c3 43 b4 be f6 40 4f bf 27 48 1d bf
       -0.727078 -0.35207948 -0.809585 -0.6143822
0001d0 5f 37 dc bf 1b a3 0f 3f de 2f fe bf d3 ec 3c 3d
       -1.7204398 0.56108254 -1.9858358 0.04612429
0001e0 41 64 8e 3e 8a 98 c5 be b5 37 0d 3f 32 dd 6f bf
       0.27810863 -0.3859294 0.5516313 -0.9369689
0001f0 7f d8 41 3e bf 69 47 bf 87 3d 17 3f c1 ad 45 3f
       0.18930243 -0.7789573 0.5907826 0.7721825
000200 cf 3e 19 bf 30 e5 0f 3f 01 b5 93 be 7c d4 bf 3f
       -0.59861463 0.5620909 -0.28849033 1.498672
000210 f8 25 30 3f 4f 4e da 3e de d3 b5 be c9 6d cc bd
       0.68807936 0.4263787 -0.35513204 -0.09981877
000220 ec b0 93 3d 03 a9 3d bf aa 25 1f be 6f 08 ee 3e
       0.072114795 -0.74086016 -0.15541711 0.4649081
000230 76 f5 90 be 08 bd e5 3d 1a 0b 77 3f 4a 24 19 3f
       -0.28312272 0.112176955 0.96501315 0.59821
000240 55 8a 87 be 73 ed 47 bd 54 fb b5 3b 86 0a e8 3e
       -0.26472726 -0.048810434 0.0055536423 0.4532053
000250 26 be 31 3f 88 33 03 3f 3e e7 bd 3e 1e ab b3 3f
       0.6943077 0.51250505 0.37090486 1.4036596
000260 c3 0f 9f bd 94 5f 54 3f 86 37 ac 3e 55 2e 73 3f
       -0.07766678 0.8295834 0.3363611 0.9499257
000270 e3 b4 1c 3f c7 a5 29 bf c0 44 8e 3e 6c 9e 5d 3e
       0.6121351 -0.6626858 0.27786827 0.21642464
000280 7c ac 75 be c9 0b 18 3e 28 c6 b4 3d 90 be 76 3f
       -0.23991579 0.14848246 0.08826858 0.96384525
000290 c0 35 ac 3f a0 eb b9 3e 69 23 bd 3e f0 d8 2b 3f
       1.3453903 0.3631258 0.36941078 0.67127895
0002a0 87 42 8d be 0c 98 a5 3e 87 69 1e be b2 4e 23 bf
       -0.2758982 0.32342565 -0.15469943 -0.63791955
0002b0 91 37 fc be 74 5c d8 be af 50 5a 3f f0 2d 20 bf
       -0.49261144 -0.42258036 0.85279363 -0.62570095
0002c0 12 6c 09 3f 94 93 cf 3e 78 59 12 bd e5 c6 40 bf
       0.5368053 0.4054228 -0.035729855 -0.7530349
0002d0 09 c8 a5 3e 6c 42 5e 3f 3f 1d af be 2c d2 83 3e
       0.32379177 0.868201 -0.34202 0.25746286
0002e0 ae 46 5e 3f cf 35 5b bc a0 49 6b be b3 13 c7 be
       0.868266 -0.013379528 -0.22977304 -0.38882217
0002f0 ab 06 05 3f 95 27 65 3f c4 eb 4b 3f d0 5e c1 3f
       0.519633 0.8951352 0.79656625 1.510706
000300 36 f9 19 c0 5c 58 46 3e ec bb 29 c0 eb ad 09 bf
       -2.4058356 0.19369644 -2.6520948 -0.53781
000310 b4 b4 23 bf 43 08 e6 bf d2 2f 38 c0 c7 b9 db bd
       -0.63947606 -1.7971271 -2.8779187 -0.107287936
000320 fc c0 03 c0 30 68 83 be 09 b8 d6 be dc bb 7b bd
       -2.0586538 -0.25665426 -0.41937283 -0.061458454
000330 19 3f 30 bf c5 ff b9 be 48 18 e6 be e3 83 1e bf
       -0.6884628 -0.3632795 -0.449404 -0.61919993
000340 66 05 ee bf 59 3a 65 c0 b6 e3 81 bf 81 06 7e bf
       -1.8595397 -3.5816863 -1.0147617 -0.99228674
000350 33 d0 05 bf c2 8e 75 3f b6 65 6f bf e5 43 d8 bf
       -0.5227081 0.95920956 -0.93514574 -1.689572
000360 89 7d 04 bc e0 89 52 be b9 0e 8c bf 46 ce 2e c0
       -0.008086571 -0.20560408 -1.0941993 -2.73134
000370 f4 a9 05 3f e4 ad 22 c0 a4 64 dc bc 12 e7 f8 bf
       0.5221245 -2.5418634 -0.026903458 -1.9445517
000380 99 b3 99 3e 67 35 24 c0 20 47 1a bf a1 f8 f5 be
       0.30019835 -2.5657594 -0.6026478 -0.4804125
000390 08 6b 49 c0 0e 0a 17 c0 3f 08 93 bf 97 15 13 bf
       -3.1471577 -2.3599887 -1.1486892 -0.5745482
0003a0 65 fb 34 c0 c7 d2 d7 3c 20 fd 60 3f 1a e5 02 c0
       -2.827844 0.026345624 0.8788624 -2.0452332
0003b0 6a 5b 85 c0 43 ee a2 bf 07 81 4e bf f8 17 c7 3e
       -4.167409 -1.2728962 -0.8066563 0.38885474
0003c0 44 78 a8 bf 95 ec cd bf fe b6 28 c0 57 44 cc bf
       -1.3161702 -1.6087824 -2.636169 -1.5958356
0003d0 d0 37 d9 bf 43 33 e8 3d 40 46 13 3e f8 9e ac bf
       -1.6970158 0.113379024 0.14382267 -1.3486013
0003e0 99 cc 6a c0 65 52 13 bf b3 6c 69 c0 e8 e3 00 c0
       -3.6687376 -0.575476 -3.6472595 -2.0139103
0003f0 4a 4d 55 c0 1d 11 3a bf 9b 46 74 bf 80 46 e9 bc
       -3.3328424 -0.7268236 -0.95420235 -0.028476

rnn.bias_hh_l0 f4 [256]
000000 b6 b9 08 c0 cf a9 83 bf ec 17 ee bf 7d 39 55 bf
       -2.136335 -1.0286196 -1.860105 -0.83290845
000010 71 78 60 3e e0 75 13 bf fe 4d 50 c0 57 65 be bf
       0.21920945 -0.5760174 -3.2547603 -1.4874676
000020 4e 61 4d bf 31 98 66 bf bb 6a 03 c0 6e 07 a4 be
       -0.802266 -0.90075976 -2.0533893 -0.32036918
000030 f5 97 bf bf 43 aa 11 c0 80 da 41 bf ec 76 11 c0
       -1.4968249 -2.276017 -0.7572403 -2.2728834
000040 d6 c2 97 bf 33 81 a7 bf 0b aa 3a bf 11 7f 97 bf
       -1.1856334 -1.3086303 -0.72915715 -1.1835653
000050 5e b3 73 bf 69 8e df bf 32 fb 26 3f 00 cd e8 bf
       -0.9519557 -1.7465335 0.65227044 -1.8187561
000060 4a ad 49 be 73 03 38 bf 0e 57 e6 be 89 01 39 c0
       -0.19695011 -0.71880263 -0.44988292 -2.8907187
000070 14 6c e1 3e a2 a7 15 3f 31 3b bc bf f6 3d bd 3e
       0.4402777 0.5845891 -1.4705564 0.36961335
000080 41 e4 84 bf 20 b0 96 bf 70 61 b3 bf 5d 54 83 bf
       -1.0382158 -1.1772499 -1.401411 -1.0260121
000090 fa ee 1c c0 98 31 ad bf 45 05 d9 be a6 20 8b bf
       -2.452086 -1.353076 -0.42386833 -1.0869339
0000a0 ac be 50 c0 56 68 7f bf 87 55 8e 3d eb 2a ad bf
       -3.2616377 -0.9976858 0.06949907 -1.3528723
0000b0 39 50 08 bf 65 3c 97 bf 4d 8b 47 bf 96 20 2f 3e
       -0.5324741 -1.1815306 -0.7794693 0.17102274
0000c0 46 d0 97 bf 00 b6 11 c0 02 f2 49 c0 74 71 d7 bf
       -1.1860435 -2.2767334 -3.155396 -1.6831498
0000d0 4e 5d e5 be 66 5c dd bf 27 0f 27 3f 4c ef c4 bf
       -0.44797748 -1.7293823 0.65257496 -1.5385528
0000e0 f0 07 8e bf cd e4 05 be 10 db 0c c0 20 53 bd bf
       -1.1096172 -0.13075562 -2.2008705 -1.4790993
0000f0 ea dd dd bf 64 d1 c5 bf f7 a6 f4 bf f2 59 a0 bf
       -1.7333348 -1.5454526 -1.9113454 -1.2527449
000100 21 a1 33 bf ea 3b eb bf ab 58 b8 3e 68 a1 a3 3e
       -0.7016774 -1.8377659 0.36005148 0.3195908
000110 bf 6c 1e c0 40 5d 8b 3f ee 20 c6 be 2b 88 5b 3f
       -2.4753873 1.0887833 -0.38696998 0.8575465
000120 20 19 4e be dd fe 0b 3f e5 d2 dd 3e 89 6c 1e bf
       -0.20126772 0.54685766 0.43324962 -0.6188436
000130 5f fb dc bf 20 ec 05 3e 74 03 96 bf e7 b9 af 3d
       -1.7264212 0.13078356 -1.1719804 0.0858038
000140 86 f3 6f bf 43 68 3b bf 4f 93 b3 be 9a 23 4c 3f
       -0.9373096 -0.73205966 -0.35073325 0.79741824
000150 a4 5c f4 bd a2 f0 82 bf 3a 94 2f c0 8c d0 95 bf
       -0.11931732 -1.0229685 -2.743422 -1.1704268
000160 37 d7 a0 3f 7d 37 ed be 83 6b d6 bf 22 ec d9 be
       1.2565678 -0.46331397 -1.675156 -0.42562968
000170 08 60 41 bf 5c e9 28 3e de 46 11 bf 65 95 96 bf
       -0.7553716 0.1649527 -0.5674876 -1.1764342
000180 79 ac ab 3e e2 0c 88 3e fd f6 5b 3e 7a 9f 70 3f
       0.33530024 0.2657233 0.21480937 0.9399334
000190 bd c8 fb be 45 1e 5a be ed cc c6 bf 07 b3 e3 bf
       -0.4917659 -0.2130061 -1.5531288 -1.778901
0001a0 8b 25 52 bf 93 a0 aa bf 27 f1 fc 3d 16 b2 01 bf
       -0.82088536 -1.3330253 0.12350684 -0.5066236
0001b0 e2 52 54 3f f4 45 c5 bf ea 56 c7 3e 8b f7 49 3e
       0.8293897 -1.5411973 0.38933498 0.19723336
0001c0 48 bc 54 bf af 5e dc be 8a 48 53 bf 7d e9 1c bf
       -0.83099794 -0.43040988 -0.8253256 -0.61293775
0001d0 b7 e9 dc bf 5f c6 12 3f 99 24 fb bf 47 29 fe 3d
       -1.7258824 0.5733394 -1.9620544 0.12410217
0001e0 3d fd b3 3e 7d b4 73 be 66 89 13 3f f9 98 88 bf
       0.35154143 -0.2379932 0.5763153 -1.0671684
0001f0 66 c0 f5 3d c8 e4 59 bf ab f6 33 3f 19 c9 2d 3f
       0.11999588 -0.8511472 0.7029826 0.67884976
000200 b9 1a 24 bf 74 ca 13 3f 63 9d 83 be 04 20 c5 3f
       -0.64103276 0.57730794 -0.25706014 1.5400395
000210 0b 0d 18 3f e0 31 12 3f c0 4c 0e bf 4a 5d 16 be
       0.593949 0.57107353 -0.5558586 -0.14684024
000220 57 4d 58 3e 63 e1 17 bf 45 0f f5 bd 45 a4 e4 3e
       0.21123253 -0.5932829 -0.11965803 0.44656578
000230 49 5c 72 be 0a 95 c4 3d 1b e3 8a 3f e9 60 01 3f
       -0.23668016 0.095987394 1.0850557 0.505385
000240 f6 2e 92 be 89 b8 4c bd 31 d1 31 3c 15 b0 be 3e
       -0.28551453 -0.049980674 0.010853098 0.37243715
000250 bb 55 34 3f b9 dd e9 3e 01 4d c5 3e 8e e1 a5 3f
       0.70443314 0.45676973 0.38535312 1.2959459
000260 0b bf 38 be eb c4 34 3f b5 e3 8b 3e dc ea 44 3f
       -0.18041627 0.7061297 0.27322164 0.76920867
000270 a7 9d 16 3f 93 69 16 bf 8f 0c e1 3d c3 ba 08 3e
       0.5883431 -0.58754843 0.109887235 0.13352494
000280 06 d3 27 be ce 8a a0 3e a6 c8 49 3e 78 14 54 3f
       -0.16389093 0.313559 0.19705448 0.8284373
000290 72 54 a0 3f 00 ae c8 3e 55 4c ba 3e 0e 19 19 3f
       1.2525771 0.3919525 0.36386362 0.59803855
0002a0 04 92 83 be b7 d7 32 3e db 3c 6f be 66 b6 54 bf
       -0.2569734 0.17465101 -0.23363058 -0.8309082
0002b0 dd 12 02 bf c5 ca f1 be ca 1c 65 3f 84 c2 05 bf
       -0.50810033 -0.47225013 0.89497054 -0.5224993
0002c0 7a 4c da 3e e5 6b 8f 3e f4 d3 f4 3d d1 16 33 bf
       0.42636472 0.28012004 0.11954489 -0.6995669
0002d0 09 f6 58 3e ac f1 4f 3f bc 05 0c bf ef 7e 8f 3e
       0.21187605 0.81228137 -0.5469625 0.2802653
0002e0 9e ed 82 3f 6d ab 9d 3d 9d 85 c0 bd 3a fb 83 be
       1.0228765 0.076987125 -0.09400485 -0.25777608
0002f0 1f 13 25 3f e1 4b 49 3f 90 53 3c 3f 4a 3d b2 3f
       0.644823 0.7863141 0.73565006 1.3924954
000300 0b c8 19 c0 e1 13 e7 3d 4a ef 2f c0 86 66 e7 be
       -2.4028347 0.112830885 -2.74898 -0.45195407
000310 8e f6 38 bf 3b 5d e3 bf 37 c1 3a c0 08 43 95 be
       -0.7225121 -1.7762827 -2.918043 -0.29152703
000320 48 18 03 c0 54 8d 70 be bc 24 6b be b1 48 7f be
       -2.048357 -0.23491412 -0.22963232 -0.24930073
000330 31 ef 10 bf 7b 54 01 bf de 66 02 bf 9e 29 f4 be
       -0.5661498 -0.5051953 -0.5093821 -0.47688
000340 8a 03 ee bf 8c 8a 58 c0 31 be 81 bf 35 ed 80 bf
       -1.859483 -3.3834562 -1.0136167 -1.007239
000350 79 a4 ed be 7b 41 7c 3f 22 cc 85 bf f1 ce e2 bf
       -0.46414545 0.98537415 -1.0452921 -1.7719404
000360 5c 97 1d 3e 59 5b 8f be 81 88 95 bf 4b 1c 32 c0
       0.1538977 -0.2799938 -1.1682283 -2.7829769
000370 b5 49 26 3f c4 6d 25 c0 32 e3 4a bc 93 e2 e6 bf
       0.6495622 -2.5848246 -0.012383269 -1.8037895
000380 60 59 a3 3d e7 43 1e c0 79 4a 32 bf 54 f5 b6 be
       0.07976031 -2.4728944 -0.69644886 -0.35734046
000390 69 5a 3e c0 1f 2d 0d c0 1e 9b 8e bf 84 b3 0d bf
       -2.9742682 -2.205879 -1.1141088 -0.55352044
0003a0 7d 0a 30 c0 44 38 12 be 0e b1 45 3f 82 f3 02 c0
       -2.7506402 -0.14279276 0.7722329 -2.0461125
0003b0 75 f9 84 c0 a2 2d b3 bf 58 48 75 bf 7b 70 7d 3e
       -4.1554513 -1.3998301 -0.9581351 0.24749939
0003c0 df ba bb bf 91 b9 d6 bf 64 d9 2b c0 95 6b d8 bf
       -1.4666404 -1.677538 -2.6851435 -1.6907831
0003d0 65 a9 ca bf 28 e1 0d bc fb 2d 41 3e 16 d6 b2 bf
       -1.5832945 -0.008659638 0.18865196 -1.3971584
0003e0 8e 83 6d c0 72 46 32 bf 04 42 5f c0 f1 f4 ee bf
       -3.7111545 -0.6963874 -3.4884043 -1.86685
0003f0 eb ee 52 c0 40 ca 34 bf 22 0b 7c bf ac 09 73 3a
       -3.2958324 -0.7062111 -0.9845449 0.00092711556

rnn.weight_ih_l1 f4 [256, 64]
000000 e3 34 6f c0 62 3d 0f bf 80 41 4f 3f 35 cf bb be
       -3.737603 -0.5595304 0.8095932 -0.36681524
000010 aa 15 1e bf 23 5b 87 3f b7 a8 e6 3f 21 34 b6 3f
       -0.61751807 1.0574688 1.8020238 1.4234658
000020 1c 7d b6 3f 77 7e 0b 40 d2 51 5f 3e ae da 47 3f
       1.425693 2.1795938 0.21808556 0.78068054
000030 b8 df 1b bf ed 54 03 c0 41 58 04 bf 0a cb a2 3e
       -0.6088824 -2.0520585 -0.51697165 0.31795532
000040 2a f4 ae 3f 33 56 ae 40 93 5d 98 3f 15 a9 06 c0
       1.3668263 5.4480224 1.1903557 -2.10407
000050 93 16 02 40 cb 2a 52 bf 14 42 4e bf 66 c5 85 3e
       2.0326278 -0.82096547 -0.8056958 0.26127166
000060 29 88 d2 bf a8 25 20 bf bb 99 33 bf 47 b7 03 c0
       -1.6447803 -0.6255746 -0.7015645 -2.0580614
000070 5c 8c da bf ff 20 42 3f bc b6 b8 bf 00 52 81 3f
       -1.7074084 0.758316 -1.4430766 1.010315
000080 cb 0e 89 3f ee f8 f1 3f 49 40 5e 40 a3 be e6 3e
       1.070764 1.8904092 3.4726737 0.4506732
000090 ae 47 af bf a3 75 71 40 6d 0e d0 bf af fa ef bf
       -1.369375 3.772805 -1.6254402 -1.8748378
0000a0 65 8c 08 c0 0f c7 cb 3d ec 83 f7 bf 96 9d 25 40
       -2.133569 0.09950077 -1.9337134 2.5877433
0000b0 f8 ea d2 bf 88 8c 95 bf 66 53 d2 bf 84 5a 34 c0
       -1.6477957 -1.1683512 -1.6431701 -2.8180246
0000c0 4f d9 ec bf 57 12 91 bf 9c 44 25 40 70 3e 1e 3d
       -1.8503817 -1.1333722 2.5823126 0.038633764
0000d0 e8 f9 30 be cb 06 d2 3f 6d 91 9f bf ee 5a 0c 40
       -0.17282832 1.6408323 -1.2466255 2.19305
0000e0 79 3f 4e 3d d2 87 cf bf cd 45 a3 3e cb 63 87 c0
       0.0503535 -1.6213324 0.3188919 -4.2309318
0000f0 20 62 90 c0 87 21 90 bf 10 ba 41 40 63 1d 94 bf
       -4.511978 -1.1260232 3.0269814 -1.1571468
000100 97 1b 80 40 38 fe 4f 40 9f da e6 3f 68 96 04 c0
       4.003368 3.2498913 1.8035468 -2.07168
000110 49 b3 83 be 02 cb 36 c0 40 3f 5f bf 81 63 35 3e
       -0.2572272 -2.8561406 -0.87205887 0.17713739
000120 73 64 a3 3f d2 07 a1 3f 2f ad 6a bf f7 8c 5c bf
       1.276503 1.2580512 -0.9167051 -0.86152595
000130 05 dc fc be d5 ce d4 3f 0d f4 ac bf 9e 93 d1 bf
       -0.49386612 1.662562 -1.3511978 -1.6373174
000140 c8 1d 8d be 4f 14 0e 40 00 2e 57 3c 65 e7 9f 3f
       -0.27561784 2.2199895 0.013133526 1.2492491
000150 04 64 c7 3f 24 e0 af 3f 8e 88 84 be 7a c2 e4 bc
       1.5577397 1.3740277 -0.25885433 -0.027924765
000160 05 51 21 3f 51 66 6d 3f 4d 89 e7 bf 90 b1 2a 3f
       0.6301425 0.9273425 -1.8088776 0.6667719
000170 df 97 98 bf 5b 1a fe 3f 8c 51 43 40 de 19 30 3f
       -1.1921347 1.9851793 3.0518522 0.6878947
000180 8f 42 bb 3e 23 cd 64 40 8a 69 49 bf 5c b6 38 c0
       0.36574218 3.5750206 -0.78676665 -2.8861303
000190 5c 59 89 3f 08 48 63 c0 a7 88 1e bc 9b 9e b0 3e
       1.0730395 -3.5512714 -0.009676135 0.34496006
0001a0 4e 2c a3 be 55 18 ad 3e 7d 73 81 bf 9e 67 e6 bf
       -0.3186974 0.33807626 -1.0113369 -1.8000371
0001b0 c1 9d 1d 40 77 db 39 40 d0 65 9c be 0d 58 ca 3f
       2.4627535 2.90402 -0.30546427 1.5808121
0001c0 15 1c 36 40 b4 48 48 be 0d bd dd bf e6 c3 0d c0
       2.845464 -0.19558984 -1.7323319 -2.2150817
0001d0 38 26 1b be dc 26 b9 bf 23 18 00 bf fe bc 38 3f
       -0.15151298 -1.4464984 -0.5003683 0.7216338
0001e0 86 48 8b be 0e d7 72 3f fd 9e b8 3f b4 c6 95 be
       -0.27203768 0.948594 1.4423519 -0.2925316
0001f0 5d 65 86 3e c0 75 c4 3d 6b 4a 66 c0 cc 98 79 be
       0.2624921 0.095927715 -3.598292 -0.24374694
000200 59 98 e0 bf 9a 4b 54 be b4 07 9f bf 44 9c 13 3f
       -1.7546493 -0.20731965 -1.2424226 0.5766032
000210 db ed d6 3e 05 05 a6 3f c8 88 9c bf c7 1d e1 bf
       0.41978344 1.2970282 -1.2229242 -1.7587212
000220 ba 72 06 bf e0 2f fa 3f 0b d2 d1 be ef 96 81 3f
       -0.5251881 1.954586 -0.40980563 1.0124186
000230 2c d1 8d bf c9 4a 52 3f 4e 36 75 3f f7 5a 9c be
       -1.1079459 0.82145363 0.9578599 -0.3053815
000240 51 f9 1e 3f 35 70 67 bf 4a 72 92 bf eb 85 e6 3f
       0.62099177 -0.9040559 -1.1441128 1.8009619
000250 9a cf a5 3f 65 1e 2d bf 58 47 97 bf 40 67 d4 3f
       1.295398 -0.67624503 -1.1818647 1.6594009
000260 c2 3d 80 bf 59 bc 7f 3f 2f 75 0f 3f 5e cf ef 3f
       -1.0018847 0.9989677 0.5603818 1.8735158
000270 6b 32 87 bf 01 a0 57 3f 87 4a db 3e dc ec 89 bd
       -1.0562261 0.8422852 0.42830297 -0.067346305
000280 e8 c1 2d c0 f3 bc 4d 3f a4 4f c8 be e0 a5 5e c0
       -2.71496 0.8036644 -0.3912326 -3.4788742
000290 e1 8e b5 bf fa 91 b4 3c a8 f9 50 3f f7 67 ea bf
       -1.4184228 0.022042263 0.81630945 -1.8312978
0002a0 58 ac 7e 3f 45 0c c2 3e c0 5f 14 3f 47 59 af 3f
       0.99481726 0.37899986 0.579586 1.369912
0002b0 27 2a 98 3f 73 60 0c 3f 7d 8c 15 40 d1 66 a7 bf
       1.1887864 0.5483467 2.3366997 -1.3078252
0002c0 14 c8 b6 3f 14 08 cd bf b2 05 3e 3f 5e 39 36 bf
       1.4279809 -1.601809 0.7422744 -0.71181285
0002d0 2d cb 7a 3f 81 f1 16 3f c0 95 78 3e 9d 6a d1 3e
       0.9796627 0.58962256 0.24275875 0.40901652
0002e0 60 e3 6d 3f 70 2f 37 c0 34 c9 d6 bd 39 47 17 40
       0.9292507 -2.8622704 -0.10487595 2.363722
0002f0 34 ec 8a bd 59 c7 92 be 24 2d 12 c0 94 26 10 3f
       -0.067833334 -0.28667715 -2.2840052 0.56308866
000300 2b e0 8c bc bb 74 37 3e ce 24 e4 be 00 40 c3 bf
       -0.017196735 0.17915623 -0.4455933 -1.5253906
000310 72 ec 31 3d ee dd 53 be 30 f1 81 bf 7d a2 00 40
       0.043438382 -0.20690128 -1.015173 2.0099175
000320 57 38 42 3e 6d 9d 2c bf 5a 3d 55 bf 7b 3b 8a c0
       0.18966804 -0.6742771 -0.8329674 -4.319761
000330 2a 52 9c 3d b1 44 0b 3e cd 8b e1 3e 36 1a 35 bf
       0.07632859 0.13600422 0.44051972 -0.7074312
000340 5b a2 02 c0 a6 66 7e be db 84 42 3e 35 d1 f1 3f
       -2.0411594 -0.24843845 0.18995993 1.889197
000350 d5 79 1a 3d 54 4c 17 bf 21 20 82 bf ca c9 70 bf
       0.037713844 -0.5910084 -1.0166055 -0.94057906
000360 3e c7 e2 be 8c e9 bf 3e 34 e5 9b 3d e3 c1 65 3f
       -0.44292635 0.3748287 0.076120764 0.8974897
000370 89 0c 85 3f 29 63 47 be 9e c8 01 40 c4 2e 58 3d
       1.039445 -0.1947142 2.0278697 0.052778974
000380 1e 3f 05 3f 68 b4 92 be cd c8 88 3f cb 4d a7 bf
       0.52049434 -0.28653264 1.068628 -1.3070616
000390 1c ba 6f bd df 00 14 bf b9 79 f0 be 74 70 a0 3c
       -0.058527097 -0.5781383 -0.46967867 0.019584872
0003a0 95 46 23 3e 9c 3a 0e 40 b4 25 4f bf 61 d1 83 3f
       0.15944894 2.2223272 -0.80916905 1.0298272
0003b0 c5 26 b5 3e 81 7e da 3e 70 6d 27 3f 1b 74 8d 3e
       0.3538114 0.4267464 0.65401363 0.27627644
0003c0 92 eb 35 3f 57 fd 38 3f 07 97 36 bf d5 44 b3 3f
       0.71062577 0.72261566 -0.713242 1.4005381
0003d0 ee 91 0b 3f d2 fe 49 3f 14 a3 b7 be a3 0c a5 be
       0.54519546 0.7890445 -0.35866606 -0.32236204
0003e0 01 d8 3d be 91 65 61 3f 61 79 d8 3e f7 c7 14 bf
       -0.1853943 0.88045603 0.42280105 -0.5811762
0003f0 2f b1 43 bf 0f 9e 16 3f 82 7d cd 3e 27 54 7d 3f
       -0.76442236 0.5883493 0.40134817 0.9895653

rnn.weight_hh_l1 f4 [256, 64]
000000 06 76 80 3f 16 cf 6b bf 31 b2 44 3f f9 67 67 3f
       1.0036018 -0.92112863 0.768344 0.90393025
000010 60 48 bd be c8 60 6e 3f 0a de 38 c0 c2 60 b8 bf
       -0.3696928 0.93116426 -2.8885522 -1.4404528
000020 91 4a a9 bf 45 c4 b9 be 60 53 0a 40 15 f4 21 c0
       -1.3225881 -0.36282554 2.1613388 -2.5305226
000030 92 6a f1 bf e8 90 29 3f cf 4c bf bf c8 16 dd bd
       -1.8860648 0.66236734 -1.4945315 -0.10795361
000040 be 05 98 3d a4 b4 e4 3e d7 f2 45 be 98 f7 0f c0
       0.0742297 0.44669068 -0.19330917 -2.249487
000050 a2 a7 e8 3e 5d 89 12 bf 16 42 26 3f 11 3a 27 bf
       0.45440394 -0.5724085 0.6494459 -0.6532298
000060 28 dd 2c 3f 3e 75 8b 3f 55 b5 21 bf 95 bc 0b 40
       0.6752496 1.0895154 -0.63167316 2.1833851
000070 ab d5 98 3f 93 a5 2e 3d 69 c8 8b bf b3 75 7b 3e
       1.1940206 0.042638373 -1.0920535 0.24556617
000080 54 7b 6c bf c3 43 46 bf b1 85 a9 be 41 21 8b be
       -0.92375684 -0.77447146 -0.3310981 -0.27173808
000090 ae a9 9e 3e a1 80 b7 bf 9d 57 a4 3f 9e d9 35 40
       0.3098883 -1.433613 1.2839237 2.8414073
0000a0 1b ce 0a 40 06 01 0a c0 d3 36 13 bd 72 c0 a7 3f
       2.1688297 -2.1563125 -0.035940956 1.3105605
0000b0 f2 38 fb bd b6 48 d7 bd 9d 96 7e be 0c aa 13 3f
       -0.12266721 -0.105119154 -0.24862142 0.57681346
0000c0 2e 25 27 c0 e6 5d a7 bf 28 f8 c5 bf 74 5e 47 3d
       -2.6116443 -1.307553 -1.5466356 0.048674062
0000d0 a0 2e 1c 40 aa d0 30 40 da 7b 28 3f 6c ca 59 3e
       2.4403458 2.7627358 0.6581398 0.21268624
0000e0 28 4c 11 bf 6b 2d 7f 3f 45 81 75 c0 a3 b5 1c 3e
       -0.5675683 0.9967868 -3.836015 0.15303664
0000f0 7d 2b d4 bf 35 29 ba 3f fa 79 b4 bf 54 1e 82 3e
       -1.6575772 1.4543825 -1.4099724 0.25413764
000100 b7 90 11 3f 3c 9a 80 3f 8f b5 83 bf cb 6d 28 bf
       0.5686144 1.0047069 -1.0289782 -0.6579253
000110 3f aa 6f 3e 4d cd 0a 40 b5 ca b1 3d e9 20 35 3f
       0.23404787 2.1687806 0.086812414 0.7075334
000120 74 68 f0 be da 7c 3c 3f aa a1 97 bf 4e d6 d9 bf
       -0.4695469 0.7362801 -1.1846211 -1.7018526
000130 18 2b 62 3f 5e 02 a9 be 70 fc d4 3e ca 3a 89 3e
       0.88347006 -0.3300962 0.41598845 0.26802665
000140 29 e2 bb be d4 67 4f bf 3e c7 0a 40 c8 44 b0 bf
       -0.36695984 -0.81017804 2.1684108 -1.377099
000150 11 c7 b0 3f 3a d1 52 be 3e 7b de be b6 e9 16 bf
       1.381075 -0.20587626 -0.434534 -0.58950365
000160 26 4c 88 bf 43 9f 60 bf 53 e2 a3 be 2e db 93 3e
       -1.0648239 -0.87743014 -0.3200861 0.28878158
000170 47 66 47 c0 f1 4a 5e c0 54 4e 46 3f b6 78 98 bf
       -3.1156175 -3.473324 0.7746327 -1.1911838
000180 17 42 62 3d 69 e7 02 40 86 44 b2 be 7d 1e 4d bf
       0.05523881 2.0453742 -0.34817904 -0.80124646
000190 ea 9c 90 bf 43 d2 6c c0 b9 3a 83 3f 2e 61 69 3f
       -1.1297886 -3.7003334 1.0252296 0.9116391
0001a0 61 b4 22 40 20 ee 70 be ad d4 d6 bd 0c 10 3b bf
       2.5422595 -0.23528337 -0.104897834 -0.7307136
0001b0 eb 30 a2 bd 1f 96 a5 3e a3 8d 01 40 57 55 98 3f
       -0.079194866 0.32341096 2.0242698 1.1901044
0001c0 2e 80 03 3d 85 03 47 bd 79 46 a5 3f 74 8a e3 bd
       0.032104664 -0.04858734 1.2912132 -0.11110392
0001d0 36 2d 8c 3f 7a 44 c1 be 0b 88 69 bf a5 01 e4 3f
       1.0951297 -0.37747556 -0.9122321 1.7813002
0001e0 04 67 16 bf 10 40 3c 3f ab 1f af be f0 f9 e0 3f
       -0.5875094 0.7353525 -0.34203848 1.7576275
0001f0 53 c8 fe bf 5d a3 01 c0 27 04 e0 3d 63 15 48 3f
       -1.9904884 -2.025596 0.10938292 0.78157634
000200 b1 ed 08 40 68 30 7e bf 51 50 ae bf 6a 6a 8f c0
       2.1395075 -0.9929261 -1.3618261 -4.48174
000210 58 4b eb 3f 7d 54 ca c0 22 e0 02 40 c8 8c c4 3c
       1.8382368 -6.3228135 2.04493 0.023992911
000220 05 2d 05 3e 0a 7c 2e 40 bd 51 3b bf 0d 23 ca 3f
       0.13005455 2.7263207 -0.731716 1.5791947
000230 20 a7 10 bf 51 ce 54 3f 21 31 c3 3e d1 34 99 bf
       -0.5650501 0.83127314 0.3812342 -1.1969243
000240 d6 4e 80 3f 03 f2 a3 bf 2f bc d0 be af 26 05 40
       1.0024059 -1.2808231 -0.40768573 2.080486
000250 06 3e 10 bf f9 68 89 40 cf 92 89 be 00 61 b9 3f
       -0.5634464 4.294064 -0.2686982 1.4482727
000260 84 f0 d8 bf 64 93 12 3f 19 35 83 3f 31 f8 d0 bf
       -1.69484 0.5725615 1.0250579 -1.6325742
000270 7f a2 b5 3f 4b 4b 1e bf 86 3d b1 bf 03 e6 09 3f
       1.4190215 -0.6183364 -1.38469 0.53866595
000280 ea 65 e4 3e be c3 a0 bf 5e a7 4b bf fc 58 13 3f
       0.44609004 -1.2559736 -0.7955226 0.57557654
000290 ec 8f 3d 3d 83 55 c7 bf dc 35 1e 3e 5c 84 22 c0
       0.046279833 -1.5572971 0.15450233 -2.5393286
0002a0 cd 7e 9e 3d a7 64 6e c0 ee 8e 8a 3f 49 d3 63 3f
       0.07739029 -3.7248933 1.0824869 0.8899427
0002b0 d0 9c ac 3e 7d 5e ae 3f 5e c6 aa 3f b5 fb 81 bf
       0.33713388 1.3622586 1.3341787 -1.015494
0002c0 5d 79 e9 3f 69 3b 0c bf b9 dd 65 bf a2 b7 5f bf
       1.8240162 -0.5477815 -0.89791447 -0.87389576
0002d0 6e 48 33 40 1e 7a 77 3f 02 31 d5 3f 93 41 b2 bf
       2.8012958 0.9667071 1.6655581 -1.3926262
0002e0 95 db 7c 3e e7 d0 19 bf 32 83 b7 c0 2e b8 be 3f
       0.24693139 -0.60084385 -5.734765 1.4899957
0002f0 6d 08 e6 3f f4 da 7f 3f a5 cb 0d bd c1 d0 7a bf
       1.7971321 0.9994347 -0.03461804 -0.97974783
000300 ef 29 39 be 06 00 a0 3f 15 77 27 bf d7 38 1c 40
       -0.18082403 1.2500007 -0.6541608 2.4409692
000310 7b d0 06 c0 d6 60 97 3f 13 2e 75 be cc c4 2e bf
       -2.1064746 1.1826427 -0.23943357 -0.6826904
000320 75 0d 06 bf 4f 5e 65 3f 60 e9 82 be f3 47 ee 3f
       -0.52364284 0.8959703 -0.25568676 1.8615707
000330 b3 ec 8d 3e 0f c7 9c be 0f 0a e7 3f c4 45 03 3e
       0.2771965 -0.3062062 1.8049945 0.12819582
000340 b4 2b 68 be a0 07 d0 bf f9 3e 35 c0 a9 3f ff 3f
       -0.22672921 -1.6252327 -2.8319685 1.9941303
000350 7f 05 e2 be 88 82 31 3f 6f 59 27 3f 37 26 18 3f
       -0.44144818 0.693398 0.6537084 0.5943331
000360 f3 71 92 3f c5 88 24 c0 8d 9f 58 3f 30 ae fe 3e
       1.1441025 -2.5708477 0.84618455 0.4974227
000370 62 0e d8 3f 53 5b 5f bf f7 b7 2a c0 f1 1e 1d 3e
       1.6879389 -0.87248725 -2.6674783 0.15343834
000380 b9 39 c8 3c c1 a1 7a bc 66 a8 c7 be f0 7e 89 bf
       0.024441587 -0.015297354 -0.38995665 -1.0741863
000390 c7 d2 92 3c 1c ca 5d be 24 83 c6 3f 72 de 3d bf
       0.017922772 -0.2165913 1.5508771 -0.7416755
0003a0 1b 96 47 3f 27 35 64 3e a1 9d a0 be 16 e9 d7 3e
       0.7796342 0.22285901 -0.3137026 0.42170018
0003b0 53 f8 34 3f 44 17 31 3f db fd 1b bf 97 4e 51 c0
       0.7069141 0.69176126 -0.6093423 -3.2704217
0003c0 0a 4a f3 3f 07 ea 80 bf bf 5e 2d bd 16 47 93 bf
       1.900697 -1.007142 -0.042326685 -1.1506069
0003d0 10 f2 02 c0 62 c3 9a 3f c0 54 b9 bf 91 df 16 c0
       -2.0460243 1.2090876 -1.4478989 -2.3573954
0003e0 b8 1c 5a 3f 3c 02 00 3f 30 a2 a8 3f 1f 06 bb 3e
       0.8520007 0.5000341 1.3174496 0.36528108
0003f0 1c 11 f4 bd 28 8e f8 be 26 d7 b1 3e 74 ac 86 c0
       -0.11917326 -0.48545957 0.34734458 -4.2085514

rnn.bias_ih_l1 f4 [256]
000000 e9 2f 9e be 1c 79 d6 bf f4 17 29 bf f4 80 fd bf
       -0.30895928 -1.675571 -0.66052175 -1.9804978
000010 31 3d 31 c0 ec 13 25 bf ba fb 68 bf ca 2c 02 c0
       -2.7693598 -0.64483523 -0.91009104 -2.0339837
000020 51 51 35 c0 a2 d8 b6 3d 0d 72 9d be 7c 34 25 bf
       -2.8330882 0.08928038 -0.30751076 -0.6453321
000030 ee 93 ad bf ad c9 a7 bf 21 62 27 c0 27 d3 8c c0
       -1.356077 -1.3108422 -2.6153643 -4.4007754
000040 51 0e 03 3e de 18 21 bf c1 7d f5 bf a9 41 d1 bf
       0.1279843 -0.6292857 -1.9179002 -1.6348163
000050 6a 64 98 3e 84 6a 15 c0 0b 2e 3e bf 3d 98 b2 bf
       0.2976411 -2.3346262 -0.74289006 -1.395271
000060 a4 b7 9b bf 5c ef 73 3f 1f 66 62 bf ab db 2b c0
       -1.2165418 0.9528711 -0.88437074 -2.6852825
000070 32 84 16 bf c8 07 a0 bf b6 c3 e3 be 0e 45 39 bf
       -0.58795464 -1.2502375 -0.44485253 -0.72370994
000080 8d a5 b8 3e 8a 0d e6 bf b5 b7 34 bf d0 d4 41 bf
       0.36063805 -1.7972882 -0.70592815 -0.7571535
000090 7e 62 be be 87 2b 18 c0 c8 c7 77 bf 05 1b 5d 3f
       -0.3718452 -2.3776567 -0.96789217 0.86369354
0000a0 2f ca e5 bf a6 6a 20 c0 d9 7c 5b bf 24 a3 13 c0
       -1.7952327 -2.5065093 -0.8573738 -2.3068323
0000b0 d8 ae 81 bf 29 fc 1b c0 90 46 3b bf 65 4c b1 bf
       -1.0131483 -2.4372656 -0.73154545 -1.3851439
0000c0 c2 16 db be ff 04 3a bd b6 a0 bb be e0 ed 04 bf
       -0.427908 -0.04541492 -0.3664605 -0.5192547
0000d0 11 a1 39 c0 22 b3 3a c0 5d ee 23 3e f5 37 81 3f
       -2.9004557 -2.9171834 0.16008897 1.0095202
0000e0 f2 fb 17 c0 1d 0b bc 3d 7d 61 0c c0 9d 81 d6 bd
       -2.3747525 0.09181807 -2.1934502 -0.104739405
0000f0 a1 39 0c c0 0c 77 d6 bf 1f 5d 99 3d 94 2c 77 bf
       -2.1910174 -1.675508 0.074884646 -0.96552396
000100 c7 78 04 40 f4 62 97 bf f6 98 ed 3e df 0e 11 3f
       2.0698717 -1.1827073 0.46405762 0.56663316
000110 4d 82 e9 3e 79 c6 46 3f 51 47 c5 bf 3a 27 0d c0
       0.45607224 0.77646595 -1.5412389 -2.2055192
000120 d7 60 e9 3e b5 0d ab bf 7a 32 59 bf 82 3e 14 bf
       0.45581695 -1.3363558 -0.84842646 -0.5790788
000130 69 cc cb bf be ef 7d bf 8e 06 c7 bf ff cf 03 c0
       -1.5921756 -0.9919394 -1.5548875 -2.05957
000140 5a e6 33 40 27 df cf 3f c1 f6 96 bf 42 10 15 3f
       2.8109345 1.6239976 -1.1794053 0.5822793
000150 c0 08 94 bf cb ea bc 3e 4d a2 03 bf 95 34 8e 3e
       -1.156517 0.36897883 -0.51419526 0.27774492
000160 38 e1 8f bf be 6f ed bf aa 7b 8c 3e f2 ed 41 be
       -1.1240606 -1.8549726 0.27438098 -0.18938425
000170 db 09 f7 be d5 2e 4b bf e6 ef a3 bf 43 4a fa be
       -0.48249707 -0.79368335 -1.2807586 -0.48884782
000180 dd e0 43 3f 67 d2 58 be 35 20 0a bf a4 0a 1d c0
       0.7651499 -0.21174012 -0.53955394 -2.4537745
000190 6b 77 29 bf 2e 02 bf 3e c9 ec a4 3f 12 03 3a bf
       -0.6619784 0.3730635 1.2884761 -0.72660935
0001a0 4c 1f 9a 3f 0e e7 34 40 cd 3b 5f bf 81 d4 03 c0
       1.2040801 2.8266025 -0.87200624 -2.0598452
0001b0 12 52 13 bf c2 5c a9 40 4b c2 79 bf 22 cd bd bf
       -0.57547104 5.292573 -0.9756209 -1.4828227
0001c0 65 cc 36 bf 9b 07 04 3f 5a 11 53 bf c1 e6 d5 3d
       -0.7140563 0.51574105 -0.8244835 0.104444034
0001d0 0c 95 fb 3e 6a bb 21 c0 5e 2b 01 3f cd 07 cc 40
       0.4913715 -2.5270638 0.504568 6.3759522
0001e0 16 9e a6 3f eb d5 9a bf 3f 80 d0 bf b7 b1 c4 be
       1.3016994 -1.2096533 -1.6289138 -0.38416836
0001f0 4c 71 c5 bd d0 d5 1b 3f 17 91 be be 1f c0 4d bf
       -0.0964075 0.60873127 -0.3722007 -0.8037128
000200 a1 7c 13 c0 99 20 d0 be 46 82 3c c0 08 2a 2d 3f
       -2.3044817 -0.4064987 -2.9454513 0.6764226
000210 e1 20 04 bf 8f ef 70 3f 99 6d f0 ba f4 70 51 3f
       -0.5161267 0.9411554 -0.001834321 0.8181298
000220 c7 66 6f bf 4f e2 86 be 56 e8 f5 be 69 c0 e7 be
       -0.935162 -0.26344535 -0.4802882 -0.45263985
000230 c3 f8 9e be 90 c8 d0 3f 24 6f ff 3e 78 ea 97 bf
       -0.31049165 1.6311207 0.4988948 -1.1868429
000240 af ea 34 3f fb 79 9c bf 79 f1 3a bf b8 d2 22 c0
       0.706706 -1.2224725 -0.7302471 -2.5441113
000250 b0 7c 0d bf a9 50 d9 3e e5 b1 d8 be cd de 2f bf
       -0.55268383 0.4244435 -0.42323223 -0.6869934
000260 da 4e ea be c8 90 27 3e 5c 37 12 40 ee aa 2e be
       -0.45763284 0.16363823 2.2846289 -0.17057392
000270 30 1f 1f 3e 14 67 6e bf 10 86 39 bf 47 c0 2a be
       0.15539241 -0.93126035 -0.7247019 -0.1667491
000280 7c 49 02 c0 52 7e 21 3f 30 90 19 3f 71 de 12 bf
       -2.0357351 0.63083375 0.5998564 -0.5737067
000290 b0 4c b3 3e 56 1c 93 bf 06 38 d6 bf 16 7a 03 40
       0.35019445 -1.1493022 -1.6735847 2.0543265
0002a0 ae 0b 86 bf d7 ac ef 3e bb 10 08 bf 75 a6 52 bf
       -1.0472314 0.46811554 -0.5315053 -0.82285243
0002b0 32 ca e8 be 0f 75 8b c0 79 29 cf 3f d6 06 a4 3e
       -0.45466763 -4.3580394 1.6184531 0.32036465
0002c0 60 c2 83 bf 51 4f 04 bf bb 97 71 bf f8 df 12 3f
       -1.0293694 -0.5168353 -0.9437215 0.57373
0002d0 ef db a9 3f 30 ea 98 be 87 88 62 bf c6 58 9f 3f
       1.3270243 -0.2986617 -0.88489574 1.2448967
0002e0 80 3e fd be 9e 37 0f be 2a 08 65 bd 8f 0d 2e 3c
       -0.49461746 -0.1398606 -0.05591599 0.01062335
0002f0 67 c9 1a 3f 4d 94 2f 3f 10 68 9a be 38 d4 15 be
       0.60463566 0.68585664 -0.30157518 -0.14631736
000300 02 5c 47 3e be c1 06 c0 a3 a6 8c 3e c4 11 d9 bf
       0.19468692 -2.105575 0.27470884 -1.6958547
000310 9f 05 22 c0 60 5d 66 bf 05 dc 5a 3e 0b f8 b9 bf
       -2.531593 -0.8998623 0.21372993 -1.4528822
000320 28 54 f4 bf 6d 42 3f be 33 f2 60 bf b9 88 c6 bf
       -1.9088182 -0.18677683 -0.87869567 -1.5510474
000330 f6 fb da bf 5b 81 a4 be 55 ad 0b c0 4e b4 63 c0
       -1.7108142 -0.3212994 -2.1824543 -3.55788
000340 da 24 05 3f f8 b5 98 be d6 5a 36 c0 2c 0a 51 bf
       0.52009356 -0.2982633 -2.8492942 -0.81656146
000350 0d c1 2f bf 2b f3 76 bf 0c b2 46 bf fd 24 59 bf
       -0.6865395 -0.96464795 -0.7761543 -0.84822065
000360 8d 13 c0 bf 1e 46 b4 be 5b 48 a6 bf a3 d9 e3 bf
       -1.5005966 -0.35209745 -1.2990831 -1.7800792
000370 37 61 a8 bf 01 82 96 bf da 13 30 c0 d6 17 83 bf
       -1.3154668 -1.1758424 -2.7512116 -1.0241649
000380 fe 82 d3 3e 36 3d b5 bf 87 9f 30 bf 4c cc df be
       0.41310877 -1.4159305 -0.6899342 -0.43710554
000390 25 1d 29 bf 4b 2f dc bf 3e 72 ac bf 21 6c 3e bf
       -0.66060096 -1.7201933 -1.3472364 -0.7438374
0003a0 9c 56 20 3f 12 f0 8b bf a8 1e c3 be 16 65 0f c0
       0.62632155 -1.0932639 -0.38109326 -2.2405448
0003b0 77 91 92 bf d9 c8 42 bf 78 55 c7 bf 78 79 be bf
       -1.1450642 -0.7608772 -1.5572958 -1.4880819
0003c0 54 f5 20 bf bd 73 87 bf 72 22 94 3d 38 f0 a9 3e
       -0.6287434 -1.0582196 0.072331324 0.33191085
0003d0 52 c5 be bf db b9 7b bf 00 5b ba 3e 49 2f 07 c0
       -1.4903967 -0.9833047 0.36397552 -2.112261
0003e0 d1 1d 68 bf f9 77 66 3f de 60 03 c0 8f 79 a1 bf
       -0.90670496 0.90026814 -2.0527873 -1.2615222
0003f0 0d f5 ae bf d4 6a ce bd 38 ed b1 3e 78 d6 23 3d
       -1.3668534 -0.100789696 0.34751296 0.039999455
