models/modelRNNQ_lang1_extTomita.pt (torch, 407395 bytes, 10 tensors)

rnn.weight_ih_l0 f8 [256, 1]
0	0xbfb2aa7a25ba30ee	-0.07291377469136126
1	0x3fe1ff3e05e4a727	0.5624075045682034
2	0x3ff27fb88d2e94f3	1.1561818613930057
3	0xbfb4a7c1874843c8	-0.08068475296774047
4	0xbfa3fd8977d0bf85	-0.03904370868292432
5	0x3fec2c04200cd36b	0.8803730607965979
6	0xbfbfbf895f8fcef3	-0.12401636679697585
7	0x3fad5f8fa46f3dbe	0.0573696983552696
8	0xbfb88977750aeba1	-0.09584757430540815
9	0xbfcaa2435afafcdf	-0.20807687704470987
10	0xbfcf9c411054cd07	-0.24695599839615331
11	0xbfad8fd529bdcec8	-0.05773798117198009
12	0x3fd5a9bec12f03a8	0.33848542085257316
13	0xbfc74623f96af92c	-0.18182801893812817
14	0xbfd0cb62309a65d7	-0.2624135470046815
15	0x3fbbc016c6c0c6db	0.10839979507798196
16	0x3feee62dac216f39	0.9655979501653525
17	0x3fb407cfe85d23db	0.07824420378632573
18	0xc0039d52c4a2348b	-2.4518180238724816
19	0xbfb4ddc6da14102c	-0.08150904487780569
20	0x3ffe47a3329029a5	1.8924896216509322
21	0x3fa5c47024a031da	0.04251432845203214
22	0x40030e814fd94c55	2.382082580393709
23	0xbfe76c234f81763e	-0.7319504311414631
24	0x3feaae4015a80968	0.8337707922913014
25	0x3ff8ae3f81ea3992	1.5425410342028028
26	0xbfc3db97bbe617e3	-0.15513893770929518
27	0x3fb047c6bf45c5f9	0.06359522027721444
28	0xbfe855aa547c3228	-0.7604571962452313
29	0x3fb09bb3d4a40974	0.06487583104538946
30	0x3fe134b2bf92c3a7	0.5376828900972342
31	0xbfd14d708d49ba53	-0.2703515414968127
32	0x3ff086add23022cc	1.0328806124181709
33	0x3fe465414b2dbb72	0.637360236008915
34	0xbfba1357eb6be2d0	-0.10185765740960595
35	0x3ffbd0fa25c90dd8	1.7385198093405645
36	0x3fc0d4ee88fa9d8d	0.13149816215921498
37	0xbfbedb949c6d967b	-0.1205380327133642
38	0x3ff9d32ffeefabed	1.6140594442792875
39	0xbfbde180b0cf8ee4	-0.11672214810056009
40	0x3fb4bfb2ab697818	0.08105007824767119
41	0xbfb600868c03fd63	-0.08594551962231871
42	0x400722a25ade3876	2.8919112299982386
43	0xbfd61a74e82771e2	-0.34536478682801264
44	0xbfbc1b636163e0f8	-0.10979291083993192
45	0x3faff6cf30674899	0.06242988077032514
46	0xbfc2ef88df592208	-0.14793501763985284
47	0x3f8cfc912dad3d4d	0.01415360851902272
48	0xbfb3e5e3e391ea41	-0.07772659593494159
49	0xbfc0d922d71904b2	-0.1316264677316546
50	0x3fea4d7ade8f8668	0.8219580027473059
51	0xbfc42802a58247fc	-0.1574710186146716
52	0xbfa74d98d7591cbd	-0.045513893401726936
53	0x3fdb0141e8d5219d	0.42195174920609607
54	0xbfc6c9f89c55eb6e	-0.17803866990638134
55	0x4000f7ef4bc70e1c	2.1210618896600533
56	0x3fc7fc5b02cf059c	0.18738877904074236
57	0x3ff27f9253e0ebf8	1.1561454082973324
58	0xbfb795b263286372	-0.09212794228404933
59	0x3ff2a4b8e6d6f702	1.165215398519138
60	0x400cea70fa2b21b4	3.6144732994473205
61	0xbfb3b40109831882	-0.07696539385060144
62	0x3fc03c318183aafa	0.12683695625249652
63	0x3fb9d24d0daddb30	0.10086518844569237
64	0x3ff1bdd2d4fb6590	1.1088436431512925
65	0xbfe1a8bef1e248f8	-0.5518488621039799
66	0xbfc54c2c17d3ebb6	-0.16638709224193143
67	0x3fca220cda89d2fd	0.20416412993258595
68	0x3fdcceaa15e08520	0.4501137937205204
69	0x401846f72439a16f	6.069302145020955
70	0x40035fc966a73893	2.4217708606511876
71	0x402b334d2f2dd47d	13.600198244423376
72	0x3fb60e14217de2c7	0.08615232293767426
73	0x3ff148d97870aaf9	1.0802855210010291
74	0x3fd137ff2402b7ff	0.2690427638689243
75	0x3fed81a1b4564d2f	0.9220741769990236
76	0x400685b69b860a09	2.8152897024422185
77	0x3ff20ab500cdf68b	1.1276140242984265
78	0xbfd430fa1bed4b6b	-0.31548931815375764
79	0xbff5bf784ee049ee	-1.3592455941294435
80	0x3feb8edf251145f9	0.8611903881048298
81	0xbfe884ce931174d0	-0.7662117836404381
82	0xc008b69769e9e294	-3.089155986261469
83	0xbfd546069003043c	-0.33239902557039946
84	0xbfeb64f6ba9a454f	-0.8560746807653831
85	0xbff85ee36694f685	-1.5231660849671311
86	0x400327aa33dbbd37	2.3943676043924387
87	0xc0195bfc155a7644	-6.3398288094009025
88	0x3ff4bdc2702c2623	1.2963280088173483
89	0x3fc7e29417311d48	0.18660212643065166
90	0x3fdfdd984919396c	0.49790007723358687
91	0xc0052f9e1c8eb7ae	-2.648250792603867
92	0xbf96aac9dffe2c06	-0.02213588170665661
93	0x3fe75e91d9bd3dd2	0.7302941563338499
94	0xbfe47607e4c2b776	-0.6394080608349515
95	0x3ff5b9f7bfd1b1f3	1.3579022877630649
96	0x3fd1360636f8bbf8	0.2689223801452836
97	0xbfd1f8c00d5ffc22	-0.280807507573572
98	0xbfe29fe9f08c29b2	-0.5820207308000163
99	0xbfa91d16befc9711	-0.04905005532627461
100	0x3fd6784c06c9c08d	0.3510923448839172
101	0xbfd272472d0b10ed	-0.28822497748139037
102	0xc0050f4a2b7922d6	-2.6324656864493177
103	0x3fdcb98e8a0672a0	0.4488254878904545
104	0x3fd5b42770ab2e33	0.3391207313804642
105	0x3fec3ac6d6e1b9c4	0.8821748921307564
106	0x4023c22a18205864	9.879227403591536
107	0xbfe12a0becc72deb	-0.5363826393672161
108	0x3ff4b594e81bf755	1.2943314615981383
109	0xc00bd448ed372cf9	-3.4786547214949874
110	0xbfc79bd5fb7c3e30	-0.18444323329502899
111	0xbfd20cdafce8be1e	-0.28203463266524575
112	0xc015bf9a4e07b10e	-5.437112063617191
113	0xbfc3922bff3573e0	-0.15289831124655873
114	0xbfe0d5c27631f8fe	-0.5260937031269177
115	0xbfe9f097d104e342	-0.8106192667392877
116	0xbff26dc430e85720	-1.1517984304859468
117	0xbfea3432a00ed501	-0.8188717962390514
118	0xbfc2a47ab0893899	-0.14564450855181546
119	0x401b54acb778b0d1	6.832690111867309
120	0x3fc40664faeb3092	0.15644514324083453
121	0x3ffdd86b9e54a26a	1.8653370079793157
122	0x3fb0b67ceffa83a0	0.06528454645969228
123	0x3fd6e1ea559d1192	0.35753877983759097
124	0xc0048ae72a91b4cc	-2.5678237271991744
125	0xbfcc1e6b4d775ceb	-0.21967831881077102
126	0x3fe455c45b143c25	0.635469606293445
127	0xc005542ef342800f	-2.666105175463606
128	0x3f6165df3daceb87	0.0021237716840948914
129	0xbff3aad4c55d5911	-1.2292068204456579
130	0x3ff5404d9024ef5c	1.3281989699016412
131	0x3f899969941db9da	0.01249964221252935
132	0x3fd58170fe5f99b1	0.3360254749408354
133	0x40003b6384d0692c	2.0289984108068406
134	0xbff60a334a6d8785	-1.377490320905481
135	0xc007e863e9a0b636	-2.9884718181772554
136	0xbfc56f6a84146dd9	-0.1674626488610176
137	0xbfec225df35084c8	-0.8791951896893346
138	0xbfd4f6dff2ca4eef	-0.32756804189669614
139	0x40027ad24c92ec56	2.3099714262330435
140	0x3fcf90bb4f7b835e	0.2466043603990568
141	0xbfcae0edda361d8f	-0.20998929171421962
142	0x3fee77ebb3c10868	0.9521387587376582
143	0xc014115e4d14a57c	-5.016961292634161
144	0x3ff4273d38481adb	1.259579868173822
145	0x3fb1b7e1ddeed3d5	0.06921207111629653
146	0x3fca9e73993fa487	0.20796055777399067
147	0xbff4999ec3135e81	-1.2875049228804587
148	0xbfc0f6ecbdf2b026	-0.13253554606251433
149	0xbfc0099de379ab63	-0.12529347998801219
150	0x4015d18213bab9fa	5.454597767135505
151	0x3fcf7a36498e7ccb	0.24591711608534292
152	0xbfef964395d67e5d	-0.9870927740593732
153	0xbfe344ba2f4a4b20	-0.6021395610463038
154	0x3fdb8c084cb3874f	0.43042190065726954
155	0x3fee14a9c7596dfd	0.9400223630468073
156	0x3fe076e6acbae63e	0.5145142911562244
157	0xbf85ca04b896f9a8	-0.010639225848419212
158	0x3fbd60da64ff1db9	0.11475911107765215
159	0xbfe8da2856b6966d	-0.7766305631273106
160	0xbff34b9035749e93	-1.2059480751139844
161	0x3ff2f0c84199d06c	1.183784729245441
162	0x400354ae35a350bb	2.4163479032959834
163	0x3ff3704ecff1803c	1.2149189112460723
164	0x3fc2e5964c3b230f	0.14763144228188493
165	0x401c11e669253c44	7.017480509660405
166	0x3fd17ff51a346e67	0.27343490180076063
167	0xc01e4ff351b6204e	-7.578076626530743
168	0xbfd21c969e025c25	-0.28299489431941743
169	0x3fcfbf09ad42b28b	0.24801751098620559
170	0xc01734296cdd0496	-5.800939274778235
171	0xbfd84263f9517c17	-0.37905215594759184
172	0xbfea0a81f5b87233	-0.8137826728084917
173	0xbfde5e9a852debf7	-0.4745241451816464
174	0xbfbb1a636e0bd3f3	-0.105871404997586
175	0x3fb41865887ed812	0.07849726278695382
176	0xbffb417208d1e2b1	-1.703477892353629
177	0xbfbebf20cb8586b4	-0.12010388344563233
178	0xbfea6750ef3e07a3	-0.8251118347836733
179	0xc0015bf5fb371d71	-2.1699027658648267
180	0x3fc2c8f45f023020	0.1467576469334526
181	0x3feb17f30ffc1ce3	0.8466735183909829
182	0x3ff12926413fd621	1.0725462483218353
183	0x3ff1bd4ae05f71dd	1.1087139858783452
184	0x3fbb0fec7ba49919	0.1057117273199747
185	0x3fffb9bf4b5ba4cb	1.9828484481497977
186	0x3fa0c3db33cf868f	0.032744264673749794
187	0xbff8009c2c581aba	-1.5001489383882203
188	0x3fd181f4d350a363	0.2735569060919742
189	0x3ff5811ccef88114	1.344021614531873
190	0xbfd4323ec25e5806	-0.31556672078420467
191	0xbfb6d52d6773796c	-0.08919032836590696
192	0x4000bbefe864025e	2.091766181518593
193	0xbfbe2e39421733db	-0.11789281714955228
194	0xbf9c6fbc57159727	-0.027769987883764415
195	0xbfce69aa4bcb6829	-0.23759964657694013
196	0xbfc9ff42f1923a3d	-0.20310246272534185
197	0xbfb0af0f0f06c7bb	-0.06517118565423534
198	0x3fd5e5e9134c6d4b	0.3421576202833491
199	0xbfb2ccd89b2601b1	-0.07343820369533806
200	0x3ff1c40b1df60046	1.1103621645306858
201	0x3fe06bf4c26162ef	0.5131782337658403
202	0xbfb6d43dabe0020b	-0.08917603918235543
203	0x3ff8ab14dbd76f61	1.5417679393348964
204	0xbf97c9e04b34d010	-0.023231033888080843
205	0x4011fa2ee15f69f8	4.49431945938931
206	0x3feb9e508540e794	0.8630755045517042
207	0x3fbc64b088ab4be5	0.11091140114449123
208	0xbfbce2e2230cb5b8	-0.1128369651384763
209	0x3fd6dd006edc924f	0.3572388727791677
210	0xc000db57b2a83a5d	-2.1071008641804796
211	0x3fb75019aaec3256	0.09106598303714838
212	0xbf58293ffdfdf87b	-0.0014746785090831427
213	0x3ff3765da03df613	1.216397882409528
214	0xbfc425026c3bb671	-0.15737943920923983
215	0xbfe2352a8666b706	-0.568990004064944
216	0xbfbe21ff6f2f5337	-0.11770626511072356
217	0xbfc1b4f9686d60c2	-0.13833539580332938
218	0xbfc0cc2094e80664	-0.1312294699746871
219	0x3feb7ed73146a0c9	0.8592334711475128
220	0xbff7822c78f48fd0	-1.4692806935135998
221	0x3feb78aa823d704b	0.8584797424077889
222	0x3feb70ca42d0079f	0.8575183205541527
223	0xbfc462b542f761f9	-0.15926233072129017
224	0xbf9e9fd7463f1eee	-0.02990661970377933
225	0xbfc48c216ea9f9df	-0.16052644637598143
226	0x3ff4f2c366ad7b6f	1.3092683802458074
227	0xbfcc504f2b6a7520	-0.22120084400095497
228	0x3fc07c74b583575a	0.12879809248868918
229	0x3ffe7f7fadb776d1	1.9061276231581596
230	0xbfcbcff27a8d00c4	-0.2172835443871063
231	0x40017442fa926804	2.1817683769158993
232	0xbfb91d2f914d8f87	-0.09810159013210128
233	0xbfdab78d85dfbbc9	-0.4174531752932436
234	0xbfab4c6be3101f0c	-0.053317424266479646
235	0xbfce683168ef9287	-0.23755471824474148
236	0x3ff86094d30b758a	1.5235794300018335
237	0xbfe1cc1a33144d67	-0.556164836658735
238	0xbfc2ceddaea704b7	-0.14693804767560945
239	0xbfcbb2e4bbdbb2b9	-0.21639689610255688
240	0xbfd1efef33c2fe35	-0.28026943259098697
241	0x3fd10bbd8408e569	0.266341570797144
242	0xbfc75ba30917f632	-0.18248403495810944
243	0xbfcd4b1bf9069805	-0.2288546529718475
244	0xbfaa844f3fc87035	-0.05179069188690769
245	0xbfdf675d9bb946c8	-0.49068393905063745
246	0xbfc0e7fc043e96fc	-0.1320796032643371
247	0xbf994750d680a4f9	-0.024686110584444674
248	0x3fb9e8b7f4a32014	0.10120725367153255
249	0xbfbcda8966bd2bd2	-0.11270960577273506
250	0xbfb3c72f8b48dae7	-0.07725808287146273
251	0xbfc6faed9dd2954d	-0.17953272062474426
252	0xbfc6b43e0e163ccb	-0.1773755615981599
253	0xbfb9ea0a0fdfd3c2	-0.10122740638310204
254	0x3fc5c027e59576bc	0.16992663107060035
255	0x3fd6eae86d05b7de	0.358087641207815

rnn.weight_hh_l0 f8 [256, 64]
0	0xbff717fefde9e548	-1.443358413553442
1	0x3fc967bd8c1a9bee	0.198478406343582
2	0xbff8284872d9ad69	-1.509834717401498
3	0xc001f9ccfd33a3cc	-2.2469730168709017
4	0x3fc6f20ee206087d	0.1792620280867289
5	0x3fecc0138944dc34	0.898446815589415
6	0x3fe5e88839d5910b	0.6846352700781905
7	0xbff6b8fb502afcc4	-1.4201615459021903
8	0xbff4aa6a23abd1fc	-1.2916051286130132
9	0xc001bd217a2e838e	-2.217349009079448
10	0x4003832727e23b86	2.4390395275035557
11	0x3fdde7776356e717	0.46725258542174813
12	0x3fe31ac9f738ddec	0.5970201328809117
13	0xbff57ca4fa3dd4d1	-1.3429307723102293
14	0xbfd70a84a9104f01	-0.3600169802677869
15	0x3ff00cd974e001eb	1.0031370702200728
16	0x3fe3c92f290f9b8e	0.6183086206409472
17	0x400033b2c3539a70	2.0252433071030325
18	0xbfcbedb2e12869e4	-0.21819149011646666
19	0xbfe1007c16b9126a	-0.531309170132386
20	0xbff4c14a92dd0f75	-1.2971902596336495
21	0xbfec1f029b97ab1f	-0.8787854231753477
22	0xbff68021a82e82b9	-1.4062820977780304
23	0xbfe897d5d34f373e	-0.7685345770966945
24	0x3feb1f86a1161827	0.8475983759133258
25	0x3ff41e43e5e238b7	1.2573889713126343
26	0xbfeaa23eb66f380b	-0.8323052943394499
27	0xbffb367415886e87	-1.7007943001871426
28	0xbfe1f30aa22e2f0f	-0.5609181563936277
29	0xbfeaa69fbdb860d6	-0.832839842364616
30	0x3ffab0776b4be0c2	1.668082636953884
31	0x3fbb2f13e5374d89	0.1061870989427033
32	0x3fe74bc084cfdd29	0.7279970735534437
33	0xbfba3eeb179a6ef6	-0.10252255750895842
34	0xbff0da924a65514f	-1.0533621698460427
35	0x3fdd15c2ef28330e	0.4544532142179357
36	0x3ff3a57539cb575e	1.2278949983205716
37	0xbfdba517c036af42	-0.4319514634214451
38	0x3fbe85363e76eb79	0.11922015213978722
39	0xbfe7eda2a8a1879e	-0.7477582257817976
40	0xbfe62463787ee858	-0.6919419625694543
41	0x3ff33f85639ce004	1.2030080691456542
42	0xbff429718aa2213f	-1.2601180472721152
43	0x3ff22c8b2ffb1a36	1.1358749269726451
44	0xbfe26ac61da7937c	-0.5755339221183102
45	0xbff02d3681e384ef	-1.0110383104113756
46	0x3fe4a2fe56f64119	0.6448966692424022
47	0xbfd19e63c3ec1ef6	-0.2752923405937361
48	0xbfe5b4031c48e087	-0.6782241394457892
49	0x3ff7e5d83db22814	1.493614426612571
50	0x3ff3a5e7e8823dd2	1.2280043680547021
51	0xbfbd37ce4edc438d	-0.11413278031638026
52	0x3ff59a1f03bd9eaa	1.3501272340890105
53	0xbfc4d4583ce10a17	-0.16273024532900202
54	0xbfc675646b145209	-0.1754575274323005
55	0x3f9dd8352f94de88	0.02914507964052729
56	0x3fd1bfaffa0c5718	0.27732467097062985
57	0x3fda499db23cfe52	0.41074316412048006
58	0x3ff20e0afdcb63cd	1.1284284509513214
59	0xbff6530f0a09ac05	-1.3952780143833945
60	0xbfe510a7395897f3	-0.6582828636207964
61	0xbfc852bd0ef3f6f8	-0.19002497892500236
62	0xbfc14256eeb66693	-0.13483702331432265
63	0xbfe1af74724d6dd3	-0.5526678307027687
64	0x3fb8854689c30931	0.09578362334562908
65	0x3ff1a5d7e7dc3b5d	1.102989106849882
66	0x3ff4bb135d9d5dd0	1.2956727654289928
67	0xbfc75ef74ad9ce04	-0.18258563189338883
68	0xbff18fcc6e1c5b39	-1.0976070691301187
69	0x3fb94543307e39b8	0.09871311124718474
70	0xbfc5234730b0fccd	-0.1651391017676133
71	0xbfce4ca45b3a61cb	-0.23671392874235972
72	0xbfeb1efde3ab2481	-0.8475331732417005
73	0x3ff26ffe02a32c6f	1.1523418524764357
74	0xbfe5ced777ef4937	-0.6814992277598212
75	0xbfbdbd41d0cc80e3	-0.1161690840494916
76	0x3fe9e56e637a9784	0.8092567389437453
77	0xbfe280be0f98df08	-0.5782156281120203
78	0x3fd7c676552eb218	0.3714881736621307
79	0x3fcd613e490eb299	0.229530130074086
80	0xbfeeafee80c11865	-0.9589760317546846
81	0x3fe7afa9e15f4ee9	0.7401933099558536
82	0xbff3ae34000ca9eb	-1.2300300599987348
83	0xbfe05fda233956c9	-0.5117006957977647
84	0xbfe88c3711c4ad85	-0.7671161028896881
85	0x3fbe0c36e820c621	0.11737387816608492
86	0xbfd53a6d0a1084a1	-0.33169103606094025
87	0x3fbaab680821110b	0.10417795370546316
88	0xbfd9cc077cb4cc39	-0.4030779569467913
89	0x3fe0ef547e223ded	0.5292150939512205
90	0xbfd874c53a9aafdc	-0.3821271011645402
91	0x3fd9e7783fb0a647	0.4047527906392116
92	0xbfeefe6ef365ad0d	-0.9685587648249637
93	0x3fc3a8724c53445c	0.15357807852572847
94	0x3fe08d79b34458b8	0.517269945269411
95	0x3fe6dc84c64ea925	0.7144187806309544
96	0xbfc584e0bcfeb5dc	-0.16811761120099689
97	0x3fd5e3c7ca9b195f	0.34202761445739854
98	0xbfbef447153503e2	-0.12091488139868958
99	0xbfd93233c8da6f48	-0.3936891042192099
100	0xbfda61df501093b2	-0.41222365206550216
101	0xbfad1aff9d325b60	-0.05684660715012657
102	0xbfb1a56b1fb0fde7	-0.06893033527102653
103	0x3fe0c286a9e14f2f	0.5237458532305704
104	0xbfd3d43bb680d173	-0.3098286897905133
105	0x3fda241a31365ef7	0.4084535103406632
106	0xbfe852422010813f	-0.7600412966021749
107	0x3fdf84d10fd535ef	0.4924814848535268
108	0x3fdc910bbf7a6162	0.4463528985884492
109	0xbff2b78207b5745a	-1.1698017407536754
110	0x3ff7f6fb589957f5	1.497798296060407
111	0x3fd177a183fb03d5	0.27292669190142976
112	0x3fe68c167658dc1e	0.7046005546061485
113	0x3f9251406d944c9c	0.017888075531186418
114	0x3f90135fa84d55ff	0.015698904654831477
115	0x3fe93c4f5bea6d0c	0.78861206009188
116	0xbfca087a1ef32e5e	-0.2033836985705077
117	0x3fd889af86a5f335	0.38340366505854045
118	0xbfe09d1794d8bb26	-0.5191762835655467
119	0x3fed83aa8ac795c0	0.9223225317515968
120	0xbfdf3011a4f3f910	-0.4873088942403152
121	0xbfd0662c5ec05522	-0.2562361645990042
122	0xbff0400f651d0f2a	-1.0156396817919338
123	0xbfd70d28b9a10433	-0.36017816665486463
124	0x3fe9f552cf2cb8d0	0.8111967131024134
125	0x3fd2ef6ded5a3a2c	0.295863611020567
126	0xbfe26ab865ca79e1	-0.5755273807624769
127	0x3fe04742eaa9aab8	0.5086989005333953
128	0xbfa1dc13ef07b4b0	-0.03488218586776648
129	0x3fe6323763796a81	0.6936299269539888
130	0xbfc3ae49a2d84431	-0.153756336702402
131	0xbfeb97a8c6c4c918	-0.8622630960656208
132	0xbfd2809d783b9764	-0.28910004369242004
133	0xbff0d79304086b31	-1.0526304395231814
134	0xbfed68f05bec5ce0	-0.919059924638443
135	0x3fea1b8170502ec8	0.8158576196305711
136	0xbfcdfd6132c87b00	-0.23429503421444764
137	0x3ff4b4a49e3bb8ba	1.2941023045528213
138	0xbff4c12e24724468	-1.2971631454168122
139	0x3fdf33d462f724b0	0.48753842987623397
140	0xbfc49db4030d30e0	-0.16106271885872214
141	0x3ff514cfd9a98264	1.3175810339381764
142	0x40022347fd42e078	2.2672271524461927
143	0x3fd11e191a064646	0.267462039389191
144	0x3fedc46448de906d	0.9302236006956385
145	0xbfdee3dd9904c797	-0.4826578134844736
146	0x3fc5a983b1d99e3d	0.16923566993794906
147	0x3fea7cccfdf77da2	0.8277344665802284
148	0xbfb03bb4eea4afb6	-0.06341105295422164
149	0xbfe48b8fca94c670	-0.6420363384879249
150	0x3fc94c09248c13c0	0.19763292583971115
151	0x3fe60d0bf64f4a01	0.6890926180588509
152	0x3fc11190abe88d8a	0.13334854501691168
153	0x3ff539df5c7d2f9d	1.326629029545962
154	0x3fed94d8446775f0	0.9244195304888176
155	0x3fe60e2f23be6fc0	0.6892314622996238
156	0x3fb7471ded244339	0.09092890777197916
157	0xbff567ba04bedcf9	-1.3378238854764375
158	0x3fb884c0f545df6d	0.09577566135510347
159	0xbfe3f9145ac82e29	-0.624155213650231
160	0xbfbc30f4a19e2a0c	-0.11012200303790837
161	0xbfd84156729bb9ff	-0.3789878958913561
162	0xbfeafed69ee6d279	-0.8436081985042413
163	0xbff38718c0c6f8e8	-1.220482590709759
164	0xbfd5ef4181116b63	-0.3427280197553754
165	0xbfc4a8bd1da9e01d	-0.16139949749390406
166	0x3fe137cbe96d06a5	0.5380610999202032
167	0x3ff661211f35ee47	1.3987132281462367
168	0x4002cc3d02689f30	2.3497257412126586
169	0xbffa18fe56f43018	-1.631101932204734
170	0xbfa6d9b4f0c099b1	-0.044629721058572776
171	0xbfc33367b229fc5e	-0.1500062580052796
172	0x3fd5efcd8449b089	0.34276140135512684
173	0x3feeba1e8e3441c8	0.9602196481155767
174	0xbff1bf74b01cc58f	-1.1092421416654792
175	0x3fa13722597c1a5c	0.03362376539557907
176	0xbff46e691efbc97f	-1.276955719975916
177	0xbfe43714103d337d	-0.6317234341782832
178	0xbfb0eeeb1bc9755a	-0.06614560535804995
179	0xbfbc2bc895c3a3cb	-0.11004308372834186
180	0x3fe29a24845aaaee	0.5813162407915493
181	0xbff022380479f59b	-1.0083542036876227
182	0xbfe6b64fe4757e2f	-0.7097548925484655
183	0xbfe9b67726ccd411	-0.8035236127676645
184	0xbfd8f31bdf6e20a9	-0.3898381883559617
185	0xbfde8f298a4f2f75	-0.4774879313160832
186	0xbfd82904aeaf297e	-0.3775035577679303
187	0x3ff2655502329d4c	1.1497392736290122
188	0x3f94aa4a11d4f689	0.020180852259037017
189	0x3fd9ac4d397e4c03	0.4011414586504431
190	0x3fe36ec1db1f12a1	0.607270172091905
191	0xbfc7be6ca765ffed	-0.18549879239799286
192	0x3fae0bfb420c0e29	0.058685161411656424
193	0xbfd8da12ae9574f4	-0.38831011819077266
194	0x3fe13c719be27e19	0.5386283917068254
195	0x3ff84b10bdf6ee1c	1.518326513337235
196	0xbfd5a0c801993e19	-0.3379383102046361
197	0xbfe70ad0add5be93	-0.7200702090467125
198	0xbff23d0f083c5aa8	-1.1399069139203366
199	0xbfd101baba30a82e	-0.26573055441497473
200	0xbff0635f5682b713	-1.0242608432121798
201	0xbfe42a65317f56fe	-0.6301752058741099
202	0x3faf4bd34b82e6ea	0.06112537667054403
203	0xbfe477d87c06609d	-0.639629595028072
204	0xbfc763978dcc7d0b	-0.182726806867301
205	0xbfe887062c7b3f97	-0.7664824360635859
206	0xbfebe1af77a62262	-0.8712994896787445
207	0xbfded30aed81bdc8	-0.4816310233499874
208	0x3fb7bc68697f0e46	0.09271862578958076
209	0x3ff1b05c9999226c	1.1055570602349247
210	0x3fb4d20311f1ab51	0.08132952869497713
211	0xbfce94138200a542	-0.23889392707614304
212	0xbfe622f3f85f43c2	-0.6917667246835821
213	0xbfe480e1900a9e0a	-0.6407325566587485
214	0x3fe752c6825e698d	0.7288544222131336
215	0xbfcdbe91a2a2f32d	-0.23237820092426756
216	0x3fe7282d6414062e	0.7236544565823289
217	0xbfc618b022ce352b	-0.1726284189175343
218	0x3fda0e4c079c112a	0.40712261908653835
219	0x3fdad615ee3ddb09	0.4193167521074633
220	0x3fe6d56e704a9374	0.7135536378087708
221	0xbfd63632b7ca08e6	-0.3470579905334844
222	0xbfd7b69cccdac643	-0.3705207825215419
223	0xbfc5c6bf2d849fa9	-0.17012777063905318
224	0xbfd15addc57dca23	-0.27117103849664853
225	0x3fa97086ed7ccec3	0.04968663834588718
226	0xbfd8de1913d87e9e	-0.3885557836347092
227	0x3febeb261cb4e939	0.8724546967198769
228	0x3fe9913fdf96ffec	0.7989806525220025
229	0x3fd18fa2350096e2	0.2743917005158051
230	0x3faacef3f5e3e123	0.05236017586315913
231	0x3fa0f0844bdba63a	0.03308499742508926
232	0xbff623743c635b90	-1.3836557730589654
233	0x3ff17945fb6ce61e	1.0921077557853844
234	0xbff53177663aa5aa	-1.3245767587016908
235	0x3fd5c25921a6b7c4	0.33998707090620095
236	0x3fd2fedc0de407a4	0.29680539471166356
237	0x3ff18c303296af76	1.0967256523244635
238	0xbfc87eeaddfebc85	-0.1913732131920122
239	0xbfe2a7cb234c5cb9	-0.5829826058788036
240	0x3fd0eb734fd0d6c5	0.2643707541895817
241	0xbfbe4e82894f5e03	-0.11838546612067806
242	0x3ff194395f6a640e	1.098687527386804
243	0x3fd690528edde678	0.3525587458785604
244	0xbf92f5bc068c86ab	-0.018515527629580458
245	0xbfd1af93fa8f5a51	-0.276341433227036
246	0x3fdc40f87ea07d95	0.4414654957381228
247	0x3fd497c84333fc3e	0.3217640548973043
248	0xbfd44efb8b4c7ef3	-0.3173207149829828
249	0xbfe3a0e4ccc645e8	-0.6133903502943072
250	0xbff178804044d885	-1.091919184732917
251	0xbfe078050baf36ca	-0.5146508434497374
252	0x3fea250635313ac9	0.8170195616638348
253	0xbfda5248c2959129	-0.4112722301708965
254	0xbfea998f4f81be66	-0.8312450936190998
255	0xbff0bafa2e6542d0	-1.0456487476659966

rnn.bias_ih_l0 f8 [256]
0	0xbfedbbfd22bba825	-0.9291978529338435
1	0x3ff95b1438bd48dc	1.5847360817320384
2	0x3fc2eb88045709f6	0.1478128453437219
3	0xbff8d5cdf25852b7	-1.5521983591653858
4	0xbfecbd5a226aef34	-0.8981142685147234
5	0xbfd73400be974038	-0.3625490056265366
6	0xc00027fb842f3228	-2.019522698107057
7	0xbfe589d36c820be3	-0.6730744475647693
8	0x3fe5c5497665b0b1	0.68033288120707
9	0x3fc20297a800657b	0.1407041139907895
10	0xbfdb6025cf723d25	-0.4277433896867982
11	0x3fe6c39aed6d1d48	0.7113775861006753
12	0xbfe92fa613c8c5a6	-0.7870664965068286
13	0x3fd71f6b8dba7f49	0.3612927326266698
14	0xbfeda6e00a3480db	-0.9266205024069011
15	0x3fe5811b6a4ddee1	0.6720101429227406
16	0x3ff3c3f9814a7a89	1.2353453684260407
17	0xc008c4d6c9d51ddf	-3.0961128013766337
18	0x3fc93a89098d8b55	0.19709885565233756
19	0xbfe774dd76827e4b	-0.7330157580035545
20	0x3fac373e752af4e6	0.05510897808333386
21	0xbff07ee062b0f60a	-1.030975709450447
22	0x3ffa98dcba2a1136	1.6623198768657637
23	0xbff5b8b1d20d7d5c	-1.3575914578612673
24	0xbfe040b836162bc9	-0.507900338781263
25	0xbfbf59156f5ea49c	-0.12245305985438154
26	0xc0001479529f5c79	-2.0099970297702012
27	0x3fe28b9c25ca0518	0.5795422304219384
28	0xbfde76368f9271d0	-0.47596515675266193
29	0xbff988f681cf5968	-1.595938212461613
30	0x3fdbdb5bc795fcd3	0.4352635811882923
31	0xbff40c8ac5bef39b	-1.2530620312165641
32	0x3fda8270ef04c0fc	0.4142114957967491
33	0xbff648fd32d2e201	-1.3928195939353147
34	0x3ff29a203446ccea	1.1626283685735026
35	0x3fd2b6d9d340f6ab	0.2924103320145643
36	0xc001567115fc51ff	-2.1672078817011875
37	0x3fcf0c0b3ccf89b7	0.24255505055687163
38	0x3fccbe51f75507f3	0.22455811096921216
39	0x3ff079eb133bd8e0	1.029765200740762
40	0xbf94a0a23d32aa11	-0.020144019112800452
41	0xbfe69c0748a303a0	-0.7065464419066423
42	0xbfdac646fe7b090f	-0.4183518872415712
43	0xbffe8c9dfbbca2fe	-1.9093303521605658
44	0x3fd62b96a3a3dfad	0.34641042690736407
45	0xbff60af856b85f65	-1.3776782405384094
46	0xbffa4e713a8cfc33	-1.6441509520661952
47	0x3fe3c8613b94b718	0.6182104266824551
48	0xbfea5146472c2cab	-0.8224212064827915
49	0x3fe7d58c436c7feb	0.7448178593513125
50	0xbffc534142a23931	-1.7703259089353873
51	0xbf9e3decf8c85534	-0.02953310268829519
52	0xbff196b9fb154587	-1.0992984588559425
53	0xbfc296d4e4844033	-0.14522801549947104
54	0xbff47ff73a8776bf	-1.2812416349692481
55	0x3fd8617d6c0917bc	0.38095031309455485
56	0xbfe4f142891c8421	-0.654450671954809
57	0x3fb0a86fc77797ab	0.06507013912013686
58	0xbff0d130c5d546bf	-1.0510719039779557
59	0x3fe3e94cc06321d2	0.6222289807856731
60	0xbfe9ffcd9aeb4ef6	-0.8124759698643789
61	0x3fc797a18335e0fb	0.18431490809212633
62	0x3fdd44b2a80229f6	0.45731798560214487
63	0xbff2b4b0db101d0c	-1.1691139752527446
64	0x3fcc5b3b5f7e9312	0.22153417742551845
65	0xbfd169b64d23774b	-0.27207715542850924
66	0x3fc60e350e0606ef	0.17230857071631742
67	0x3ff17d162e44dfdc	1.0930387313255698
68	0x3fdf13608dc77868	0.48555768819449563
69	0xbfdb6cee5df1637d	-0.4285236279879923
70	0x3fe836b09ff00e26	0.7566760181220544
71	0xbff4b6121a9218ca	-1.2944508588712318
72	0xbfd4f9429e4dad38	-0.32771363696402345
73	0xbfdb14f016df985b	-0.4231529448865154
74	0x3fe3dac3209d372b	0.6204543721193877
75	0x3ff3697e8a1177ee	1.2132554429331281
76	0x3fd03aebff3ae3ac	0.2535963051300836
77	0xbfe48fff828f7e35	-0.6425778913507602
78	0xbfdf3204abb460c7	-0.48742787139918814
79	0xbfe45ef60d8cb3fa	-0.6365919365540542
80	0xbfea7e73aee9fc8d	-0.8279360214509254
81	0x3fdda378d5de31ba	0.46310253987828853
82	0x3ff1a0a0d29087a4	1.1017158723047737
83	0x3fcda3e66d478d08	0.23156433425820233
84	0x3ff2e7d5d939df27	1.1816004262345332
85	0x3fe5833c4bda6f03	0.6722699624546923
86	0xbfd4c80525b51100	-0.3247082584605465
87	0x3feddc7ec91f0b71	0.9331659248494885
88	0xbfa819339d92cf7b	-0.04706727312569022
89	0x3feb65e2dade5f54	0.8561872744348684
90	0x3feb159f572db4bb	0.846389456053337
91	0xbfdf0fe47c887101	-0.4853450027601554
92	0xbfe31d20a7ed707b	-0.5973056106409013
93	0xbfe1bbbd9aa31de3	-0.5541675586945839
94	0x3fd0c316958a6afb	0.2619072399481152
95	0x3fd9e4c77a3db6c1	0.4045885747681091
96	0xbfe12e179da3f84c	-0.5368764952579652
97	0xbff3d54378ce4b06	-1.2395662993409942
98	0x3feaf48f730d846c	0.8423535582661663
99	0xbfe0c489183ee8ff	-0.5239911531018889
100	0xbfd8bb8a01426316	-0.3864464771555033
101	0x3fe42787789a134c	0.6298253398423213
102	0xbfd92222958caba4	-0.39270844082300926
103	0x3fc59e45336f06fa	0.16889252673541205
104	0x3fe3399cc497a651	0.6007827605910255
105	0x3fe8887b0f5b25b9	0.7666602420733205
106	0xbff3157b5984a109	-1.1927445885467611
107	0x3fb6099262ef6fb2	0.08608355441486884
108	0x3fb92cf7b65042ea	0.09834240151418397
109	0x3fd4b21abfb1af28	0.32337063522457976
110	0x3fef22cfffd3da04	0.9729995724326845
111	0x3fd6be178cd1e0e3	0.3553522944635132
112	0x3fee8bbf53d316e4	0.9545590054701418
113	0xbfd04e144e8d5d5d	-0.25476558371652464
114	0x3ff3a48e5f1bb1ad	1.2276748385585095
115	0x3f99ae542c3db8d5	0.02507907409693007
116	0xbff06e471dc8a2ae	-1.0269232905795138
117	0xbfe390a86d535b85	-0.611408437277405
118	0xbfe00f42409e28e3	-0.5018626462999943
119	0xbfe0b6c70e195640	-0.5223117137308648
120	0x3fe3360839a349be	0.6003457189311161
121	0x3fdb9904b37539c5	0.43121449971377174
122	0x3fc03eedc95c0339	0.1269204362106622
123	0x3fd6e9296d53c871	0.3579810683869545
124	0xbfd2ac0855e1e143	-0.29175003420779805
125	0x3fc92876c2f6216b	0.19654736060716557
126	0xbfe085ed514d3127	-0.516348513404897
127	0x3fd524024d32ff6f	0.3303228143595253
128	0x3fb23436c9f3b4f7	0.07110922270267737
129	0xbfec26cb000b16ab	-0.879735469898795
130	0x3fe47bfa52026ee0	0.6401340104816562
131	0xbfe88bcc6d63b8e4	-0.7670652519716694
132	0xbf8d20c29124cf03	-0.014222641043125877
133	0x3fea9febb9dd40e9	0.8320215826188618
134	0xbff4301aa86cd326	-1.261744172964606
135	0x3ff026907742fb87	1.009415117135832
136	0xbfef45e4d8356b70	-0.9772819731546019
137	0xbff24b6af57603eb	-1.143412550766011
138	0xbfdeb9594d3a8ba6	-0.4800627950846156
139	0x3fe853274da73903	0.7601505772270517
140	0xbff2b005bd409fff	-1.1679742233918657
141	0xbfbf9e4809069014	-0.12350893230774346
142	0x3feb712e3bb53ecd	0.8575659910365744
143	0x3fecfddedbdf4075	0.9059900564552793
144	0x3ff33eaed917a469	1.2028034668130891
145	0xbff918062eaf35a6	-1.568365270958887
146	0x3fe2d26549253b31	0.5881830624219672
147	0x3fe5a77252f3d5a7	0.6766902561345675
148	0x3ffda4d98f51e362	1.8527465437348032
149	0x3ffd0ff0e2f0c2b1	1.8163918366300715
150	0x3fce50707c24641b	0.23682981549862422
151	0xbfdee896657504e0	-0.48294601352615807
152	0xbff1880d92fe7910	-1.095716070361565
153	0xbff7fa80a50d9431	-1.4986578414329979
154	0x3fe94ad5e4be8334	0.7903851955089523
155	0x3fe932600b8bd7d6	0.7873993134987767
156	0x3fe51951447f4c1d	0.6593405092083945
157	0xbfe637c7d53e2988	-0.694309154977689
158	0xc008d0c3708feb2e	-3.10193527163701
159	0xbfe00dc5fd93dbd2	-0.5016813233077022
160	0xbff3bb7829afe362	-1.2332688930893814
161	0x3fe73b0977bbec76	0.7259566629940213
162	0x3ff88143522c28ca	1.5315583429206066
163	0x3fe41297edf8d3bb	0.6272697112932443
164	0xbfd7c6f3849e7a89	-0.3715180201633435
165	0x3fbfe979b370be20	0.1246563017928044
166	0xbff9010fdf94642a	-1.5627592786388598
167	0x3fe5268c4239456e	0.6609555524284312
168	0x3fee7ac01c6b75a6	0.9524841837953104
169	0x3fac67b6fcb9a566	0.05547878108047648
170	0x3fe33633f40b4080	0.6003665701373535
171	0xbfdad6ec5456e73f	-0.4193678687694166
172	0xbfed376629a86a87	-0.9130125821714764
173	0xbfa1f985394abde5	-0.03510681461682078
174	0xbfd05dd810196233	-0.2557277829378421
175	0xbfa9148ed3e7e36f	-0.0489849694894876
176	0x3fdc8c00a3d8a417	0.44604507446871494
177	0x3fdf52f93763a857	0.48943930062399005
178	0xbffcbda712a0f689	-1.7963019111333856
179	0xbfe28e91cdfca6df	-0.5799035094434791
180	0xbff6383c4604a366	-1.388729356296801
181	0x3fc9cf3a0164a2c7	0.20163655345938578
182	0x3ff0aaec9ccfa330	1.041729557555481
183	0xbfe7e0bd92b15641	-0.7461841454593882
184	0x3fca78b8cd36acc5	0.20680913944429427
185	0x3fe9e63c227c524c	0.809354846338985
186	0x3fc24ebb152d286a	0.1430276730919247
187	0xbfbc2661d11a46b6	-0.10996066432042081
188	0xbfe8cf7114bde457	-0.7753224759209257
189	0x3fd64413e33284aa	0.3479051321720116
190	0xbf672f8c1c1ec43d	-0.0028302895088576905
191	0x3ffe9083f201237d	1.9102820828722706
192	0xbfc1dff6107514f6	-0.13964725307065579
193	0x3fe723deaa8abd65	0.7231286364457615
194	0x3fe074816ebfb9bc	0.5142218745293614
195	0x3ffacaaf12f3a36c	1.6744833698560013
196	0xbf909bbc167fe278	-0.01621908080412246
197	0xbff7b3b5a004a5e7	-1.4813743830403554
198	0xbffefe92a0f9dc75	-1.9371515548826015
199	0xbff26559ff145977	-1.14974403038431
200	0xbfadc7e6123c8c92	-0.05816573116887826
201	0xbff5d2b0319cdcbe	-1.3639375627515586
202	0x3fc1b8d0111447b5	0.13845253786035774
203	0xbfb94199260614dc	-0.09865719965280867
204	0x3ff37426fac5c2d3	1.2158574863243998
205	0xbff49bb94b4168b5	-1.288018506972134
206	0xbfed19c885fa74ab	-0.9093973747982508
207	0x3fdea3ec091cb799	0.4787550057397936
208	0xbfe19e0164494ffd	-0.5505377730100914
209	0xc003878ca89776c7	-2.441186253664316
210	0x3fd228afd67d775f	0.28373332926081746
211	0x3f9a20112a3eeedb	0.025512951091271368
212	0xbff270e8be93a8ef	-1.1525657123952973
213	0x3fb18f4d0e684342	0.06859284974804061
214	0x3ffca492e5ff65f7	1.790179155758208
215	0xbf9eca3fe8fb654c	-0.030068396182149557
216	0xc0013bb6d55b7c09	-2.1541573208373888
217	0x3ff73357d7d2d464	1.4500349455459167
218	0xbfff53753d2aa51e	-1.957875479633294
219	0x3fc17bac6aba792e	0.13658671580646725
220	0xbff51dfc3d6b4576	-1.319820632856446
221	0xbfdafca15f839528	-0.4216693337205748
222	0x3fdd5b15e14a9504	0.4586844158278185
223	0xbfef0e743c0a75a8	-0.9705144093201641
224	0x3fb18eaa3adec74b	0.06858314454328
225	0xbffd410ecfb88ec7	-1.8283832658861898
226	0x3ff94416d5295650	1.5791233374233293
227	0xbfecb9fb69c72dd3	-0.8977028909661676
228	0xc002524f89833bae	-2.2901907675909206
229	0x3ff8a32865079d4f	1.5398334452127818
230	0xbf81f4371ef5a5f5	-0.00876658499938097
231	0x3fead71b9afaeb65	0.8387582804638042
232	0xbfeecd48da1d7a6f	-0.9625591526090157
233	0xbff792c39fc26e76	-1.4733310928922072
234	0xbfee918cc1a6997a	-0.9552673132173333
235	0xc0018d7649f92cc8	-2.1940732745330003
236	0x3feded0baf089d49	0.9351862352968193
237	0xbff76021fc2ef309	-1.4609699107087997
238	0xbffdef9283484432	-1.8709893348898388
239	0xbfd4f1d5afe02db9	-0.3272604196106062
240	0xbfba55660f513b82	-0.10286558031041973
241	0xbffe96b32fa19dd2	-1.9117919788931101
242	0xbff6a4e53be31bb5	-1.4152576770154444
243	0xbfb2d3e9ab1a7eb1	-0.07354603221255719
244	0xbff28176666ff050	-1.1566070558028692
245	0x3fd4b1a2c8beb55d	0.3233420334243727
246	0xbff92ef699b3b134	-1.5739656452161173
247	0xbfd19b0d9c70418d	-0.2750886943549851
248	0x3ffbdec2fa8c16ca	1.741885164928521
249	0xbfe43cd7f59265fc	-0.6324271961522636
250	0xbfecf5ffcf4f0110	-0.9050292061802185
251	0xbfac959f85a1b764	-0.05582903391119379
252	0xbfb81ad35328f523	-0.09415932445786672
253	0xbfd1640ee38ef160	-0.271732065415355
254	0xbfea8c167fde2539	-0.8296005723397349
255	0xbfe2ca3eada5e8e3	-0.5871880904735715

rnn.bias_hh_l0 f8 [256]
0	0xbfed91a63abba825	-0.9240294596795634
1	0x3ff991c414bd48dd	1.5980873880512754
2	0x3fcb465f04570c7c	0.21308505737224326
3	0xbff97f90125852bb	-1.593643256817059
4	0xbfed1b434a6aef36	-0.9095779851408909
5	0xbfdadcfade97409b	-0.41973754632363985
6	0xc00134a49e2f31f9	-2.150704608741077
7	0xbfe41b0c6c820b79	-0.6283018225952751
8	0x3fe12e09be65b059	0.536869880551886
9	0x3fb361ce9000ca9d	0.07571116462421874
10	0xbfe52890f7b91df2	-0.6612019384710364
11	0x3fe03a00756d1e10	0.5070802968484163
12	0xbfe435c0cbc8c684	-0.631561658874674
13	0x3fd51d047dba7e94	0.3298960902993511
14	0xbfea7ff4ea3480f8	-0.8281197141950818
15	0x3fe01708aa4de00e	0.5028117491010577
16	0x3ff1e318454a7b70	1.1179430681874827
17	0xc0088e6db3d51df0	-3.069545178357423
18	0x3fcc6173898d8c36	0.22172397819949347
19	0xbfe5d5989e827e43	-0.6823237510579435
20	0x3fa38248752af909	0.03810335569640883
21	0xbfed3e1c7561ec43	-0.913831929457395
22	0x3ffa4d1cb22a1159	1.643826194719699
23	0xbff45d23020d7d76	-1.2727384643729613
24	0xbfdd75f63c2c581a	-0.4603248202923865
25	0x3f9c07c2428573cc	0.02737334757818015
26	0xc001533b109f5c69	-2.1656400011666403
27	0x3fe177140dca04d2	0.5457859296149314
28	0xbfd7d087ff927213	-0.37210273702820124
29	0xbffad8954dcf59e5	-1.6778767623378539
30	0x3fd30bebc795fcad	0.2976026009636808
31	0xbff09fa955bef387	-1.0389798497628548
32	0x3fd242e51f04bfec	0.28533294705539336
33	0xbff7e645f2d2e167	-1.493719051866799
34	0x3ff299683446cce4	1.1624528924992825
35	0x3fcce7208681eca9	0.22580343787908433
36	0xc0021d89affc5256	-2.2644227742078256
37	0x3fcd50465ccf896e	0.2290122941186143
38	0x3fca9506b75507e0	0.20767291976704794
39	0x3fed91462677b05b	0.9239836455649412
40	0x3fb6982830b358e0	0.08825923146227721
41	0xbfe7a33fb0a303a8	-0.7386778306900981
42	0xbfd780287e7b08cf	-0.36719715453740503
43	0xbffee07a2bbca2a1	-1.9298040111990888
44	0x3fe0c46589d1ef1b	0.5239741985128349
45	0xbff83817f2b85f1b	-1.513694713712488
46	0xbff91d6c6e8cfcc3	-1.5696834867847407
47	0x3fe9d6ef5394b790	0.8074871666374168
48	0xbfea9475f72c2cbe	-0.8306226565922754
49	0x3feafb89536c7f5a	0.8432051305171442
50	0xbffc2a863ea23953	-1.7603819319370657
51	0xbfc39a90bf190a8b	-0.15315446215580084
52	0xbff0d68977154518	-1.052377190750411
53	0xbfc678e2448440be	-0.17556408257997264
54	0xbff54f7cc287770c	-1.3319060896678279
55	0x3fc975bb18122f5d	0.19890535998672024
56	0xbfeb50a5411c83a5	-0.8535944244105066
57	0x3fa8fd5b8eef2c00	0.048807965467482006
58	0xbff05ef599d54686	-1.023183442030502
59	0x3fe1166ef0632200	0.5339884467185243
60	0xbfe58b56a2eb4f8a	-0.6732590848937303
61	0x3fcf586a4335e283	0.24488571435701453
62	0x3fd907c5e8022917	0.3910994306285302
63	0xbff4ed4feb101d88	-1.3079375440737255
64	0x3fcfa4d8ff7e93b1	0.2472182509929133
65	0xbfd6c72e0d23780e	-0.3559069755846175
66	0xbfa78b97c7e7dcb4	-0.04598688426261202
67	0x3ff0360f0e44e002	1.0131979520210739
68	0x3fe4573f2ee3bc6c	0.6356502452671413
69	0xbfe3a8f616f8b3f2	-0.6143751572286631
70	0x3fe734161ff00ef8	0.7251082061561354
71	0xbff557fb3e921817	-1.3339798397223654
72	0xbfd1f5459e4dad44	-0.2805952115947614
73	0xbfd6112fd6df98b0	-0.34479900344593784
74	0x3fe07074a89d381b	0.5137275021786566
75	0x3ff3dd2d1a1177d6	1.2414980905809805
76	0x3fcba7311e75c721	0.21603979098613826
77	0xbfe47994ca8f7e27	-0.6398414570102816
78	0xbfe0d8903dda306b	-0.5264359672596702
79	0xbfe2b3d8a58cb3e2	-0.5844538911238681
80	0xbfea786b86e9fc97	-0.8271997103728549
81	0x3fdff9e435de31ce	0.4996271635107207
82	0x3ff4c6bf2a9087a3	1.298522154109812
83	0x3fd2123b36a3c76e	0.28236275039591063
84	0x3ff0bb9cb139df40	1.0458037302868917
85	0x3fe80280e3da6e97	0.7503056001910008
86	0xbfe0021b22da88c2	-0.5002570801482522
87	0x3fe9ab78a11f0c81	0.8021815440082635
88	0xbf913aff3b25a2d6	-0.01682661818032013
89	0x3fe415affade5f00	0.6276473903444355
90	0x3fec436faf2db3e9	0.8832319661574931
91	0xbfd3ede0ec887192	-0.3113939580814754
92	0xbfde9a0a1fdae03b	-0.4781518279155567
93	0xbfdc0df5b5463af1	-0.438352038408012
94	0x3fb32e6d9629afb2	0.07492718616566554
95	0x3fd90dbe3a3db6c1	0.3914638108025024
96	0xbfe26886d5a3f7e4	-0.5752596066156426
97	0xbff282a700ce4aa4	-1.1568975478627772
98	0x3fe8cf4f7b0d844e	0.7753064540266992
99	0xbfdb1509007dd253	-0.42315888450619815
100	0xbfd227bf9142635e	-0.2836760443256504
101	0x3fe2ff5b309a1376	0.5936714123969142
102	0xbfe29b12a2c65624	-0.5814297846979497
103	0x3fc8ee9af36f07b3	0.19478165518199617
104	0x3fe5efbf0497a621	0.6855158891386887
105	0x3fe687e6975b25bc	0.7040894466564889
106	0xbff430d50584a1c1	-1.2619219031858935
107	0x3fbabf7262ef6f57	0.10448374667560976
108	0x3f80d599b2822917	0.00821991039289975
109	0x3fd977f47fb1af18	0.39794647665142824
110	0x3ff1a37e9be9ebd8	1.1024156656628659
111	0x3fde57314cd1e1f5	0.47407181264819026
112	0x3fead16e4bd31798	0.8380652886341862
113	0xbfd05b318e8d5d5e	-0.2555660144912134
114	0x3ff637f3331bb1ed	1.3886596676267076
115	0x3fbf34aa0b0f6c80	0.12189734239602679
116	0xbfec3119c3914547	-0.880993730514242
117	0xbfe8d5db75535b8c	-0.7761056224361353
118	0xbfd6a49b713c5108	-0.3537968259636419
119	0xbfd77325fc32ac30	-0.36640309933381143
120	0x3fd8b5d2d3469171	0.38609762794864994
121	0x3fe1a1fa31ba9c28	0.5510226222294294
122	0x3fcfa6a8095c02c6	0.24727344948771285
123	0x3fcec7a1daa78f1a	0.24046729256144134
124	0xbfd4368555e1e140	-0.3158276880926856
125	0x3fc95b3ca2f6213b	0.1980968280515841
126	0xbfdf14e5c29a61ee	-0.48565048221783413
127	0x3fd6ca890d32ff47	0.35611177720055703
128	0x3fb4ff4e49f3b3b2	0.08202065759151259
129	0xbfeb42e3580b16eb	-0.8519150466533721
130	0x3fe74ec842026ecb	0.7283669747589213
131	0xbfe58fdf7563b840	-0.6738126080288183
132	0xbfb5a8abd2249a31	-0.08460496788448137
133	0x3fea1df201dd40d2	0.8161554371272592
134	0xbff34a50dc6cd340	-1.2056435213427932
135	0x3feccf4dbe85f62c	0.900305626025959
136	0xbfebd680c8356b6c	-0.8699344549489587
137	0xbff23e9ec57603fb	-1.1402881348915332
138	0xbfe03b261e9d45e4	-0.507220325273178
139	0x3fe7ac2845a738f5	0.7397652969755472
140	0xbff00a1b85409ff8	-1.0024676518605684
141	0xbfad1c82920d1e90	-0.05685813935138839
142	0x3feaff320bb53f26	0.8436517933532499
143	0x3fe8a8c7cbdf3ff1	0.7706030828358036
144	0x3ff201b01d17a45b	1.1254120956821427
145	0xbff8e896aaaf35a7	-1.5567843119964466
146	0x3fe22237d9253b93	0.5666770211336022
147	0x3fe602723af3d5a5	0.6877986098685837
148	0x3fff3d0bb751e3a1	1.9524037514622494
149	0x3ffd0e6806f0c2b7	1.816017176734176
150	0x3fce2b89bc246428	0.23570367514256074
151	0xbfe15c49caba828c	-0.5425156554739075
152	0xbfecdb4efdfcf2fa	-0.9017710648255097
153	0xbff876a2c90d947e	-1.5289638379702235
154	0x3fed801d7cbe8493	0.9218890606317863
155	0x3feb9f60f38bd795	0.8632054096949441
156	0x3fe775777c7f4b85	0.7330892020785177
157	0xbfe8a6c6953e28c9	-0.77035836361872
158	0xc00a2f81888feb1b	-3.27319628419117
159	0xbfe4b6b6cd93db34	-0.6473039641558445
160	0xbff262e8c9afe364	-1.149147785034267
161	0x3feb397cffbbebca	0.8507676119619358
162	0x3ff7fd81562c28ec	1.4993909231293925
163	0x3fe2e944cdf8d3ff	0.5909751913919762
164	0xbfda695be49e7b3f	-0.41268060041504734
165	0xbf9865eb323d1885	-0.023826289120983297
166	0xbff7407af79464c0	-1.4532422705727157
167	0x3fe0ce74d239447a	0.5252021890575087
168	0x3ff0cba27a35ba87	1.0497154973815286
169	0x3fafa2dcfcb9a510	0.06178942284607036
170	0x3fe6eb0e1c0b4137	0.7161932513936681
171	0xbfca416488add06d	-0.20512062715318127
172	0xbff08861a4d43559	-1.0332962454443388
173	0xbfc5ecd9ee52b028	-0.1712906278311277
174	0xbfd65f3770196229	-0.34956155726607335
175	0x3f9db2ea5830409e	0.0290028206182461
176	0x3fd8625153d8a3f9	0.38100083530531453
177	0x3fe0bd4853b1d3e7	0.5231057772313051
178	0xbffecfe41aa0f6bf	-1.9257546463190207
179	0xbfe59cb55dfca69b	-0.6753794513399102
180	0xbff5a2a4a604a38a	-1.352207802303584
181	0x3fc9666b8164a3aa	0.19843810861609984
182	0x3feeac14b19f4682	0.9585059613402367
183	0xbfe6cef212b156fb	-0.7127619137852145
184	0x3fd2f29f869b56b2	0.2960585417289209
185	0x3fea8c6b027c52b2	0.8296408699557871
186	0x3fbb4bf3ea5a511c	0.10662769767288122
187	0xbfc59ce2c88d2478	-0.16885027687593257
188	0xbfec8c8d4cbde437	-0.8921572207319802
189	0x3fd52e320332849a	0.3309445410942061
190	0x3fb878dd9f1f1223	0.09559426436232647
191	0x40006e7ec900923c	2.0539527610110593
192	0xbfb9a51160ea2d1b	-0.10017498603899748
193	0x3fe59776628abcbe	0.6747390675208391
194	0x3fdeb41a7d7f7517	0.4797426438870657
195	0x3ffbdcb402f3a3e2	1.7413826098729648
196	0xbfc1f13b42cffc64	-0.1401743007881776
197	0xbff6d46edc04a5ee	-1.42686353630631
198	0xc0005459aa7cee0a	-2.0411866492629587
199	0xbff410dba7145907	-1.2541157270948717
200	0xbfbd4604491e43f7	-0.11434962067711739
201	0xbff44a99a19cdcf4	-1.2682129204748067
202	0x3fc74f397114469c	0.18210523625798636
203	0xbfcf072c5303098b	-0.24240640691102686
204	0x3ff5331a72c5c258	1.324976394968095
205	0xbff37e5cab416836	-1.2183500947635486
206	0xbfe8a6a9c5fa7521	-0.7703446261181491
207	0x3fd61d25991cb8c2	0.34552898361551965
208	0xbfe6d2c1dc495083	-0.7132272055118992
209	0xc00277a46c977621	-2.308419082996594
210	0x3fcd6928ccfaef0c	0.22977170952605552
211	0xbfb928f8b5704510	-0.09828142575885956
212	0xbfee47bb95274e79	-0.9462564385562039
213	0xbfc6700b98cbe05f	-0.17529435120354983
214	0x3ffb229ff1ff65e1	1.6959533169778
215	0xbfc0c42bbd1f6962	-0.13098665937907145
216	0xc0016933a55b7c1f	-2.1763680380386314
217	0x3ff8ac52c7d2d456	1.5420711331946868
218	0xbffd4c606d2aa550	-1.831146646911595
219	0x3fc30d28caba7860	0.1488390912899744
220	0xbff2bf90916b459a	-1.171768730204667
221	0xbfdb49e38f839494	-0.42638482108152087
222	0x3fdda1c5514a947d	0.46299870432478213
223	0xbff0eee6ee053b73	-1.0583257005380033
224	0x3fbfdba1fadec7fe	0.12444507956277559
225	0xbffb248d63b88ee8	-1.6964239020680285
226	0x3ffac91ae1295688	1.674097899949091
227	0xbff02fe408e39666	-1.011692080233297
228	0xc00220ea89833b95	-2.2660723441289954
229	0x3ff605ff91079d41	1.3764644303535791
230	0x3fc34932ae10a2ac	0.15067132472292621
231	0x3fec34ee32faeb4c	0.8814612384515867
232	0xbff0c6310d0ebd74	-1.0483866224347738
233	0xbff8052c7bc26e88	-1.5012631258349831
234	0xbff06a7174d34cf3	-1.0259871066562567
235	0xc002cae889f92d02	-2.349076345364325
236	0x3fed8094ff089dbc	0.9219460469366179
237	0xbff3d888b02ef34e	-1.2403647310413422
238	0xc0004a6a2da421fb	-2.0363353315080963
239	0xbfddb3ab3fe02d15	-0.4640911220346465
240	0xbfd283cde3d44e99	-0.2892946934600587
241	0xbffc80d8d3a19d48	-1.7814567820403955
242	0xbff51b38b7e31b8b	-1.3191458876696938
243	0xbf9c9e5fac6a023e	-0.027947897814103444
244	0xbff585e7766feff4	-1.3451914431052474
245	0x3fd03f45c8beb50e	0.25386185268401185
246	0xbffa404805b3b133	-1.6406936857920982
247	0xbfcd54a538e0826d	-0.22914567258068833
248	0x3ff8a3ac0a8c1640	1.5399589931488578
249	0xbfe4c506a592663f	-0.6490510209870947
250	0xbfef59cad74f0171	-0.9797109799620057
251	0x3fb7cf06bd2f218b	0.09300272101166322
252	0xbfc52f4649947a67	-0.16550520508549768
253	0xbfc8b1fe271de201	-0.19293190870281765
254	0xbfefd85517de2503	-0.9951577631156002
255	0xbfde0e174b4bd0b6	-0.4696100459398268
