models/modelRNN_lang2_abSeq.pt (torch, 511587 bytes, 9 tensors)

rnn.weight_ih_l0 f4 [256, 300]
00000000: 48ae bfbe 6161 87ba 48af aebf bef5 80bc
00000010: 6813 8abe b23e 573f 5213 a5be 36a2 843e
00000020: 9dad a5be e4a3 d03d 86de 69bf 224f ef3e
00000030: da7c ee3e ea27 05bf 06d2 8d3e 162e c6be
00000040: d495 003e ae9d c6be ef8c 873d 4204 bd3e
00000050: ea50 033e 3363 17bf 059a b1be c884 933e
00000060: 534a d3bc 6ff6 f73e ef57 4c3f 8102 2d3f
00000070: 7190 82be 8c46 0dbf 6d6f e43c 6b10 303e
00000080: 4b5e a6be d33c 35be 7a02 9cbe c7fd 8e3f
00000090: d0fc afbe 43bb 233e 8e72 923d 5451 9c3f
000000a0: 0ad0 d8be a9f3 14be 1c60 ffbe 2a3f c23e
000000b0: 2e81 f63e cd88 5c3c 8235 a1be fe32 12be
000000c0: a859 9b3e 3be4 b3bd 5959 f2be c61b 733f
000000d0: 59ff eb3e f643 e63e cd2f f1be 285b 633e
000000e0: 6564 eebe 86ef 73bf 6289 bd3f 4f36 68bd
000000f0: 0415 423e 5011 833e 2738 f1bd 86f7 203e
00000100: a44e cebe cadd 8e3e 2b90 263f b7e6 123f
00000110: 1d16 eabe b2c0 fcbe cb95 083f 6ef9 75be
00000120: aab1 dbbe d49e 083e 3835 2abe 314c 91be
00000130: e223 a7bf d309 82bc 9056 b2be 9f06 87be
00000140: 15cf 82be 82c6 30bf 9b9a e8be d002 963e
00000150: 4eb2 473f dd21 1bbe 0b8d 38bf cd19 41bd
00000160: 5bdf 15be 5af6 2d3e 7c33 09bf 261d 4e3f
00000170: 229a 583e 5834 a73d 8a44 303f 5347 973e
00000180: 57f5 0ebf 2f12 1cbf 648a c03d 9a06 e13e
00000190: c482 873f 251d 0cbd 7109 3b3f 6e27 1cbf
000001a0: 0104 8ebe fa97 21bf ad64 01bf 6da9 a73e
000001b0: 1c5d 48bf 06e6 3a3f 085c 113f 291e 46bf
000001c0: 0515 9cbf 255b a43e 5a39 5abf cee4 c33e
000001d0: b895 56bf c271 373e 6110 b9bc b49b 763d
000001e0: 057c 513f 79b6 28bf bc7c cfbf bc76 833e
000001f0: 475b 2d3e 87a8 d8be 63fd c2be e707 8dbe
00000200: 7916 17bf 251e a7be 2b53 273d de59 11bf
00000210: bf3e 313f b5e2 d6be 2981 a33c ef9d 01bf
00000220: ae18 2a3f bd46 b93e d6a2 24bf 239d 023f
00000230: 92a2 36bf 99ad b1bd eff8 88be 3117 51be
00000240: 776c fa3d a3f3 2c3f 3e56 8a3f a93e 7f3f
00000250: 94b3 633f e4da 2abf 56d0 adbe f62c b5bd
00000260: 86e4 b4be 5279 94bf 3476 0dbd 95df 5e3e
00000270: dd30 c23e 212a 223f 7fb1 3cbe ae8b cc3d
00000280: 3d5e debd dc3f 76bd 0ad5 b2be 1bad cbbf
00000290: 3aeb 0fbf aa32 0d3f 6f4d 27bf b56a 10bf
000002a0: d4e0 133f 0ff1 aa3d 4f86 443c 1a73 08bf
000002b0: 8cea 8c3e 1187 05bf 4584 58bf 2803 cbbe
000002c0: 3700 dabe 58a4 0fbe b039 1abf 3410 96be
000002d0: dd15 093e 6f2d a73f 9557 5b3e a6f0 913e
000002e0: c140 44bf 75e5 5fbf 86d0 163f 266d 9d3d
000002f0: f053 04bf 0125 32be ec22 a23e 873a e8bd
00000300: f78d e6be 4304 10bf 3ac1 713f b4b5 65bf
00000310: b5fa 1d3e 583d 19bf a227 d53d 44ec 21bf
00000320: 0442 43be f77b c2be 2e70 21bb 9093 05be
00000330: 5c92 3dbe bc58 093e cd97 0dbf 15ce d23e
00000340: 0aef 64be b504 ce3e fa5c 12be c52c 8a3f
00000350: 7bed 95be 1218 ea3e 9f16 1e3f 5a07 93bf
00000360: 0487 c13e 6bbb 46bf 87e7 973e 1d47 d73e
00000370: 8c2a 6dbf 2135 5cbe 15a3 d93d 00dd 72be
00000380: bbb6 2dbf b161 22be b1b5 1abe 9996 18bf
00000390: 55b8 8dbf bb2e d33d 8c87 47bf 85c2 883e
000003a0: b5b9 b53e 728c 973d 2d35 173e 0c1b 25bf
000003b0: 7617 57bf d975 0dbd ff25 033e a175 4ebf
000003c0: da2d 2fbf 2336 8b3f 7642 d7be ddf5 073f
000003d0: 5cf7 9cbf 44f5 2dbf 111e 11bf 7b19 f43e
000003e0: 9eb2 eb3e 0149 32be d59d 2abe a38f 6c3e
000003f0: f81d c2bd 8680 5d3e 10a2 2fbf a058 c23e
-0.37437654 -0.0010328704 -1.3647242 -0.015742179 -0.2696793 0.8408004 -0.32241303 0.25905007
-0.3235902 0.1018751 -0.9135517 0.4674006 0.4657963 -0.5201403 0.27699298 -0.38707036
0.12557155 -0.38792175 0.06618678 0.3691731 0.12823835 -0.5913574 -0.3468782 0.28812242
-0.025792276 0.484302 0.79821676 0.67581946 -0.25500825 -0.5518577 0.027885163 0.17193763
-0.32493815 -0.17698984 -0.3047064 1.1171197 -0.34372568 0.15989403 0.07150756 1.2212319
-0.4234622 -0.14546074 -0.49878013 0.37938815 0.4814543 0.01346035 -0.31486136 -0.14277264
0.3034184 -0.08783766 -0.47333792 0.94964254 0.46093252 0.44973725 -0.47106782 0.22202742
-0.4656097 -0.9528736 1.4807551 -0.056692418 0.1895333 0.25599146 -0.11778288 0.15719423
-0.40294373 0.27903587 0.6506373 0.5738329 -0.45719996 -0.49365765 0.53353566 -0.24020931
-0.42908984 0.13341838 -0.16621864 -0.28378442 -1.3057826 -0.015873825 -0.34831667 -0.2637224
-0.25548616 -0.690529 -0.45430455 0.2929902 0.78006446 -0.15149637 -0.72090214 -0.047143746
-0.14635985 0.16988507 -0.53594184 0.80513227 0.21152547 0.08164281 0.6885458 0.29546604
-0.5584311 -0.60965246 0.09401396 0.4395035 1.0586782 -0.034207482 0.7306128 -0.60997665
-0.2773743 -0.6312252 -0.50544244 0.3274645 -0.78267074 0.7300724 0.56781054 -0.7738977
-1.2193915 0.32100788 -0.8524376 0.38260502 -0.838222 0.17914489 -0.022590818 0.060207084
0.81829864 -0.6590343 -1.6209941 0.25676525 0.16929351 -0.42316076 -0.38083944 -0.27545092
-0.59018666 -0.32640186 0.0408508 -0.5677775 0.6923637 -0.4196984 0.01995905 -0.5063161
0.6644391 0.36186782 -0.6431097 0.5102102 -0.7134181 -0.08675689 -0.2675242 -0.20419003
0.12227719 0.6755926 1.0807569 0.99704987 0.8894589 -0.6674025 -0.3394801 -0.08846466
-0.353306 -1.1599524 -0.034536555 0.21764977 0.37927905 0.63345534 -0.18427084 0.09987579
-0.10857818 -0.060119495 -0.3492816 -1.5912203 -0.562183 0.5515543 -0.6535253 -0.5641282
0.57764935 0.083467595 0.011994912 -0.5330063 0.27522695 -0.5215922 -0.8457683 -0.39650846
-0.4257829 -0.14027536 -0.60244274 -0.29309237 0.13387246 1.306074 0.21420129 0.28503913
-0.76661307 -0.874595 0.5891193 0.07686834 -0.5169058 -0.17396928 0.31667268 -0.11339288
-0.45030186 -0.562565 0.94435465 -0.8973038 0.15427668 -0.5985923 0.1040795 -0.6325114
-0.19068152 -0.37985203 -0.0024633515 -0.13044572 -0.18512863 0.13412756 -0.55309755 0.41172853
-0.22356811 0.40237966 -0.1429328 1.0794913 -0.29282746 0.4572149 0.6175327 -1.1486619
0.3779832 -0.7762973 0.2966883 0.42046443 -0.92643046 -0.21504642 0.106268086 -0.23717117
-0.6785695 -0.15857579 -0.15108372 -0.59604794 -1.1071879 0.103116475 -0.77941203 0.26710907
0.35493246 0.07399835 0.14766379 -0.64494395 -0.84020174 -0.034536216 0.12807463 -0.8064824
-0.6842934 1.0875896 -0.42042893 0.5310953 -1.2262988 -0.6795237 -0.566865 0.4767569
0.46034712 -0.17410661 -0.1666177 0.23101668 -0.09478372 0.21631059 -0.6860666 0.3795824

rnn.weight_hh_l0 f4 [256, 64]
00000000: 16fc b83e 4aa0 cebd c610 dcbd 7ef4 273f
00000010: c1b3 993e 0854 67be dbdb 6fbe 50bc 7e3e
00000020: 3c4e 813f 1fc4 97be 4426 203f 1153 463f
00000030: cff0 cabc b07e aa3e 9e48 93be 0e60 96bc
00000040: 58d7 65bf 915f 36bf 2759 9dbf 4db3 e5bc
00000050: bbfc fe3e 4902 da3e a8ff a23f f4b8 fbbe
00000060: 4141 62bf a7f3 bfbe 0a29 053f 3e66 4d3d
00000070: 5d21 993c 07f2 453f 11fa 343e 0b39 4a3d
00000080: 5690 de3d d358 2a3f 27a6 a7be 2153 a2bf
00000090: 4e5e 20bf 356c a73e 183e 483e 7f74 0fbf
000000a0: 6590 50bf 2e2e 2ebe 5fa5 d73e 74e2 a8be
000000b0: d1cb e8bd 1d64 85be 7f78 623f c30a 5fbf
000000c0: bdcf 0f3f 720f 47bf 8123 003f 81a1 5bbf
000000d0: 3fc1 a93e 8dc6 86be 8f2b 3dbf d211 253d
000000e0: 48d3 703f c2d0 35be 0aa4 4abe a811 bd3f
000000f0: 6a95 45be 81f1 2cbf f7c6 1e3e 2dfc 74be
00000100: 9e9b 803f 9db9 b2be 6a6c 443e 9cf6 d63e
00000110: 8680 dfbe d30d 9fbd 38de 7b3f 66c2 45be
00000120: e2ea 04be 1ff8 b9be 35f9 af3e 16be b23e
00000130: 997b 293d a106 963f e863 f6be 04c9 70bf
00000140: 1a0b dd3e be40 5b3f 9318 ad3e 5454 dabe
00000150: fb51 9ebd 793a ff3d 257b b7bc 5e34 313f
00000160: 083a 46bf 0391 5e3e 66f3 02bf 574c cabe
00000170: 9513 3c3e 703c 0bbf cacd 5bbf 3167 343f
00000180: 2a6f aebe e8fb 623e ef97 d0bc 6eae 1c3e
00000190: a20b 80be 2596 a2bd a09b 7d3e e051 d23e
000001a0: 85b8 643e af12 a13e f4ce adbd b414 763e
000001b0: 31a1 b4bf c10b 0d3e c8fa 3fbf ba79 b4be
000001c0: 8904 bc3e e85e 623e 4719 04be 7d1e 2e3e
000001d0: 4c56 96be dc0c 993f c573 9cbe c7c4 883d
000001e0: b8bb 40bf 2fa6 833f f25f 3dbf ec5f 173e
000001f0: 9c88 033f 30d6 67bf 84a7 e4be f1f2 52bf
00000200: f1ea a13d a625 aebf 9113 e6be da1c b93e
00000210: ea0d aebe 4362 0d3e 6f4b b43e c9d2 173f
00000220: 9021 aabe de01 35bf 24ee d13e 490f e33d
00000230: 9594 b53f d3ff 243f 7e1a 3ebf 96f6 28bf
00000240: a0cb 793f f233 13bf 8753 90be 8c83 38bf
00000250: 7371 4e3d af93 a3be 3c72 26be a010 723f
00000260: 4c20 81bf dcfb fc3e 8a4b 27bf 6ed7 cbbe
00000270: f9b9 8b3f 0020 d7bd 99e3 e2be b521 313f
00000280: 3109 cbbe 2957 d4be c48e 56be 4d38 263e
00000290: 25fa 5a3e 9885 2c3f 1777 15bf 55f8 c73e
000002a0: 76df e1be 1b08 753f 27be 64bd 2fe9 dc3e
000002b0: b706 41bf 7cee 8a3e 1331 083e 82c2 203f
000002c0: c13d 3d3f c392 3f3c b9fa 22bf edae 28bf
000002d0: 340d 383f da8f 823f 6de3 57be d869 36bf
000002e0: 3b27 6ebf bba9 d43d cd5a 2e3f df3d a33e
000002f0: f2e0 89be ec1e 48bf cf85 7e3f caf1 1f3f
00000300: 6bf3 783f 5147 023f e4e9 043e 24bf e33f
00000310: be0e a43f 2a25 b0be 1fec af3e be9f d53e
00000320: ddbf 913f 1488 c33f 3ca9 a13e de5c d7bd
00000330: 531f 793e e2ca 8f3f 56d7 1dbf 1d42 cfbd
00000340: 292b 8abf 2acb 98bd dca4 6bbd 2c9c 0dbe
00000350: c7b1 7f3f e42b 353f 92b2 d2bd 8f9e 48bf
00000360: cd00 2bbc 2717 3dbf 8643 a9bf 4139 143e
00000370: 0a81 a73f 3de9 813f 0c24 35bf ea7b b83e
00000380: cd92 1abf 1d05 4a3d 8c33 373f 41c7 9ebe
00000390: 1058 26bf ba3a 3a3f db11 e13f 1108 9cbe
000003a0: 09a9 453d a176 2fbf 0819 b83f c9c2 583f
000003b0: 40bc 653d c1d2 92bc c7a2 67bf 8245 ebbc
000003c0: ebb3 7e3e d83e 35bf afd5 54bf f9ce 6a3d
000003d0: 2698 223d edf9 733d ed69 b1be 1164 1ebf
000003e0: 7ea0 423f bea7 c73e 4f7e 08bf 2d07 f2be
000003f0: 3c21 e73e 7bd1 febe f5e9 dcbe e60c 743e
0.36129826 -0.100891665 -0.10745387 0.6560744 0.30019954 -0.22590649 -0.23423712 0.24876523
1.0102 -0.29641816 0.6255839 0.774705 -0.02477303 0.3329978 -0.2876634 -0.01835635
-0.89781713 -0.7123957 -1.2292832 -0.028039599 0.49802193 0.42579868 1.273427 -0.49164546
-0.8838082 -0.3749058 0.52015746 0.050146334 0.018692667 0.7732243 0.17673518 0.049370807
0.10867374 0.66541785 -0.32743952 -1.2681619 -0.626439 0.32699743 0.19554937 -0.56037134
-0.8147033 -0.17009804 0.42118356 -0.3298527 -0.11367 -0.26052943 0.8846511 -0.87125796
0.5617636 -0.7775794 0.50054175 -0.8579331 0.33155248 -0.26323357 -0.7389459 0.040300198
0.9407239 -0.17755416 -0.19789138 1.4771013 -0.19295278 -0.67556006 0.15505587 -0.23924322
1.0047491 -0.34907237 0.19181982 0.41985023 -0.43652743 -0.07766309 0.98385954 -0.19312438
-0.12980226 -0.36322114 0.34369817 0.3491065 0.041377638 1.1720773 -0.48123097 -0.94056726
0.43172532 0.85645664 0.3380781 -0.42642462 -0.0773048 0.12462325 -0.022397587 0.6922053
-0.774323 0.21735005 -0.51152647 -0.39511368 0.18366845 -0.54389095 -0.85860884 0.7046996
-0.34069186 0.22166407 -0.025463073 0.15300915 -0.25008875 -0.07938794 0.24766397 0.4107809
0.22336014 0.31459567 -0.08486739 0.24031335 -1.4111692 0.13774015 -0.74992037 -0.3524912
0.3672221 0.22106516 -0.12900268 0.17003818 -0.29362714 1.1957049 -0.30557075 0.06678157
-0.75286436 1.028509 -0.73974526 0.14782685 0.51380324 -0.905612 -0.44659054 -0.8240195
0.0790614 -1.3605239 -0.44936803 0.36154824 -0.3399499 0.13807015 0.352138 0.5930601
-0.3322873 -0.70705974 0.41002 0.110869 1.4185969 0.64452857 -0.74259174 -0.6600126
0.9757633 -0.5750114 -0.28188726 -0.72075725 0.050401162 -0.3194861 -0.16254514 0.9455662
-1.0087981 0.49410903 -0.6534964 -0.39812797 1.0916129 -0.105041504 -0.44314268 0.6919206
-0.3965545 -0.41472748 -0.20952898 0.16232415 0.21384485 0.6739135 -0.5838484 0.3905665
-0.441158 0.9571549 -0.055845406 0.43146655 -0.7540087 0.27135074 0.1329997 0.62796795
0.73922354 0.011692706 -0.6366382 -0.65891916 0.71895146 1.020015 -0.2108285 -0.71255255
-0.9302861 0.10383936 0.681073 0.3188314 -0.26929432 -0.78172183 0.99422926 0.62478316
0.97246426 0.5089007 0.12979847 1.7792706 1.2816999 -0.34403354 0.34359834 0.41723436
1.1386677 1.5275903 0.31574428 -0.1051576 0.24328355 1.123379 -0.616567 -0.10120032
-1.0794421 -0.074606255 -0.05753027 -0.13829106 0.9988064 0.70770097 -0.10287966 -0.7836694
-0.010437203 -0.7386345 -1.3223732 0.14474966 1.3086255 1.0149304 -0.7075813 0.3603204
-0.6038025 0.049321283 0.7156303 -0.31011394 -0.6497812 0.7274586 1.7583574 -0.30474904
0.048256908 -0.6854039 1.4382639 0.8467222 0.056087732 -0.01792276 -0.90482754 -0.028719667
0.24873321 -0.70799017 -0.83138555 0.05732629 0.03969588 0.05956452 -0.34651127 -0.6187144
0.7602614 0.38995165 -0.5331773 -0.472711 0.45142543 -0.49769196 -0.43147245 0.23833045

rnn.bias_ih_l0 f4 [256]
00000000: fae9 babf 0f2d b0bf 958b 95bf fc96 063f
00000010: b8fb bdbf 844b 93bf ba12 84bf 535b 78bf
00000020: 2488 f93f fba2 2fbf 1be2 873d 8d4b ebbe
00000030: fe4a 89be 4e22 dcbe f5b2 92bf 78b9 873e
00000040: b5a2 08bd 0d35 aabf 44f2 a0be 72dd d4be
00000050: 5833 10bf e5e5 d4bf c7c2 67bd b04c 8abf
00000060: 112d 47bf 4051 a8bf 8196 26bf 04f7 ba3f
00000070: de95 c4bf df2d c83d 051f 93be d58d 91bd
00000080: cfc8 27bf dbc1 a73d 2e33 a0bf 853b ca3d
00000090: 9a4e 67bf a46c 7cbf dda9 eebe d5e1 6dbb
000000a0: 0a5b 6fbf 5b29 3dbf cfe8 1abe f9b9 50bf
000000b0: 7dd8 b83e d911 80bf 9706 b6bf f12b 03be
000000c0: 0ed8 9b3d 8a38 88bf 4027 62bf a9b6 33bd
000000d0: 5a4a d9be 405a 4abf 9424 87bf 7cd6 c1bd
000000e0: 97bd 5bbf 0a5a 28bf c521 74bf 7d7a 763c
000000f0: 37d4 75bf 15d4 aebf 1028 47bf aa6a d5be
00000100: ae80 e0bd 29af 28bf 3b50 ccbe d907 d1bf
00000110: b889 ba3d a304 043e b211 883f a224 01bd
00000120: 1b2f 34bf c3b6 58be 817d 95bd d933 e83d
00000130: f3ff 6dbf da09 ddbe fc8b 2dbf a71a 9fbf
00000140: cc83 003f 9f21 a2be 5488 62bf d608 89bf
00000150: 0651 3ebe bcac 27bf a3af e5be 3cc7 c23e
00000160: 7725 9a3e dab9 c6bf 03a7 8e3e aa0a f6be
00000170: fe0a 993d 4025 8cbf aee4 ac3d 3d41 8fbf
00000180: 74b8 043e f5c0 23bf 0d67 2d3f bc00 52be
00000190: c1d6 f23e 6b19 33be 33c4 31be 8925 d1be
000001a0: e3e6 3b3e a8cd 4cbf 676b 423f c13c 7dbe
000001b0: 7ae6 1c3f b554 42bf 18fd 16bd 0cc2 e2bf
000001c0: 669e 16bf 1822 86be 12aa a7be cd60 52bf
000001d0: becd 9dbf 0c2e bbbf 960b f6bd b796 58bf
000001e0: 7de7 933f 0ca4 153f e3f9 21bf 87a9 a5bf
000001f0: 5f00 563f bcc0 42bf 2b54 a3bf e7f7 36bf
00000200: 167b 1d3e 1023 0ebf 3875 6a3d 0772 93be
00000210: af11 033f d639 873d a7c7 c1be 8fc3 c5be
00000220: 3191 87bf ab92 313d 5396 9abe 4932 bcbe
00000230: de8f 1c3f 5b0d b53e 97d8 23bf 4bc1 02bf
00000240: 22a4 043f 9383 49bd 8896 623f b13c 2ebf
00000250: 76f7 0ebf 03b1 42bc 7108 3dbe d0aa c5bd
00000260: 1da6 d53e f9f8 173f 06de 25bf 9757 d4be
00000270: 598b 643e 7a16 94bf de33 15bf d1a9 c1be
00000280: 6e6f 6dbf d49c 663e 81ce 53bd 2212 603c
00000290: ac2f 343e 4149 0c3f 1f8f 31bf 5eeb 5f3f
000002a0: 2146 bcbc 0519 393f da11 89be ab12 043e
000002b0: 5292 4e3e a82f 063e a04d 433e 40cf 11bd
000002c0: 2e52 4cbf 4eb9 933e cb15 fb3c 26bb dfbd
000002d0: 816f 3fbf 9b50 e33e 7492 d83e c1d4 68be
000002e0: 3690 683f 3a5e 003f 0ff3 983e 29b2 77be
000002f0: 6e09 e0be 7ed0 093e 6f5d c13e e407 053e
00000300: 5869 35bf ce3c 8fbf bac6 94bf a107 8fbd
00000310: ea1c 07be 015e d6be 7d0f 82bd a349 afbd
00000320: 0394 2f3e d1a3 1abf b516 9b3f 4fa0 1bbf
00000330: 7365 dbbe 66bd 9cbe f708 6abf 6e6d b63c
00000340: bc0b 0d3d 94d4 28bf 47ab 843d 4dfe 77bd
00000350: 2207 c83d 15ff 7ebf fe13 20bf 4111 2bbd
00000360: 8686 1bbf 694f b3bf efd2 a3be 1f2b 79bc
00000370: b987 24bf a873 873f ae2e 20be 6b41 11bf
00000380: 73c3 9dbe 088d 783f ba39 dbbf eb8d 7e3e
00000390: efb2 6cbf 38b3 3cbf f9db 32bf 4950 09bf
000003a0: 8fe8 4ebf 93c3 3fbf bb0d a53d 1fa2 80bf
000003b0: 5062 b8bd c8fc 0ebf 0178 1abf ae9d bfbe
000003c0: 6c7e 013f f753 52bf 1912 b1bf f041 de3e
000003d0: 5959 e2be d9e4 0abf ea1e 1dbf 422c 21be
000003e0: 8dd2 e8bd 60ee 6cbf 03f7 9cbf 1ce9 8abf
000003f0: 2eac b2bf e26b 8abf 50d2 02bf 8fac 29bf
-1.4602654 -1.3763751 -1.1683222 0.52574134 -1.4842443 -1.150742 -1.0318215 -0.9701435
1.9494672 -0.68608063 0.06634923 -0.45956078 -0.26815027 -0.42994922 -1.1460863 0.2650869
-0.033358295 -1.329744 -0.31434834 -0.415752 -0.56328344 -1.6632658 -0.05658224 -1.0804653
-0.7780314 -1.3149796 -0.650734 1.4606633 -1.5358236 0.09774374 -0.28734604 -0.071071304
-0.65540785 0.08191272 -1.2515619 0.09874634 -0.9035431 -0.9860327 -0.4661397 -0.0036297936
-0.9349829 -0.7389123 -0.15127872 -0.8153377 0.36102667 -1.0005447 -1.4220761 -0.12809731
0.076095685 -1.0642254 -0.8834114 -0.04387537 -0.42439538 -0.7904396 -1.0558038 -0.09464738
-0.85836166 -0.6576239 -0.9536403 0.015043852 -0.9602694 -1.3658472 -0.77795506 -0.4168294
-0.10962044 -0.65892273 -0.3990496 -1.633052 0.09108299 0.12892394 1.06304 -0.031529076
-0.7038438 -0.21163468 -0.072993286 0.11338014 -0.9296867 -0.4317158 -0.67791724 -1.2430009
0.50201106 -0.31666276 -0.8848927 -1.0705822 -0.18585595 -0.65497947 -0.44860563 0.3804263
0.30106708 -1.5525467 0.27861795 -0.4805501 0.074728 -1.0948868 0.08442055 -1.1191784
0.12960988 -0.63966304 0.6773537 -0.20508093 0.4742947 -0.17490165 -0.1736 -0.4084895
0.18349795 -0.80001307 0.7594513 -0.24730207 0.6128918 -0.759105 -0.036862463 -1.7715468
-0.58835447 -0.26197886 -0.3274694 -0.82178956 -1.2328413 -1.4623427 -0.120139286 -0.8460497
1.155502 0.5845344 -0.6327192 -1.2942361 0.83594316 -0.7607534 -1.2760061 -0.7147202
0.15378985 -0.5552225 0.057240695 -0.28797933 0.5119886 0.06602828 -0.37847635 -0.38625762
-1.0591184 0.043352764 -0.30192813 -0.36757115 0.61157024 0.35361752 -0.64002365 -0.5107619
0.51812947 -0.049197745 0.8851094 -0.6806136 -0.55846345 -0.011883023 -0.18460251 -0.096517205
0.41728297 0.5936428 -0.64791906 -0.41473076 0.22318782 -1.1569359 -0.5828227 -0.37824872
-0.92748153 0.22520763 -0.05171061 0.013676198 0.1759631 0.54799277 -0.6935901 0.87468517
-0.022982659 0.723038 -0.26771432 0.12897746 0.20173004 0.13104117 0.1907258 -0.03559804
-0.79812896 0.28852314 0.03065004 -0.109243676 -0.74779516 0.44397435 0.42299235 -0.22737409
0.9084505 0.5014378 0.2987294 -0.24189056 -0.43757194 0.1345844 0.37766597 0.12991291
-0.70863867 -1.1190431 -1.1623147 -0.06983877 -0.13194624 -0.41868594 -0.063506104 -0.08558967
0.17146306 -0.60406214 1.2116305 -0.60791487 -0.42850837 -0.3061325 -0.9141993 0.022268977
0.03443502 -0.6594937 0.06477981 -0.060545254 0.097669855 -0.99607974 -0.62530506 -0.0417645
-0.6075214 -1.4008609 -0.31996867 -0.015208035 -0.64269596 1.058217 -0.15642807 -0.56740445
-0.30813178 0.97090197 -1.7126992 0.24858825 -0.9246053 -0.73710966 -0.698669 -0.5363813
-0.80823606 -0.749078 0.080592595 -1.0049475 -0.090031266 -0.55854464 -0.6033936 -0.37424988
0.5058353 -0.8215937 -1.3833648 0.4340968 -0.44208792 -0.54255444 -0.61375296 -0.1573954
-0.113682844 -0.9255123 -1.2262882 -1.0852389 -1.3958795 -1.0814173 -0.5110216 -0.6627893

rnn.bias_hh_l0 f4 [256]
00000000: b91a c3bf b917 a8bf 8308 a1bf 5ac8 c83e
00000010: 864a bdbf de19 acbf 8fab 80bf d880 73bf
00000020: a4c5 e23f e6f4 26bf 8dce 093e 8907 bbbe
00000030: 00ff 86be 9ee6 d0be 0a79 79bf 79f9 c93e
00000040: fe85 073e 70a2 a7bf d9c3 95be 5d7e 3fbe
00000050: 2e4a f7be f983 ccbf 7a87 33be a3f6 79bf
00000060: 1e3c 5cbf 34b7 a2bf bf01 1fbf 02a6 bc3f
00000070: 9fcc b2bf deed 363e 040a 6dbe c06b b6bd
00000080: 971f 17bf 24b0 ac3d 4f0d b0bf 0449 9c3e
00000090: 9c6a 77bf fc70 83bf 3e49 f9be c1f2 e1bd
000000a0: 0cfc 6abf 795a 1bbf ce9f 77bd 397e 70bf
000000b0: f800 083e 9cd1 90bf 09f1 babf 5141 5ebe
000000c0: fef2 cd3b 1bcf 83bf cd86 87bf d18a 133d
000000d0: 4e6b c7be adfc 70bf 0fb3 a0bf c356 883d
000000e0: 8b0a 5fbf 427c 32bf 958b 8bbf fa72 703c
000000f0: cbbb 6bbf f8eb 9abf 25cc 1dbf 65bc 12bf
00000100: a911 80ba 2d1a dcbe cec8 e7be 0c86 e7bf
00000110: daaa ee3d c39c 563e 57ce 983f 82b9 1ebe
00000120: d9f1 37bf 1bd0 12be 24ee 89bb cb7c 523c
00000130: 6876 87bf a383 1bbf 7146 1ebf 2c5f 8ebf
00000140: bce6 f33e 4a76 76be 691e 5bbf c2c9 8dbf
00000150: fa60 a4be a897 2bbf 6656 0cbf e051 5e3e
00000160: ee81 463e f7f2 c2bf b5a7 c53e 7d07 a8be
00000170: f09c cc3d b21d 8cbf ede5 0e3e 0eae 9bbf
00000180: 7b50 253e f835 41bf 2926 3c3f b395 82be
00000190: e020 083f 0461 98be bad6 4abe 5b83 d1be
000001a0: cdcd 523e ab3e 2dbf 91a8 123f 95d7 b9be
000001b0: f4a3 303f 1dfc 3dbf eeec bbbc edde e8bf
000001c0: 054c 13bf 50fc c5bd c55f 94be 8eec 43bf
000001d0: a256 b3bf 47bc aebf f1a8 e9bd 8839 6cbf
000001e0: 5edc a53f 1fcb 343f 5387 31bf 3400 b9bf
000001f0: a532 643f 0c7c 4bbf f6c5 a9bf 7079 08bf
00000200: 2234 093e 170e 01bf 2a59 663e 241c babe
00000210: e6cf 173f 7bb3 ce3d 47ef 8ebe b2c3 c0be
00000220: f320 6bbf 835e 503e 3118 d6be 6abf 0dbf
00000230: a6e2 4b3f 1c69 0d3f c799 ecbe cbb5 17bf
00000240: 9025 f83e 25dc c1bd e6dc 5b3f 1b3f 1abf
00000250: 6c69 0fbf 6b38 02be acd9 99be ed66 91be
00000260: a4b0 ca3e dd86 3e3f 5c12 23bf 690c f4be
00000270: 99cf af3e f1f6 aabf 54a3 45bf e7fd 83be
00000280: 2537 54bf cd25 c23d ed87 353c f6b9 39be
00000290: aeba e83d 3613 f93e 576f 2cbf a446 563f
000002a0: 249e 9fbd 2cad 0e3f c3f5 85be 4258 193e
000002b0: 35bd 503e f240 2d3e fde4 a83e ffe1 31bd
000002c0: 49f2 75bf a160 8d3e c27a 903d 3379 d93d
000002d0: a861 41bf 8d37 d83e d82d e53e 0c01 aabe
000002e0: 4d56 723f ccc1 073f 7fc1 9e3e b776 83bd
000002f0: faaa b3be 57a9 903e d39b f53e 8e78 a03d
00000300: 9d45 40bf 979c 98bf 3fe3 a7bf 1efd 0abe
00000310: 8be1 10bd 1f45 1bbf 8f20 5fbd c544 28be
00000320: 0d17 653e 9f42 16bf 26a3 a23f b289 1cbf
00000330: 2c01 d2be b329 c4be 1089 38bf bcec c23d
00000340: 9457 00be 97b8 07bf 8761 b3bd 72f6 4ebd
00000350: 173b f03d d3f6 67bf 9cf3 08bf be3d 8fbc
00000360: 83d3 c7be 3b59 9bbf b80c 47be ae5d a43c
00000370: 892b 3cbf 663e 8b3f b5bf 6bbe 8e09 22bf
00000380: d408 52be a421 7a3f a293 c8bf b754 833e
00000390: 6ad9 6bbf 8039 5dbf 55e4 27bf b8d9 1ebf
000003a0: 6aa8 2fbf 3a57 54bf 3996 183e 484f 95bf
000003b0: 1a92 16bd 0f22 03bf fda9 25bf 6c21 d5be
000003c0: 8f84 123f e67b 82bf 7782 b6bf 288f e73e
000003d0: 59fc d1be d755 c8be 07f8 0ebf 2f05 3dbe
000003e0: 9d77 f6bd bcaf 41bf 5e10 89bf 6903 84bf
000003f0: 99ca b2bf 7345 7ebf ab5d 08bf 339b 33bf
-1.524253 -1.313224 -1.2580723 0.39215356 -1.4788368 -1.3445394 -1.0052356 -0.95118475
1.7716565 -0.65217435 0.13457699 -0.36529186 -0.26366425 -0.40800947 -0.97450316 0.39448145
0.13234708 -1.3096447 -0.29250982 -0.18700548 -0.48298782 -1.5977775 -0.17532149 -0.9764196
-0.8602923 -1.2712159 -0.6211204 1.4738162 -1.3968695 0.17864177 -0.23148352 -0.089072704
-0.5903258 0.08432034 -1.3754061 0.30524457 -0.9664705 -1.0268855 -0.48688692 -0.1103263
-0.91790843 -0.60684925 -0.060455136 -0.939426 0.1328162 -1.1313968 -1.4604808 -0.21704604
0.0062850704 -1.0297579 -1.0588013 0.036021058 -0.38949054 -0.9413555 -1.2554644 0.066571735
-0.8712546 -0.6972085 -1.0901972 0.01467585 -0.92083424 -1.2103262 -0.61639625 -0.5731872
-0.0009770888 -0.4298872 -0.4527039 -1.8087783 0.11653681 0.20958237 1.193797 -0.15500453
-0.71853405 -0.14337198 -0.004209297 0.012847136 -1.058301 -0.60747737 -0.61826235 -1.1122794
0.47636974 -0.24068561 -0.8559328 -1.1077197 -0.32105237 -0.67028284 -0.54819334 0.2171092
0.19385502 -1.5230397 0.38604513 -0.32818213 0.09990871 -1.0946562 0.13954897 -1.2162492
0.16143982 -0.75472975 0.7349573 -0.25504836 0.53175163 -0.29761517 -0.19808474 -0.4092053
0.2058632 -0.6767375 0.5728846 -0.3629729 0.6900017 -0.7421282 -0.022940125 -1.8193032
-0.5753787 -0.096672654 -0.28979316 -0.7653283 -1.4010813 -1.3651208 -0.11409176 -0.92275286
1.2957876 0.7062244 -0.69347113 -1.4453187 0.8913978 -0.79486156 -1.3263538 -0.533103
0.13398793 -0.50412124 0.22494951 -0.36349595 0.593016 0.10092827 -0.2791693 -0.37649304
-0.9184715 0.20348553 -0.41815332 -0.553702 0.79642713 0.5523851 -0.46211073 -0.5926177
0.48466158 -0.09465817 0.8588394 -0.6025254 -0.56020236 -0.12716834 -0.30048883 -0.2839884
0.3958789 0.74424535 -0.6369989 -0.47665718 0.34338072 -1.335661 -0.77202344 -0.2577965
-0.82896644 0.09479866 0.0110797705 -0.18137345 0.11363731 0.4864747 -0.6735739 0.8370154
-0.07793835 0.5573299 -0.26164064 0.14975074 0.20384677 0.16919306 0.32987204 -0.043428417
-0.9607282 0.27612785 0.07054664 0.1061882 -0.75539637 0.42229882 0.44761539 -0.33203924
0.94662935 0.53030086 0.31007 -0.064191274 -0.35091382 0.28254196 0.47970447 0.07835494
-0.7510622 -1.1922787 -1.3116225 -0.13573119 -0.035371345 -0.60652345 -0.05447441 -0.16432483
0.22372074 -0.58695406 1.2706039 -0.61147606 -0.4101652 -0.38313064 -0.7208414 0.0951781
-0.12533408 -0.53016037 -0.08758836 -0.050527997 0.117300205 -0.90611 -0.5349672 -0.017485496
-0.39028558 -1.2136606 -0.19438446 0.020064201 -0.7350393 1.0878417 -0.23022349 -0.6329583
-0.2051118 0.9770758 -1.5670054 0.2565057 -0.9212862 -0.86415863 -0.6558278 -0.6205096
-0.68616354 -0.829456 0.14901055 -1.166482 -0.036760427 -0.51223844 -0.64712507 -0.4162706
0.5723352 -1.0194061 -1.4258565 0.45226407 -0.41012838 -0.3912799 -0.5584721 -0.18459009
-0.12034533 -0.75658774 -1.070812 -1.0313541 -1.3968078 -0.9932472 -0.53267926 -0.7015869

rnn.weight_ih_l1 f4 [256, 64]
00000000: 440e 11be 6bc2 99bd c317 23bf 1831 ae3f
00000010: 563e 3d3e d9a9 b6be 4b41 f1be b55f 113f
00000020: 3140 a83e d02f 1e3c a3f9 913e 3bfc ed3d
00000030: 38ea 913f 20b1 893e cb0a 33bf 98ed b1be
00000040: 8414 87be 674a 263f 8af3 9c3e 0a1b 983e
00000050: 0684 1b3d 2e40 ff3e 2684 96be c1b3 acbd
00000060: 8814 63bf f903 1abe 9714 e73d 2898 183f
00000070: 9b4f c53d 24b3 ddbc 2a0e f53e e7cf 5b3d
00000080: 4f51 493f 39c1 e33d f593 3fbf 67ce c3be
00000090: d4d4 3dbe 09a8 293f 3de2 b73e a7e2 9bbc
000000a0: 90cd f33e dc0a 91bf 35e8 6a3e e716 0b3e
000000b0: 76c4 e2be 9faf 2fbf c7f4 5d3f c239 a53d
000000c0: d3e1 a23f 936b 95bf 9d24 d1bf d312 8fbf
000000d0: a90b b4bd 9e6e 1a3e 36b2 243f 18af e4be
000000e0: bd54 193e 3d1e a4be fab0 293f 437f 8b3f
000000f0: 4764 493f aa3b 5abf 79d6 2b3d 13ab 073f
00000100: f1b2 f23d 7dd3 09bf c3a2 50be 354e d03e
00000110: 7a3c 36be 074b a33d 9fae 9d3f a60f 7c3f
00000120: b01c b6bf 99f1 3ebf 6b38 54bf 5c2a 4abf
00000130: 6330 dbbe 9ce9 e1bd 91a1 8d3e 1db1 c1bb
00000140: 2033 bbbe 1812 093e c65d 853e 7422 033f
00000150: 7200 17bf 8d11 323f 6450 fa3e df78 803f
00000160: 588a 9abe eda0 2dbe 9813 5ebe 78f0 ed3e
00000170: a46f e2be a7ac 6b3b afaf c9bf deaf 82be
00000180: 896d bd3e 7102 c13f 8b84 0b3d 7ef3 893e
00000190: 90b3 5f3f 94c7 ffbe b419 9abe 3ae8 d03e
000001a0: 336e 12bd 61ff b53c d11d e4bd 34f5 103f
000001b0: e12c a5bd 34b7 103f 9626 983d a341 67be
000001c0: 6c12 4abe 9a9c 673f 3b62 aa3e 4ff5 c5be
000001d0: 713d e83e 65a7 e43e 0475 f8be 7c94 053f
000001e0: cd72 66be 8229 633e 0fc7 503f 9a33 12bd
000001f0: a5be 38bf e366 9cbf 2ccc ebbe 506f 003f
00000200: d69f 8cbf b664 3dbf 18ac 86be 7d7a e73f
00000210: 22c1 b2be 8ac5 10bf b62c e23d fdad 9e3d
00000220: 6bcb 9dbe fe0b 553e 005e f2be 29ff c93f
00000230: f169 c23e f344 58be a6ed 343e 0538 7fbe
00000240: 4284 9fbf f7f7 813e 278a b23d e1ab 063f
00000250: 190c ac3d 1883 11be 29a3 13bf 1460 83be
00000260: 78d5 c7be 3fe2 6d3f 1ed8 203e 1001 433e
00000270: 8d43 0cbf 3131 253e 6b3c 5b3e eac3 de3e
00000280: c58c b33e 41f7 f73f 9a9f a5be 7737 6cbe
00000290: be3d 0fbe 92aa 003f 81a1 773e 1d89 c3be
000002a0: 12fa 253f 7685 f73e bbed 973e 5588 d93e
000002b0: dff1 05bf 4acf 49be 79e9 fb3e d378 393f
000002c0: a1e0 2dbf 991d 4b3f d2de be3e 3a06 a33e
000002d0: d7d5 31bf 79cd 183f daa8 5a3d 37d3 abbf
000002e0: 25b2 183e cf03 e7be 50d7 2d3f a4ca 833e
000002f0: 3aed 1a3f c158 63be f4ff e13e bdb0 d23e
00000300: 684b 8cbc 33e5 0cbe c9b9 893f b40d 393e
00000310: 249e a6be 014d 0d3f 22e2 ca3e 0eed 18bf
00000320: 8138 22bf d41d ae3d 59fe 23bf e027 c73d
00000330: 2a10 c7be 3af5 9e3e ab97 36bf 9c6a e93e
00000340: 384a cbbd 27ac 8a3e 5d47 5fbe 807b 8e3f
00000350: 9311 74be df90 abbf f9dd 103f c6a2 873f
00000360: cd39 f8bd 2399 b3bc 3458 5ebf 9ffb fbbe
00000370: 02eb 72be b69a 70bd 4b6b 3a3e 6750 103d
00000380: 584c 8f3e e92a 88be a66b 953e 8367 ec3e
00000390: 84b7 e93e 3c6e 81bf 4d84 623f f420 34bf
000003a0: e485 afbf 2226 89be 9176 d63b 33b7 46be
000003b0: bd5e 27bf e9ca 213d cb8c 213f f63d 8dbe
000003c0: 82f1 dcbe 2e32 5abe 2194 3c3f afa8 fd3e
000003d0: 7507 90be 6676 ff3e 45ab 77be 269c 37bf
000003e0: 85bb 91be dbaa 5e3f 2842 3b3f c1a5 8a3e
000003f0: 9989 a9bf e5be 383f cd10 803d 6ed2 233f
-0.14165598 -0.075077854 -0.6370813 1.3608732 0.1848081 -0.35676458 -0.47120127 0.5678666
0.32861474 0.009654954 0.2851077 0.11620375 1.1399603 0.26892948 -0.69938344 -0.34751582
-0.2638284 0.6495728 0.30654556 0.2970813 0.037967704 0.49853653 -0.29397696 -0.08432723
-0.88703203 -0.15040578 0.11283224 0.5960717 0.09634324 -0.02706296 0.4786237 0.053665068
0.7863969 0.11120839 -0.7483514 -0.3824341 -0.18538219 0.66272026 0.35914794 -0.019028975
0.4761777 -1.1331439 0.22940142 0.13582955 -0.44290513 -0.6862735 0.86701626 0.08067657
1.2725166 -1.1673454 -1.6339298 -1.117762 -0.087912865 0.1508126 0.6433443 -0.44664836
0.14973731 -0.3205432 0.6628567 1.0898212 0.78668636 -0.8524729 0.041952584 0.52995414
0.118505366 -0.5383833 -0.20374589 0.40684667 -0.17796507 0.07973295 1.2318915 0.9846138
-1.4227505 -0.745874 -0.82898587 -0.78970885 -0.42810354 -0.110308856 0.27662328 -0.005911006
-0.36562443 0.13385808 0.26048106 0.51224446 -0.58985054 0.6955803 0.48889458 1.0036887
-0.30183673 -0.1695592 -0.21687162 0.46472526 -0.442258 0.0035961063 -1.5756739 -0.255248
0.3699763 1.507887 0.03406195 0.26943582 0.87383366 -0.49956954 -0.30097735 0.40802175
-0.035749625 0.0222165 -0.111384995 0.5662415 -0.080652006 0.56529546 0.07429235 -0.22583632
-0.1973359 0.9047333 0.3327807 -0.38663718 0.45359376 0.44658962 -0.48526776 0.52179694
-0.2250473 0.22183803 0.8155374 -0.035693742 -0.721659 -1.2218899 -0.46054208 0.5016985
-1.0986278 -0.739818 -0.26303172 1.8084255 -0.34912974 -0.5655142 0.11043684 0.077480294
-0.30819258 0.20805356 -0.4733734 1.5780994 0.37971452 -0.21120052 0.1766878 -0.24923714
-1.2462237 0.25384495 0.08717757 0.52606016 0.08400745 -0.14210165 -0.5767084 -0.2565924
-0.3903005 0.9292335 0.15707442 0.19043374 -0.54790574 0.16132046 0.21409766 0.43508846
0.35068336 1.9372331 -0.3234833 -0.23068033 -0.13988397 0.5026027 0.24182703 -0.38190547
0.648347 0.4834401 0.2967356 0.42486826 -0.5232219 -0.19707981 0.49201563 0.7244999
-0.6792088 0.7934204 0.37279373 0.31840688 -0.6946692 0.59688526 0.053383686 -1.3423833
0.14911707 -0.45120093 0.67906666 0.2574054 0.6051823 -0.22201826 0.4414059 0.41150466
-0.0171258 -0.13759308 1.0759822 0.18071634 -0.32542527 0.55195624 0.3962565 -0.59736717
-0.6336747 0.08501783 -0.6405998 0.097244024 -0.3887952 0.31046468 -0.71325177 0.4558915
-0.099262655 0.27084467 -0.21804567 1.1131439 -0.23834829 -1.3403586 0.56588703 1.059655
-0.121203996 -0.021923607 -0.8685334 -0.4921541 -0.23722461 -0.058741294 0.18204992 0.035232928
0.27987933 -0.26595238 0.29183692 0.46172723 0.45647824 -1.0111766 0.88483125 -0.7036278
-1.3712735 -0.26786906 0.006544896 -0.19405822 -0.65378934 0.03950015 0.6310546 -0.27586335
-0.43153006 -0.21308205 0.73663527 0.49542758 -0.2813069 0.49895018 -0.24186428 -0.7172264
-0.2846338 0.86979455 0.7314782 0.27079585 -1.3245116 0.7216628 0.062532045 0.63992965

rnn.weight_hh_l1 f4 [256, 64]
00000000: f434 8dbf 8fd2 0cbf f088 b8bd cdb0 1fbf
00000010: 8653 27bf 5c9d 76be db02 7ebf 21ff 9b3d
00000020: 1e0c ff3d b8a4 f33e b795 223e 229d 9a3e
00000030: d022 d8be 8cd1 cd3e 44bb 1c3f 4294 893d
00000040: 9813 1a3e 4eae 6e3f 5331 683f 3141 423e
00000050: 539c 0e3e 6b13 3c3f 0831 e6bd f0b0 fabe
00000060: fb6e 0fbf d39e e03d 6c0a 323f 04d1 a4bf
00000070: c8a1 7cbf 13f3 aabd e095 c0bf 75a5 cf3d
00000080: 8615 81bf 7e72 a43e faf9 9abf af97 323e
00000090: f431 df3e bcc0 bebe e0a7 da3e ce0c 513e
000000a0: 97fd 803e a5a8 45bf c155 ac3e 6926 08be
000000b0: 8eba ef3d 03f4 3d3f 555e acbe 9e53 21bf
000000c0: b3d6 29bf a247 bcbe d2bd 21bd 83a3 78be
000000d0: 74b5 593e 6309 fe3e c1d7 bfbe e8c5 2e3f
000000e0: 72cc 203e d10d 43bf 8441 9fbe 8c89 12bf
000000f0: eab8 e1be db75 c13e f402 f53e 05dc 2cbe
00000100: 953b 7fbe 5658 28bf 15eb bfbf df75 b3be
00000110: 7f61 603f ff59 35be 3626 afbe a50e 413f
00000120: 81e2 eb3e 6fba 96be bf66 15bf e007 8abe
00000130: 42bd ea3e a1de 53bf 5ace d3be af52 913e
00000140: 7f4d 0740 98f0 a53f 3c18 8b3f 7434 cbbf
00000150: 864d 0d3f 525e 003f c17f a13f ff4b 6fbf
00000160: 1b41 923f 4678 173f fb4a 563f 1419 523f
00000170: 9732 5e3e f50a 15be 93cd 0dbf 05f7 8d3e
00000180: 7450 123e dfe3 b8be ac54 0abe c1c8 27bb
00000190: aa9e 123e abd8 2a3f 92ff dbbe 45bc 1a3f
000001a0: 1dd1 ba3f df4a 4a3f 48d8 b23d 1951 6c3f
000001b0: 85b7 04bf 5bc7 4c3e 52dd 623f b0d8 56bf
000001c0: d10d 38bd 3650 973f 31ba 033e 1cc5 793e
000001d0: 4d3f b53e 3f9e dcbe 6c1f fb3f b941 9cbf
000001e0: 29a3 9bbf b01d f03f ea07 51bd 1b7e 603f
000001f0: db9c bc3e f49b e5bd ea58 a63f ab70 6f3f
00000200: 3a5a 143f 7983 21bf 3a29 433f 1fb2 84be
00000210: 0486 7b3e ae68 a73d 6573 12bf 5924 d9be
00000220: a9ed dc3e 962a 0abf 7baf 4d3e 7741 183e
00000230: 1ae4 2a3e 874f 913f 0c34 f83e 2f95 913d
00000240: e5e7 acbf 80f5 8d3f 17b4 74bf 9c86 44be
00000250: 4b3f 20be 63a4 83bf 4a07 01bf 01c2 05bf
00000260: a81f 92be c908 e33e 3a97 c6bf edba 10c0
00000270: 4261 bdbf 98c2 3fbf bf3a a1bf e085 a3be
00000280: 8237 5b3f dbc5 d7be e3dd 733e 8122 443f
00000290: b977 6a3f 051b c83e c5be 37bf 7759 9f3f
000002a0: e9d6 10bf e54d 3bbe 4ba5 d2be 20ce f63e
000002b0: 849a 94be 5c88 aabf df4c 8ebf 2ada 0c3f
000002c0: 6e4f 74bf 0ba8 dabe 8948 d33e 564a 04bf
000002d0: 9384 853e ecf5 17bf 6bfb 84be 6f93 2bbf
000002e0: 7669 d73e 745b 373f cef5 203f 6bdf 1fbf
000002f0: 4ff9 c3be 9101 afbe 8dda b73f 7974 9ebf
00000300: fd83 67bf 6b5e 21c0 87a7 a83f d6d1 95bf
00000310: 9406 39bf 03d8 ed3c 3345 5fbf c3b0 283e
00000320: b715 35bf 4cf5 9e3d 2570 6bbf 9df5 47bb
00000330: 1267 54bf 6065 83be 435b a93e 1e12 5c3e
00000340: bd97 9bbf ecba 893d ae4f 24bf 160a a43f
00000350: 2a53 80bf 0339 d3bf 67eb b3bd 99ac cb39
00000360: 1a13 cdbe e8e4 003f 0525 70be 0bc4 d8be
00000370: 7553 aabf ed60 0fbe 8a3e a6bf b545 4ebd
00000380: ea04 063f 0fae 04bf ac55 1e3f 995d 2cbf
00000390: da3d fa3e ab51 78be 3ccc a5be c114 a33d
000003a0: 6b64 5dbf 3b68 5fbe fc70 b23e 3365 7e3f
000003b0: afc0 5f3f 515e b3be 8391 5ebd ade8 623e
000003c0: bf9d acbe 25f0 4ebe c037 c83e 92a1 ac3e
000003d0: 3837 08bf 8725 19bf 6845 943e 38d2 553f
000003e0: 5026 84bf 08d9 cbbf a8a2 03c0 5b7a a9be
000003f0: b50f de3e 3583 85bf 1f72 273f 3049 4dbf
-1.1031785 -0.55008787 -0.09010494 -0.6237915 -0.6536182 -0.24083465 -0.9922311 0.07617021
0.12453483 0.47586608 0.15877424 0.30198008 -0.4221406 0.40198934 0.61223245 0.06717731
0.15046537 0.9323472 0.9070026 0.18970181 0.1392682 0.7346713 -0.11239821 -0.48963118
-0.5602872 0.10967793 0.6954715 -1.2876287 -0.9868436 -0.08347144 -1.5045738 0.1013898
-1.0084693 0.321186 -1.2107537 0.17440675 0.435928 -0.3725642 0.42706203 0.20415041
0.25193474 -0.77210456 0.33659175 -0.13295902 0.11705504 0.7420046 -0.3366572 -0.63018215
-0.6634323 -0.36773401 -0.039487667 -0.24281125 0.21260625 0.49616536 -0.37469295 0.6827073
0.1570299 -0.7619296 -0.31104672 -0.5724113 -0.4408639 0.3778523 0.47853816 -0.16880806
-0.24925072 -0.6575979 -1.4993616 -0.35050866 0.8764877 -0.17710112 -0.3420884 0.7541297
0.46071246 -0.29439113 -0.58359903 -0.26959133 0.45847517 -0.8276158 -0.4136837 0.28383395
2.114105 1.2964048 1.0866771 -1.5875382 0.55196416 0.5014392 1.2617112 -0.93475336
1.1426119 0.591679 0.8370816 0.82069516 0.21698986 -0.14554961 -0.55391806 0.27727523
0.14288503 -0.36111352 -0.13508862 -0.0025601836 0.14318338 0.6673686 -0.42968422 0.60443527
1.4595066 0.79020494 0.087326586 0.92311245 -0.5184253 0.19997923 0.8861896 -0.8392439
-0.04493505 1.1821353 0.12863995 0.24391598 0.35399857 -0.43089482 1.9618964 -1.2207557
-1.2159168 1.875906 -0.051032938 0.8769242 0.3683842 -0.11211386 1.2995884 0.9353129
0.57950175 -0.63091236 0.7623478 -0.25917146 0.24562842 0.08174263 -0.5720733 -0.42410544
0.4315007 -0.5397123 0.20086472 0.14868723 0.16688576 1.1352395 0.4847721 0.07108533
-1.3508269 1.1090546 -0.95587295 -0.19191974 -0.15649144 -1.0284542 -0.5040175 -0.5224915
-0.28539777 0.4434264 -1.5514901 -2.261409 -1.4795306 -0.749063 -1.2596053 -0.31938076
0.85631573 -0.4214314 0.23815112 0.7661515 0.9158893 0.39083114 -0.71775466 1.2449178
-0.56577927 -0.18291433 -0.41141734 0.48204136 -0.29024136 -1.3322864 -1.1117209 0.5502039
-0.954337 -0.42706332 0.41266277 -0.5167593 0.2607771 -0.5935962 -0.25973067 -0.6702184
0.42072648 0.7162392 0.6287507 -0.62450284 -0.38276145 -0.34180883 1.4363571 -1.2379295
-0.90435773 -2.5213878 1.3176125 -1.1704662 -0.7227566 0.029033666 -0.87214965 0.16473679
-0.7073626 0.077616304 -0.91967994 -0.0030511387 -0.8296977 -0.2566328 0.3307744 0.21491286
-1.2155682 0.06725106 -0.6418408 1.2815578 -1.002538 -1.6501774 -0.08785134 0.00038847773
-0.40053636 0.50349283 -0.23451622 -0.4233707 -1.3306719 -0.14001818 -1.2987835 -0.050359447
0.5235125 -0.5182809 0.61849475 -0.6733032 0.48875314 -0.24249904 -0.3238238 0.07962943
-0.8648135 -0.21817105 0.34851825 0.9937317 0.87403387 -0.35032895 -0.05433799 0.22159071
-0.337141 -0.20208795 0.39105034 0.33717018 -0.5320926 -0.5982289 0.28959203 0.83523893
-1.0324192 -1.5925608 -2.0568027 -0.33101162 0.4337136 -1.0430666 0.6540851 -0.801898

rnn.bias_ih_l1 f4 [256]
00000000: 82de 18bf 9746 82bf 63de 11bf fc6d 90bf
00000010: e7e9 0dbe 429b f2be a180 5d3d df70 b5be
00000020: 99d2 b53c b95f b1be 2c17 b8be d58f 14bf
00000030: 37ac f4be 605e 37bf 02e3 5abf a056 a7be
00000040: 41f6 86bf 3d24 87bf c6d2 40bf fa2f 8cbe
00000050: e1df cdbe 428b cfbe 53c8 1bbf d604 03be
00000060: b424 3ebe d08a 0dbf 2799 50bf ced2 8abf
00000070: 0324 37bf 64af b0be 4c60 51bf df42 1bbf
00000080: dafe a3bf 2e1c 7b3e 268a 33bf fb88 47bf
00000090: 6e59 a3be ace0 083f bd49 513e c2e1 ecbe
000000a0: 37c5 f3be b4eb c3be 46a1 b3bd 8d5c fdbd
000000b0: 4aea 0bbf fada 4abf 0b81 73bf e2d1 11bf
000000c0: f3ad ccbd 0b46 abbe f0ee 4fbe 61c8 e5be
000000d0: 9099 5cbf d114 fdbe eba0 ecbe c508 0ebf
000000e0: 9574 3cbf cc0f 64bf 9647 22bf 572a d1bf
000000f0: cfee 01be b5bf 8b3e 5e27 10bf ad11 3cbf
00000100: be65 3dbf 8f7a 2cbe dbc5 68bf 5667 81bd
00000110: 3a4a 74bf 9deb b3be 2edb d23e 1459 26bf
00000120: 1b8e 2cbf 232f 3dbf fb70 203d be88 10bd
00000130: 7cf0 dfbe 4b1e 3ebf c7bf 36bf add7 52be
00000140: 994f bf3c 43fd 933f 85f0 16bf 1487 17bf
00000150: ff45 79be a13b 333e f6da 64bf d261 683e
00000160: e368 d8be e082 823e 69ce 39bf b0e7 853d
00000170: 958c 4cbf d7e7 e2be d3f8 053f a2d2 893e
00000180: c6b7 143e 70a3 963e 27f4 a3bf 965f 23bf
00000190: 1e7d f4be f930 06bf 3e5a 5fbd 8ea7 2c3e
000001a0: 6cbe febe f94a b5be 5938 e7bd dfe3 cc3e
000001b0: bae0 e6bd 8936 043d 0fd7 423e c4d1 95be
000001c0: 5c4f 8fbe 0857 0bbe 5438 263f b669 22be
000001d0: c41a b0be 4d73 8a3e 77bc 6d3f 472b 29be
000001e0: 22b7 073f 4947 16bf 7bb6 29bf 2098 e9be
000001f0: c089 383e 6b79 36be cbe4 d73d 5217 3dbf
00000200: 91e7 aebe 3e86 f43e a189 133f d17e 1b3e
00000210: bf3a f2bd 4d20 5bbc 7aed b13d 6f0e 123e
00000220: 87c1 b9be 6daf 453d a922 333f ea24 143f
00000230: ce87 c83d d71f 183f d145 8abe a1c7 043f
00000240: e162 ffbd 11a5 34bf e048 b63d acc1 b33e
00000250: f975 413e 76a4 2e3f 87a2 0fbe 749a d13e
00000260: 2cc6 0ebd 4861 03bf 5161 973e cee4 333f
00000270: 0b43 563e c7e2 6e3e 03b4 c53e 236e 84bd
00000280: ac04 b4be a130 0d3f 38c7 e5be c355 77be
00000290: 3462 02bf e68c 47bf cc94 973e 8c67 e8bd
000002a0: b3f9 b73e 65f9 403e 208b 52bf f9ca 173e
000002b0: d01f 093e e6c0 d13d 5280 45bd 7c0d d6be
000002c0: 6991 2a3f 2f99 93bd de14 fe3e 2e20 e73e
000002d0: 0cfb 76be b1da 96be c312 edbe cfb2 db3d
000002e0: e8ab f0be 111b cebe 7c22 8ebe f316 ebbe
000002f0: 3705 153f be20 fbbe 276c bbbe b5bf 153e
00000300: e8e1 a6be 2561 63be 6567 023e b427 12bf
00000310: d341 07be ee1c 3f3d bdd6 f13c 82d6 243d
00000320: cf9f 3ebf ab8b 493d ffa5 c93e b91e 28bf
00000330: 2919 31bf 556f d3be cb37 dfbe fddf ecbe
00000340: 128c 2dbf a2a4 f43e 18b1 02bf 0e6a 27bf
00000350: 59ab 32bf c6da 413f 677f 73bf 71dd 12bf
00000360: 7f16 44bf 507f 0fbe 0b1f 4a3f faae ca3e
00000370: b202 27bf fcef fcbe 16b5 d7be ceb1 99be
00000380: af2f b0be 5779 1dbf e422 1abf 5ab9 1fbe
00000390: aba3 c3be 08e7 b93d 671d 8cbd e47e 773e
000003a0: aba7 f73d 023f 88bd f510 47be 2bd0 12bf
000003b0: 611a 4dbd 79ea 29bf ea7b 2fbe 3ab1 a6be
000003c0: 0ed1 febc cf4a 9bbf eff1 b2bd 25c4 543d
000003d0: 5d1a 70be 1cce 0dbf 3b71 703f 9488 28be
000003e0: 61ce 3abf 0549 8dbd eec4 c1be db52 e8be
000003f0: e07e 21be 191c cf3e d9e9 87be 9b13 923e
-0.5971452 -1.0177792 -0.5697996 -1.1283565 -0.13858758 -0.47384077 0.05407775 -0.35437676
0.022195147 -0.34643343 -0.3595518 -0.5803197 -0.4778764 -0.7162838 -0.85502636 -0.32683277
-1.0543901 -1.0557934 -0.75321615 -0.27380353 -0.4020987 -0.40535933 -0.60852545 -0.12794814
-0.18568689 -0.55289936 -0.8148369 -1.0845582 -0.71539325 -0.34508812 -0.8178756 -0.6064891
-1.281215 0.24522468 -0.7013267 -0.7794339 -0.31904167 0.5346782 0.20438285 -0.4626599
-0.476114 -0.38265765 -0.08770995 -0.12371168 -0.5465437 -0.7924038 -0.9511878 -0.5696088
-0.09994116 -0.33451876 -0.20305991 -0.4487944 -0.8617182 -0.49429944 -0.4621652 -0.5548213
-0.7361539 -0.89086604 -0.6339048 -1.6341046 -0.12688754 0.27294698 -0.5631007 -0.7346447
-0.7398337 -0.16843627 -0.90926903 -0.06318538 -0.9542576 -0.35140696 0.41182846 -0.6497967
-0.67404336 -0.7390005 0.039170247 -0.035286658 -0.43738163 -0.74264973 -0.7138638 -0.20590086
0.023353385 1.1561664 -0.58960754 -0.5919049 -0.24343108 0.17503215 -0.8939661 0.22693565
-0.42267522 0.25490475 -0.7258058 0.065383315 -0.7990201 -0.44317505 0.523328 0.26918513
0.14523229 0.29421568 -1.2808884 -0.6381773 -0.47751707 -0.52418476 -0.05452942 0.16860792
-0.49754655 -0.35408762 -0.11290044 0.40017602 -0.11273332 0.03227857 0.19027351 -0.292616
-0.27990234 -0.13607419 0.649297 -0.15860638 -0.3439542 0.27041093 0.928657 -0.16520415
0.53013813 -0.5870252 -0.6629407 -0.45623875 0.18021297 -0.17819755 0.10541686 -0.7386371
-0.34161046 0.4775867 0.5763188 0.15185095 -0.11827611 -0.0133744 0.08687873 0.14263318
-0.36280462 0.048263002 0.6997476 0.57868826 0.09791528 0.59423584 -0.2700639 0.5186711
-0.124700315 -0.7056437 0.089006186 0.35108697 0.18892659 0.682197 -0.14026843 0.4093815
-0.03485696 -0.51320314 0.29566434 0.70271003 0.20924012 0.23328696 0.386139 -0.064663194
-0.35159814 0.55152327 -0.44878554 -0.24153809 -0.50931096 -0.7794937 0.2960571 -0.11347875
0.35932693 0.18845136 -0.8224354 0.14823522 0.13391042 0.102418706 -0.04821808 -0.41807163
0.6662813 -0.07206952 0.49625295 0.4514174 -0.24119204 -0.29463723 -0.46303377 0.107274644
-0.47006154 -0.40255025 -0.27760684 -0.45915946 0.5821108 -0.49048418 -0.3660595 0.14623912
-0.32594228 -0.22205026 0.12734754 -0.5709183 -0.13208704 0.04665845 0.02952134 0.040243633
-0.744626 0.049205463 0.39384457 -0.6567188 -0.69179016 -0.41295877 -0.43597254 -0.4626464
-0.67791855 0.47781855 -0.51051474 -0.653962 -0.69792706 0.75724447 -0.95116276 -0.5736914
-0.76596826 -0.1401341 0.7895362 0.39586622 -0.6523849 -0.49401844 -0.42130345 -0.30018467
-0.3441138 -0.61513275 -0.6020949 -0.1559805 -0.38210806 0.09077269 -0.068415456 0.24169499
0.12092527 -0.06652643 -0.19440062 -0.5734889 -0.050073985 -0.663734 -0.17137113 -0.32557088
-0.031105544 -1.2132205 -0.087375514 0.05194487 -0.23447557 -0.5539262 0.93922776 -0.1645835
-0.7297116 -0.06898693 -0.37845558 -0.45375714 -0.15771055 0.40451124 -0.265456 0.28530583

rnn.bias_hh_l1 f4 [256]
00000000: 26a6 1abf 96fa 98bf f850 e2be f53e 9bbf
00000010: d267 95be 5e52 dbbe bf2a ff3c 2f39 35be
00000020: bd96 783c 6a4b eebe 907e b0be 7a6b 05bf
00000030: 8022 96be 0067 35bf 6a2a 35bf 908c 8cbe
00000040: ea1f 93bf 5bd5 6ebf a7fd 50bf 7ea4 9ebe
00000050: e123 94be ce3a cabe a7cc c1be 5f42 36be
00000060: b264 67be 523f 16bf 5ac4 52bf f9b7 86bf
00000070: 702d 04bf 9971 72be f5df 48bf de64 1cbf
00000080: 5db4 a8bf b934 0c3e 4ddc 22bf d0b2 55bf
00000090: 6a4b 75be 1dfd 093f 80c2 e73d 1d9a 92be
000000a0: 5ed6 f8be 3385 dfbe 2696 a13d bf6f adbd
000000b0: 1b4c f6be 6ab4 84bf 6613 56bf 7e3c 11bf
000000c0: 8381 97bd 619e 01bf 938e 76be 5697 debe
000000d0: 3845 46bf b1da 0ebf ff03 10bf bf15 2cbf
000000e0: de3f 3ebf 73e8 4abf 37e3 1ebf 62bb ddbf
000000f0: b681 ffbd 4f7e dd3d 1190 1fbf bb95 60bf
00000100: 2ab8 59bf 2dbe 58be 5bbc 52bf 17d0 8ebe
00000110: b437 85bf 476c 08bf e847 d73e 9805 12bf
00000120: 5777 0dbf 4039 63bf 5c2e 523d c310 7cbe
00000130: 518f 9cbe c4f8 4ebf 14f8 1cbf f9ea 9fbd
00000140: d269 1ebe 0785 823f b715 28bf 178c 3abf
00000150: a866 c3be a48b 073e 06be 8cbf d9fb 943e
00000160: 6a18 3fbe 488e 743e f9c2 58bf efc2 67bc
00000170: 19aa 65bf ede7 a3be fe5a b43e 9cd3 e33d
00000180: 1247 0d3e 4d75 9d3e c9c3 a3bf 7783 27bf
00000190: 3cb3 25bf 32c6 23bf 9943 08be 47f7 943e
000001a0: 5ab3 03bf 4a35 e3be 8639 1cbc 7ada f33e
000001b0: 6f9a 04be 3100 d93d 3320 713e 70dc b1be
000001c0: fea8 b9bd 5d80 91be ce68 4e3f 8bc9 2abd
000001d0: 7127 edbe c519 7a3e 4bc6 733f f45d 3abe
000001e0: fc4d 2f3f 31fe 11bf e08e 15bf 8e76 1fbf
000001f0: dcbb 2a3e 12b7 4bbd 85bc 353e 3057 44bf
00000200: decc abbe a86a 853e df5f d43e a57a f03d
00000210: 4e65 90be 3790 0ebd 458f 8c3d 0333 5d3e
00000220: faf8 d3be 78f2 2c3e f0c1 3b3f 3d51 ff3e
00000230: 4218 8abd 0bbc 133f db54 56be f8d4 083f
00000240: 27ce 1cbe 3210 1ebf c7a6 9ebd 62ab c03e
00000250: f809 ac3e 1af1 393f 4987 5bbe 30e0 0d3f
00000260: fe13 c03d 5889 22bf 7ca6 1f3e 7efa 083f
00000270: 9b99 263e 9f18 a83e ddbc d03e c446 aabc
00000280: 3ec5 aabe 7f50 013f 35d4 96be fa54 59be
00000290: 5967 ffbe 410a 70bf 7137 ec3e c04e 3bbe
000002a0: 1e4c be3e 624b 263e 0e33 3ebf d77f a03e
000002b0: df5e 25bd 4487 b0bd 7bd8 943b b66a 86be
000002c0: a8d8 433f cb5e 33be 6df8 043f b68f 613e
000002d0: 8cc3 00be 5d80 acbe 31c6 e9be e94a 813e
000002e0: cec8 09bf 1323 5ebe f626 85be 67b9 02bf
000002f0: 4c05 db3e e5be 22bf f441 a5be 9886 ae3c
00000300: 159d a5be d52b afbe 73e8 133c 7c36 0abf
00000310: 4968 49be 1adb 86bc a31f ac3d ae9a 2cbd
00000320: 74f9 57bf 33f9 0e3e af19 db3e 1dc7 3cbf
00000330: 7bf5 0bbf 64d5 08bf 25d8 e5be b25e f5be
00000340: 1572 1abf a72e ad3e 99a9 1dbf 5738 29bf
00000350: 8d70 2fbf efd7 5f3f 1d5a 89bf 6458 03bf
00000360: 44a9 19bf 3332 a8be 8d00 273f 7f32 f83e
00000370: ccfd 1cbf a086 18bf fd36 b2be 680b 00bf
00000380: 27e3 bbbe d0f4 14bf 4884 3abf 40d0 bfbd
00000390: 9c97 e3be b387 9bbd fa07 b4bd 9bf2 173e
000003a0: d8c2 343b 370a 8e3c 983c b4bd 4b8a 10bf
000003b0: b64e b1bd c9e2 4fbf 2c47 16be 2a31 92be
000003c0: 6a9c 3bbc 6bf3 96bf a24b afbd db2e 1f3e
000003d0: 6fed 21be e636 1dbf b124 743f 1bb6 65bd
000003e0: 008a 50bf 56ee 5abe 1979 b8be a401 1ebf
000003f0: 5dfd a6bc 7360 d03e 0727 80be 9dd6 4d3e
-0.6040977 -1.1951473 -0.442024 -1.2128588 -0.2918077 -0.4283628 0.031148313 -0.17697595
0.015172658 -0.4654191 -0.3447156 -0.5211712 -0.29323196 -0.7086029 -0.70767844 -0.2745099
-1.1494114 -0.93294305 -0.8163704 -0.30984873 -0.28933623 -0.3949799 -0.3785145 -0.17798756
-0.22597006 -0.5869037 -0.8233086 -1.0524894 -0.5163183 -0.23676147 -0.7846673 -0.6109141
-1.3180043 0.13691987 -0.636174 -0.8347597 -0.2395455 0.53901845 0.11316395 -0.28633204
-0.4860105 -0.4365631 0.07889967 -0.084685795 -0.4810494 -1.0367558 -0.8362335 -0.5673293
-0.07397749 -0.5063229 -0.24077825 -0.43474835 -0.7744937 -0.55802447 -0.562561 -0.6722068
-0.74316204 -0.7926094 -0.6206545 -1.732281 -0.12475912 0.10815107 -0.623292 -0.8772847
-0.8504664 -0.21166296 -0.8231866 -0.27893135 -1.0407624 -0.5329022 0.42047048 -0.57039785
-0.55260223 -0.8875923 0.051313743 -0.24615769 -0.30578092 -0.80848336 -0.6131604 -0.07808489
-0.15470055 1.0196847 -0.65658134 -0.7287001 -0.38164258 0.13236862 -1.099549 0.29098395
-0.18661657 0.23882401 -0.84672505 -0.014145597 -0.89712673 -0.32012883 0.35225672 0.11124346
0.13796642 0.30753556 -1.2794124 -0.65434974 -0.64726615 -0.639743 -0.13307036 0.29094908
-0.51445544 -0.44376594 -0.009535199 0.47627622 -0.12949537 0.1059574 0.2354744 -0.34738493
-0.09065436 -0.28418246 0.8062867 -0.041696113 -0.46319154 0.24423893 0.95224446 -0.18199903
0.6847837 -0.5702849 -0.58421135 -0.62290275 0.16673225 -0.049735136 0.17747696 -0.7669554
-0.3355474 0.26057935 0.41479394 0.117421426 -0.2820229 -0.034805503 0.06863264 0.2160149
-0.41400892 0.1688937 0.733428 0.49866667 -0.06742908 0.57708806 -0.20930807 0.53449965
-0.15313016 -0.6174346 -0.07746654 0.37630755 0.33601356 0.72633517 -0.21438326 0.5542021
0.09378813 -0.6349082 0.15590852 0.5350722 0.16269533 0.32831284 0.4076909 -0.020785697
-0.3335361 0.5051345 -0.29458776 -0.21223822 -0.49883536 -0.93765646 0.46136048 -0.1829176
0.37167448 0.16239694 -0.74296653 0.31347534 -0.04037368 -0.0861955 0.004542408 -0.2625329
0.76502466 -0.1751663 0.5194157 0.22027478 -0.12574595 -0.33691683 -0.4565902 0.25252464
-0.5382203 -0.21693067 -0.26006287 -0.5106415 0.4277748 -0.6357253 -0.3227688 0.021304414
-0.32346407 -0.3421313 0.009027588 -0.53989387 -0.19668688 -0.016461898 0.08404472 -0.0421397
-0.8436501 0.1396225 0.42793033 -0.7374132 -0.5467145 -0.5345061 -0.44891468 -0.4792381
-0.60330325 0.33824655 -0.6158691 -0.6610159 -0.68531114 0.87438864 -1.0730625 -0.5130675
-0.60023904 -0.328508 0.65235215 0.48476025 -0.61324763 -0.5958042 -0.34807578 -0.50017405
-0.3669674 -0.58186054 -0.72858095 -0.093658924 -0.44451606 -0.07594242 -0.08790584 0.1483864
0.0027581956 0.017338855 -0.0880062 -0.5646102 -0.08657591 -0.8120542 -0.14675587 -0.28553134
-0.011450866 -1.1793035 -0.08559348 0.15545218 -0.1581323 -0.61411893 0.95368487 -0.056081872
-0.8146057 -0.2137998 -0.3602989 -0.61721253 -0.020384485 0.40698585 -0.25029776 0.201014
