models/modelRNNQ_lang5_extTomita.pt (torch, 407395 bytes, 10 tensors)

rnn.weight_ih_l0 f8 [256, 1]
000000 10 9c 51 d8 54 46 c7 bf a7 e7 58 bf 08 5a b5 3f
       -0.18183384478035736 0.08340506240429467
000010 59 24 dd 86 88 01 12 c0 92 2b 10 75 a4 e0 b2 bf
       -4.5014973709558825 -0.07374027116763518
000020 32 30 85 ff c9 bd fc bf e8 53 44 7d 2f c5 a1 bf
       -1.796335218549768 -0.03470753101479557
000030 6d bc 5c 3f 85 c8 a9 3f f0 10 0e 0b 4e 62 c9 3f
       0.050357974991464306 0.19831252612869532
000040 aa 7f 57 e8 69 8b bf bf 84 f5 8a 02 d1 a0 d2 bf
       -0.12322103426367784 -0.29106545685120744
000050 ba 4b c1 25 50 05 ab bf 7e fd 18 59 08 5e d3 3f
       -0.05277491055371493 0.3026142950147558
000060 f7 3a f9 d6 90 24 d6 3f c4 08 9e 11 c6 c2 d4 bf
       0.34598179811011626 -0.3243880435985711
000070 8b 5f 22 0b cf 56 c4 bf a6 62 7f 72 25 c7 a3 3f
       -0.15889919322648569 0.03862874052692193
000080 38 1b 96 89 8c ac cf 3f 9a 27 64 c9 fa 7e c5 3f
       0.24745327680667528 0.16793761094623677
000090 50 8b da c2 55 d1 c8 bf 2f e7 d0 d4 28 4c c1 3f
       -0.19388839735355612 0.1351367034092674
0000a0 26 fc 91 a7 7d b3 d3 bf b4 06 c4 bc b3 c0 cb bf
       -0.30783025135309783 -0.21681830136372116
0000b0 cd f8 d7 95 ac d4 c6 3f 6c 4b 5a e6 f0 f7 e4 3f
       0.1783653003366851 0.6552662371708329
0000c0 90 84 97 89 0d d0 08 40 0c f5 a7 f1 e8 32 fc 3f
       3.1015883206715174 1.7624291839304673
0000d0 c3 a1 31 12 7a a7 d0 3f 68 06 7c 70 94 40 84 bf
       0.26022197510476647 -0.009888801272157369
0000e0 ea 54 5e 1c 71 8f c0 3f 3f 13 b0 12 83 fc 01 40
       0.12937749753169864 2.2482968769058114
0000f0 fc d4 c7 73 d0 af b7 bf 2a e2 7f c3 1f 8b 76 bf
       -0.09252646280932092 -0.005503772808872523
000100 6f e6 c4 cd 51 f2 c4 3f ba 0b e8 32 dd 54 c9 3f
       0.16364500567742676 0.19790234552064395
000110 89 98 4a 14 9a 3d c6 bf 11 6f 50 06 8c 96 c7 bf
       -0.1737549399451306 -0.18428182895956316
000120 8e 85 d1 1c b3 c3 ca bf 38 96 95 98 29 ca cb bf
       -0.20909727961683838 -0.21710700941473404
000130 a0 9e 38 fd 4a 28 f9 3f c3 1a 41 d0 d1 d4 c3 3f
       1.5723371402217836 0.15493223827998834
000140 ca fa e3 86 63 6e c4 bf 33 67 c7 1b 0f 20 c7 3f
       -0.15961879812672058 0.18066586357491018
000150 60 09 be cd 73 26 ca 3f 0c e0 20 66 85 81 b4 3f
       0.20429847284328684 0.08010133498544308
000160 b9 60 1d 48 9e 3b 0d 40 49 5b 6f a9 39 73 d9 bf
       3.6541104921307945 -0.3976577906263868
000170 9c 22 42 e8 47 f5 ab 3f 4a 49 9d 1c 78 d0 f5 bf
       0.054605719663475244 -1.3633957975149138
000180 da 32 a6 a2 aa 4e c4 3f 39 e1 01 51 00 6c c1 bf
       0.15865071241241574 -0.13610843615948356
000190 18 23 fa e7 ed 65 fb 3f 07 45 b0 13 78 26 de 3f
       1.7123850881200209 0.4710979645033863
0001a0 51 b6 4d 81 1b a7 e0 3f 7a f9 4e fc 80 9a c0 3f
       0.5203988576374262 0.1297150833106107
0001b0 f9 a5 e6 21 b5 22 b1 bf 55 a7 ce 71 cf d7 cd bf
       -0.06693584516201402 -0.23314850861543826
0001c0 4e 03 4b cb d7 76 c8 bf 31 58 40 02 98 f5 c3 3f
       -0.19112679888169243 0.15593242750100125
0001d0 aa b1 0b d8 10 04 c9 bf 11 7d 96 0c 48 89 04 40
       -0.19543657826524213 2.5670319541383226
0001e0 b9 fd 9d 41 68 bf cd 3f 11 b5 06 7e 68 89 c8 bf
       0.2324037857433561 -0.19169336465476097
0001f0 7b 54 ed 00 00 72 c9 bf bb 44 e1 7b 2e 2d dc 3f
       -0.19879150433795076 0.4402576646580873
000200 e4 7d 66 1d ec 04 a4 bf 07 71 39 b9 15 cb f0 3f
       -0.039100054348860686 1.0495812640502338
000210 34 31 59 64 b4 6c 0b 40 47 db 3e 86 0f 5c c6 3f
       3.4280784454078006 0.17468446783979116
000220 3c db bc 9c 64 30 0d c0 91 67 1e be ba e6 db 3f
       -3.6486294026502986 0.4359576088551132
000230 26 01 2e 25 9c ae 12 c0 dd 65 6b bc 0a 1e dc bf
       -4.670517521794215 -0.43933361435264634
000240 ee cf d5 9a 8a 39 04 40 4e 96 29 ea 32 f2 e6 bf
       2.528096398973495 -0.7170652936444613
000250 1c b7 d3 c1 39 6a 81 3f b8 ae da 3b de bc d5 bf
       0.008503390529280667 -0.33965259404315473
000260 7c 0d e0 ce 27 30 0b c0 42 21 a8 4f 90 15 07 40
       -3.3985134279370737 2.8855291579422166
000270 20 02 4b af 0c 1c d4 3f 2a f4 c1 ef a2 eb df 3f
       0.3142120086522784 0.4987571088202595
000280 22 6f ab 28 da e7 c2 bf 5f 4e dd c8 3b d7 fc 3f
       -0.1477005671102854 1.8025472494381558
000290 54 29 8e 97 6e 6d db 3f 38 41 ef be c0 05 b5 bf
       0.42855419922184024 -0.0821190324925326
0002a0 88 a7 9a f6 ba 77 e4 bf a2 d2 44 2c aa 2b 03 c0
       -0.6396155182348915 -2.396320672846131
0002b0 c3 ce 88 9d d5 f0 cf bf e2 4b ea 22 56 95 c7 bf
       -0.2495371836863481 -0.18424488739819284
0002c0 2c de 84 9f 64 82 f2 bf 1c ae d9 68 7e 48 ea 3f
       -1.15683424293628 0.8213493392808604
0002d0 fb c5 d6 d4 62 e9 c6 bf da b6 76 31 10 a4 e0 3f
       -0.17899737732436435 0.5200272527779035
0002e0 48 e8 d6 39 78 8e ab bf 2e ad eb 4c 50 4a b2 bf
       -0.053821332035525915 -0.07144643667168246
0002f0 08 64 4d 2d 37 cb df bf d3 b1 6f af 43 b3 e2 3f
       -0.49677829193166234 0.5843828608026861
000300 fb f7 2a 4b ca 42 e9 bf 0a a1 4d 72 d6 ce e0 bf
       -0.7894031017419815 -0.5252487404332282
000310 62 78 fb 39 21 40 e1 3f 2c 8f 6f cc 9f bf a6 bf
       0.5390783436266811 -0.04443072672418533
000320 eb 7e b1 d7 71 d1 03 40 26 d1 d6 17 45 a1 b5 3f
       2.477267918686143 0.08449203331003172
000330 7e 7a 7d db 6b 52 b4 3f e7 d0 76 50 52 a7 b8 3f
       0.07938264950414894 0.09630312408882312
000340 5d 5b 79 54 7d 59 f7 bf d8 3f b6 7a 5c 0c f2 3f
       -1.459348039604911 1.1280178826746035
000350 23 2d 05 f5 67 41 96 bf 22 53 ce 5d 2b 42 cb 3f
       -0.021733879403922473 0.21295682983750291
000360 09 e3 25 30 18 82 e9 3f 98 85 e1 48 6e 5b fb bf
       0.7971306743994272 -1.709821972552481
000370 4f c0 49 4a f8 25 d7 bf 10 3e ce 7d 45 07 94 bf
       -0.36169249777504303 -0.019558988383833464
000380 39 7a 0d 12 43 fa 9e 3f 60 24 33 f1 7c 01 c6 3f
       0.030251548745008548 0.17192041184742646
000390 b0 ba 50 81 d6 95 e4 bf 00 ce c3 60 bb a6 c0 bf
       -0.6432907605829623 -0.13008825516554623
0003a0 b7 30 bc aa a2 35 0b 40 e0 f4 5e 59 04 0a 06 40
       3.4011891688042755 2.7548911077598035
0003b0 18 2c 0d 4c 13 a1 f1 bf b0 b5 e9 fa cf 75 f0 3f
       -1.1018250437507557 1.0287627984319947
0003c0 7c 71 40 a2 fe 95 d1 3f 3a a5 ab a6 5e fc c5 3f
       0.27477994770904224 0.17176421297271266
0003d0 4d 78 bf 83 d0 7d 8a bf a0 26 3d 41 bc 90 d3 bf
       -0.012935284634235123 -0.30570894595130405
0003e0 a7 57 f7 9c be 41 be 3f 39 24 26 c5 1c 75 d7 3f
       0.11819068271810683 0.36652297261077
0003f0 64 54 34 81 0f 01 d3 3f 16 d4 fd a7 31 dc ca bf
       0.2969397317659228 -0.20984478666983425
000400 de 7c bd f6 1d da d2 3f 72 8e a7 9e 71 9a ca 3f
       0.29456280799599976 0.207838251560236
000410 8f 6e d9 60 fa b8 00 c0 6d 2d 6c f2 61 0f cf 3f
       -2.0903213087420407 0.24265693985976658
000420 01 4a 82 db bf 91 e5 bf 9b d9 8a dd 3a 9c ec 3f
       -0.6740416800769823 0.8940710379600206
000430 0c 32 3a 3b 2c cf b4 bf fc 7d 6a 90 3e d7 cb bf
       -0.08128620573024409 -0.21750623752176057
000440 30 4c d5 a7 47 b0 15 40 f6 69 fd 9c ec 18 1b c0
       5.4221483444153336 -6.774340107886465
000450 9e 3e 43 b6 e1 4c b9 bf 79 e6 4e 4f 62 03 e6 bf
       -0.09882937145016021 -0.6879130887020458
000460 2c 4c 3d cf ed 18 db 3f c7 cc cb f3 3f ef 14 c0
       0.4233965419600192 -5.233642396272621
000470 3a b3 d6 19 c6 1e 04 c0 62 f2 ee c2 55 74 bd 3f
       -2.515026285042407 0.11505638131252163
000480 c7 88 48 8d 2a 4b 0b c0 19 8d cf 23 a2 30 f6 3f
       -3.411702255035468 1.3868733786446852
000490 cb fe 94 cd 91 ea c8 3f 69 26 ac 25 f7 46 03 c0
       0.1946584943598196 -2.4096510832940123
0004a0 c7 74 da 9b 29 c0 23 c0 ed 71 fa 82 7b 90 ff 3f
       -9.875317449967396 1.9727740398731115
0004b0 f3 67 de 67 d6 5a 15 40 cd ef 29 36 5a 2e 13 40
       5.338708517980183 4.795266004857649
0004c0 ee 16 6a 07 6d 9f d2 3f ae ec 78 3c fd 81 f6 bf
       0.2909805843740817 -1.4067356455041522
0004d0 65 53 0c 48 6d 0c 06 c0 7c 24 aa 6d f4 9c f2 3f
       -2.7560678128015064 1.1633190425657451
0004e0 c0 39 55 76 52 0a d5 3f 7a ec 58 eb 0e 1a f5 3f
       0.328755012092099 1.3188618844276605
0004f0 89 d1 1d 36 02 dc ce bf 4f a3 12 17 0d be d1 bf
       -0.24108913080602815 -0.2772248006172519
000500 9a 8a e3 da 96 90 c5 3f d7 72 a4 30 ed 80 d2 bf
       0.16847501457148867 -0.28911905050499115
000510 18 35 94 53 24 b6 06 c0 9c 37 d6 fc 86 94 da bf
       -2.8389364747623738 -0.41531538668720613
000520 5d d2 f8 4f 0b 92 13 40 7b b3 96 1e ca 37 02 40
       4.892621278344987 2.277240981077225
000530 58 c3 5d 2d 09 94 02 c0 15 d1 0b 35 85 40 c5 3f
       -2.3222831291426864 0.16603150453705298
000540 19 1d 16 1a 64 fb d9 3f 80 bb ab 93 98 10 d1 3f
       0.40596869037149613 0.2666379396532008
000550 ab a6 87 13 12 51 05 40 32 a7 7c 20 55 33 ea 3f
       2.664585259034387 0.8187661776075628
000560 b2 18 8c 0d 65 04 08 40 d9 2b 68 d6 d2 1c 26 c0
       3.0021458681468056 -11.056296062675687
000570 4e 23 ce 57 3a 36 d3 bf b1 c5 5b 19 5f 67 e1 3f
       -0.3001848084900772 0.5438685889513889
000580 2d 15 52 31 97 be 0e c0 7c 16 28 90 b5 65 14 40
       -3.8430618146109254 5.099325420805709
000590 d5 21 df da ca 41 d4 3f d7 4e ad aa 00 4a e6 3f
       0.31651564954929984 0.6965335210356568
0005a0 6d aa 24 11 e2 a8 03 40 da 85 b8 ae ba 8a c5 bf
       2.457462438517999 -0.16829618006981556
0005b0 8e 97 18 eb 18 2a d2 bf 19 8c dd 60 45 35 f4 bf
       -0.2838194175586687 -1.2630056175046376
0005c0 34 0b e9 7c 11 6a d2 3f d2 f8 03 63 f3 6b c8 3f
       0.28772389601015225 0.19079439482442823
0005d0 07 6c 6d 84 0f c2 c0 3f 8b 64 b2 00 9f 28 d3 bf
       0.1309222599619206 -0.2993543154530662
0005e0 b1 49 66 0f 55 42 11 40 a0 f9 69 b9 1c 4e da bf
       4.314777603738933 -0.4110175905879263
0005f0 2f 08 f3 17 ad f9 c6 bf e0 dd 1b 89 bc a3 ef bf
       -0.17949451131249947 -0.9887373617083846
000600 b4 05 51 cb 5f 59 d6 3f 07 c3 9b e5 26 b9 d7 bf
       0.3492049680245046 -0.37067577765178367
000610 bd cd 4b 38 cc a1 bd 3f c0 bd 9c b6 3c 41 c4 3f
       0.11575008749405576 0.15824088017096294
000620 c9 69 66 f7 8f b5 f0 bf 49 62 9e 86 b6 f5 e1 3f
       -1.0443267501892584 0.5612442616721377
000630 9b 29 e3 41 71 bf b3 bf f0 80 ab 05 c2 68 98 3f
       -0.07713992937639207 0.02383711967093033
000640 a4 90 09 c6 05 2c bd bf 4f 2d 91 36 8f b7 d7 bf
       -0.11395298085114064 -0.37057857827013135
000650 71 d3 37 b8 4b ea a5 bf 12 c2 97 79 50 f1 cc bf
       -0.04280315994029749 -0.22611432969235118
000660 b8 fd 0e 82 e3 cb c5 3f 03 06 f6 31 65 1d f9 3f
       0.170284689431339 1.5696765853502945
000670 48 29 e1 17 d2 76 0e 40 00 0f 9d c4 88 f4 d5 bf
       3.8080179086292993 -0.3430501861623583
000680 4d 44 50 0d ea c4 da bf 09 f7 bd 84 37 38 cd bf
       -0.41826869297171215 -0.2282781026987595
000690 2a ad 3a 3e ac b8 c5 3f c8 5c 71 30 33 81 a9 bf
       0.16969826735053434 -0.04981384245245973
0006a0 c1 83 fd b7 f5 ec cd bf 9b f4 c9 68 00 03 e1 bf
       -0.233793940390596 -0.5316164061220151
0006b0 c1 c2 55 c3 f0 a3 c5 3f 7e 37 d6 68 27 dd d3 bf
       0.16906556642381612 -0.3103731654926988
0006c0 7f d3 76 c7 4d a3 b8 3f 7a 49 ea 01 e7 30 dd bf
       0.09624181861620505 -0.45610976397542624
0006d0 31 2f 24 93 0b 15 d4 bf 1b bb ea 27 c2 34 c9 3f
       -0.31378449792167645 0.19692255925243604
0006e0 d0 23 4a c7 b7 75 c3 3f be e3 92 61 14 f6 c6 bf
       0.15202996474206865 -0.17938475384087654
0006f0 5b 40 c7 c9 4b 29 c4 3f 45 b5 4b a4 64 91 c1 3f
       0.15751025536019622 0.1372495462632434
000700 e9 58 83 18 d7 a5 06 40 5a ab a1 a5 cb 8c 0e 40
       2.8309766688426987 3.8187478008234566
000710 af f6 dc 9c 35 51 d7 3f 7c ea 03 3d 21 e3 c0 bf
       0.36433162993112495 -0.13193145255339178
000720 ae 4b 47 1c 05 89 0d 40 fd 50 30 17 e1 3b c8 3f
       3.6919042786843965 0.18932736999762048
000730 2e 49 e8 30 39 e9 b4 bf b2 39 6d 6a 4d 28 c6 3f
       -0.08168370670344835 0.17310493179907166
000740 8e 32 48 a3 22 a7 d2 3f 67 86 9e cb c8 fa b9 bf
       0.291451129393672 -0.1014829156033784
000750 43 e1 e5 ca 39 eb d2 bf c7 bd 2e 11 d4 7e bd 3f
       -0.29560704054121717 0.1152164976071993
000760 59 d7 a8 b8 0a e6 d8 bf c1 d1 88 9b f8 47 9f bf
       -0.38904064210088546 -0.03054798554713201
000770 ac 28 23 15 bf 56 b4 bf 17 ee 78 ba 8c 3b f3 bf
       -0.07944864526794743 -1.202038505943056
000780 c1 76 e3 6f 77 52 c1 3f db 2d 9f 6c 69 d6 c3 bf
       0.13532917941386383 -0.154980829275117
000790 e6 79 25 8b ba 48 89 bf c4 6d b9 95 3c 2b c7 3f
       -0.012345750209246508 0.18100697813757283
0007a0 6d 5a 6b 08 7a e7 da bf 9a 6a 3c 90 2c e6 12 40
       -0.42037821600152975 4.7247793709635975
0007b0 0d 38 c1 a6 60 f8 99 3f a8 8f c9 61 29 4a ef bf
       0.025361547639754223 -0.9778029355916162
0007c0 f2 08 3d df 82 51 e7 3f 97 ef b3 a0 6a 13 d2 3f
       0.7287000999570223 0.2824350900043497
0007d0 72 bc 31 95 e8 1b f9 3f 0a 97 48 e2 60 60 b3 3f
       1.5693136051084164 0.07568936848164412
0007e0 ca d4 8e 92 09 43 d0 3f 5f 57 bc a0 8e 9e cf 3f
       0.2540916377286747 0.247026279911263
0007f0 f4 d3 96 3e b8 9b ba 3f af 92 6a e1 b8 95 9f 3f
       0.10393859413200329 0.03084458232719339

rnn.weight_hh_l0 f8 [256, 64]
000000 d4 62 f5 5e ae 1a fb 3f 5b 65 c1 95 bd 15 12 40
       1.6940139493291797 4.521231021813345
000010 81 07 92 79 d5 16 f8 bf 9a 11 15 2a 94 49 84 3f
       -1.5055746792645268 0.009905965360879777
000020 7d 5d 2a d1 53 d9 f0 bf ee e3 6a 10 7e e2 00 40
       -1.0530584497954287 2.1105920107479426
000030 8a 89 2f d3 8b 2f 22 c0 e9 36 8e 2d fb a0 e4 bf
       -9.092863654663933 -0.6446510209804873
000040 9f 82 a6 e3 83 a9 f7 bf a1 84 5e 1d 4b 59 f0 bf
       -1.4788855450243898 -1.0218001506075682
000050 b8 4d 92 d1 57 97 fe bf 42 43 bb 22 d2 51 e7 3f
       -1.9119489847551971 0.7287378958081734
000060 a0 1d 2e be 94 6d 00 40 49 30 be 54 cf 7d f8 bf
       2.053506360800114 -1.5307153044004898
000070 35 fb 2d 77 ef 6b 11 c0 89 6d 89 5c 4a 44 0c 40
       -4.355405676061129 3.5333449582519205
000080 3d bb 7d 0b de a0 01 c0 31 89 e2 f4 4b 44 11 40
       -2.2035485170121363 4.316696001364378
000090 e9 20 fd 58 39 9c 17 40 03 91 fb 85 6b b1 e2 3f
       5.902562513780347 0.5841577164506194
0000a0 38 34 05 35 8f 2e 01 c0 e0 99 50 8d 69 95 05 40
       -2.1477340833867196 2.6979552307341095
0000b0 5c ff 39 9c 84 f0 0b 40 b1 3a df 41 70 96 12 40
       3.4924404339980537 4.646912602662881
0000c0 3b 62 59 de fe 64 d6 3f 8c 65 7a b8 e1 21 fd bf
       0.3499142810228794 -1.8207719045807123
0000d0 a6 91 a1 62 68 97 14 c0 60 b1 3d 69 72 c1 fa bf
       -5.147859135733972 -1.672228251550301
0000e0 67 c2 df b0 b4 d3 fc 3f 96 d8 ba aa 0c 50 1b 40
       1.8016859921591732 6.828173320440461
0000f0 af 3e cc 6e 6b 84 c7 bf 7d 0b 01 99 bf 0a ed bf
       -0.18372862730074277 -0.9075620640145271
000100 bd fc 61 72 6d 95 ee 3f fa 0f 18 7b ae 0b ef bf
       0.9557406648672423 -0.9701759723834578
000110 1d 81 9d f1 1b c1 dc 3f 8a ff 57 a6 6d 49 ff bf
       0.4492864474796237 -1.9554268358042202
000120 ba 41 86 c2 18 7d 01 40 1d 57 9d 6c 23 21 22 40
       2.186082381937209 9.064723390776232
000130 27 eb 34 5c 5e 19 fc bf 78 19 87 60 0c 55 f1 bf
       -1.756193504507516 -1.0832637568106218
000140 0c 0d f4 43 5c e9 20 40 de bb 7a 53 4f 6e 20 40
       8.455782054463747 8.215448960048828
000150 59 60 97 75 19 74 eb bf bf 69 00 06 bd 36 01 40
       -0.8579222962098455 2.151727721107107
000160 fd de 78 d7 b3 8f 0d 40 5e 02 71 00 dd b0 f8 bf
       3.6951672395479123 -1.5431795136684268
000170 ed 3b b5 95 13 35 f6 3f 1a d8 0e 8d 23 c4 f8 bf
       1.3879581306425692 -1.547885466583017
000180 c6 3c a2 e0 e2 a4 06 c0 ec 08 ac 5f a6 b4 fa 3f
       -2.830510859442799 1.6691039788425384
000190 35 cc 68 bb 4e 75 d4 3f ae 97 0a 54 7e 98 f0 3f
       0.3196598844689931 1.0372298510423934
0001a0 9b 4b 34 9f 79 03 e3 bf 96 3e 3b 2d 0e e9 0a c0
       -0.5941742047747199 -3.3637965711312274
0001b0 88 b7 64 de 1d 76 cc bf ef 0c 33 e7 dc d1 df bf
       -0.22235463484815576 -0.4971840150648878
0001c0 fa c8 ee 99 f9 84 dd 3f 99 27 de 60 bf 26 0b 40
       0.4612411502122452 3.3939197128101566
0001d0 1f 8d 33 62 81 bc 0b c0 b9 9f 24 a8 96 6e fa bf
       -3.4670436546308703 -1.6519991462791792
0001e0 ef 72 5f d0 d1 af 08 40 29 e4 54 1f cb e7 1e c0
       3.0858494071129523 -7.72636078792224
0001f0 ca e0 5a 66 9c 74 f9 bf 45 44 d9 8e bc 59 12 c0
       -1.59096946699542 -4.587633354197412
000200 cb 61 59 e8 8c 54 85 bf 51 b1 f0 03 29 fb e8 bf
       -0.010415173378690043 -0.7806592061001912
000210 f4 8c 32 56 00 6e ff 3f 27 f6 c2 af e9 4a eb 3f
       1.9643557898605737 0.8528946335642943
000220 f4 af 80 66 c3 e3 d5 3f 92 87 43 10 72 93 d0 3f
       0.34202656755473915 0.2589993628335999
000230 65 92 3a 1f cf ea de 3f 15 a9 3c 85 18 4c c8 bf
       0.483081608292457 -0.1898222590037412
000240 51 c4 f8 95 b8 b5 cf 3f 38 e6 f5 2c 86 04 cf 3f
       0.24773318598593844 0.24232556529368465
000250 b7 ef fa ee 1e 41 df bf 76 5b 90 5c 4b 3a ca 3f
       -0.48834966028129706 0.20490400333138908
000260 73 b5 2d 1b 77 f9 f3 3f 3f 15 dd fe 08 19 e2 bf
       1.2484046041166408 -0.565556047230224
000270 24 ee ee 15 91 c3 dc 3f 65 1d 1f a0 83 27 f3 bf
       0.44943644658971693 -1.1971470122096772
000280 40 2b 86 23 55 bd f2 bf 36 e2 53 43 96 16 d9 bf
       -1.17122377277947 -0.3920035989281446
000290 30 1c 69 2d c9 26 f1 3f 4e a6 a3 d2 a4 6a 01 c0
       1.0719692014552145 -2.1770721870605376
0002a0 09 fa 55 45 fe 04 e1 3f 8a 10 87 71 82 71 ea bf
       0.5318595270362617 -0.8263561456046926
0002b0 cd 74 2d 14 d6 16 e2 bf 99 46 54 ff f0 db ff bf
       -0.5652876276104962 -1.9911966298863375
0002c0 2a d9 64 cb 80 20 f5 3f 0d 56 ff 96 6b 9a 00 40
       1.3204353280139665 2.07540052382206
0002d0 94 74 66 f1 19 1e e7 bf 33 f0 34 96 78 0d e2 3f
       -0.7224244799468971 0.5641444143034334
0002e0 b9 0d 34 52 72 3a fb 3f 78 08 db 23 96 e1 d6 3f
       1.7017691813533544 0.35751870633624305
0002f0 40 b6 85 1b 51 ec b9 3f 5b 0d 56 39 2d 18 02 40
       0.10126215860301446 2.2618050078760183
000300 5a dd 94 83 20 62 b1 3f bf c9 7e ec 49 d4 f7 bf
       0.06790354931296375 -1.4893283117386173
000310 2c a1 e1 e2 62 38 d2 bf 03 3b 76 c8 61 4a ee bf
       -0.28469154507048944 -0.9465798297186158
000320 97 6c 78 07 5c ba e9 bf 7d 48 f3 98 37 93 d0 bf
       -0.803998961058272 -0.2589854234366909
000330 7b ad ad 18 14 4e f7 3f 2d 90 7e 55 7b ec dc 3f
       1.4565621341706378 0.4519337019830825
000340 0e 8e 36 2b f9 4e fe 3f 9b 45 33 c6 f8 2d dd 3f
       1.8942805946361463 0.45593089442726303
000350 ac 8d 3e 8f 92 7b c2 3f 6c 80 a3 48 3f 39 f6 3f
       0.14439613336899748 1.3889763677070972
000360 88 4b a9 9d 9b 62 03 c0 c2 55 34 0a 98 f3 e3 3f
       -2.423148376206374 0.6234855841927855
000370 a9 04 3a a8 23 9a f4 bf 4d c9 d8 c9 61 29 f9 bf
       -1.2876316615441203 -1.5726030239716977
000380 e7 1d 23 a1 c1 ca 77 bf 71 7a 09 6c 12 df ca bf
       -0.005808597912796177 -0.20993261599774685
000390 24 f9 f0 8c 7a 06 d6 3f e9 f4 92 98 13 ec 96 3f
       0.34414542926596625 0.022384935557728722
0003a0 ea 3f d6 a5 9b 61 f2 bf 12 67 ce 54 51 0e e4 bf
       -1.1488300779346852 -0.6267477661487837
0003b0 e0 67 0a 81 e2 b0 ec bf b2 71 22 07 1f c8 e7 3f
       -0.89659238055469 0.7431788577410343
0003c0 d4 49 61 67 3d 06 c7 3f e5 fd a3 3a fa 64 df bf
       0.17987792537549174 -0.4905381748830833
0003d0 da c9 ed f8 77 a4 de 3f 5f 2f c1 c3 e2 27 c2 3f
       0.47878836926898105 0.14184221800166605
0003e0 78 0c 58 9d 48 f7 b4 bf b6 35 53 bd 6e 8c e0 bf
       -0.08189824906735221 -0.5171426484827666
0003f0 7b 84 d2 99 3c cd f7 bf eb dd 54 9d 4b c6 06 c0
       -1.4876066216168329 -2.8468239108585656
000400 54 c0 77 31 3d a0 e8 3f 98 8b 8a fd fd b0 db 3f
       0.769560429207568 0.4326777435291489
000410 7c 04 8f 5e 31 8e c8 3f 2a 48 9c 44 97 fb f3 bf
       0.19183938138124634 -1.2489235572907185
000420 14 a5 7b 37 49 71 df 3f 83 0f 35 c9 0d ce ea bf
       0.4912894288850833 -0.8376530580357983
000430 80 aa 88 ff f8 b4 ad bf d5 8b 49 c1 af 9a c2 3f
       -0.05802133673963272 0.14534565866332963
000440 c3 bc 12 a2 5a 59 f0 bf 1f cd 94 92 28 35 c2 bf
       -1.0218149500831692 -0.14224726826942288
000450 c1 5e 5f 6b 44 3e f0 bf 49 7d 01 3a 9b cb e5 3f
       -1.0152019685973956 0.6811042912412769
000460 a5 17 80 1f bc b4 e2 3f 5b 9a 5e 59 71 cf d0 3f
       0.5845623603097364 0.26266130187506115
000470 c3 f1 b1 cb bc 67 b9 bf 80 8b 82 57 d0 fb f5 3f
       -0.09923915837311541 1.373977987132747
000480 9c 23 94 ed bd 5b e0 3f 25 4c b1 ac 15 7b d5 3f
       0.5111989631851546 0.3356374918413983
000490 52 00 b0 9b a0 d2 ef 3f 33 e5 03 3d 92 75 f0 bf
       0.9944613495608883 -1.0287039168745877
0004a0 61 15 ff 0b 0a 01 d3 bf ba 8a 13 56 6e 7f e7 3f
       -0.29693843051457774 0.7343055421045712
0004b0 34 1b 9f f0 8b dd b0 3f de df 14 cd 20 00 c2 3f
       0.06588053345249706 0.14062891019579998
0004c0 30 56 ce be 21 7c e5 3f 5f 91 96 21 35 d0 d1 bf
       0.6714028097800959 -0.2783329799661
0004d0 83 cd 3b b4 73 75 e4 bf 22 af 08 97 09 c3 a4 3f
       -0.6393373985469427 0.04055051773715791
0004e0 cf d5 c0 40 25 8d ff 3f 4c 3d 74 07 fe 2a aa 3f
       1.9719593552994075 0.051109255227965805
0004f0 ed 58 e9 b5 c1 19 f9 3f c0 5d 09 32 61 d5 cc 3f
       1.5687882524412615 0.22526183074181283
000500 2a 60 16 0f 9d 9b f0 3f 7e 7b b2 4d ab 28 cf 3f
       1.0379915799476387 0.24342862409408988
000510 07 16 34 10 2c 11 d8 3f 41 e8 96 b8 f1 98 df bf
       0.3760481031643796 -0.49370997453991455
000520 9e d5 c5 72 ce ce d7 bf 96 e0 92 88 89 cb d4 3f
       -0.37199746330528594 0.3249229272582935
000530 6b 5c 89 3a 19 bd e1 bf 35 e6 80 d6 5f 68 f1 bf
       -0.5543333190243066 -1.0879820231479134
000540 8f d2 7b e7 c8 80 fb 3f f7 44 d1 5a 38 b9 cd 3f
       1.7189415972071946 0.2322149699635145
000550 3a 4f 03 12 4c ae f3 bf 70 08 33 fe 8e 0a f2 3f
       -1.2300530151014315 1.1275777749692928
000560 e9 cf 89 82 9a 86 d8 bf af 5c 11 e4 ea 83 f0 3f
       -0.383215548971974 1.0322064312838781
000570 5b bc 35 70 e4 7d c2 3f 59 24 31 b1 64 1f e4 bf
       0.14446692923545154 -0.6288321934490667
000580 fa 7f 25 db b7 8c c1 bf c8 9d b8 80 63 2c c1 3f
       -0.13710687828552165 0.13416713509762546
000590 b1 8e 4e 70 62 4f da 3f 31 79 85 80 30 ca f0 3f
       0.4110952469584204 1.0493626613966394
0005a0 1a 0f 1b ca c6 f3 f3 3f 17 89 47 56 31 6e dc 3f
       1.2470157522920489 0.44422563005186205
0005b0 a6 3b 62 01 67 97 c7 3f 72 41 a1 59 bf f2 d7 3f
       0.1843079334980448 0.37419112923546216
0005c0 b8 d2 76 60 b4 eb e5 bf f7 9f e7 42 ac a2 c1 bf
       -0.6850225338044629 -0.13777688280902087
0005d0 ca 68 63 28 d3 64 de bf 0b df a9 f0 42 b5 ea bf
       -0.47490385955974246 -0.8346266460857533
0005e0 e3 5e bf b0 50 3e b8 bf bb cb bb e0 0d da 94 bf
       -0.09470085444570091 -0.02036306080021764
0005f0 9c 4f 71 3b 5c 96 e1 bf 68 4c 96 47 59 45 e6 bf
       -0.5496045266140643 -0.6959654234109509
000600 df 31 40 44 c0 0d f8 bf 33 81 2e cc 06 ea e5 bf
       -1.5033571878476477 -0.6848176944659258
000610 82 2c ed 6d 11 c9 00 40 cd 62 ce 3c b1 d7 00 c0
       2.0981777751927106 -2.105318522499465
000620 8a fc 5c 3c d5 81 ff bf 13 5b bd 30 89 4a e0 bf
       -1.9691974981249438 -0.5090986206003855
000630 9d 96 4a 7f 01 c7 ca 3f b9 31 b0 1c 26 c7 dd bf
       0.20919817653082343 -0.4652800827177788
000640 8a a4 7f e0 b2 a2 e2 bf 33 f0 2f d7 14 d1 ef 3f
       -0.5823606858003967 0.994272632873168
000650 72 c7 70 08 3c c9 f5 bf 33 68 c1 5f 4f 86 e3 bf
       -1.3616295175274584 -0.6101452703690086
000660 3e f9 12 12 49 e8 d9 3f a3 c1 e1 0c 2d 41 c8 3f
       0.4048025776391063 0.18948901299473872
000670 88 87 35 15 06 7e 04 40 77 99 08 2d 59 d7 d7 bf
       2.5615350396119005 -0.3725188197880906
000680 cf 88 aa b7 d9 9f e5 3f 14 82 f8 63 fb 26 c0 3f
       0.6757629954556935 0.12618963605292832
000690 60 7e f0 5c 2b 44 d0 bf 9e 98 ea de dd 28 d7 bf
       -0.25416072918048904 -0.36186930436304887
0006a0 11 11 f1 81 86 56 02 40 ca ad 88 be f4 9a f3 3f
       2.2922487403576572 1.225331062577299
0006b0 e0 ce c6 b4 02 38 e7 bf 70 8f a4 8f f8 de d9 3f
       -0.7255872278969626 0.40423406627291225
0006c0 e1 ee f5 de 9e ee cb 3f 83 57 91 91 bd 2a ff bf
       0.21821962248565455 -1.9479346929778962
0006d0 d5 0f 3d 03 56 db df 3f 68 2a dd 8e df 02 03 40
       0.49776220623266215 2.3764029656643295
0006e0 16 9f 08 c3 59 b0 e8 3f 15 2a 60 af 22 1e e2 3f
       0.7715271767856133 0.566178648500968
0006f0 f9 87 1a e0 27 49 ee 3f f4 9a 20 74 c3 03 dd bf
       0.9464301468872228 -0.4533547052437108
000700 5b e3 04 bf a5 0d c9 bf 67 e2 4c 77 09 5f cf bf
       -0.19572898699859817 -0.24508779835902603
000710 d5 37 53 26 c3 48 f2 3f c9 48 58 ee e8 1b 07 40
       1.1427642342637132 2.8886278744404064
000720 58 20 31 4c c9 74 09 c0 32 f8 5e 3c 02 95 f2 bf
       -3.1820245697490854 -1.161379085373039
000730 1a 97 d2 cc 52 ed fc bf d5 ac 85 83 1d 68 9b bf
       -1.8079402924426575 -0.026764355804897406
000740 49 8b 1b 0b 68 65 f6 3f f5 06 5f 49 89 68 d5 3f
       1.3997574266329187 0.3345053879275917
000750 c9 a0 1c 92 98 9a a8 3f 82 e0 ca a3 b4 55 da bf
       0.048054473720470954 -0.4114810561691301
000760 6e 10 5a 67 b0 97 fa 3f bf bc 34 cc 52 1d 0c 40
       1.6620334660701945 3.5143180802911895
000770 51 6f 61 df 77 3c ed 3f 05 90 b4 4a 5f cc f0 bf
       0.9136313784506261 -1.049895564859072
000780 b5 63 72 98 f7 4d f3 3f f5 d2 18 8b d9 45 eb 3f
       1.2065349535898637 0.8522765843141246
000790 d4 56 92 51 dc 62 e2 bf 95 9b 71 40 6d e0 ef bf
       -0.5745679467388194 -0.9961458452861388
0007a0 e5 bd 24 f4 03 1f 0f 40 fe e6 46 7f 80 e5 de 3f
       3.8901442598068905 0.4827576868952831
0007b0 2b ed 64 a3 96 22 dd 3f 93 6c 50 61 c2 56 d6 3f
       0.45523611027211314 0.3490453672727167
0007c0 05 3b 6d ee c6 e0 fa bf 73 ef e1 a5 ed d5 f1 bf
       -1.679877215723253 -1.1147285918986796
0007d0 86 78 60 d6 aa 78 90 bf 81 3a d0 0b 02 f6 b0 3f
       -0.01608530934765231 0.06625378406918438
0007e0 af 29 8b 0b 75 1c ff bf 64 a6 6a 0b f1 b4 ee 3f
       -1.9444475603982985 0.9595875952702042
0007f0 2e 44 f1 5a 84 fd d8 3f 68 53 b6 3f 64 46 e3 bf
       0.3904734504804449 -0.6023427242640595

rnn.bias_ih_l0 f8 [256]
000000 d0 e7 12 e5 36 6a cc bf 61 2e cd fe 62 46 c8 3f
       -0.22199140725370947 0.18964803163031532
000010 2d 63 56 0d 48 e9 d4 3f 78 c2 78 e1 61 16 07 c0
       0.32673836996541433 -2.8859288802125853
000020 28 73 53 67 f3 cc e9 3f 94 1e 16 10 df bc 09 c0
       0.8062684076390711 -3.2172223335981673
000030 9b cb 5c 2f 56 bb 90 bf c8 72 88 e8 57 a4 ee bf
       -0.016339632645393825 -0.9575614492092308
000040 27 6e a0 de 07 ba d1 bf 10 bb d3 ba af f0 02 40
       -0.27697941532980724 2.367522677980908
000050 96 3f f6 b8 1f 9c e1 bf c1 10 8c 1b 4e 0a e6 bf
       -0.5503080952203045 -0.6887579477338691
000060 07 1c 7b d7 92 72 01 c0 cd d1 48 fe 4e 3b f6 3f
       -2.1809441408581764 1.3894796307550792
000070 60 99 08 81 2b cf f3 3f a9 c3 cc 2c 52 f3 9d 3f
       1.2380785980581877 0.02924850843845986
000080 c7 1f e7 57 1d 8a 09 c0 c8 5e bb 1e 9a 4d f2 bf
       -3.192438780537461 -1.1439458084550314
000090 c0 57 2a 49 db 4d 15 40 41 23 ec 34 32 08 01 c0
       5.326031821450613 -2.1290020117343436
0000a0 21 52 0f 59 b1 95 f5 3f be 38 e7 6e e2 3e ea 3f
       1.3490460852527877 0.8201763311460792
0000b0 0b 28 71 36 d4 5f e5 bf 7b cb 93 54 c5 10 f5 3f
       -0.6679478705711984 1.3165944389154152
0000c0 3f 82 d3 14 d1 2b f7 bf 4c e8 65 84 ab 17 f8 3f
       -1.4481974423907926 1.5057788059043729
0000d0 9f f6 57 5d df 24 f5 3f 40 a3 6e f2 a1 76 07 c0
       1.3215020796045918 -2.932926076890368
0000e0 8b 66 3d e1 9b 81 fd bf 77 d9 2f d5 1c 07 d5 bf
       -1.8441427992278558 -0.3285591203597486
0000f0 54 c6 d9 0a cd 16 d6 bf f6 8d 8c 80 96 43 08 c0
       -0.3451416593517014 -3.0330019038099136
000100 f0 30 62 52 5d f1 14 c0 d7 2e d7 de 9a 6f f0 bf
       -5.235707556956399 -1.0272473053654971
000110 7f d1 68 0f 86 8b c4 bf f0 75 bc 52 85 1b ca 3f
       -0.16050792457975757 0.20396486797191882
000120 94 0e 4a bd 6c f7 f1 3f f0 1a e1 df db 54 00 40
       1.1229064363587087 2.0414350023814833
000130 57 8f 5c c6 fa 55 03 40 7f 43 84 62 f0 d5 0c c0
       2.4169822213170096 -3.6044624039281525
000140 45 02 c8 a3 78 14 f5 3f e9 46 c9 53 48 0a ee bf
       1.3174978635507995 -0.9387551914644209
000150 65 1e ac 32 6d dc 06 c0 e6 89 b2 fe b2 b5 03 c0
       -2.8576301535393207 -2.4637203119502713
000160 7a 24 7c 33 9b 4b c0 bf 7d 81 f4 70 93 0e f2 3f
       -0.1273073197737949 1.128558579665053
000170 9d 9e 86 eb 36 99 ea bf 21 ee 71 8c 37 f4 03 c0
       -0.8312029457201394 -2.494246575571893
000180 85 38 8f 11 0c 69 d4 bf 1d c7 12 3c e0 4e cf 3f
       -0.31891156878271715 0.2445946019484432
000190 d4 c3 e9 92 86 a1 fd bf 72 92 63 49 70 05 da bf
       -1.8519349802775098 -0.40658194701089834
0001a0 1e b9 38 f8 dd 4d fd bf 64 0d 01 e0 90 6d 05 c0
       -1.8315105148463497 -2.678498983413805
0001b0 39 b9 2b 2b ce 1b e8 bf 2c 91 45 00 ec 35 d5 bf
       -0.7533942073039618 -0.3314161303190015
0001c0 7b af 5f cb d1 95 c6 bf 30 61 aa a6 76 83 07 c0
       -0.1764471285854333 -2.939191152643751
0001d0 16 10 01 db f3 65 ff bf b2 9a 5f 72 a4 c8 f1 bf
       -1.9623907618379284 -1.11148495366221
0001e0 be 47 56 9d 7e ee d4 3f 34 06 d7 99 c4 95 07 40
       0.3270565544599967 2.9481288927788913
0001f0 eb b2 68 11 1a d8 0d 40 62 81 91 c7 03 6e f5 bf
       3.7305184707714623 -1.3393590732231009
000200 4e 63 7f 93 6c 09 01 c0 41 39 1e f7 0f cd ef bf
       -2.1296016238451676 -0.9937820269131309
000210 23 af 4d 80 d5 f5 f6 bf f3 bd 3d d5 a1 ea e0 bf
       -1.4350180637220056 -0.5286416211001196
000220 a9 13 46 af c1 e2 e1 3f 88 da 04 03 ae e0 b2 3f
       0.5589302466693101 0.0737408406610972
000230 28 4a 08 6f 62 1f e0 3f 45 d2 b3 b4 68 9e b1 3f
       0.5038311165429308 0.06882337962799408
000240 fe 19 99 27 f9 6c e3 3f dc b5 04 56 17 84 e9 3f
       0.6070523999595137 0.7973744087263941
000250 ac 73 70 29 df 59 c3 3f 26 a5 b9 e7 38 99 cb 3f
       0.15118016742135632 0.2156134730787837
000260 eb ce c9 ea b4 e9 d2 3f 66 88 d8 55 64 0c f8 bf
       0.29551432541414496 -1.503025374732283
000270 3e 2e 91 37 1c 2f e1 3f cd f6 90 5f 51 cb f6 3f
       0.537000759629741 1.424638150506712
000280 31 5d c0 c0 71 94 f0 3f be c0 e8 bd a7 bf c3 bf
       1.0362412957527563 -0.15428635380658834
000290 3c 9a c8 91 03 4b e9 bf 4f 4d ac ea f8 4d b4 bf
       -0.7904069754920964 -0.07931476334879516
0002a0 ee 22 a9 df e6 17 f0 3f 9a 44 69 c6 f1 84 d3 bf
       1.0058354126687692 -0.3049892842873959
0002b0 15 96 a3 3e 43 d8 fe bf a9 98 7a 4b 37 e3 d0 bf
       -1.927798504527691 -0.26386816378579653
0002c0 bb 35 22 0d 04 ac c2 3f 26 ec 79 0d 36 29 aa 3f
       0.14587450639048236 0.05109566607003328
0002d0 0d 67 58 1d bf f9 ed 3f 7b 8d 7b a0 17 97 d1 3f
       0.9367366383696393 0.2748469416821632
0002e0 d1 0b 88 d5 6b 51 e4 3f 45 8b 81 8a c3 22 f1 bf
       0.6349391146217106 -1.070987263716874
0002f0 c3 f1 c9 03 45 15 05 c0 3f cc d3 41 ba 30 e6 bf
       -2.635385541534761 -0.6934481893243926
000300 49 9c 52 c7 a0 33 f1 3f d1 92 d6 8b 53 4d c3 3f
       1.0751045023005352 0.15079731300388358
000310 07 63 14 a8 c3 00 eb bf 10 79 f2 22 cc 33 93 3f
       -0.8438432963185684 0.018752278931622846
000320 1f d8 8e f5 d3 19 c8 bf 87 38 10 7c 16 9b fa 3f
       -0.18828820696006773 1.6628632398820018
000330 60 c9 da a7 1b 3b e1 3f 4e a1 fc 9e ff 95 ef 3f
       0.5384653356943936 0.9870603661739012
000340 01 7b 7a f3 ec 58 f9 bf 95 c9 7d 55 d2 d0 d3 3f
       -1.58421034916654 0.3096204600216422
000350 3a 88 2f 52 83 56 e9 3f 22 b9 36 d0 ae 50 d9 bf
       0.7918106656254686 -0.39554949124694094
000360 fa df f6 52 98 7e e5 3f 32 52 ac 2c 76 8d da 3f
       0.6717034931562005 0.4148841320286777
000370 29 16 9a 6e 4f 32 e5 bf 18 f5 9d d4 92 d2 e7 3f
       -0.6623913917725918 0.7444547798801606
000380 16 bb af f1 46 75 06 40 21 6e 29 14 6d c8 c5 bf
       2.8072642213586603 -0.17017901882614786
000390 35 fd 17 75 12 8a 97 bf d0 8f e9 3d 7e 89 f1 bf
       -0.022987640759308554 -1.0960676592303464
0003a0 f0 e2 c5 13 93 cd ef 3f 5e ab f4 a2 d8 f8 f0 3f
       0.9938445459548273 1.0607534757097805
0003b0 a8 10 d9 19 e0 1c fc bf d6 42 7b c8 64 bb bf bf
       -1.7570496568378449 -0.12395315069739907
0003c0 88 ba 0c 44 e9 97 01 c0 1c 84 7c ad b1 46 00 40
       -2.199175387991378 2.034518580782345
0003d0 34 f0 e9 40 5a 66 dd bf 88 3d 51 9e 9b fd f7 bf
       -0.45937210406532647 -1.499415987422113
0003e0 c0 51 fc 99 90 39 f6 bf e8 7d 3e 2c 41 d1 f7 bf
       -1.3890539183677078 -1.4885875442777152
0003f0 e1 b0 be 92 77 a8 f7 bf 4a 15 47 f5 67 c7 e4 bf
       -1.4786296589109542 -0.6493415632800545
000400 9d dd 53 50 12 77 ed bf 5e 27 9f d5 db 22 f5 bf
       -0.9207850998781627 -1.3210104317281188
000410 4c ab b6 43 5e e8 de 3f 65 1b 45 8a 0c 12 d8 bf
       0.48293263065959446 -0.37610162260937435
000420 07 92 99 69 44 c1 f3 bf c9 11 28 49 ca 13 e9 3f
       -1.2346843838687407 0.7836657933080967
000430 83 d3 79 6b 7c b7 f7 bf f1 1f fe 93 31 92 eb 3f
       -1.482296390369101 0.86159590630359
000440 8a 4d 8f ef 33 51 e6 bf ea 20 86 32 ac 55 be bf
       -0.6974124602224248 -0.11849476083273527
000450 bf c0 72 62 d0 a1 cd 3f cb b7 58 df 33 59 ce 3f
       0.23150067145389205 0.23709724813073615
000460 9f 4f b2 80 e1 e3 ef bf 81 60 52 c9 27 61 e8 bf
       -0.9965674890140582 -0.7618597919527162
000470 26 05 d8 73 a6 32 f8 bf 09 85 c9 ec 73 1b 07 40
       -1.512365772738414 2.8884047030447886
000480 f1 25 57 ff b0 ca 7f bf 93 01 7c ae ec 28 ec 3f
       -0.007761660953698777 0.8799956710718554
000490 30 ed c3 4b a4 8a 9d bf 9b f0 39 ee 8e cb cf 3f
       -0.02884918892321514 0.2483996070112696
0004a0 c8 a2 96 3c c1 ae e0 bf b1 a8 0d 1c ef 5a e4 3f
       -0.5213323768012623 0.6361003444592567
0004b0 80 97 f1 4c 27 61 c8 bf af 8f 87 78 12 7b f7 3f
       -0.19046489007012823 1.4675469120202072
0004c0 08 64 3f 83 2d 58 fc bf 2e ca bf 23 d6 02 ee bf
       -1.7715277792797242 -0.9378462503648899
0004d0 f7 ed 61 bc 63 b9 e3 bf bc 11 cb ea 60 48 e8 3f
       -0.6163805655809814 0.7588352762036759
0004e0 fa 30 4a 92 69 bf f0 bf b1 5a 14 ce c1 29 da 3f
       -1.046731540150232 0.40879864811851535
0004f0 df e4 56 53 b0 2a 08 40 de 74 c4 13 65 0c f3 3f
       3.0208441267865136 1.1905260822452912
000500 c8 b0 31 66 09 a8 fd bf 79 5c dc 5a 2c 53 fd 3f
       -1.8535245887715508 1.8328059720277265
000510 a2 35 34 37 03 4e c7 bf fd 46 29 98 df eb ed 3f
       -0.182068254427958 0.9350431415461739
000520 7c e1 33 1d 89 76 fa bf 2b 5c 14 8e 86 e1 f3 3f
       -1.6539393559197313 1.2425599622708983
000530 8a 9b f9 54 23 fe fe bf b0 d6 73 68 c1 31 f0 bf
       -1.9370454139077276 -1.0121473388839313
000540 7b f7 6d 00 7d a3 dc 3f 8a 12 dc 98 80 4b e3 3f
       0.4474785331911943 0.6029665933170503
000550 0c f3 82 0e 05 b1 d1 bf 45 a8 2a 46 51 89 f2 bf
       -0.2764294282640527 -1.1585247746356953
000560 33 08 37 ec a4 64 eb 3f ce b7 a6 40 c8 ca eb 3f
       0.8560356725286112 0.8685036909789632
000570 d8 74 bf 57 95 f2 fd 3f eb a3 b7 b6 6e 20 d7 bf
       1.871724455609458 -0.3613545212124893
000580 e5 97 7c 14 1f db 30 bf 84 92 f0 b1 77 af e1 bf
       -0.0002572012785883023 -0.5526693797479116
000590 fd 7c db 8a ef 69 00 c0 2b 60 07 23 7d 0a e0 bf
       -2.051726422141313 -0.5012803730160206
0005a0 8b 0c 77 e9 96 f9 dc bf 50 ef 7d 87 ed d6 ec 3f
       -0.45273373412437284 0.9012363096548857
0005b0 d1 9b 4c 7c 71 40 02 40 24 d1 f5 ac 10 d8 e6 3f
       2.281466456497107 0.7138751390580507
0005c0 b3 1e 57 56 41 b2 fa bf 15 50 27 b1 da 9a d5 bf
       -1.6685193417232937 -0.33757655429985906
0005d0 3b 7e af 4e 51 20 0b c0 19 60 d6 f0 24 9c 01 40
       -3.3907800814920654 2.2012423339292693
0005e0 4a e6 e0 a6 70 7a f0 bf 6e 77 56 65 f9 4d d9 3f
       -1.0298925894443465 0.3953841676355897
0005f0 cf c3 65 c6 9d 9c c8 bf 6f ed d1 ac 3a 06 f8 bf
       -0.1922795504320036 -1.5015208006651297
000600 41 77 52 af f2 7c 04 c0 7b 1e db ee ba 15 fd 3f
       -2.561009759620817 1.8178052263555446
000610 43 30 ce 11 9a d6 eb 3f 12 3d 23 2b 51 77 0e c0
       0.8699465129625498 -3.8082602853898004
000620 b5 ad ed 79 80 f2 e3 3f 1d 33 f6 95 e8 6d f7 bf
       0.6233522778906521 -1.4643331392173373
000630 14 62 b8 0c 5e 58 da 3f 96 33 34 a7 64 45 05 c0
       0.4116435169430883 -2.6588833868795048
000640 83 fc 22 d1 d8 cb f5 bf 23 9c 51 f0 08 9e d8 3f
       -1.3622673196221349 0.38464568585044584
000650 8c 18 5d 2b c3 84 bc 3f 60 59 6c c7 80 9d 0c c0
       0.1114007931583691 -3.5769057826939132
000660 0b b9 09 cc 83 3e 09 c0 45 ba 61 b7 36 36 f1 3f
       -3.1555248203723116 1.0757357753133345
000670 1e 73 37 62 53 6a dd 3f b0 81 52 29 1b 3a f6 3f
       0.4596146067759025 1.3891860593940741
000680 45 60 11 43 25 01 f1 bf 89 45 12 cc db 57 ed 3f
       -1.0627796764220119 0.9169749246377005
000690 97 ea 71 4c c8 08 fd bf e5 2a 98 73 9b 7f 0a c0
       -1.8146441446430452 -3.3123082190335134
0006a0 03 5e bc f6 17 46 e8 bf 36 3f b8 60 2b ff b0 3f
       -0.7585563487108974 0.06639357672997623
0006b0 bb 07 43 91 24 63 00 c0 50 a0 01 17 43 29 e1 3f
       -2.0484095905858033 0.5362868737547704
0006c0 b9 74 4f 14 a1 87 00 c0 5a 55 50 8f 73 15 bf 3f
       -2.066225203203967 0.12142107247230652
0006d0 ab de 1c 54 82 33 fd 3f 39 97 81 4f 61 f6 f9 bf
       1.8250754628806287 -1.622651396342418
0006e0 88 e6 23 b9 56 6a fa bf 69 95 48 ad a2 38 f5 3f
       -1.6509616119423374 1.3263270157707103
0006f0 9f 86 fb d5 bb 61 d4 3f 5b 58 2b 5a 2f 2f f3 bf
       0.31846519371729615 -1.1990197679747527
000700 5b 0a 56 4a 19 a0 e5 3f 28 89 3c 5d 9c 07 f1 bf
       0.6757933093907228 -1.0643581049012685
000710 7b 3c 0b 45 4b d6 f2 bf 59 cf 07 3f 11 b7 ce 3f
       -1.17731787653227 0.23996177270566468
000720 90 0d 51 13 2f 44 e4 3f 87 9c 32 cc 16 1a e9 bf
       0.6333232285764314 -0.7844346988903376
000730 09 93 99 e4 9e fc e1 bf 92 e8 9f ba 6b 47 bb bf
       -0.5620874848214906 -0.1065585451723641
000740 6d ab 10 51 29 12 ec bf be c9 51 42 7a b2 bf 3f
       -0.877216966944031 0.12381710166099588
000750 1e 16 5b 3a 51 b0 04 c0 a1 62 e7 c8 cc df 04 c0
       -2.5860924300238954 -2.609277314721411
000760 31 39 09 34 a4 a7 f4 3f 64 ee f8 99 a1 b1 76 bf
       1.2909280808122043 -0.00554049611633509
000770 8e e1 72 e3 f4 a2 b6 3f 5b b6 3f e4 21 f7 05 c0
       0.08842402031849003 -2.7456701118415316
000780 43 e4 1c c1 e4 55 0b c0 6a 16 c0 1b 71 83 ab 3f
       -3.416940220541194 0.053737196576588556
000790 a1 b1 4d 8c 4f 3e fe bf 73 c5 b8 0c 9a f3 13 c0
       -1.8902125816922324 -4.987892340447945
0007a0 28 dc 7a 24 d0 6d 02 c0 e2 ec ff d9 d9 5c bd 3f
       -2.3036196565622227 0.11469804355867866
0007b0 25 32 51 52 9b 73 cf 3f f3 36 92 e4 c4 17 f4 bf
       0.24571553725617537 -1.2558030060349068
0007c0 4b 1b 4f 19 3e d5 fc 3f 27 2c d0 a9 24 60 f7 bf
       1.8020611752160274 -1.4609724648787592
0007d0 e6 74 90 b8 2e cd d2 3f b6 3d 5a 76 29 3a 00 c0
       0.2937733461747726 -2.028399395588816
0007e0 9d 13 77 22 0f 9a d0 bf eb a5 8c 2c e4 4d 0c c0
       -0.25940302243935226 -3.5380328636572265
0007f0 e5 5e d0 76 0c d3 f7 bf 05 8e 50 96 24 1d 08 c0
       -1.4890255585832446 -3.014229940732323
