models/modelRNN_lang4_StringWithoutTrigram.pt (torch, 511831 bytes, 9 tensors)

rnn.weight_ih_l0 f4 [256, 300]
0	0x3f4a3298	0.7898345
1	0x3f3edce6	0.74555814
2	0xbfbfeaa4	-1.4993482
3	0x3ef576c1	0.47942165
4	0xbed84dcb	-0.4224685
5	0x3f4976f6	0.78697145
6	0x3dec1d75	0.11529056
7	0xbedc2a91	-0.43001226
8	0x3f4176e6	0.7557205
9	0xbdc0b93b	-0.0941033
10	0xbf135f23	-0.5756704
11	0xbfb10be4	-1.3831754
12	0x3fb3aeee	1.4037759
13	0xbe9db12d	-0.30799237
14	0xbf64e946	-0.89418447
15	0x3deb4596	0.11487882
16	0x3eb79204	0.3585359
17	0x3eb48c79	0.35263422
18	0x3fbf83c9	1.4962093
19	0xc0202abe	-2.5026088
20	0x3f2e13b7	0.6799883
21	0x3ea3b7c0	0.31976128
22	0x3ebe6949	0.371897
23	0xbea4cabd	-0.32185927
24	0xbed12032	-0.40844876
25	0x3f9347d0	1.150629
26	0xbf923990	-1.1423817
27	0x3f153708	0.58287096
28	0xbe9bc8d3	-0.30426654
29	0xbf2d1852	-0.67615235
30	0xbf0a1f0b	-0.5395362
31	0x3efadbd6	0.48995847
32	0x3f839af1	1.0281659
33	0x3ee9657e	0.45585245
34	0x3fa27377	1.2691487
35	0xbef172f4	-0.47158015
36	0xbe7d1772	-0.24715975
37	0xbf1c89b4	-0.6114762
38	0x3e7c921b	0.2466511
39	0x3f1af633	0.6053192
40	0x3f38416c	0.71974826
41	0x3df25dc7	0.11834293
42	0x3f5999d9	0.8500038
43	0xbdc3988f	-0.095505826
44	0x3d816619	0.06318302
45	0x3e9002d0	0.28127146
46	0xbeaa7b4c	-0.33297193
47	0x3eb53ba4	0.35397065
48	0x3ec8d2a3	0.39223203
49	0x3e1ee637	0.15517507
50	0xbf87ce1a	-1.0609772
51	0x3edf9446	0.4366781
52	0xbf62dcdd	-0.8861826
53	0xbf7e2a7f	-0.99283594
54	0x3f0e1825	0.5550559
55	0xbddf3d36	-0.10900347
56	0x3fa54795	1.291247
57	0xbf6396d7	-0.8890204
58	0x3f0256ee	0.50913894
59	0xbe9cfa31	-0.3065963
60	0x3ebc9d3c	0.3683871
61	0x3f923159	1.142131
62	0xbc511d3f	-0.0127633205
63	0xbe078a3a	-0.13236323
64	0x3e45f213	0.19330625
65	0xbe9a6b2f	-0.301599
66	0xbf0c589e	-0.5482272
67	0x3f0b1752	0.5433246
68	0x3edc8a04	0.43074048
69	0x3f816db0	1.0111599
70	0x400f0eac	2.2352705
71	0xbf46cbda	-0.776548
72	0xbed1a736	-0.40947884
73	0xbf801ce7	-1.000882
74	0xbf1f4676	-0.6221689
75	0xbf929977	-1.1453084
76	0xbe9b4b67	-0.30330965
77	0xbebd13f4	-0.36929286
78	0xbfb8cb3f	-1.4437026
79	0xbf43de23	-0.7651083
80	0xbf275ae0	-0.6537304
81	0xbebe349f	-0.37149522
82	0xbef55f07	-0.47924063
83	0xbf487993	-0.7831051
84	0x3f8edf92	1.1161978
85	0xbda3ed21	-0.08004213
86	0x3e314391	0.17310931
87	0x3f2a706e	0.66577804
88	0xbef44303	-0.47707376
89	0x3e8d3c29	0.2758496
90	0x3ef38074	0.4755894
91	0xbde3baf2	-0.11119641
92	0xbe92b562	-0.2865401
93	0x3e803873	0.25043067
94	0x3fc3aaf2	1.5286543
95	0xbf7630a2	-0.9616796
96	0x3f01552e	0.505206
97	0x3d58d570	0.052937925
98	0x3d1a6863	0.037697207
99	0x3e7039d8	0.23459566
100	0xbe01b5f3	-0.12667064
101	0x3f320fc1	0.6955529
102	0x3fc376ce	1.5270631
103	0x3d8e3576	0.069437906
104	0x3e6851d4	0.22687465
105	0x3d4a5017	0.049392786
106	0xbf5f2770	-0.8716955
107	0x3f107df5	0.56442195
108	0x3e1b726d	0.15180369
109	0x3dfb6423	0.12274959
110	0x3f962378	1.1729574
111	0x3f205c37	0.6264071
112	0x3f5a63f0	0.8530874
113	0xbce06e31	-0.027396293
114	0x3f8f1fba	1.1181557
115	0x3c7d25f3	0.015450942
116	0xbe8b69dd	-0.27229205
117	0x3ea83f58	0.32860827
118	0xbed3034e	-0.4121346
119	0xbdd90fc5	-0.10598711
120	0x3e960e6e	0.29307884
121	0xbf62e8dd	-0.8863657
122	0x3ea33d56	0.31882733
123	0x3f7713e2	0.96514714
124	0xbd9539d8	-0.072864234
125	0xbf66cd32	-0.90156853
126	0xbe7bdbe6	-0.24595603
127	0x3faca8f0	1.3489056
128	0xbcb7960a	-0.022410411
129	0x3f35f759	0.7108055
130	0xbe83c862	-0.25738817
131	0x3dfaa61c	0.12238714
132	0x3fc91d88	1.5712137
133	0x3f17fa9d	0.5936678
134	0x3f2748d1	0.65345484
135	0xbdc81d8a	-0.09771259
136	0x3eb2ae63	0.34898672
137	0xbd182e55	-0.03715356
138	0x3e864ac5	0.2622892
139	0x3f26c90e	0.65150535
140	0x3e9502a7	0.29103586
141	0x3e6bc495	0.23024209
142	0xbf393d83	-0.72359484
143	0xbd8c9737	-0.068647794
144	0x3fb2ee20	1.397892
145	0x3f30a52f	0.6900205
146	0xbf0a1622	-0.5394002
147	0x3eafaf6e	0.3431353
148	0xbe3220a5	-0.17395265
149	0xbf4ba9cc	-0.79555964
150	0x3ea08e2e	0.31358474
151	0xbf22b7ba	-0.63561594
152	0xbe9a373b	-0.30120263
153	0xbed92147	-0.424082
154	0x3f2300cd	0.63673097
155	0xbf0acb5f	-0.5421657
156	0xbd7097b7	-0.058738437
157	0xbfba2212	-1.4541647
158	0xbf8b36d8	-1.0876112
159	0x3ef26ca5	0.47348514
160	0xbdf60594	-0.12012783
161	0x3f6797ee	0.904662
162	0x3dd0a29c	0.10187265
163	0x3f2b9d4a	0.6703688
164	0x3f15536c	0.58330417
165	0xbc8d9f91	-0.017288001
166	0xbda94ff9	-0.08267207
167	0xbfb3920d	-1.4028946
168	0xbf085435	-0.5325349
169	0x3dffe23f	0.12494325
170	0xbec99e4a	-0.39378577
171	0x3ea711f2	0.3263088
172	0x3eb536e7	0.3539345
173	0xbdf36d2b	-0.118860565
174	0xbeec7a81	-0.46187213
175	0x3e20a054	0.1568616
176	0x3f0886ca	0.5333067
177	0xbf4e71b7	-0.80642265
178	0xbe398389	-0.18116583
179	0x3eb651cc	0.3560928
180	0xbf805a42	-1.0027544
181	0x3e28a4d1	0.16469122
182	0x3f746add	0.9547556
183	0xbee3bb03	-0.44478616
184	0xbf82b9e3	-1.0212978
185	0xbf04f357	-0.5193381
186	0xbea5315b	-0.32264218
187	0xbe84d90e	-0.2594685
188	0xbd5cc813	-0.053901743
189	0x3f07acfb	0.5299832
190	0x3f78943c	0.9710119
191	0x3eedcdfa	0.4644621
192	0xbeeaa129	-0.4582608
193	0xbf11f049	-0.5700727
194	0x3e9b3cc5	0.303198
195	0x3f2a9dce	0.6664704
196	0xbf6c05b2	-0.9219619
197	0xbfa08374	-1.2540116
198	0xbf934655	-1.1505839
199	0xbed4e67d	-0.415821
200	0xbeec65b1	-0.46171334
201	0x3d7122b7	0.058870997
202	0xbf082b8d	-0.53191453
203	0xbeea0f87	-0.4571497
204	0x3d881c80	0.06646061
205	0xbf459b44	-0.7719004
206	0x3db0c367	0.0863102
207	0x3e0ca9f7	0.13736711
208	0xbf97ec98	-1.1869078
209	0x3f8e08c3	1.1096424
210	0xbf75e91b	-0.96058816
211	0x3ebee1a6	0.3728153
212	0xbf1f96ad	-0.6233929
213	0xbe99f9ae	-0.30073303
214	0xbe3087a2	-0.1723924
215	0x3d6fc636	0.058538638
216	0x3ebeada4	0.37241852
217	0x3d62753e	0.055287592
218	0x3f745012	0.9543468
219	0xbeec1b31	-0.46114495
220	0xbf2232af	-0.6335859
221	0x3e738630	0.23781657
222	0xbf015362	-0.5051786
223	0x3f65b26a	0.89725363
224	0xbf39d1b4	-0.72585607
225	0x3f398f33	0.7248413
226	0x3e16dadf	0.1473193
227	0xbecb7bf6	-0.39743012
228	0xbdcd04ac	-0.10010657
229	0xbe30c1bb	-0.17261402
230	0x3e8f5d92	0.28001076
231	0xbf550fc6	-0.83227193
232	0xbe94782a	-0.28997928
233	0x3eda2bf5	0.42611662
234	0x3bcbc06f	0.006218008
235	0x3f70eba6	0.9410957
236	0x3e3485f1	0.1762922
237	0xbe849430	-0.25894308
238	0x3f4b2138	0.7934756
239	0x3e4506b6	0.19240841
240	0x3f84b04d	1.0366303
241	0x3e42dad7	0.19028793
242	0x3e9ed3f1	0.31021073
243	0xbf1d696d	-0.6148899
244	0xbf800f46	-1.0004661
245	0xbf035b5a	-0.51311266
246	0x3ed43475	0.41446272
247	0x3ea0bdd4	0.31394827
248	0xbf4042b0	-0.7510176
249	0xbef534fc	-0.47891986
250	0xbf6df3ae	-0.9294995
251	0xbf43f6f7	-0.76548713
252	0x3f7540b5	0.9580186
253	0x3cc88b8b	0.024480602
254	0xbeb9c09d	-0.36279765
255	0xbe087e81	-0.13329507

rnn.weight_hh_l0 f4 [256, 64]
0	0xc05b5dff	-3.427612
1	0xbfca9201	-1.5825807
2	0x3ed465bd	0.4148387
3	0xbf039ea9	-0.5141397
4	0x3eee4351	0.46535733
5	0xbe47846d	-0.1948411
6	0x3dfe3379	0.124121614
7	0x3ea2654a	0.31717902
8	0xbe901460	-0.28140545
9	0x3f259849	0.64685494
10	0x3e75ea95	0.24015267
11	0xbe31c494	-0.17360145
12	0xbdf54003	-0.119751
13	0xbd9cbb3c	-0.076528996
14	0x3e5c2d91	0.21501757
15	0x3f75f862	0.9608213
16	0x3fbc6020	1.4716835
17	0x3d844179	0.064578004
18	0x40043042	2.0654454
19	0x3f25487e	0.6456374
20	0x3f2e9c91	0.6820765
21	0xbf1d1427	-0.61358875
22	0x3d40fae4	0.047114268
23	0xbf349400	-0.7053833
24	0xbe96f84b	-0.29486308
25	0x3f6c8f5f	0.92406267
26	0xbf09be17	-0.5380568
27	0x3f026623	0.509371
28	0x3d422a05	0.047403354
29	0xbfafd72c	-1.373754
30	0x3f011500	0.5042267
31	0xbda2f36a	-0.07956584
32	0xbe734317	-0.23756061
33	0x3e9510d8	0.29114413
34	0x3f127dce	0.5722321
35	0x3f5a6fcf	0.85326856
36	0x3d932484	0.07184699
37	0x3f6415f6	0.8909601
38	0x3f841db3	1.0321563
39	0x3e5b4cc6	0.21416005
40	0xbe9a8e87	-0.30186865
41	0x3f26b1dc	0.6511514
42	0xbf058d3f	-0.5216865
43	0x3f107104	0.5642245
44	0x3f027e32	0.5097381
45	0x3e9ee687	0.31035253
46	0xbe322a34	-0.17398912
47	0xbee9e458	-0.45682025
48	0x3f696db6	0.9118303
49	0x3f9d2baf	1.2278956
50	0xbf322b76	-0.69597566
51	0x3e621be5	0.22080953
52	0x3ec12214	0.37721312
53	0x3f6c5b0b	0.9232642
54	0x3ee7225e	0.45143408
55	0x3f486f28	0.7829461
56	0xbdb73a68	-0.08946687
57	0xbed55a8c	-0.41670644
58	0x3e80eabf	0.25179097
59	0x3f38e0db	0.722181
60	0xbe45f6c9	-0.19332422
61	0x3f7ae908	0.9801183
62	0xbf9e5607	-1.2370003
63	0x3fbfc6a3	1.4982494
64	0xbfc9b811	-1.5759298
65	0xbe72b965	-0.23703535
66	0xbfc32cc6	-1.5248039
67	0x3fa4fde7	1.2889985
68	0x3df6609c	0.120301455
69	0x3e1f3307	0.15546809
70	0xbfa15f2d	-1.260717
71	0xbfd756c7	-1.6823357
72	0x3f03de6e	0.51511276
73	0x3eeff247	0.4686453
74	0x3e92500a	0.2857669
75	0x3fddb006	1.7319343
76	0xbd18105c	-0.037124977
77	0xbe9aa866	-0.30206603
78	0x3f71dddf	0.94479173
79	0x3fd498b4	1.6609101
80	0x3f95e458	1.171031
81	0x3ebbd7d4	0.366881
82	0x3fa33436	1.2750309
83	0x3f3e42d0	0.743207
84	0x3f2fd168	0.68678904
85	0x3eb14668	0.34624028
86	0x3ea1a3f5	0.31570402
87	0x3eb5fdbc	0.35545146
88	0x3f1f7d5f	0.62300676
89	0x3e43eb0c	0.19132632
90	0xbe81c1fa	-0.25343305
91	0x3ed45671	0.414722
92	0x3f0fbf20	0.5615101
93	0xbf8b1b5b	-1.0867723
94	0xbfbbea19	-1.4680816
95	0xbf5b8253	-0.85745734
96	0x3e96507e	0.29358286
97	0xbe70f9f8	-0.23532856
98	0x3f7ec917	0.9952559
99	0xbf9ce214	-1.2256494
100	0xbe11c682	-0.14235881
101	0x3f184990	0.5948725
102	0xbf034d01	-0.51289374
103	0xbfbb446f	-1.4630259
104	0xbdac527f	-0.084141724
105	0xbeb826f0	-0.35967207
106	0x40272701	2.6117556
107	0x3f4d2c5a	0.801458
108	0xbee34fbb	-0.44396767
109	0xc011f198	-2.2803707
110	0xbfca0da7	-1.5785416
111	0x3ea44daa	0.32090503
112	0x3f81c401	1.0137941
113	0x3e84be7c	0.25926578
114	0xbf10a80e	-0.5650643
115	0x3ff9fa1c	1.9529452
116	0xc03e7a90	-2.9762306
117	0x3f88324c	1.0640349
118	0x3e36fcfc	0.17869943
119	0xbecc6ce9	-0.39926842
120	0xbee37429	-0.4442456
121	0xbed6c6db	-0.4194859
122	0xbfe1939d	-1.7623173
123	0xbeda4713	-0.4263235
124	0x3e067797	0.13131557
125	0x40146e65	2.319238
126	0xc0006495	-2.006139
127	0x3ddcb2ac	0.107762665
128	0x3ea73a86	0.32661837
129	0xbf03003e	-0.51172245
130	0xc054d98a	-3.3257775
131	0xbe4b4397	-0.19850002
132	0xbe2e991b	-0.17050593
133	0x40056113	2.08405
134	0x3e67831d	0.2260861
135	0xbeb81999	-0.3595703
136	0x3ffabcca	1.9588864
137	0xc0049938	-2.0718517
138	0x3f196500	0.5991974
139	0x3e16e30d	0.1473505
140	0xc033f9a3	-2.8121116
141	0xbf453912	-0.7704021
142	0x3da47d3c	0.08031699
143	0xbea3b3b4	-0.3197304
144	0xbf21a332	-0.6313964
145	0x3f8dcdbe	1.1078413
146	0x3d30d308	0.043170005
147	0x3e7d7277	0.24750696
148	0xbb192463	-0.0023367635
149	0xbf3cad8b	-0.73702306
150	0xbf48c861	-0.78430754
151	0xbf606ba0	-0.8766422
152	0xbdac1037	-0.0840153
153	0xbf83d671	-1.0299817
154	0xbf3ba665	-0.7330077
155	0xbfca4954	-1.5803628
156	0xbe2ba7bf	-0.16763209
157	0x3ed54ff5	0.41662565
158	0x3f47df78	0.7807536
159	0x3fb9ad74	1.4506059
160	0x3ee540ff	0.4477615
161	0x3fa8e22e	1.3194025
162	0xbf3743c3	-0.7158777
163	0x3f8f6419	1.1202422
164	0xbe24514c	-0.16046637
165	0xbf12d506	-0.573563
166	0x3f46ad60	0.776083
167	0x3edc7f0c	0.4306568
168	0x3ea008d0	0.31256723
169	0x3f86375f	1.0485648
170	0x3e5e083b	0.21682827
171	0x3e3d8b2d	0.18510123
172	0x3de3061c	0.1108515
173	0x3d974069	0.07385332
174	0xbf53c624	-0.82724214
175	0xbf654c4d	-0.8956955
176	0xbf790e92	-0.9728786
177	0x3f677d93	0.90425986
178	0xc020696e	-2.506435
179	0x3e1c0cc3	0.15239243
180	0x3d5f600d	0.05453496
181	0xbdbe8481	-0.09302617
182	0xbf7e5c83	-0.9935991
183	0xbe078969	-0.13236012
184	0xbed89514	-0.42301238
185	0xbdc70c27	-0.09719115
186	0xbd5c1784	-0.053733364
187	0x3f2defd8	0.679441
188	0xbef65410	-0.4811101
189	0xbd954db7	-0.072902136
190	0x3e9a3312	0.3011709
191	0xbf1cee94	-0.6130154
192	0x3f870b66	1.0550354
193	0xbe70631b	-0.23475306
194	0xbf291aeb	-0.660567
195	0x4082e833	4.0908446
196	0x3f7228b1	0.9459334
197	0xbf13f5e7	-0.5779709
198	0xbf855b6c	-1.0418525
199	0xbd4e10bb	-0.050308924
200	0xbf47bd36	-0.7802309
201	0xbf9b61dd	-1.213924
202	0xbede1bf9	-0.43380716
203	0xbde1a7d5	-0.110183395
204	0xbfbbdb74	-1.4676347
205	0x3e2a7d65	0.16649397
206	0x3e97da42	0.29658705
207	0xbf4314c9	-0.7620359
208	0xbe85999a	-0.2609375
209	0x3e9be386	0.30447024
210	0xbd19bf1d	-0.037535775
211	0x3e9570c1	0.29187587
212	0x3e48d20d	0.19611378
213	0x3e36b6c5	0.17843159
214	0xbf5582db	-0.83402795
215	0xbefd8771	-0.49517396
216	0xbe6c3687	-0.23067676
217	0xbe55f1ec	-0.20893067
218	0x3f7c726f	0.9861211
219	0x3c5f3a67	0.013624764
220	0x3fb4766f	1.4098643
221	0x3e02a6cf	0.12758945
222	0x3f9c656e	1.2218454
223	0x3f428caa	0.75995886
224	0x3eaf7434	0.34268343
225	0x3f35d30f	0.71025175
226	0x3f33f142	0.70290005
227	0x3d368a39	0.044565413
228	0xbfa681d4	-1.300837
229	0x3f340ee1	0.70335203
230	0xbfc58502	-1.5431216
231	0xbef87b92	-0.48531777
232	0xbef8db5b	-0.48604855
233	0xbf9f6108	-1.2451487
234	0xbf28af66	-0.65892637
235	0xbf0c082e	-0.5469998
236	0x3dedfae2	0.11620118
237	0x3fc6f675	1.5543963
238	0xbfa1da79	-1.2644798
239	0x3f926711	1.1437703
240	0xbfb45673	-1.4088882
241	0x3e34eebc	0.17669195
242	0x3c832706	0.016009819
243	0xbedf8d5f	-0.43662545
244	0xbdb2c865	-0.087296285
245	0xbf4e1a8c	-0.8050926
246	0xbffd3b21	-1.978367
247	0xbe03feab	-0.12890117
248	0xbf824d5c	-1.0179858
249	0xbe50c297	-0.2038673
250	0x3f30e6a0	0.69101906
251	0x3f9d0027	1.2265671
252	0x3f772b09	0.9655004
253	0xbf87c6de	-1.0607564
254	0xbf3deeef	-0.7419271
255	0xbf1eed53	-0.6208088

rnn.bias_ih_l0 f4 [256]
0	0xbf7daf9d	-0.9909609
1	0xbf90374f	-1.1266879
2	0xbeca792c	-0.39545572
3	0x3d8db164	0.069186
4	0x3ef5c30b	0.48000368
5	0xbfd212cb	-1.6411985
6	0xbf876434	-1.0577455
7	0x3eb613a6	0.35561866
8	0xbe335c59	-0.17515697
9	0x3ea86703	0.32891092
10	0x3e110826	0.14163265
11	0x3f4fab6a	0.8112093
12	0xbef59152	-0.47962433
13	0xbf497574	-0.78694844
14	0x3e3fd7bf	0.18734644
15	0xbf7a94b6	-0.97883165
16	0xbed2861e	-0.41117948
17	0xbe849e4a	-0.25902015
18	0xbdd2e055	-0.10296694
19	0xbfc7c2f1	-1.5606366
20	0xbe94f76b	-0.29095015
21	0xbf55a7a8	-0.8345895
22	0xbf78cb6a	-0.97185385
23	0xbef833a2	-0.48476893
24	0x3e8462cc	0.25856626
25	0x3eb5e9b5	0.35529867
26	0x3dfef1bf	0.12448453
27	0xbf730acd	-0.94938356
28	0x3e0fc3e0	0.14039564
29	0xbde24bc4	-0.110496074
30	0x3e5ddb95	0.21665795
31	0xbf2e8533	-0.68171996
32	0x3f7c53cd	0.9856537
33	0xbf4ceb9e	-0.80047023
34	0xbf2805a6	-0.6563362
35	0xbfc0e4c0	-1.5069809
36	0xbf6a4eed	-0.9152668
37	0xbe94bdf5	-0.29051176
38	0x3f135cf4	0.5756371
39	0x3e4c4df6	0.19951615
40	0xbf3285db	-0.697355
41	0xbe2982fd	-0.16553874
42	0xbeeab58e	-0.4584164
43	0xbf5cd4a8	-0.8626199
44	0xbfa22bd5	-1.2669626
45	0xbfa2175f	-1.2663382
46	0xbfb7bc5f	-1.4354361
47	0xbe4608bc	-0.1933927
48	0x3f302ee8	0.68821573
49	0xbfa0dff8	-1.256835
50	0xbfa602bf	-1.2969588
51	0xbf95e7da	-1.171138
52	0xbe158bd8	-0.14604127
53	0xbf7da235	-0.99075633
54	0xbfb50449	-1.4141933
55	0x3ece5156	0.4029643
56	0xbfb0ad87	-1.3802956
57	0x3e584455	0.21119817
58	0x3e3f6c7f	0.18693732
59	0xbf2b9a52	-0.6703235
60	0xbf7c79c1	-0.9862328
61	0x3eaa0f1a	0.33214647
62	0x3e5af947	0.21384154
63	0xbfbf61f9	-1.4951774
64	0xbf088675	-0.53330165
65	0xbe6a4941	-0.22879507
66	0xbeb9a62e	-0.36259598
67	0xbec8a233	-0.39186248
68	0x3f2eab33	0.6822998
69	0xbf2b2c8c	-0.6686485
70	0xbe450765	-0.19241102
71	0xbf7ae187	-0.9800038
72	0xbeda7fde	-0.4267568
73	0xbdfedf33	-0.124449156
74	0xb8876dfe	-6.457789e-05
75	0xbee1a92a	-0.44074374
76	0x3d46dec0	0.048552275
77	0xbf59b2fd	-0.8503874
78	0xbf37d4ef	-0.71809286
79	0xbe40a0f0	-0.18811393
80	0x3db65a46	0.08903937
81	0xbf8a47c0	-1.0803146
82	0x3c2001f4	0.009766091
83	0xbf32b1c7	-0.69802517
84	0xbf1abbde	-0.6044291
85	0xbf3386a6	-0.7012733
86	0x3ed4bdb8	0.41550994
87	0xbf77defc	-0.9682462
88	0xbf3c43bb	-0.7354085
89	0xbf6e206d	-0.9301823
90	0xbf1cf1ec	-0.61306643
91	0x3e2e8ae2	0.17045167
92	0xbecacb0a	-0.39608032
93	0xbe83aa10	-0.25715685
94	0xbf6b39d3	-0.9188511
95	0xbfbdd89f	-1.4831733
96	0xbe715dfe	-0.23571011
97	0xbbcc34a6	-0.006231862
98	0x3d5ba6d6	0.053625904
99	0xbd7e9501	-0.06215382
100	0xbea957e4	-0.33074868
101	0xbe905486	-0.28189486
102	0xbe3da21a	-0.18518868
103	0xbf862249	-1.0479213
104	0x3ee99a34	0.4562546
105	0xbd120cc0	-0.03565669
106	0xbe01f3ad	-0.12690611
107	0xbf0cc7e1	-0.5499249
108	0x3d7edc26	0.06222167
109	0xbf8967e0	-1.0734825
110	0xbf62c143	-0.88576144
111	0xbeea762e	-0.4579329
112	0xbee93f3e	-0.45556062
113	0xbec8fbaf	-0.3925452
114	0xbe75c36d	-0.2400033
115	0xbf8d1dfc	-1.1024776
116	0xbf0a1e34	-0.53952336
117	0xbe5ac5a3	-0.21364455
118	0xbee82113	-0.45337734
119	0xbf269e4d	-0.650853
120	0x3e97fcd4	0.2968508
121	0xbf21f01e	-0.63257015
122	0xbef6d26d	-0.48207417
123	0xbe35f66a	-0.17769781
124	0xbf637719	-0.88853604
125	0xbf1c935f	-0.6116237
126	0xbf1ce658	-0.61288977
127	0xbf5e4983	-0.8683092
128	0xbe0e47a2	-0.13894513
129	0x3eb6b95e	0.356883
130	0xbe8c0849	-0.2735007
131	0xbe73ebca	-0.23820415
132	0xbf58ef42	-0.8474008
133	0xbdf1e9ed	-0.11812196
134	0x3e888138	0.26661086
135	0x3e6ed93e	0.23325059
136	0xbf1082e5	-0.5644973
137	0xbfde49b1	-1.7366239
138	0x3f4c014f	0.79689497
139	0xbec99c7b	-0.39377198
140	0x3e907181	0.28211597
141	0x3d1587bc	0.0365064
142	0xbf72a215	-0.9477857
143	0xbe927bb7	-0.28610012
144	0x3e72a529	0.23695816
145	0x3e88529e	0.26625532
146	0xbd8dbcf6	-0.06920807
147	0x3eede0ee	0.4646067
148	0x3e6e0bfe	0.23246762
149	0xbf69f19d	-0.913843
150	0xbcef7b45	-0.029233584
151	0xbe617ebb	-0.22021
152	0x3d7e9a02	0.062158592
153	0xbf5e710a	-0.86891234
154	0x3f0a9cb2	0.5414535
155	0xbd24f356	-0.040271126
156	0xbe4c843f	-0.19972323
157	0xbe636346	-0.22205839
158	0x3dd76302	0.10516931
159	0x3e53d6f0	0.20687461
160	0x3f4b65da	0.7945229
161	0xbf1c19b9	-0.6097675
162	0x3d7d748e	0.061878733
163	0x3eb521e0	0.35377407
164	0xbf697c35	-0.9120515
165	0x3e9e4435	0.30911413
166	0x3e60c497	0.21949993
167	0x3e943f9f	0.2895479
168	0x3ecd2d89	0.40073803
169	0xbdd07bcb	-0.10179862
170	0xbd9e317e	-0.07724284
171	0x3ef810d1	0.4845033
172	0x3e5a5ca9	0.2132441
173	0xbdd69912	-0.104784146
174	0xbf2b82b6	-0.66996324
175	0xbf3bed86	-0.73409307
176	0xbe0d72fd	-0.13813396
177	0x3e62b1fa	0.22138205
178	0xbec338dd	-0.3812932
179	0x3e1a2172	0.15051821
180	0x3eaf5eee	0.34252113
181	0x3dcafddc	0.09911701
182	0x3ae71a4f	0.0017631742
183	0x3f135e67	0.5756592
184	0x3dfbd3e2	0.12296273
185	0x3f1a8dd0	0.6037264
186	0xbe5cf135	-0.21576388
187	0x3bbbc253	0.0057299524
188	0x3e6bef21	0.23040439
189	0xbf0c05d0	-0.5469637
190	0xbd500ce7	-0.050793555
191	0xbdb4a910	-0.088213086
192	0xbfcf043e	-1.617317
193	0xbf8a6ba6	-1.0814102
194	0xbef5be9e	-0.47996992
195	0xbea59dc2	-0.32346922
196	0xbec4e972	-0.38459355
197	0xbff57725	-1.9176985
198	0xbf5374ec	-0.82600284
199	0x3e70806d	0.2348649
200	0xbe734280	-0.23755836
201	0x3ea656e5	0.3248817
202	0x3d8d1003	0.068878196
203	0x3f245401	0.6419068
204	0xbe2b22cd	-0.16712494
205	0xbf8b5ca5	-1.0887648
206	0xbf52e967	-0.82387394
207	0xbfb130ae	-1.3842981
208	0xbe80548b	-0.250645
209	0x3df82d23	0.12117984
210	0x3eaa6223	0.33277997
211	0xbd06b3c3	-0.032886278
212	0xbe8d61ea	-0.27613765
213	0xbe9fe502	-0.31229407
214	0xbd8b0c20	-0.06789422
215	0xbf4b9323	-0.7952139
216	0x3eb40123	0.35157117
217	0xbe9aed3b	-0.30259117
218	0xbf0d0bec	-0.55096316
219	0xbf1ee9c3	-0.6207544
220	0xbe2863e2	-0.16444352
221	0xbe5f8a64	-0.21830136
222	0x3d37c53b	0.044865828
223	0xbfbe1862	-1.4851191
224	0x3ed112a7	0.40834543
225	0xbf0f407f	-0.5595779
226	0xbf6625ee	-0.89901626
227	0xbf80698b	-1.0032209
228	0xbf455e2e	-0.7709683
229	0xbf123d4d	-0.5712479
230	0xbcbac203	-0.02279759
231	0x3e968a39	0.2940233
232	0xbfbb01fa	-1.4609978
233	0x3f4f1620	0.80893135
234	0xbf936c0d	-1.151735
235	0xbfddbb3b	-1.7322763
236	0xbf77a878	-0.9674144
237	0xbfa56600	-1.2921753
238	0xbf14de75	-0.5815194
239	0x3d5af391	0.05345494
240	0x3ef2d854	0.4743067
241	0xbfcc9edb	-1.5985979
242	0xbbcc1477	-0.0062280255
243	0xbf84610f	-1.034212
244	0xbdc538d6	-0.09629981
245	0xbfbb6c0a	-1.4642346
246	0xbff591e4	-1.9185147
247	0x3e84bf0d	0.2592701
248	0x3ef286d3	0.47368488
249	0x3e16df88	0.14733708
250	0xbe9853f9	-0.29751566
251	0xbe5141b6	-0.20435223
252	0x3d98a47a	0.074532464
253	0xbc6f0220	-0.014587909
254	0x3cefede5	0.029288242
255	0xbfdf2d3e	-1.7435682

rnn.bias_hh_l0 f4 [256]
0	0xbf8232c4	-1.0171742
1	0xbf90dbec	-1.1317115
2	0xbf01eb2c	-0.5074947
3	0x3e7183f5	0.23585494
4	0x3f029ed1	0.51023585
5	0xbfed6c22	-1.8548625
6	0xbf9a74f7	-1.2066945
7	0x3e9da15b	0.30787167
8	0x3d36067f	0.04443979
9	0x3ea5b638	0.32365584
10	0x3dfa7506	0.12229352
11	0x3f45c232	0.77249444
12	0xbedaf580	-0.42765427
13	0xbf4ef453	-0.8084156
14	0x3e9208fe	0.28522485
15	0xbf5d644c	-0.86481166
16	0xbf184f01	-0.5949555
17	0xbe80bc4a	-0.25143653
18	0xbe46a277	-0.19397913
19	0xbfcdf4ad	-1.6090294
20	0xbe794933	-0.2434433
21	0xbf290120	-0.6601734
22	0xbf74b12e	-0.95582855
23	0xbf19eff6	-0.60131776
24	0x3dfa0b84	0.12209228
25	0x3e8291ff	0.2550201
26	0x3e471c73	0.19444446
27	0xbf730e7a	-0.94943964
28	0x3db164a5	0.086617745
29	0xbd756cf0	-0.059918344
30	0x3e607a57	0.21921669
31	0xbf19200c	-0.59814525
32	0x3f57454b	0.8409011
33	0xbf3020d6	-0.68800104
34	0xbf2f7337	-0.6853518
35	0xbfc87e26	-1.5663497
36	0xbf4f4889	-0.80970055
37	0xbe3ba645	-0.18325146
38	0x3efd63cb	0.49490198
39	0x3ebc467b	0.36772522
40	0xbf1a4ddd	-0.6027506
41	0xbe97119e	-0.29505628
42	0xbf0ddd16	-0.55415475
43	0xbf813aff	-1.0096129
44	0xbf9b5c42	-1.213753
45	0xbf90a201	-1.129944
46	0xbfcc9a28	-1.5984545
47	0xbe07f9b7	-0.13278852
48	0x3f4fcedc	0.8117502
49	0xbf97647e	-1.1827543
50	0xbf9dec77	-1.2337788
51	0xbf8ab584	-1.0836644
52	0xbe17e521	-0.148335
53	0xbf5b12c9	-0.8557554
54	0xbf9cc229	-1.2246753
55	0x3e8a9e9f	0.27074143
56	0xbfb3aa77	-1.4036397
57	0x3e14e0bb	0.14538853
58	0x3ea98bf3	0.33114585
59	0xbf08950b	-0.5335242
60	0xbf494e67	-0.7863526
61	0x3e903c74	0.28171122
62	0x3e1a13d0	0.1504662
63	0xbfc3dd55	-1.530192
64	0xbf34d471	-0.7063666
65	0xbea1e3cc	-0.31619108
66	0xbec9ad01	-0.39389804
67	0xbe8f186e	-0.27948326
68	0x3efe9b7e	0.49728006
69	0xbee7c714	-0.45269072
70	0x3ca6b282	0.020348791
71	0xbf63f610	-0.89047337
72	0xbeaa8516	-0.33304662
73	0xbdd39920	-0.10331941
74	0xbaa4515e	-0.0012536456
75	0xbf1c4e7c	-0.6105726
76	0x3e4cc1f9	0.1999587
77	0xbf7fa75d	-0.9986475
78	0xbf1b4e99	-0.60666806
79	0x3d2902f6	0.04126259
80	0x3df41da0	0.11919713
81	0xbf6fe63c	-0.93710685
82	0xbde33392	-0.11093821
83	0xbf133072	-0.57495797
84	0xbf16c5cb	-0.5889556
85	0xbf2c0f1b	-0.6721055
86	0x3f0b5e78	0.5444102
87	0xbf7ea688	-0.99472857
88	0xbf428895	-0.7598966
89	0xbf611ad0	-0.8793154
90	0xbf16b940	-0.5887642
91	0x3e1bc6da	0.15212575
92	0xbf0d909c	-0.5529878
93	0xbe012839	-0.12613
94	0xbf84be2e	-1.0370538
95	0xbfb564fb	-1.4171442
96	0xbe6dc589	-0.23219885
97	0x3d7b9513	0.061421465
98	0x3d82144d	0.06351528
99	0xbdd04265	-0.10168914
100	0xbec1a61b	-0.3782204
101	0xbe889bf0	-0.2668147
102	0xbebb96a7	-0.36638376
103	0xbf69b751	-0.91295344
104	0x3ed2a78e	0.4114346
105	0xbe28e984	-0.16495329
106	0xbc49f17c	-0.012325641
107	0xbf27f633	-0.65610045
108	0x3d7bc18b	0.061463874
109	0xbf907148	-1.1284571
110	0xbf3af66e	-0.7303227
111	0xbeb3636d	-0.35036793
112	0xbef7a841	-0.48370555
113	0xbeac2a4f	-0.3362603
114	0xbe811647	-0.2521231
115	0xbf90f3e1	-1.1324426
116	0xbebed022	-0.37268168
117	0xbea5527f	-0.32289502
118	0xbef89fc0	-0.4855938
119	0xbf3070cc	-0.68922114
120	0x3e984d15	0.2974631
121	0xbf119db4	-0.5688126
122	0xbf29d6d1	-0.6634341
123	0xbe7855ef	-0.24251531
124	0xbf46ed61	-0.7770596
125	0xbf0833ad	-0.5320385
126	0xbf475a8e	-0.7787255
127	0xbf83ef1d	-1.0307347
128	0xbd065111	-0.032792155
129	0x3eaecb95	0.34139696
130	0xbe955f93	-0.2917448
131	0xbe7ea66e	-0.24868175
132	0xbf2f2c57	-0.6842703
133	0xbc8f8a38	-0.017521963
134	0x3e9365b7	0.2878854
135	0x3dd191ea	0.10232909
136	0xbf3278e7	-0.6971573
137	0xbfdb6ec9	-1.7143184
138	0x3f6f0103	0.9336092
139	0xbe9445ce	-0.28959507
140	0x3ee56620	0.44804478
141	0xbd5e5a7c	-0.05428551
142	0xbf6817ed	-0.9066151
143	0xbe6dbfef	-0.23217748
144	0x3d8bd360	0.06827426
145	0x3e80a865	0.25128475
146	0xbd0f7e56	-0.035032593
147	0x3eaaa4fa	0.33328992
148	0x3eba113b	0.3634127
149	0xbf7f7f81	-0.9980393
150	0x3ca1ef4b	0.019767424
151	0xbee017fe	-0.43768305
152	0x3d17ffda	0.037109233
153	0xbf3d6117	-0.7397627
154	0x3f00179b	0.5003602
155	0xbe41506b	-0.18878333
156	0xbe2d15fd	-0.16902919
157	0xbe6fdd59	-0.23424281
158	0x3d84df03	0.064878486
159	0x3ea57a00	0.3231964
160	0x3f3101d2	0.691434
161	0xbf0af998	-0.542871
162	0x3bb0ba04	0.0053932685
163	0x3ef0b589	0.470135
164	0xbf8b90b1	-1.0903531
165	0x3e7f06d3	0.24904947
166	0x3e3b7083	0.18304639
167	0x3e68cf88	0.22735417
168	0x3f0fdb2c	0.56193805
169	0xbe8f6c3d	-0.28012267
170	0xbde584f0	-0.112069964
171	0x3ecdcb0b	0.40193972
172	0x3e8c5c46	0.2741415
173	0x3d0be648	0.03415516
174	0xbf202509	-0.6255651
175	0xbf3d4afd	-0.7394255
176	0x3d242e76	0.04008337
177	0x3e6b6dd4	0.22991115
178	0xbf00ce84	-0.5031512
179	0x3e577731	0.21041562
180	0x3eeec14a	0.46631843
181	0x3c5b565c	0.013387289
182	0x3e2c03b4	0.16798288
183	0x3f2a1e70	0.66452694
184	0x3b5ede61	0.003400706
185	0x3f090ca7	0.5353493
186	0xbe8ac520	-0.2710352
187	0xbe09225f	-0.13392018
188	0x3e7e56ad	0.24837752
189	0xbf202e2f	-0.6257047
190	0xbe285cfd	-0.16441722
191	0xbc8fce8a	-0.01755454
192	0xbfc6e2f5	-1.5538012
193	0xbfa22d0a	-1.2669995
194	0xbf2af5df	-0.6678142
195	0xbe67dfa1	-0.22643901
196	0xbe0d4c9e	-0.13798758
197	0xbfff2395	-1.9932734
198	0xbf3807f2	-0.71887124
199	0x3e8de0c4	0.27710545
200	0xbec7b7d1	-0.39007428
201	0x3ece9993	0.40351543
202	0x3cc33419	0.023828553
203	0x3f04d5fa	0.51889
204	0xbe5d26ff	-0.21596907
205	0xbf89db97	-1.0770139
206	0xbf3f3856	-0.74695337
207	0xbfc0ba56	-1.5056865
208	0xbe8ceb14	-0.275231
209	0x3d862053	0.06549134
210	0x3eb28320	0.34865665
211	0x3d24b3d3	0.040210556
212	0xbe8332dc	-0.2562474
213	0xbea4b7d1	-0.3217149
214	0xbdde281b	-0.10847493
215	0xbf77f307	-0.96855205
216	0x3e2971ff	0.16547392
217	0xbec2887d	-0.37994757
218	0xbf0b37bd	-0.54381925
219	0xbf45aa45	-0.77212936
220	0xbe73011e	-0.23730895
221	0xbe425eda	-0.18981495
222	0xbc47ab97	-0.012186906
223	0xbfb7bab1	-1.4353849
224	0x3ed10331	0.40822747
225	0xbf25e1fa	-0.6479794
226	0xbf7aece2	-0.98017704
227	0xbf7689a9	-0.963038
228	0xbf13871d	-0.5762804
229	0xbeca2e43	-0.3948842
230	0x3e237d14	0.15965682
231	0x3e4c8513	0.19972639
232	0xbfd5c653	-1.6701149
233	0x3f4a1620	0.7894001
234	0xbf717bba	-0.94329417
235	0xbfd357c9	-1.6511165
236	0xbf8b57a5	-1.0886122
237	0xbfa7f925	-1.3122908
238	0xbf104a8e	-0.5636376
239	0x3e28ca67	0.1648346
240	0x3f0fc09a	0.5615326
241	0xbfb49467	-1.4107789
242	0xbe379e82	-0.1793156
243	0xbf7c2cc7	-0.98505825
244	0xbdc7c65a	-0.097546294
245	0xbfb979ae	-1.4490259
246	0xbff9d5b4	-1.9518342
247	0x3e9226cb	0.28545222
248	0x3f07bfa8	0.5302682
249	0x3e2b095d	0.1670279
250	0xbe3910e9	-0.18072857
251	0xbe48d611	-0.1961291
252	0x3e4a52a3	0.19758086
253	0xbe3b224e	-0.18274805
254	0x3bf5add8	0.0074975304
255	0xbfd27ec2	-1.6444933

rnn.weight_ih_l1 f4 [256, 64]
0	0xbea76110	-0.3269124
1	0x3f444277	0.7666392
2	0xbfc68031	-1.5507871
3	0x3fbb7c84	1.4647374
4	0x3d549e57	0.051908817
5	0xbeede1cf	-0.4646134
6	0xbec6ee80	-0.38853836
7	0xc01ef1e6	-2.4835143
8	0xbea5c248	-0.32374787
9	0xbf106445	-0.56403
10	0x3f47709b	0.779062
11	0x3fd7b52f	1.6852168
12	0x3ef1dbf4	0.47238123
13	0x3d0e86db	0.034796577
14	0xbe3ffdc6	-0.1874915
15	0x3f21761b	0.6307084
16	0x3f7967a7	0.97423786
17	0x3eda0873	0.4258457
18	0x3e6164a7	0.22011052
19	0xbf17b3d4	-0.5925877
20	0x40031b50	2.048542
21	0x3c136aa6	0.008997595
22	0xbe3e80c2	-0.18603805
23	0x3e6101d8	0.2197336
24	0x3f976fda	1.1831009
25	0xbeb4208d	-0.35181084
26	0x3ebbe313	0.3669668
27	0x3ec4b921	0.38422492
28	0xbe3ca5a2	-0.18422559
29	0xbf32bfea	-0.6982409
30	0xbf986f18	-1.1908903
31	0x3d495ee5	0.049162764
32	0x3df2baf7	0.11852067
33	0xbe9b341c	-0.30313194
34	0x3f347894	0.7049649
35	0xbe861907	-0.2619097
36	0xbde0370f	-0.109480016
37	0x3f279a5d	0.65469915
38	0x3e92118f	0.2852902
39	0xc035e2da	-2.841971
40	0x3e5befbd	0.21478172
41	0xbe97cf44	-0.2965032
42	0x3ec693ff	0.38784787
43	0x3ef4fe74	0.47850382
44	0xbfe0006f	-1.7500132
45	0xbee0bc7c	-0.43893802
46	0x3e39a0a0	0.1812768
47	0x3fa7228f	1.3057421
48	0x3f9e707d	1.2378079
49	0xbe79b734	-0.24386293
50	0xbe6b2d7c	-0.2296657
51	0x3fb63e14	1.4237695
52	0xbfa6eb4a	-1.3040555
53	0x3ebace67	0.36485597
54	0xbdea4194	-0.11438289
55	0x3f603d94	0.8759396
56	0xbeaee0be	-0.3415584
57	0xbfc840b4	-1.5644746
58	0xbffe5993	-1.9871086
59	0xbf330ec1	-0.6994439
60	0x3eb550ed	0.35413304
61	0x4018642f	2.3811147
62	0xc0003ebf	-2.0038297
63	0xbfcecbfe	-1.6156003
64	0xbee58b23	-0.44832715
65	0xbf11eb4e	-0.5699967
66	0x3f4c36e9	0.79771286
67	0x3f279b3c	0.65471244
68	0x3e7bd2de	0.24592158
69	0xbfbf01e8	-1.4922457
70	0x3ce1b80f	0.027553586
71	0xbf1b1f5d	-0.6059473
72	0xbd583eb9	-0.052794192
73	0x3f76e749	0.96446663
74	0xbee224d2	-0.44168717
75	0x3edd99aa	0.432813
76	0x3ef64485	0.4809915
77	0x3eb84a15	0.3599402
78	0xbe00461c	-0.12526745
79	0xbf2d4f46	-0.67699087
80	0xbe4c8aa5	-0.19974764
81	0xc00069f4	-2.0064669
82	0x3f68b8ce	0.9090699
83	0xbf5b418c	-0.8564689
84	0x3e82d9eb	0.25556883
85	0x3f2588fe	0.6466216
86	0x3de3063c	0.110851735
87	0xbf3de14a	-0.7417189
88	0xbd4b06ed	-0.04956715
89	0x3f0695eb	0.52572507
90	0x3d9b9886	0.07597451
91	0x3e2dd8c8	0.16977227
92	0xbf1330ca	-0.5749632
93	0xbf25d436	-0.64776933
94	0xbf2633a5	-0.64922553
95	0x3f264e87	0.64963573
96	0xbd6a8060	-0.057251334
97	0x3e51df72	0.20495394
98	0x3d938c03	0.072044395
99	0xbf169b61	-0.5883084
100	0xbd2a5dc3	-0.041593324
101	0x3ea73a66	0.32661742
102	0xbf842d0c	-1.0326247
103	0xbef2444b	-0.47317728
104	0xbe6dcd65	-0.23222883
105	0xbe683723	-0.22677283
106	0xbea7cf27	-0.32775232
107	0xbf42bf70	-0.7607336
108	0x3f51cdf1	0.81954867
109	0x3fb079c7	1.3787163
110	0x3e8ba243	0.27272233
111	0x3f6d0f3d	0.92601377
112	0xbda3845d	-0.07984231
113	0xbf4b04ba	-0.7930409
114	0x3fa6eb28	1.3040514
115	0xbf233919	-0.63759
116	0xbf55708b	-0.8337485
117	0xbe943ad9	-0.28951147
118	0xbf166c86	-0.58759344
119	0xbd63ac29	-0.055584107
120	0xbf83031c	-1.0235324
121	0x3e6a903f	0.22906588
122	0xbf033ec1	-0.5126763
123	0xbcbb96fe	-0.022899147
124	0x3f713c66	0.94232786
125	0x3fca26f5	1.5793139
126	0xbee2dfa8	-0.4431126
127	0xbe8c121e	-0.27357572
128	0x3f8155b1	1.0104276
129	0x3f471661	0.7776852
130	0xbf62efb4	-0.8864701
131	0xbd94a6df	-0.07258391
132	0x3eedc699	0.4644058
133	0x3f17af2c	0.59251666
134	0xbd712a13	-0.058878016
135	0xbf0cc743	-0.5499155
136	0xbded3686	-0.11582665
137	0xbf45c6aa	-0.7725626
138	0x3cff9608	0.03119947
139	0x3ed7cf9f	0.4215059
140	0x3de7a743	0.113111995
141	0xbfa2b891	-1.2712575
142	0x3e82f34d	0.2557625
143	0x3ebec192	0.37257057
144	0xbf3a2d16	-0.72725046
145	0x401c9a61	2.4469225
146	0xbf143766	-0.5789703
147	0xbe186315	-0.14881547
148	0xbec08948	-0.37604737
149	0xbebbcb9a	-0.36678773
150	0x3ea9b396	0.33144826
151	0xbe37879d	-0.17922826
152	0x3f529080	0.8225174
153	0xbeeee31e	-0.46657652
154	0xbf8f6c62	-1.1204951
155	0x3ea88159	0.32911184
156	0xbed3c6ce	-0.41362613
157	0x3f3d2ae9	0.738936
158	0x3f7d0aaf	0.98844427
159	0x3eee82fe	0.46584314
160	0xbf8db7f3	-1.1071762
161	0x3e83e3a0	0.25759602
162	0xbfabe1c1	-1.342827
163	0x3f9a51a9	1.2056171
164	0x3f2a5fb5	0.6655229
165	0x3ee0d590	0.43912935
166	0x3f3b45c7	0.73153347
167	0xbdd55ef6	-0.10418503
168	0xbec5c598	-0.38627315
169	0xbf591cfc	-0.8480985
170	0x3ea85694	0.32878554
171	0x3f726bae	0.94695556
172	0x3eca5d0d	0.39524117
173	0xbfafa848	-1.372323
174	0xbef95f8a	-0.48705703
175	0xbd8adc1f	-0.06780266
176	0xbe64d827	-0.2234808
177	0xbf2d4265	-0.67679435
178	0xbea59df3	-0.32347068
179	0xbe28b938	-0.16476905
180	0xbd1538f7	-0.03643128
181	0x3f5db5a8	0.8660531
182	0xbe8f6cd2	-0.2801271
183	0xbf09162e	-0.5354947
184	0x3f725b85	0.946709
185	0xbe2e889c	-0.170443
186	0x3eb662da	0.35622293
187	0x3f0ccbc7	0.5499844
188	0x3c857c10	0.01629451
189	0xbf47f571	-0.7810889
190	0xbe073fa2	-0.13207868
191	0xbe120ba3	-0.14262252
192	0xbe4313b3	-0.19050483
193	0xbfa6dda2	-1.3036387
194	0xbf80cd58	-1.0062666
195	0x3e587d42	0.21141532
196	0x3f5fd7aa	0.8743845
197	0xbe5aca3e	-0.21366212
198	0x3cb33a05	0.021878252
199	0x3ec1f79e	0.3788423
200	0x3f0fdf31	0.5619994
201	0x3f2812ca	0.6565367
202	0xbf5d0b04	-0.86344934
203	0xbe731a8b	-0.23740594
204	0xbed965f7	-0.42460606
205	0xbee596cf	-0.4484162
206	0x3f21eb14	0.63249326
207	0xbed731fd	-0.42030326
208	0xbed7edf2	-0.42173725
209	0xbf55942a	-0.83429205
210	0xbf48290e	-0.78187644
211	0xbeea0d34	-0.45713198
212	0xbe075f5e	-0.13219973
213	0x3dc59dc2	0.096492305
214	0x3e6c6334	0.23084718
215	0x3f48e0c6	0.7846798
216	0xbd13b319	-0.036059473
217	0x3f5166ab	0.81797284
218	0x3c01e40c	0.007927906
219	0xbea7a910	-0.32746172
220	0x3e899a4f	0.2687554
221	0x3ea01604	0.31266797
222	0xbdb6e3d8	-0.089301765
223	0xbf7742e2	-0.9658643
224	0xbf9385f0	-1.152525
225	0x3edc24fe	0.42996973
226	0xbe156bbf	-0.14591883
227	0xbf779311	-0.9670878
228	0x3ed4b309	0.41542843
229	0x3b9e3acf	0.004828788
230	0xbf0f0efb	-0.55882233
231	0x3f129ad7	0.57267517
232	0xbdeadfd1	-0.11468471
233	0xbe87400a	-0.26416045
234	0x3f94fbb0	1.1639309
235	0xba9aca2d	-0.0011809521
236	0xbee9ec3c	-0.45688045
237	0xbf574edf	-0.8410472
238	0x3db4d9dc	0.08830616
239	0x3f0cad16	0.5495161
240	0xbe16bf1c	-0.1472134
241	0x3ec21bb6	0.37911767
242	0x3f2a2a79	0.6647106
243	0x3fa0bb36	1.2557132
244	0x3ee07501	0.43839267
245	0xbd3bc5b7	-0.045842852
246	0xbea20d9b	-0.31651005
247	0x3eb5da88	0.3551829
248	0x3d709684	0.058737293
249	0x3e34a46d	0.17640848
250	0xbe730049	-0.23730578
251	0xbe6fd8e2	-0.23422578
252	0xbf47cbc9	-0.78045326
253	0x3ea80815	0.32818666
254	0x3de2e098	0.11077994
255	0xbeb45930	-0.35224295

rnn.weight_hh_l1 f4 [256, 64]
0	0xbee76598	-0.45194697
1	0x3e188a88	0.14896595
2	0x3e4433b2	0.19160345
3	0xbede70f1	-0.43445542
4	0x3f12faf3	0.5741417
5	0x3ee17d87	0.44041082
6	0x3d292531	0.041295234
7	0x3e7fa134	0.24963838
8	0xbf174f76	-0.5910562
9	0xbf8a76dd	-1.0817524
10	0xbf2ce681	-0.6753922
11	0x3ea751d2	0.3267961
12	0xbed349b5	-0.41267172
13	0x3f00d269	0.5032106
14	0x3de09439	0.10965771
15	0x3de45562	0.11149098
16	0xbf83034e	-1.0235384
17	0x3f47257c	0.7779157
18	0x3efc5b0f	0.49288222
19	0xbd9b716e	-0.07589994
20	0xbee8e4e6	-0.45487136
21	0x3f530071	0.8242255
22	0xbebfed86	-0.37485904
23	0xbf026f18	-0.50950766
24	0x3e2caf09	0.16863646
25	0xbe991e18	-0.29905772
26	0xbdbf40db	-0.09338542
27	0x3e1a3444	0.15059
28	0x3f01008b	0.50391454
29	0xbe5b825d	-0.21436448
30	0x3f10f04e	0.56616676
31	0x3f030200	0.51174927
32	0xbe69267e	-0.2276859
33	0xbecb9729	-0.39763764
34	0x3f164d8c	0.5871208
35	0xbefbc568	-0.49174047
36	0xbf065ee6	-0.52488554
37	0xbec3404d	-0.38134995
38	0x3f08b83a	0.5340611
39	0x3ea7d905	0.3278276
40	0xbe15696a	-0.14590994
41	0xbd04bd8d	-0.032407332
42	0x3cea4ef4	0.0286021
43	0x3d8b4d99	0.0680191
44	0x3e9903d1	0.29885724
45	0x3fa3ec94	1.2806573
46	0xbd81710f	-0.06320392
47	0x3daa5944	0.08317807
48	0xbf7a7d29	-0.9784723
49	0xbe375b21	-0.17905857
50	0x3eb9297a	0.36164457
51	0xbf065e0a	-0.5248724
52	0x3d6e57cf	0.05818921
53	0xbf293356	-0.6609396
54	0x3d934865	0.071915425
55	0x3f784229	0.9697595
56	0xbf340581	-0.703209
57	0x3de2ce42	0.11074497
58	0x3f534922	0.82533467
59	0x3f8165a2	1.0109141
60	0xbe7f7a49	-0.24948992
61	0xbf0b89c0	-0.54507065
62	0x3d8ce26a	0.068791226
63	0x3e744695	0.2385505
64	0x3ed79a3d	0.42109862
65	0x3eb44a38	0.35212874
66	0x3f155e0b	0.58346623
67	0x3fbeac72	1.4896376
68	0x3ea1e790	0.3162198
69	0x3ec99ac3	0.39375886
70	0xbd43bd00	-0.047787666
71	0x3eda918e	0.42689174
72	0xbf762b69	-0.9615999
73	0xbe3a7bd6	-0.18211302
74	0xbe9c6cd1	-0.3055177
75	0xbf329431	-0.6975737
76	0x3d7fc296	0.06244143
77	0xbf55899e	-0.8341311
78	0x3f117ccd	0.56831056
79	0xbf75ed23	-0.96064967
80	0x3f29c080	0.66309357
81	0x3ffdcec7	1.9828728
82	0xbd60ba2d	-0.05486505
83	0xbf3a5c7d	-0.72797376
84	0xbcfa1546	-0.030527722
85	0x3e4e71ec	0.20160645
86	0xbeeb8768	-0.46001744
87	0x3f700e30	0.9377165
88	0x3ee4738b	0.44619402
89	0xbee6d907	-0.45087454
90	0xbf00c2c3	-0.5029718
91	0x3bc8fd3b	0.006133703
92	0xbdfb4bf2	-0.12270345
93	0xbf3acf78	-0.7297282
94	0xbec6e8c0	-0.3884945
95	0x3f56d187	0.83913463
96	0x3f124da8	0.57149744
97	0xbe3daed4	-0.18523723
98	0xbdef731e	-0.11691879
99	0xbf0d8cfb	-0.55293244
100	0xbea15f4a	-0.31518012
101	0xbee3018f	-0.44337127
102	0x3ce1e873	0.02757666
103	0xbd18e1bf	-0.037324663
104	0x3eece7b3	0.46270522
105	0xbfc11f4e	-1.5087678
106	0x3f0d8962	0.55287755
107	0x3ee37889	0.444279
108	0x3f63df3d	0.8901251
109	0x3ed7a800	0.4212036
110	0x3d8865d1	0.06660045
111	0xbed31481	-0.4122658
112	0xbf08904e	-0.5334519
113	0xbecfc0dd	-0.4057683
114	0xbf13ee30	-0.5778532
115	0xc00bfb44	-2.187211
116	0x3efe1963	0.49628744
117	0xbdecc02d	-0.11560092
118	0x3f851f4d	1.0400177
119	0x3e740669	0.2383057
120	0xbc995fd0	-0.018722445
121	0xba2f26a4	-0.0006681478
122	0xbea613d5	-0.32437006
123	0x3f568077	0.8378977
124	0x3f635474	0.8880074
125	0xbec5daf8	-0.38643622
126	0xbedda59f	-0.4329042
127	0x3ffc8c72	1.973036
128	0xbd9c16c3	-0.07621529
129	0x3e6a53d3	0.22883539
130	0x3ea9499e	0.33063978
131	0x3f7a27cf	0.97716993
132	0x3e996079	0.29956415
133	0xbed5f0d9	-0.41785315
134	0x3fea309f	1.8296088
135	0xbe9a89d8	-0.3018329
136	0xbf8dab4e	-1.1067903
137	0xbe6d3268	-0.2316376
138	0x3ed980c9	0.42481068
139	0xbe10539c	-0.14094394
140	0x3eba5724	0.36394608
141	0xbfa54a4e	-1.2913301
142	0x3e13e178	0.14441478
143	0x3f093784	0.53600335
144	0x3efc3351	0.492579
145	0x3f326156	0.6967977
146	0x3fb394ef	1.4029826
147	0x3e144a13	0.14481382
148	0x3ea2a6ce	0.31767887
149	0xbe266bf0	-0.16252112
150	0x3ea2422f	0.3169112
151	0xbf94ac1b	-1.1615022
152	0x3e80abad	0.25130978
153	0xbea52b3f	-0.32259557
154	0xbcf50d33	-0.02991352
155	0xbd3bbafb	-0.045832615
156	0xba38245a	-0.000702446
157	0x3ef43188	0.4769404
158	0x3f750ee8	0.9572587
159	0xbe8a92d8	-0.27065158
160	0x3e3a6bb0	0.18205142
161	0xbf742fc3	-0.9538538
162	0xbf26550f	-0.6497354
163	0xbe2e96af	-0.17049669
164	0xbf431645	-0.76205856
165	0xbece1a45	-0.40254417
166	0xbfb38085	-1.4023596
167	0x3f94a1d9	1.1611892
168	0x3f5acc55	0.85468036
169	0x3e554ce2	0.2083011
170	0xbcba0d7a	-0.022711504
171	0x3f233796	0.6375669
172	0xbeed98ca	-0.4640563
173	0x3ec21cf6	0.3791272
174	0xbd95eb99	-0.07320327
175	0xbf007aca	-0.5018736
176	0x3f6691ba	0.9006611
177	0x3e8a539d	0.27016917
178	0xbf81413a	-1.009803
179	0x3ea228cf	0.3167176
180	0x3eaa4264	0.33253777
181	0x3df0bdaf	0.11754929
182	0xc01a9219	-2.415167
183	0xbe999e6a	-0.30003673
184	0x3ef89cb2	0.4855705
185	0x3e2d0d96	0.16899714
186	0xbf183857	-0.5946097
187	0x3d9038ec	0.07042107
188	0x3f6e6377	0.9312052
189	0xbf51441f	-0.8174457
190	0x3e1e22a4	0.15442902
191	0xbe691bef	-0.22764562
192	0xc04cefb7	-3.202131
193	0x3fbb9184	1.4653783
194	0x3e6fb867	0.23410188
195	0x3eb5c4ef	0.3550181
196	0xbea689a9	-0.325269
197	0xc02e557d	-2.7239678
198	0x3fa222e3	1.2666897
199	0x3f9f92b5	1.2466646
200	0xbef86a0a	-0.485184
201	0xc00b0f14	-2.1727953
202	0x3e01cc5e	0.12675616
203	0x3f4856d0	0.78257465
204	0x3f919168	1.13725
205	0xbf0552da	-0.52079546
206	0x3f4a5941	0.7904244
207	0xbf0277e5	-0.50964195
208	0x3fb6450b	1.423982
209	0x3f34282c	0.703738
210	0x3f5003aa	0.8125559
211	0xbf9cdd17	-1.2254971
212	0xbe3ae26b	-0.18250434
213	0x3faff9ab	1.3748068
214	0x3ecec2f6	0.40383118
215	0x3f462fdf	0.77416795
216	0x3fd14e55	1.635203
217	0xbfea2670	-1.829298
218	0xbe53db0b	-0.20689027
219	0xbfabb5a0	-1.3414803
220	0x3f7c8de3	0.98654
221	0xbdb82d42	-0.08993007
222	0xbf3c71b2	-0.73610985
223	0xbf0d4ebd	-0.5519827
224	0xbf7aaf5f	-0.97923845
225	0x40097125	2.1475308
226	0x3d9e96fa	0.0774364
227	0xbfda5dc9	-1.7059871
228	0x3e8f30f4	0.27967036
229	0xbe703664	-0.23458248
230	0x3f415646	0.7552227
231	0xbef5317c	-0.47889316
232	0x3fd8fb00	1.6951599
233	0xbea9e9b8	-0.33186126
234	0x3f3f8222	0.7480794
235	0xbfd3bebe	-1.6542585
236	0x3f26f926	0.6522392
237	0xbf17c4a1	-0.59284407
238	0xbedaa5d0	-0.4270463
239	0xbfaa7082	-1.3315585
240	0xbfb83e93	-1.4394096
241	0x3d8a2bd9	0.067466445
242	0x3e0ac796	0.13552698
243	0xbf8c9da2	-1.0985606
244	0x3f02c644	0.5108378
245	0x3f5d0000	0.86328125
246	0x402fbba1	2.745827
247	0x3f0894b1	0.53351885
248	0xbea9a1f9	-0.33131388
249	0x3f41bdd4	0.7568028
250	0x3ebc4241	0.36769298
251	0xbf0ac706	-0.54209936
252	0xbfc9dbc4	-1.5770192
253	0xbf7999b5	-0.97500163
254	0x3fcb8bf4	1.5902085
255	0x3fab9c8c	1.3407149

rnn.bias_ih_l1 f4 [256]
0	0xbe45393b	-0.19260113
1	0xbf62ace3	-0.88545054
2	0xbebe2a6e	-0.37141746
3	0xbf691131	-0.91041857
4	0xbed2b901	-0.41156772
5	0xbedc091d	-0.42975703
6	0xbf992e88	-1.1967325
7	0xbd3238eb	-0.043511312
8	0xbfcd015d	-1.6016041
9	0xbf38a5fa	-0.7212826
10	0xbfceb65a	-1.6149399
11	0xbf28ff72	-0.6601478
12	0x3e8d302a	0.2757581
13	0xbf430609	-0.76181084
14	0xbf1e16bd	-0.61753446
15	0xbf47f274	-0.7810433
16	0xbf6e351d	-0.93049794
17	0xbf9cf375	-1.2261797
18	0xbf8ea60f	-1.1144427
19	0xbf2d2653	-0.67636603
20	0xbf0ff15f	-0.5622768
21	0xbecdcace	-0.4019379
22	0xbf1d50ab	-0.61451215
23	0xbf872a67	-1.0559815
24	0xbd9e6ed0	-0.077359796
25	0xbe664771	-0.2248819
26	0xbf29b0de	-0.662855
27	0x3e798f38	0.2437104
28	0xbf08bf3f	-0.5341682
29	0xbf1b4918	-0.6065841
30	0xbe03fbe8	-0.12889063
31	0xbf48ba2b	-0.7840907
32	0xbf99ff63	-1.2031063
33	0xbfa60e78	-1.2973166
34	0xbe89ae3c	-0.26890743
35	0xbf4502fd	-0.76957685
36	0xbfae4a7e	-1.3616483
37	0xbe855ff5	-0.26049772
38	0xbeb0f16f	-0.345592
39	0xbf295709	-0.6614843
40	0xbf3164e6	-0.69294584
41	0xbeab0dc4	-0.3340894
42	0xbf90d3ee	-1.1314676
43	0xbf3a7fed	-0.7285145
44	0x3eb5384c	0.35394514
45	0xbfa66d77	-1.3002156
46	0xbf6b2a62	-0.91861546
47	0xbf94b9a6	-1.1619155
48	0xbf6d12da	-0.9260689
49	0xbf1dd1da	-0.61648333
50	0xbf63cfe1	-0.88989073
51	0xbf8a5fc7	-1.0810479
52	0xbf27aabc	-0.65494895
53	0xbfc8bab0	-1.5681973
54	0xbe8548dd	-0.26032153
55	0xbf97b2ff	-1.18515
56	0xbfb931ba	-1.44683
57	0xbf23d0ad	-0.6399029
58	0xbfc30760	-1.5236626
59	0xbf5475ac	-0.82992053
60	0xbf04df6b	-0.5190341
61	0xbf132394	-0.5747616
62	0x3e911a1d	0.28340235
63	0xbfb9351a	-1.446933
64	0x3e425d92	0.18981007
65	0xbf595c1a	-0.8490616
66	0xbe8501f9	-0.25978068
67	0x3f00c09c	0.502939
68	0xbf7221b4	-0.94582677
69	0x3d5a53db	0.053302627
70	0xbe5b824d	-0.21436425
71	0xbf8483b6	-1.0352695
72	0x3e90f603	0.28312692
73	0xbe0f4693	-0.13991766
74	0xbdb04cd8	-0.08608407
75	0xbef96f9f	-0.48717973
76	0xbf194627	-0.5987267
77	0xbe172afe	-0.14762494
78	0xbf2bd31f	-0.6711902
79	0x3dd7ea29	0.105427094
80	0xbd512b21	-0.05106652
81	0xbf5e5faa	-0.8686472
82	0xbf91f276	-1.1402118
83	0xbe38b150	-0.1803639
84	0xbeddcb47	-0.4331915
85	0xbef4ed56	-0.47837323
86	0x3fa6c273	1.3028091
87	0xbeccfdef	-0.40037486
88	0xbe8c929a	-0.27455598
89	0xbe1fd3c7	-0.1560813
90	0xbf074a3f	-0.52847666
91	0xbe6b34b9	-0.22969331
92	0xbe905ccc	-0.28195798
93	0xbea06b2a	-0.3133176
94	0xbe0cf2e0	-0.13764524
95	0xbf8f7c5e	-1.1209829
96	0x3fbc5d31	1.471594
97	0xbe359c94	-0.17735511
98	0x3f001dd3	0.5004551
99	0x3e084d78	0.13310802
100	0x3e1def93	0.15423422
101	0x3d099a5d	0.033594478
102	0xbf757f9f	-0.9589786
103	0xbf9e9ae7	-1.2391022
104	0x3ea490b8	0.32141662
105	0x3c81bdae	0.015837517
106	0xbe8756df	-0.26433465
107	0xbfb0d9ca	-1.3816464
108	0xbf674cf2	-0.90351784
109	0x3f11b447	0.56915706
110	0xbf208bc7	-0.62713283
111	0xbf552259	-0.83255535
112	0xbfeabbda	-1.8338578
113	0xbf1d217e	-0.6137923
114	0xbdc2ebee	-0.09517656
115	0xbe3974bd	-0.18110938
116	0x3d186a14	0.03721054
117	0xbebd349e	-0.36954206
118	0xbf23f521	-0.6404591
119	0xbed331cb	-0.41248927
120	0xbeea2dff	-0.45738217
121	0x3f14613f	0.57960886
122	0x3efd9901	0.49530795
123	0xbe751877	-0.23935114
124	0xbe807548	-0.25089478
125	0xbec62f41	-0.38707927
126	0xbfaaaaa7	-1.3333329
127	0xbf4d6f2f	-0.8024778
128	0xbf12fb84	-0.5741503
129	0xbdbde56c	-0.092722744
130	0xbf9604a4	-1.1720166
131	0xbfb0ddd3	-1.3817695
132	0x3f02c8d2	0.5108768
133	0x3e014d92	0.12627247
134	0xbe598ed1	-0.21245886
135	0xbf5dc509	-0.86628777
136	0xbec957eb	-0.3932489
137	0x3f73c120	0.9521656
138	0xbe3b8046	-0.18310651
139	0xbe617d9e	-0.22020575
140	0xbf32e020	-0.6987324
141	0x4019c116	2.40241
142	0x3f33dc16	0.702577
143	0x3f3bb70d	0.7332619
144	0xbd90fd60	-0.070795774
145	0x3efe12eb	0.49623808
146	0x3f8202ca	1.0157101
147	0x3e8ad0a7	0.27112314
148	0xbd8612cf	-0.06546556
149	0xbf80679a	-1.0031617
150	0xc002fb9a	-2.0466065
151	0xbfaf60c1	-1.3701402
152	0xbef23d59	-0.4731243
153	0x3e6264eb	0.2210881
154	0xbf470141	-0.7773629
155	0x3aa16b57	0.0012315315
156	0xbf2626a6	-0.6490272
157	0xbeaba022	-0.3352061
158	0xbeb365cb	-0.350386
159	0x3e90bcfa	0.28269178
160	0x3fee4311	1.8614217
161	0xbf3c1e10	-0.7348337
162	0x3edf1f5c	0.43578613
163	0xbe9edb85	-0.31026855
164	0xbf397553	-0.7244465
165	0x3e49b1ee	0.19696781
166	0xbf94ab4b	-1.1614774
167	0x3fa7ba7c	1.3103786
168	0x3f0322ce	0.5122498
169	0xbc5514d9	-0.013005459
170	0xbf958393	-1.1680778
171	0x3e847bbf	0.2587566
172	0xbf78027b	-0.96878785
173	0x3f8a4b00	1.0804138
174	0xbf54e439	-0.8316074
175	0x3fa27a5c	1.2693591
176	0x3f690d89	0.9103628
177	0xbed62bb4	-0.41830218
178	0xbdbf7025	-0.09347562
179	0x3e18c676	0.14919457
180	0xbf3090cd	-0.6897095
181	0xbf3c6bfc	-0.7360227
182	0x3e9a1d13	0.30100307
183	0xbf084def	-0.5324392
184	0x3d3a5d49	0.04549912
185	0xbf8a3e67	-1.0800294
186	0x3f2b4173	0.6689674
187	0x3cff05bb	0.031130662
188	0x3e78f73a	0.2431306
189	0xbe5eba2a	-0.21750703
190	0xbe6e9640	-0.23299503
191	0x3e1cce86	0.15313157
192	0xbe99cd13	-0.30039272
193	0xbfc806e9	-1.5627109
194	0x3d713226	0.058885716
195	0x3f02307c	0.5085523
196	0xbf6a9979	-0.9164043
197	0xbeda9325	-0.42690387
198	0xbfa17794	-1.2614617
199	0xbf95d536	-1.1705692
200	0xbe438969	-0.19095387
201	0xbf341910	-0.7035074
202	0xbfb3c0b7	-1.4043187
203	0xbf9730e3	-1.1811794
204	0xbec9b3d7	-0.3939502
205	0x3e88904a	0.26672584
206	0xbf319a48	-0.6937604
207	0xbe271f3d	-0.1632051
208	0xbebd5e58	-0.3698604
209	0xbff9dbed	-1.9520241
210	0xbf898fc4	-1.0746999
211	0xbf52c5ee	-0.82333267
212	0xbf6a8316	-0.9160627
213	0xbef34652	-0.47514588
214	0xbec6d0f4	-0.38831294
215	0xc0003349	-2.0031302
216	0xbf7d997a	-0.9906231
217	0xc008390d	-2.128482
218	0xbf6a820f	-0.91604704
219	0xbedee548	-0.43534303
220	0xbfa8ce36	-1.318793
221	0xbf31470c	-0.69249034
222	0xbe83fc6b	-0.25778517
223	0xbfc7f535	-1.5621706
224	0x3d656798	0.056006998
225	0xbf384428	-0.71979
226	0xbe47ba68	-0.19504702
227	0xbf154836	-0.5831331
228	0xbf53e5aa	-0.82772315
229	0x3e432948	0.19058716
230	0xbf63330f	-0.88749784
231	0xbfb40d50	-1.4066563
232	0xbffb3b79	-1.9627525
233	0xbf242b3b	-0.64128464
234	0xbf9d076e	-1.2267892
235	0x3f38a935	0.7213319
236	0xbf31207b	-0.69190186
237	0xbfb231cf	-1.392145
238	0xbfbdca6e	-1.4827402
239	0xbf9cff2b	-1.2265371
240	0xbf2be235	-0.6714204
241	0xbf46f210	-0.7771311
242	0xbf7f2b46	-0.99675405
243	0xbfd3e5b7	-1.6554478
244	0xbeaf69c9	-0.34260395
245	0xbfad8bd8	-1.3558302
246	0x3e845228	0.2584393
247	0xbf347781	-0.7049485
248	0xbf797bc7	-0.97454494
249	0xbf2a364b	-0.66489094
250	0x3e4e52c9	0.20148768
251	0xc006154c	-2.0950499
252	0xbe24b736	-0.16085514
253	0xbd09deeb	-0.033659857
254	0x3e728b8d	0.23686047
255	0xbfccff42	-1.6015399
