models/modelRNN_lang1_aStar.pt (torch, 511587 bytes, 9 tensors)

rnn.weight_ih_l0 f4 [256, 300]
000000 5b 96 db bc 95 07 f9 be 25 31 a1 3e 2c ca 05 bf
       -0.026805094 -0.48638597 0.31482807 -0.52261615
000010 14 3e 3b 3f 76 21 84 3d e7 c3 76 3f 8b a8 77 3f
       0.731416 0.06451695 0.96392673 0.9674155
000020 df 08 91 be 59 b9 20 be cc d9 99 3e c0 71 93 3f
       -0.2832708 -0.15695705 0.30048978 1.1519089
000030 49 b6 08 bf 5f 8e b6 3e 7c ee 0b be 65 e8 5f 3e
       -0.53403145 0.35655496 -0.13665193 0.21865995
000040 19 6a 57 3f 8d d0 de bd 5d d3 cb be 72 a0 f5 3e
       0.8414627 -0.10879622 -0.39809695 0.47973973
000050 68 0f e4 3e 08 66 21 3e 71 41 9e 3f 01 cc 97 3f
       0.44543004 0.15761578 1.2363721 1.1859132
000060 13 7a d3 3e f5 38 58 bf 7d 51 88 3e fe af 96 3e
       0.41304073 -0.8446191 0.2662467 0.29431146
000070 f1 47 53 3c 3f 02 eb 3e a9 09 91 3d 90 38 14 bf
       0.01289557 0.4590015 0.07081921 -0.5789881
000080 8a 97 a1 bd 6c 41 99 3f 54 92 a9 3e fe 3e 19 be
       -0.07890232 1.197309 0.33119452 -0.14965436
000090 31 50 06 3f a2 38 48 3f 92 41 87 bd b7 46 bd bd
       0.5246611 0.78211415 -0.066043034 -0.092420034
0000a0 df 51 ef be fd eb bd be bf 24 2b 3f e1 15 4e 3f
       -0.4674215 -0.37094107 0.66852945 0.80502135
0000b0 46 cc 10 bf e2 7d d8 be ff 27 0b be 0f 5a 1d 3c
       -0.56561697 -0.4228354 -0.13589476 0.009603991
0000c0 b2 ca 4b 3f 8b c5 62 3d 1f 6c 1d bf 27 08 e5 3d
       0.79606164 0.055364173 -0.61493105 0.111831956
0000d0 ad a6 a8 be f4 7d 80 3d e5 6d ef 3e 1a d1 ae be
       -0.32939664 0.06274024 0.4676353 -0.34143907
0000e0 a2 67 4c bf 8f 54 3a 3f 67 82 94 bf 2d 17 a5 bd
       -0.7984563 0.72785276 -1.1602296 -0.08061061
0000f0 a8 d7 62 bd 58 f3 1c 3d 33 9f cb bd 53 2f 03 bf
       -0.055381447 0.03831801 -0.09942474 -0.51244086
000100 d9 64 46 bf 93 d2 18 3e 97 6f 57 bf 59 02 24 3f
       -0.7749763 0.14924078 -0.8415465 0.6406608
000110 36 c0 a8 3f 5d 6e be 3e 35 fc 2c bd f5 19 ac 3e
       1.3183658 0.37193576 -0.04223271 0.33613554
000120 86 74 16 bf 1c 57 e8 3e 55 0f 20 3f a9 91 8d 3e
       -0.5877155 0.4537896 0.62523395 0.27650192
000130 45 95 0d 3f 3b eb 76 3d f9 76 60 3f 27 86 b4 be
       0.5530589 0.060282927 0.8768154 -0.352586
000140 a2 17 91 be 13 dc 9a be 68 b7 45 3e 40 39 45 bf
       -0.28338343 -0.30246028 0.19308245 -0.7704048
000150 f5 a1 08 3f 70 50 95 bd d2 35 00 bf 59 b1 00 3d
       0.53372127 -0.07290733 -0.50082123 0.031419132
000160 fd 84 cb 3e 8e 56 8e 3d 8c 15 a6 3d 46 d4 95 bf
       0.397499 0.06950103 0.081095785 -1.1705406
000170 9f 43 23 3f 5f 15 3e be 55 dc b1 3e 79 dc 24 3f
       0.63775057 -0.1856284 0.34738412 0.64398915
000180 5e be 89 3f 64 96 aa be 4d d6 bd 3d c8 b9 7e bf
       1.076122 -0.33317864 0.0926939 -0.9950223
000190 90 a0 06 bf cf 35 e9 be 99 a9 03 3f d4 c3 31 bf
       -0.5258875 -0.45548865 0.5143066 -0.69439435
0001a0 0f 9b f3 3e bc 38 04 3f 41 29 2f be 7f 72 9d be
       0.47579238 0.5164907 -0.17105581 -0.30751416
0001b0 3c 05 b7 be 6c ae a4 3d c6 43 cf be f1 d9 cb be
       -0.3574618 0.08041081 -0.40481395 -0.39814714
0001c0 65 78 90 3e 10 3a 11 bf 3e 4e 1b 3f 1f db 49 3f
       0.28216854 -0.5672922 0.60666263 0.7884998
0001d0 ae 57 ce bd 21 2d 5c be a2 63 c8 bb 52 05 3b 3f
       -0.10075317 -0.2150159 -0.006115393 0.73054993
0001e0 5d 34 1d 3e f4 c8 f2 3e 27 5f 0a 3f f4 07 21 3f
       0.15352006 0.4741894 0.5405144 0.6290276
0001f0 d5 c8 1e bd bd 32 35 3d 97 5f 13 be 1f b5 0a 3f
       -0.038765747 0.04423784 -0.14391933 0.5418262
000200 65 60 03 3e b7 d3 94 be 09 35 3a be d2 be 22 bd
       0.1282974 -0.29067776 -0.18184294 -0.03973276
000210 60 ae 10 bf f0 09 e2 be 1e 68 22 3f 2c 9e 14 3f
       -0.56516075 -0.44148207 0.6344012 0.5805385
000220 18 2f 94 be b3 58 af 3e e0 d8 bb 3e 61 fa 8d 3c
       -0.2894218 0.3424736 0.366889 0.017331304
000230 bd d6 71 3e cb df e9 3e b7 ba 42 bf 96 8b dc 3e
       0.23617072 0.45678553 -0.76066154 0.43075246
000240 05 c5 ca bf 44 eb eb 3e 8e 34 3d bf 01 6b 9e 3e
       -1.5841376 0.4607793 -0.7390832 0.30941013
000250 5c 2f 02 3d 3c d7 d8 3e cf 96 44 bd 10 ce 2c bf
       0.031783447 0.4235171 -0.047995385 -0.67501926
000260 07 68 26 3f f3 36 82 3e 80 06 01 3e 75 49 2e bf
       0.65002483 0.25432548 0.12600136 -0.68080837
000270 f9 3a d9 3e bf 81 e6 3d 6d c5 06 bf 18 24 78 bf
       0.42427805 0.11255216 -0.52645 -0.96930075
000280 ac 2c 9d be 8a a0 41 3e 82 73 a9 3e 03 20 7d 3e
       -0.30698144 0.18908897 0.33095938 0.24719243
000290 84 29 8a bf 82 b3 ce 3e 45 31 11 3f 76 36 15 3f
       -1.079392 0.4037133 0.56715804 0.58286226
0002a0 e3 6e 42 be 0d 01 2e 3d f4 37 38 3f 54 59 b6 bf
       -0.18987612 0.04248147 0.7196038 -1.4246011
0002b0 95 19 7f bd d6 f4 45 bd af 48 57 3e ed 58 84 be
       -0.062280256 -0.048329197 0.2102382 -0.25849095
0002c0 fd cc d8 3d d1 66 a4 be bf 48 fb be d7 09 fc bd
       0.105859734 -0.32109693 -0.49078938 -0.12306564
0002d0 c8 9a 22 3f 2d 22 06 3f b4 35 05 be ed 2b 61 bf
       0.6351743 0.523959 -0.13008767 -0.8795765
0002e0 57 87 96 3e b6 57 6f 3e 23 0f a4 3e 58 8c 7c bf
       0.2940013 0.23373303 0.32042798 -0.9865165
0002f0 f1 c9 21 3f 8b a1 4f bf 69 00 7f bf fd 19 05 3f
       0.63198763 -0.8110587 -0.9961 0.5199278
000300 ce 89 c8 bd 02 4a 72 bd c8 d6 20 3e 05 16 cf be
       -0.09791909 -0.05915261 0.15706933 -0.40446487
000310 4a 6e db 3e fd 66 9f bf 60 19 80 be 36 8d 9b 3f
       0.4285758 -1.2453305 -0.2501936 1.2152469
000320 8e a0 da bd e6 ab d7 bd e9 3f 72 be 70 a2 c3 3d
       -0.106751546 -0.10530834 -0.23657192 0.09552467
000330 80 0c a4 3f 7d c7 e2 3d 34 0d 37 be cb d2 e9 bd
       1.2816315 0.110732056 -0.1787613 -0.11417159
000340 08 91 94 3e 89 ed 5f bf bd 17 8d 3e fb 1e 33 3d
       0.290169 -0.87471825 0.27557173 0.043730717
000350 26 2e 39 3f 34 a0 cc be 37 44 2d bf df ad 4e 3f
       0.7233604 -0.39965975 -0.6768221 0.80734056
000360 65 4b 35 bf a4 57 08 bd cf 19 26 be 98 1c 75 bf
       -0.7081817 -0.033286706 -0.16220783 -0.95746756
000370 03 49 0d 3f 40 d9 97 be 99 4e 02 3f e5 cb 7a 3e
       0.5518953 -0.29657936 0.5090118 0.24491842
000380 39 d2 16 3e 36 9d ee 3e b9 3c a7 be 3c 8c 35 bf
       0.14728631 0.46604317 -0.32663515 -0.70917106
000390 b9 5d 8d be a5 fe 68 3d dc bd 74 be 88 d3 2b be
       -0.27610567 0.056883473 -0.2390055 -0.16779912
0003a0 f6 05 9d be a5 37 c4 bb 48 21 34 bf 0e 8c ca 3e
       -0.3066861 -0.0059880787 -0.70363283 0.39559978
0003b0 4d 06 ed 3e f4 36 1e 3f 20 47 bf 3e 2f 73 0a 3f
       0.4629387 0.618026 0.37358952 0.54082006
0003c0 4d f0 66 be 60 05 82 bf f3 e6 ba 3e 5b 14 f8 3d
       -0.22552605 -1.015789 0.36504325 0.121132575
0003d0 cd a4 ad be d0 0e a8 bd 71 be e9 be 11 d4 80 3f
       -0.33914796 -0.0820595 -0.45653108 1.0064718
0003e0 7c be 9e 3e 69 d9 a1 be cd 2c 34 be e2 7d 7d 3f
       0.31004703 -0.31611183 -0.17595215 0.99020207
0003f0 a9 5c 3c bf 85 3f b5 3e 46 8a dc 3d 48 38 ab 3e
       -0.7357889 0.35400024 0.10768561 0.33441377

rnn.weight_hh_l0 f4 [256, 64]
000000 1b b8 94 be df 4f 3c 3e 7e 21 93 3f e0 5c ac 3e
       -0.2904671 0.18389843 1.1494596 0.33664608
000010 02 63 f0 bd da c3 42 3c 38 7b 36 be 14 1e 17 3e
       -0.11737634 0.011887515 -0.17820442 0.14757568
000020 fd e8 43 bf 9f 25 3d be 54 a0 ef bd ca 7b 21 3d
       -0.76527387 -0.18471383 -0.11700502 0.039424695
000030 47 b3 b5 3e a7 5c 7e 3e 2a 57 28 bf a5 73 c4 3e
       0.3548834 0.24840032 -0.65758 0.3836948
000040 c6 ca a8 bd 82 dc 19 bc 66 a2 38 3f 32 ee 0b be
       -0.08241801 -0.009390952 0.721228 -0.13665083
000050 20 b8 20 bf 68 88 42 3e a7 9a 08 3f 62 01 a7 be
       -0.6278095 0.18997347 0.5336098 -0.32618243
000060 1c cc 6c 3e e0 79 14 3f 59 21 92 3e 39 da fd bc
       0.23124737 0.57998466 0.28541067 -0.030987846
000070 7e 78 a7 be cb 3b a6 3e d9 6b 61 be 11 75 63 bd
       -0.32709116 0.32467493 -0.22013797 -0.055531565
000080 12 50 6b bd 93 e1 d6 3d 76 1e 86 3e af f9 27 3e
       -0.057449408 0.104922436 0.26195115 0.1640384
000090 b0 ac 1c 3e e0 e3 89 be ec e8 0a bf ee 34 00 be
       0.1530025 -0.26931667 -0.5426166 -0.12520191
0000a0 dd e6 3f 3f c7 37 53 3e a4 87 08 be a7 72 dc be
       0.74961644 0.20626746 -0.13332993 -0.43056223
0000b0 50 b5 e1 be f0 04 9a 3e f6 00 0b be 70 98 d9 3e
       -0.44083643 0.30081892 -0.13574585 0.42499113
0000c0 15 ed dd 3d 38 0e 1d 3e 49 81 97 bd 3f 27 8e 3d
       0.108362354 0.15337455 -0.07397706 0.06941079
0000d0 ab cd dd 3e 5d 54 9c be 55 c6 88 3e f7 4d 3f 3f
       0.43320975 -0.30533114 0.26713815 0.7472834
0000e0 25 b4 b6 3e 06 22 30 bf 95 4c cb 3d e1 36 6e bd
       0.35684314 -0.68801916 0.09926716 -0.058157805
0000f0 a0 85 0a be e5 0d e8 3e 7e c7 88 3d 6c 2a 94 bd
       -0.13527536 0.453231 0.06678675 -0.07234654
000100 cb f8 e9 3e 69 6c 15 bf 7b 33 06 3e 24 e7 a9 bb
       0.45697626 -0.58368546 0.13105576 -0.005185025
000110 5f 35 02 bf f5 6e b0 be 51 1b ba bd 7a ec a0 bd
       -0.5086269 -0.34459653 -0.090872414 -0.07857604
000120 dd 1a 3f bd 07 e7 95 bf 93 1e 60 bf db 05 c3 3e
       -0.04665648 -1.1711129 -0.8754665 0.38090405
000130 98 32 6b 3e ec 55 e5 3d ac 1f a9 bc 76 0a 47 be
       0.22968519 0.11198029 -0.020644985 -0.19437584
000140 6d cf d0 3d 35 48 00 be 03 24 0c be 69 a8 45 3f
       0.10195813 -0.12527545 -0.13685612 0.772101
000150 88 c2 4c 3e bc be 42 be 4b f9 bb 3e 9a dc 07 3f
       0.19996083 -0.19018072 0.36713633 0.53070986
000160 32 f5 96 3c a9 7a 0d be a2 ec db 3d 7c 7e 39 3d
       0.018427465 -0.13816322 0.107384935 0.04528664
000170 4c 31 32 3e 9d 57 a0 3d 65 a4 0e be 9e d6 79 3e
       0.17401618 0.07829211 -0.13929899 0.24398276
000180 c2 12 a9 be 28 bc 86 3f b1 0e ed 3d ad 62 d4 bd
       -0.33022124 1.0526171 0.11575068 -0.103703834
000190 6b 36 e6 be 5d 11 42 3f 67 1d 60 bf f1 16 c5 bd
       -0.44963393 0.75807744 -0.87544864 -0.09623516
0001a0 28 b5 94 be 90 b9 83 bd 0d 8e 9e 3e f1 5d 82 bf
       -0.2904446 -0.064318776 0.3096775 -1.0184919
0001b0 1d 10 b9 be bf c9 fc bd 97 09 32 3f 5e 24 74 3d
       -0.36145106 -0.123431675 0.6954588 0.059604995
0001c0 3f e9 86 3e 2a 61 01 3f 6f 73 14 3c d6 a7 9e 3e
       0.26349828 0.50538886 0.009060725 0.30987424
0001d0 dd e6 36 3f a4 3b a1 3f df b5 00 bf bf a6 8f be
       0.7144602 1.2596326 -0.50277513 -0.28056905
0001e0 3c b1 85 3e e3 f2 94 3e 25 5b e4 be 88 c5 64 3e
       0.26111782 0.29091558 -0.44600788 0.22340977
0001f0 ca d4 6e 3e 8b 74 e0 be 52 56 6a 3e 1f 23 4b bf
       0.2332336 -0.43838915 0.22884491 -0.79350466
000200 c6 4e bf bf 73 ee a0 be d5 ff a6 bd 76 36 ab 3f
       -1.4945915 -0.31431922 -0.08154265 1.3375995
000210 d5 a4 48 bf 15 ed 7c 3f d5 f4 a0 be d0 ce 82 be
       -0.78376514 0.9879926 -0.31436792 -0.2554841
000220 87 d9 ad bf ae b0 f2 be 87 05 b9 be 33 b7 0a bf
       -1.3582009 -0.4740042 -0.3613703 -0.5418579
000230 33 4b d2 3d a2 d3 15 3f 79 1f 72 be 85 ee 01 bf
       0.10268249 0.5852605 -0.23644818 -0.50754577
000240 08 fb 61 be 41 11 38 bf f3 03 b4 bd 96 a1 19 3f
       -0.22068417 -0.7190133 -0.08789816 0.60012186
000250 57 36 6c 3f 82 6b 3d 3c c0 d8 51 bf 81 d0 6f bf
       0.92270416 0.011561276 -0.8197136 -0.93677527
000260 e2 9e 0e bf c1 1f 3b 3f 6c 22 18 3f 15 c4 87 3d
       -0.55711186 0.7309533 0.59427524 0.066291966
000270 ec f3 00 3f 8c de 25 3f 2a 62 d0 bd c7 59 86 3e
       0.50372195 0.64792705 -0.10174973 0.2624037
000280 62 be 72 bf cf 8e 48 bf a0 6d 09 3e 89 13 b6 3d
       -0.9482175 -0.7834291 0.13420725 0.08890445
000290 3b 65 96 3f 09 47 a0 be b9 07 06 3f 64 b7 df be
       1.1749643 -0.31304196 0.52355534 -0.43694603
0002a0 32 cd a5 3d c3 61 33 3f 20 14 3c 3f 27 19 50 be
       0.080957785 0.7007105 0.7346821 -0.20322095
0002b0 01 c8 5d bf 67 d0 68 bd 45 f6 0e 3f 79 62 bf 3e
       -0.86633307 -0.056839373 0.5584453 0.37379816
0002c0 5f 4c ba be 65 e3 d0 bd 3b be f9 be 98 82 13 3e
       -0.36386392 -0.10199622 -0.48777947 0.14405286
0002d0 b2 ac 6e bf 1f e9 c2 be 9f 79 6b 3e 37 05 d2 ba
       -0.9323226 -0.38068482 0.22995614 -0.0016023283
0002e0 1d 61 0f 3f 80 9e 17 3f 8e db 87 3e 75 88 76 be
       0.5600756 0.59226227 0.26534694 -0.24075492
0002f0 77 51 18 bf bc e9 4e 3f 7b 21 78 bf 12 01 4e 3f
       -0.59499305 0.808254 -0.9692609 0.80470383
000300 cd a6 9a be 5b c6 c2 3e d9 e8 d4 3d e6 63 23 40
       -0.30205384 0.38041958 0.10395975 2.5529723
000310 c7 92 53 3e a2 8c 5c 3f f9 87 1f 3f 01 87 ce be
       0.2066146 0.8615209 0.6231685 -0.40337375
000320 ce 83 2f bf e7 47 9e 3f ce fa bd 3e 8d c8 f7 be
       -0.68560493 1.2365693 0.3710541 -0.48395196
000330 ef 9c 48 3d f4 1a 04 bf 96 b4 3b be 11 fe 52 be
       0.04897779 -0.5160363 -0.18330607 -0.20604731
000340 59 97 e4 be b4 0b 52 3f e6 88 d7 bd 66 cd fe bc
       -0.4464672 0.8204911 -0.10524158 -0.031103801
000350 6b f2 45 bf 2c f5 5b 3d ef f1 56 be ed 3b 50 3f
       -0.77323025 0.05370061 -0.20990728 0.8134144
000360 fd f5 76 3e 21 17 26 3f 52 13 2e bf 23 18 0f 3f
       0.24117275 0.6487904 -0.6799823 0.55896205
000370 5d 4e 83 be 11 f3 cb be 5e 69 10 3e 6e 13 85 3e
       -0.25645724 -0.39833882 0.14102694 0.25991386
000380 c7 35 23 bd af 69 11 be 78 d0 f2 bd 42 22 44 be
       -0.039846208 -0.14200471 -0.118561685 -0.19153693
000390 db d1 2d 3e 17 4b 35 3e 7b f5 36 be 35 91 e5 3e
       0.16974585 0.17704426 -0.17867081 0.44837347
0003a0 d0 67 2d bf 4a a5 90 3f 0f d8 e8 3d d4 b9 b4 bd
       -0.6773653 1.1300442 0.11369335 -0.088245064
0003b0 c3 dc ad 3e a2 21 51 bf f1 1e 67 3f 82 c1 58 bb
       0.3395749 -0.81691945 0.9028159 -0.0033074324
0003c0 70 e9 be be 08 4c e5 3e 01 25 5b 3c 6a a2 99 3e
       -0.37287474 0.4478457 0.013375522 0.30006725
0003d0 ee 2a 1e bd 5f c0 39 be 3c 82 a7 bd f8 2d 93 3e
       -0.03861516 -0.1813979 -0.08179137 0.2874601
0003e0 7f 88 90 be bd ee 17 3f ac 66 eb be 60 bd 59 be
       -0.28229138 0.5934866 -0.4597677 -0.21263647
0003f0 94 65 8d 3d 0a ab fd bd 25 e7 18 3e 7e 4f ae 3e
       0.0690414 -0.12386139 0.14931925 0.34045023

rnn.bias_ih_l0 f4 [256]
000000 04 3e 83 bf 3d c1 8c be 96 66 89 3e 15 35 a9 bf
       -1.0253301 -0.2749118 0.2683608 -1.3219324
000010 05 3d c2 bf a3 f9 1b bf a9 4e ad bf bf 84 04 bd
       -1.5174872 -0.6092779 -1.353963 -0.03235316
000020 a7 1c dc bc 95 0c 0e bf e2 48 06 3f 16 23 e4 be
       -0.026869131 -0.5548795 0.5245496 -0.44558018
000030 35 a5 c4 bf 8f 86 99 be 48 18 b6 bf d1 b5 2d be
       -1.5362917 -0.29985473 -1.422616 -0.16963889
000040 04 0b cf be 6a 0f 4a 3f b9 44 c3 bf 60 93 6c bf
       -0.40438092 0.7892977 -1.5255347 -0.92412376
000050 6b e2 fe 3e fc 2c 8d be b5 c3 07 bf 4b 53 50 bf
       0.49782118 -0.27573383 -0.53033 -0.81377095
000060 27 67 60 bf 64 05 5e 3e 5e 2d 8c be 35 5b 08 bf
       -0.876574 0.21681744 -0.27378362 -0.5326417
000070 3b ae 45 be 5d 6f 70 bf f9 36 23 bf 75 b8 1a bf
       -0.19304745 -0.93919927 -0.63755757 -0.6043771
000080 6f 93 4b bf 33 83 88 bf b0 ee 74 bf 1e 35 05 bf
       -0.7952184 -1.0665039 -0.9567671 -0.52034175
000090 c6 a5 86 bf 54 a2 c7 be db f1 20 bf 8f 5c a6 bf
       -1.051934 -0.38991034 -0.6286904 -1.2996997
0000a0 eb fc 42 bf df 1d a3 be 49 ec d0 3d f6 a3 88 bf
       -0.7616717 -0.31858727 0.10201318 -1.0675037
0000b0 e9 47 e8 bf c4 80 79 bf 3c 49 9f bf 79 fe 5e bf
       -1.8146945 -0.97462106 -1.2444224 -0.87107044
0000c0 41 a0 73 be d4 37 e0 3e 21 07 b1 bf 56 2e e0 bf
       -0.23791601 0.43792593 -1.38303 -1.7514141
0000d0 b7 15 6f bf 99 4d f0 be 45 db e6 3c 56 3f b5 3d
       -0.9339251 -0.46934202 0.028180728 0.08849971
0000e0 2e 1d ce bf e4 d7 08 3c 0f fb 32 bf 35 66 47 3e
       -1.6102655 0.008352254 -0.69914335 0.19472583
0000f0 48 a1 48 bd 79 c4 f4 3f cd 58 88 bf b8 17 77 bf
       -0.048981935 1.9122459 -1.06521 -0.96520567
000100 91 68 75 3e 8e 79 b1 be 59 bb 3d 3f c9 e0 ae 3e
       0.2396567 -0.3466305 0.74113995 0.34155872
000110 5d a2 26 be 75 34 f4 3e 98 34 45 3f 44 c5 ae 3d
       -0.16272874 0.47696272 0.77033377 0.08533719
000120 b5 0e 13 3e 95 d4 06 be 74 98 37 3d c9 8c 7d 3e
       0.14361079 -0.13167031 0.044823125 0.24760737
000130 dc fc 3c 3e c2 d0 10 3f da 86 0a 3c c6 5d 0b 3f
       0.18455833 0.5656854 0.008455003 0.5443996
000140 af 68 65 bd 4b 9e 4c be 1f 56 26 3f 06 fc 57 3c
       -0.056008037 -0.19982259 0.6497516 0.013182646
000150 1b 37 5a be ab 9b 84 bd be 8a b9 bd a6 b8 61 be
       -0.21310084 -0.06475004 -0.09059666 -0.22043094
000160 a0 22 79 bd 22 1d 2e 3f 6c 96 90 3e 0f 8a 48 3e
       -0.060824037 0.68013203 0.28239763 0.19583915
000170 d3 44 1b 3b 7a 85 61 be f8 cd a9 be 5b dc 8c be
       0.0023692145 -0.22023574 -0.33164954 -0.27511868
000180 16 b9 af be 1c 7e 59 bf 30 a7 4b bf c4 31 80 be
       -0.34320897 -0.8495805 -0.7955198 -0.25037968
000190 39 da 93 bc 20 d8 82 3f 2a cf d0 3e 82 04 98 3e
       -0.018048393 1.0222206 0.40783054 0.2969094
0001a0 eb ae 4b 3f b8 6b 0d 3e 0e 93 bc 3d 89 25 02 bf
       0.7956378 0.13810623 0.09207736 -0.50838524
0001b0 ad fd af be 53 04 90 3e d2 16 03 3e 7f fe 0f 3f
       -0.34373227 0.281283 0.12801674 0.56247705
0001c0 97 9a e6 bd ab b2 81 be 0d 2b 7e 3d 21 b4 58 3e
       -0.112599544 -0.25331625 0.062052775 0.21162464
0001d0 03 77 8b 3d 9e 54 35 3d 10 3d 99 3b f9 25 8b 3d
       0.06809809 0.04427015 0.0046764687 0.06794352
0001e0 8b af 12 3c 03 d6 c2 3d 4f 6e bb 3c db 31 7e bc
       0.0089529855 0.09513476 0.022879748 -0.015514816
0001f0 64 a2 e2 3e 3a 15 64 3f bf c6 25 be 97 d8 4d 3e
       0.4426452 0.8909489 -0.16189097 0.20102154
000200 4c aa 45 3e 0e 82 83 bd dc 7a 14 3f f9 41 b1 bd
       0.19303244 -0.0642129 0.5799997 -0.086551614
000210 46 6c 06 3e 25 e2 f8 be 40 07 7c be a5 5a 57 3f
       0.1312724 -0.48610035 -0.2461214 0.8412269
000220 cd 58 37 3f a6 72 56 be fe 04 f8 3d a7 0a c1 3e
       0.71619874 -0.20942172 0.12110327 0.3770344
000230 7b c2 e4 be f8 f8 7c 3d 49 cf 45 be ea 89 10 3f
       -0.44679627 0.061760873 -0.19317354 0.5646044
000240 7b 1e 99 bf c3 cb 57 bf 8d 29 0e 3f 60 52 e6 be
       -1.1962427 -0.8429529 0.5553215 -0.44984722
000250 b5 47 4e 3e b8 3a 80 bf 90 92 60 3f 09 c8 b6 be
       0.20144542 -1.001792 0.87723637 -0.3569949
000260 77 3b 5b 3f 10 d8 f2 3e 6f b7 bf 3d c7 20 a0 bd
       0.8563761 0.47430468 0.09361159 -0.07818752
000270 e7 16 44 be 34 17 29 3f 83 70 97 be 16 12 9b 3e
       -0.19149362 0.6605103 -0.29578027 0.30287236
000280 10 a9 38 be 50 a9 12 bd 42 7e ba 3e 1a d3 1e 3e
       -0.18033242 -0.035806 0.36424452 0.15510216
000290 b6 4a 82 be 8a c4 1c be d2 c0 a9 bc dc ec ed be
       -0.25447625 -0.15309349 -0.020721827 -0.46469772
0002a0 cb c9 c1 3e d2 95 e9 bd 1c 37 70 be 2b 01 c2 bc
       0.37849268 -0.11405529 -0.23458523 -0.023682198
0002b0 19 32 51 bf ad f7 a1 be 20 2b 20 bf 6e dc 7e be
       -0.8171707 -0.31634274 -0.62565804 -0.24888775
0002c0 6b 59 bc be 40 76 c7 3e d6 cd 4a be d3 a9 14 3f
       -0.3678697 0.38957405 -0.19805083 0.5807163
0002d0 39 1f 1b 3e cf 74 88 3e 00 dd 20 bd 60 5d 95 be
       0.15148629 0.26651618 -0.039273262 -0.29172802
0002e0 11 5e 38 3f 1e d5 0d be ed ca 13 3d d8 46 b3 bd
       0.72018534 -0.13850829 0.036082197 -0.08753747
0002f0 f0 f0 37 bf 69 3e a5 3f 42 c9 a0 be 83 d8 26 bf
       -0.71852016 1.2909671 -0.31403548 -0.6517412
000300 51 68 ea bf 3c 80 5f bf 18 b0 40 3e 11 92 85 bf
       -1.8313085 -0.87305045 0.18817174 -1.0435201
000310 d6 c5 f4 bf dd b1 17 bf a7 d1 a8 bf 66 98 11 3f
       -1.9122875 -0.5925577 -1.3188981 0.56873167
000320 6b c4 a4 bf dc ed 92 bf 2f 09 e1 be 6c d2 92 bf
       -1.2872442 -1.1478839 -0.4395232 -1.1470466
000330 08 11 63 bf bd 28 fc be 10 17 bb bf d4 e9 91 bd
       -0.8869786 -0.4924983 -1.4616413 -0.07124677
000340 de 3c 0a 3e 70 54 8c 3e 72 71 98 bf 5e db 17 bf
       0.13499781 0.2740817 -1.1909621 -0.593191
000350 4e 8d 3a bf 95 b4 61 3f ce 66 16 bf f7 5a 80 bf
       -0.72871864 0.8816617 -0.5875062 -1.002776
000360 6f 55 24 bf 53 d2 b4 3e 5d f8 da 3e 21 52 20 bf
       -0.6419286 0.35316715 0.4276761 -0.6262532
000370 79 da 75 bf 03 9b b2 be 57 7b 39 be a1 54 ac 3d
       -0.9603649 -0.3488389 -0.18113457 0.08414579
000380 3a ac 43 bf e8 18 23 bf 94 e3 4d bf b9 40 bb be
       -0.7643467 -0.6370988 -0.8042538 -0.36572817
000390 52 87 82 bf 53 0d 3f be 05 2c 97 bf 8a ef 2e bf
       -1.0197546 -0.18657427 -1.1810309 -0.6833426
0003a0 60 d8 45 be 79 1e f3 be 32 49 a0 3e 93 6d e4 bf
       -0.19320822 -0.47484186 0.31305844 -1.7845939
0003b0 c8 5b 9f bf 8c 63 8b be 45 36 17 bf 87 fb 83 bf
       -1.2449884 -0.27224386 -0.59067184 -1.0311135
0003c0 24 f6 f2 3b 14 83 8b bc a2 c2 4d bf a6 c4 78 bf
       0.007414596 -0.017030276 -0.8037511 -0.9717506
0003d0 2b 04 24 be ac b5 f9 be 93 e0 be 3d 8a 09 99 3b
       -0.16017215 -0.48771417 0.09320178 0.0046703266
0003e0 44 9d df be 4a c8 57 be a5 ed 3d bf 02 52 0d bf
       -0.43674672 -0.21072498 -0.7419074 -0.5520326
0003f0 c9 00 43 bf b7 94 44 3f 27 8e 7a bf a0 7d 86 bf
       -0.76173073 0.7678942 -0.9787316 -1.0507088

rnn.bias_hh_l0 f4 [256]
000000 af 9b 72 bf d7 e3 a7 be ff f4 aa 3e 24 f8 b8 bf
       -0.94768804 -0.32791016 0.33390042 -1.4450727
000010 4d bf c2 bf 39 ab 05 bf dc 3d b2 bf 0e 07 02 be
       -1.521463 -0.5221439 -1.3925128 -0.12698004
000020 8c 7c 1a bd 95 f1 1e bf bb 9d b6 3e f6 79 fb be
       -0.037716433 -0.62087375 0.35667214 -0.49116486
000030 1b 92 b6 bf b3 8e d1 be ed 37 c6 bf 54 16 c9 bd
       -1.4263338 -0.40929183 -1.5485817 -0.09818712
000040 1e a9 89 be 34 22 7b 3f 55 cb e0 bf 2b e3 7e bf
       -0.2688684 0.98099065 -1.7562052 -0.9956538
000050 6b ef 9f 3e 40 24 c0 be c6 06 05 bf 96 1e 7c bf
       0.3123735 -0.37527657 -0.5196346 -0.9848417
000060 df 7f 5e bf c5 bc 2c 3e 59 7b 42 bd 5c d4 e9 be
       -0.86913866 0.16868885 -0.047480915 -0.4566983
000070 00 6a 3f be e1 1f 91 bf 12 fa 1d bf b4 09 06 bf
       -0.1869278 -1.1337854 -0.617097 -0.52358556
000080 ba d0 66 bf 3d 4d 90 bf cf 1a 6f bf ff b8 d2 be
       -0.9016224 -1.1273571 -0.9340028 -0.41156766
000090 02 4e 9b bf 15 62 77 be 2f 3b 1b bf 75 3d aa bf
       -1.2133181 -0.24158509 -0.6063718 -1.3300005
0000a0 cd 5c 2b bf 8c 9a 03 bf 6e bc 2f 3e 5b c6 8a bf
       -0.6693848 -0.51407695 0.17161724 -1.0841783
0000b0 d7 14 ed bf 2a d4 77 bf ff 1a 99 bf 7f 84 49 bf
       -1.8521985 -0.9680811 -1.1961364 -0.787178
0000c0 8c 0d 07 be cb ab 95 3e 8d da b0 bf 56 e4 e9 bf
       -0.13188761 0.2923263 -1.3816696 -1.8272808
0000d0 03 26 8d bf 8d 41 a8 be 26 54 8b 3d 96 b8 c2 3d
       -1.1027225 -0.3286251 0.068031594 0.09507863
0000e0 c3 f3 d2 bf f5 16 02 3e c7 ed 2f bf 6a d5 ab 3e
       -1.648064 0.1270407 -0.68722194 0.3356126
0000f0 58 0e 43 be 0f c8 df 3f c9 de 6f bf dc d1 5c bf
       -0.1904844 1.7482928 -0.9369932 -0.8625772
000100 a7 16 82 3e 09 27 bc be ee 14 1a 3f 94 5f 9a 3e
       0.25407907 -0.3674853 0.60188186 0.30151045
000110 5a fe b1 be 4c 29 d8 3e 0a b1 52 3f 79 be 10 3d
       -0.34764367 0.42219007 0.8230139 0.0353379
000120 71 d2 2c 3d 10 17 0c be 3d 88 d8 3d d0 8b 98 3e
       0.04219288 -0.13680673 0.105728604 0.29794168
000130 b3 17 35 3e 99 56 cd 3e b2 a0 b9 3d 02 3d bb 3e
       0.17684822 0.4010513 0.09063853 0.36569983
000140 fb 27 ab 3c ae 11 41 be 8b 02 0e 3f ed 2c 55 3e
       0.020893088 -0.188544 0.5547263 0.20817919
000150 1e 71 99 be ab 69 08 bd e4 88 ef bc 7c 0f d3 be
       -0.29969114 -0.033303898 -0.02924008 -0.4122275
000160 39 c9 03 bd bd 4e 1f 3f 84 3f a6 3e b7 7e e5 3c
       -0.032174323 0.6222952 0.32470334 0.028014524
000170 7a d1 5c 3e ae 19 86 be e9 25 ac be 11 b9 7f be
       0.21564284 -0.26191467 -0.33622673 -0.24972941
000180 fa ca 5f be 93 1e 58 bf 74 e0 38 bf 35 05 45 be
       -0.21854773 -0.8442165 -0.7221749 -0.19240268
000190 63 54 95 bd d6 37 5c 3f fc 2d ee 3e 19 0f bd 3e
       -0.07291486 0.860227 0.46519458 0.3692558
0001a0 79 25 56 3f 3c fb 31 3e 9e 5a ca 3d 3a 6e f8 be
       0.8365093 0.17380995 0.09880565 -0.48521596
0001b0 16 56 03 bf 8b af 1b 3e 4e 3b 6f 3e d9 0a 03 3f
       -0.5130323 0.15203683 0.23362467 0.5118843
0001c0 c4 01 91 3d 0d 04 86 be c2 9b 20 3e f6 58 97 3e
       0.07080415 -0.26174966 0.15684417 0.2956006
0001d0 cc 52 2d 3c e7 d6 bc bb f8 78 51 3d 50 fb 9b 3e
       0.010578822 -0.005762923 0.051140755 0.30465174
0001e0 84 c6 e2 bd 48 86 1c 3e 7e 01 36 3c 21 24 7c bd
       -0.1107302 0.15285599 0.011108754 -0.061557893
0001f0 09 3b d2 3e bf c9 87 3f 13 5a 44 be a5 21 ec 3d
       0.41060665 1.0608443 -0.19174986 0.11529855
000200 71 dc 0b 3e d8 7b 16 be ef 54 03 3f 39 a5 a1 bc
       0.1365831 -0.1469568 0.51301473 -0.019732105
000210 e9 f3 4b 3e 69 f6 25 bf 1e 6c 63 be c9 95 63 3f
       0.19917263 -0.6482912 -0.22209212 0.8890043
000220 75 95 25 3f cf ed 57 bd 75 2e f1 3c 0d 41 45 3e
       0.6468118 -0.052717026 0.029441098 0.19263096
000230 3e 70 e8 be b8 16 3f 3d 66 aa 97 be d2 27 02 3f
       -0.45398134 0.046652526 -0.2962219 0.5084201
000240 80 3c a4 bf 8c 01 6d bf 53 87 0d 3f 28 66 b9 be
       -1.2830963 -0.92580485 0.55284613 -0.36210752
000250 49 9e b9 3e 99 c3 82 bf 94 80 6a 3f df b3 dc be
       0.36253574 -1.0215942 0.91602445 -0.4310598
000260 a9 23 3d 3f 2c 94 b4 3e 7c f2 a2 3d 61 af 28 bd
       0.7388254 0.35269296 0.079564065 -0.04118288
000270 58 db 0c bd 94 3a 24 3f 94 ad b2 be a7 82 9a 3e
       -0.03438887 0.64151883 -0.34898055 0.30177805
000280 95 08 65 be d1 99 35 3d a4 18 e1 3e d6 d9 d4 3d
       -0.22366555 0.044336144 0.43964112 0.103931114
000290 aa 76 37 be f6 bc 8a be b6 0c b6 3c 8e 3a b6 be
       -0.1791636 -0.2709729 0.022222858 -0.3559155
0002a0 43 61 d9 3e ab 05 7f be 5a 0b e5 be 8c 61 28 bd
       0.42457017 -0.24904506 -0.44735223 -0.041108653
0002b0 de 94 21 bf 79 1f cc be 21 3a 29 bf d6 65 93 be
       -0.6311778 -0.39867762 -0.6610432 -0.28788632
0002c0 ff ea 7e be 1b 0a 44 3e 56 23 06 be 0b 60 ba 3e
       -0.24894331 0.1914448 -0.13099417 0.364014
0002d0 d9 c7 4b bd a9 76 ce 3e da f6 3c bd c7 6c 52 be
       -0.049751136 0.40324906 -0.046133853 -0.20549308
0002e0 94 d8 3a 3f 4c dd b6 bd 35 03 43 3d 90 65 ce bd
       0.7298672 -0.08928928 0.04761048 -0.10077965
0002f0 11 b2 66 bf b1 ef b3 3f 46 0c 68 be ac aa ef be
       -0.9011546 1.4057523 -0.22660932 -0.468099
000300 d9 fd d4 bf d0 21 60 bf c8 9a 84 3e 39 fc 6b bf
       -1.6639968 -0.87551594 0.2589934 -0.92181736
000310 1c a2 e8 bf 74 09 1d bf 20 8e 9e bf 37 95 1f 3f
       -1.8174472 -0.6134255 -1.2387123 0.6233706
000320 d2 95 a2 bf 1a 85 8e bf ff 33 b5 be da dd 9e bf
       -1.2701972 -1.1134369 -0.35391232 -1.2411454
000330 64 f8 47 bf 0b 11 e1 be 83 a7 c4 bf 38 81 29 be
       -0.7811339 -0.43958315 -1.536362 -0.165532
000340 81 50 80 3e 07 66 ea 3e 35 c9 a3 bf d2 99 35 bf
       0.2506142 0.45780966 -1.2795779 -0.70937836
000350 3f 1c 44 bf 90 94 67 3f bd 58 28 bf b8 a1 72 bf
       -0.766056 0.90461063 -0.65760404 -0.94778013
000360 6a 0a 1b bf 9f 2e a5 3e 08 3a 18 3f 71 50 f1 be
       -0.60562766 0.32262132 0.5946355 -0.47131684
000370 79 4d 80 bf f8 ab 9f be d8 d9 89 be 3c 52 b4 3c
       -1.0023643 -0.3118589 -0.26924014 0.022011869
000380 19 47 42 bf 76 a3 3b bf 4d a3 27 bf 47 fa a4 be
       -0.75889736 -0.73296297 -0.6548355 -0.32222196
000390 34 03 9e bf b6 d0 5b be 2b 62 8f bf 9f f3 08 bf
       -1.2344728 -0.21466336 -1.1201833 -0.53496736
0003a0 f9 b3 39 be 4f 5c c7 be 10 e9 d7 3e 0c da e0 bf
       -0.1813506 -0.38937613 0.4217 -1.7566543
0003b0 76 77 a6 bf b6 98 e9 be 59 e7 18 bf 54 23 8c bf
       -1.3005207 -0.45624322 -0.5972801 -1.0948281
0003c0 24 ac f9 3d e4 0f 9f bd 5c 37 35 bf c4 44 82 bf
       0.12191036 -0.07766703 -0.70787597 -1.0177236
0003d0 cd e6 32 be c8 9f 09 bf 71 ba a3 3e 48 b1 1f 3e
       -0.17470856 -0.5375943 0.3197818 0.15594971
0003e0 53 cd 02 bf cd 26 b3 be 8c 67 55 bf 4a 30 19 bf
       -0.5109455 -0.3499054 -0.83361125 -0.5983931
0003f0 02 64 16 bf 40 66 36 3f d4 e1 79 bf 14 3b 88 bf
       -0.5874635 0.7124977 -0.9761021 -1.0643029

rnn.weight_ih_l1 f4 [256, 64]
000000 06 09 db bc de 8a 72 3f 85 13 40 bf 5f e7 83 bf
       -0.026737701 0.94743145 -0.75029784 -1.0304984
000010 11 0f 9e 3e e0 fb 80 3f 84 50 23 3f 79 b6 cc 3e
       0.3087087 1.0076866 0.6379473 0.39982966
000020 5c e7 13 be 26 8e 98 bf a6 84 d3 bf 48 d2 32 be
       -0.14443725 -1.191838 -1.6524856 -0.17463028
000030 34 fa 5e be de 5d 10 3e f8 ba b8 be fe 8f 6c bf
       -0.21775132 0.14098307 -0.36080146 -0.92407215
000040 36 52 c6 3f b9 fc fa be e9 42 5a 3f 4c ef a3 bc
       1.5493839 -0.49020937 0.85258347 -0.020011567
000050 81 5f a9 3f f6 3f 87 3f 65 80 0e c0 be d8 37 3f
       1.323227 1.0566394 -2.2265866 0.718151
000060 a2 aa a6 3e c7 e1 3b 3e f6 d0 f2 be 45 47 1d 3f
       0.32552058 0.18347846 -0.4742505 0.61436874
000070 fd 99 d4 3e d7 28 50 40 32 bb be bf 83 36 72 3f
       0.41523734 3.2524927 -1.4900877 0.9461443
000080 de 61 90 3f 66 12 e2 3f b3 1e 85 3f 28 03 04 40
       1.1279867 1.7661865 1.0399994 2.0626926
000090 b0 84 15 3f 82 52 dd 3e af ac b4 3e 78 e9 5b bf
       0.5840559 0.4322701 0.35287997 -0.8590312
0000a0 a9 37 a4 3e 93 38 9f bf 18 58 e2 3f 07 9a be bf
       0.32073715 -1.243914 1.7683134 -1.4890755
0000b0 44 dd cd bf 93 18 44 3f 77 4c cc be 23 c9 31 be
       -1.608315 0.766 -0.39902088 -0.17361884
0000c0 c9 2e 0c 3f af b3 88 bf 4c 23 db bf 1c 64 ac 3f
       0.5475889 -1.0679835 -1.7120147 1.3468051
0000d0 44 80 00 3f 6f 4a b0 3e 84 22 d3 3d 91 0a 64 3f
       0.5019572 0.34431788 0.10309318 0.89078623
0000e0 c9 e5 f4 3f 3a 4c 1e be 67 c9 88 bf 5b 9a f7 bf
       1.9132625 -0.15458766 -1.0686463 -1.934398
0000f0 fa 2e cb bf e5 50 f5 3e 88 46 11 bf 87 d8 78 3f
       -1.5873711 0.4791328 -0.5674825 0.97205395
000100 d4 ec 98 3e d6 9d 87 be 08 70 9c bd 73 91 c6 bd
       0.29868186 -0.26487607 -0.07638556 -0.09695711
000110 d5 b2 dc 3e 55 ab fb bc 5c 94 64 be df 81 81 bf
       0.43105188 -0.030721346 -0.2232222 -1.0117759
000120 7e d5 f4 3e be 77 c4 3e 25 4a ea 3e 88 52 f0 bd
       0.47819132 0.38372606 0.45759693 -0.117344916
000130 43 5a b1 3e 8b c1 3e bf e9 66 3e be 4b e4 f7 be
       0.34639177 -0.74514073 -0.18593945 -0.4841636
000140 90 bf 86 3e ae b2 06 bd 01 51 fd be cd 12 71 bd
       0.26318026 -0.032885246 -0.49475864 -0.05885582
000150 93 dc 2f bf 83 6a 90 3e 14 15 fa 3e ec be cd 3e
       -0.68695945 0.28206262 0.48844206 0.40184724
000160 e0 af cb be de 75 1a bf e8 19 40 bf 54 1c 9d be
       -0.3978262 -0.603361 -0.7503953 -0.30685675
000170 3f 19 d5 3d 2b 5b ce bf d3 66 94 3f 0f ad 62 bf
       0.10405206 -1.6121572 1.159388 -0.88545316
000180 c1 9b 9c 3f 67 1a 15 3e 97 a4 ef be 10 6f b1 3c
       1.2235032 0.14560853 -0.4680526 0.021659404
000190 98 ff eb be ad bd 3b 3e 49 d7 2b be 46 55 c7 be
       -0.4609344 0.18334074 -0.16781344 -0.38932246
0001a0 50 c6 73 bf 99 73 31 bc 25 00 bd be b3 ed 0d 3f
       -0.95224476 -0.010830783 -0.36914173 0.55440825
0001b0 4d f6 00 3f 92 bb 9b be c1 cf c0 3e bd 33 5d be
       0.50375825 -0.30416542 0.37658504 -0.21601768
0001c0 29 f3 8b 3c 38 a1 0a 3f 90 dc 4d 3d 2e d9 91 3d
       0.017083721 0.5415225 0.050259173 0.07121502
0001d0 e8 ba 6a be b4 9f b0 bd 58 c1 27 bf 7d 19 90 3f
       -0.22922862 -0.08624211 -0.65529394 1.1257778
0001e0 79 b4 44 bf e5 dd 4f 3f c1 6b 89 be 96 2f 30 3f
       -0.7683788 0.8119796 -0.26840022 0.6882261
0001f0 3f 66 14 3f 72 c9 c1 be 4b fc 31 be a7 cc 10 bf
       0.57968515 -0.37849003 -0.17381398 -0.56562275
000200 e2 53 86 be cf 08 0b 3f 59 24 b5 be b2 95 46 3e
       -0.26235873 0.54310316 -0.35379294 0.19393042
000210 95 99 15 3f 49 64 87 3f 2d ee 89 bd f0 fe 5b bf
       0.5843747 1.057748 -0.067348816 -0.8593588
000220 a4 c4 fe bd 9c 3e 7a 3f e2 b3 dc bd 14 95 a5 be
       -0.1243985 0.97751784 -0.107764974 -0.323403
000230 6e 3c 45 be 30 1c b9 bf 30 48 88 be e1 a4 9e 3f
       -0.19261333 -1.4461727 -0.26617575 1.2394067
000240 66 75 b8 3f 80 b8 94 3f 29 ee 2d be 14 b7 28 be
       1.4410827 1.1618805 -0.16985382 -0.16476089
000250 82 b6 04 3e b1 0d e3 3f c2 0f 51 3e 24 1a af bd
       0.12960246 1.7738553 0.20416167 -0.08549908
000260 ca fb 86 3f d4 d7 3a bf 73 97 c1 be 92 64 03 be
       1.054559 -0.7298558 -0.3781086 -0.12831333
000270 9c bb 14 be 2d 77 c1 bf 02 2a 29 3f f4 5a 15 3f
       -0.14524692 -1.5114495 0.66079724 0.5834191
000280 95 45 75 bf 19 0a 76 bf 8b f9 19 bf 26 d9 74 3e
       -0.958093 -0.9610916 -0.601464 0.2391096
000290 5e 10 a5 3d 76 62 a4 3d c4 0e 95 bd eb 8b 66 be
       0.080597624 0.080265924 -0.07278207 -0.22514312
0002a0 f7 3c 7e be 46 24 90 3e 0e f4 51 3f 91 9b d1 3e
       -0.24827944 0.28152674 0.8201302 0.40939
0002b0 73 02 1e 3f 8e cd 6c be 59 3a 4c 3d 91 4c c8 bd
       0.6172249 -0.23125288 0.049860332 -0.09780229
0002c0 d8 1e 48 bf e4 38 a9 3d e3 0d 01 3d 31 70 3d 3e
       -0.78172064 0.08262804 0.031507384 0.18499829
0002d0 ac 28 2c bf 5d 79 0e 3d dd 66 8f bd 50 35 8f be
       -0.6724956 0.03478371 -0.070020415 -0.27970362
0002e0 8b cd 59 bf 43 f0 a5 bd 0c 6d 05 bf c8 3b a0 be
       -0.8507926 -0.08102467 -0.5211952 -0.3129561
0002f0 a3 d9 b1 3f 2b ef 02 c0 ad db 38 3f 10 4d 2c bf
       1.3894542 -2.0458477 0.722102 -0.6730509
000300 27 f0 c7 3e 28 c0 67 bf 87 c4 31 bf f4 1b ab be
       0.3905041 -0.9052758 -0.694405 -0.33419764
000310 6e 5e 78 3e ae 2a 5c bf 1f ac bf be d8 4a 1c 3d
       0.24254772 -0.86002624 -0.37436005 0.038157314
000320 56 fd 61 3e dc c6 5c 3f 9b 46 0c 3f 0d 73 7a be
       0.22069296 0.86240935 0.54795235 -0.24457951
000330 14 6f a3 be b2 16 82 3e 50 90 ea 3d 21 45 f2 3e
       -0.31920683 0.2540794 0.11453307 0.47318366
000340 6b 4f 19 bf 93 74 0e 3f b3 58 82 be 22 c9 0c 3d
       -0.5988681 0.5564663 -0.25458297 0.034371503
000350 1f fb fe 3b b5 1a 0c 3e 52 f6 b1 3e df 28 0c bf
       0.007781401 0.13682063 0.3475824 -0.54749864
000360 ba c0 17 3f 6b e8 00 3d 96 d3 86 3f 8d a2 dd 3e
       0.5927845 0.03147165 1.0533321 0.4328808
000370 a0 a3 82 3f d9 7d b3 3e a0 75 4a 3e 98 bf 2e 3f
       1.0206184 0.35056952 0.19771433 0.682611
000380 6e 7a 20 bf 70 17 57 bf ef 8f 4a bf 03 06 2e 3e
       -0.6268681 -0.8402014 -0.79125875 0.16994481
000390 7d 95 df 3c 18 64 4c 3e 5d 55 9a bc a0 64 ce 3e
       0.027292961 0.19960058 -0.018839533 0.40311146
0003a0 3c 69 e1 3d 74 5a f3 3d bd 35 8b be a1 ec 89 3e
       0.110064 0.11882487 -0.27189437 0.26938346
0003b0 f9 c8 a3 be ef 56 c8 3e a2 fc a5 be 0f af 4c 3d
       -0.31989267 0.39128825 -0.32419306 0.049971636
0003c0 0c 6b b6 3e 86 48 9d 3f 1d dd b0 3d 75 4b 1a bf
       0.35628545 1.2287757 0.08635924 -0.6027139
0003d0 e3 1f eb 3d a1 b0 33 3e d0 f5 52 3c cc 0f 8a bc
       0.11480691 0.17547847 0.012875989 -0.016853236
0003e0 fc 56 3f bf 5c b7 af be 78 7e 4e 3d 4f cc 0b be
       -0.747421 -0.3431958 0.05041358 -0.13652156
0003f0 9d b6 18 3f 65 66 92 3d 3a 4f 90 3c a0 23 2a bf
       0.59653646 0.071484365 0.017615903 -0.6646061

rnn.weight_hh_l1 f4 [256, 64]
000000 54 40 ad bf bd 2c 3a 3c 93 1d 9f 3f c8 f0 ef be
       -1.3535256 0.0113632055 1.24309 -0.4686339
000010 79 d4 5b be cd d2 a0 bf 30 56 be be e8 a7 cf 3f
       -0.2146777 -1.2564331 -0.3717513 1.6223116
000020 a1 79 d6 bf 77 7a c1 3e 78 8c e6 bf 8e 6b bd 3f
       -1.6755868 0.37788746 -1.8011618 1.4798448
000030 cf dd c4 be 2a 82 84 bf 87 ab 7c be aa 06 94 bd
       -0.38450477 -1.0352223 -0.24674807 -0.072278336
000040 3c 22 c8 3e 4d 64 a2 be 30 05 a9 be 60 cc 73 bf
       0.3908862 -0.31717148 -0.3301177 -0.95233727
000050 54 f6 f8 3e 33 16 29 3f 31 8a 0a bf d5 7a 80 bf
       0.48625433 0.660495 -0.54117113 -1.0037485
000060 05 ad 9b 3f 19 13 a4 3d c3 c9 87 bf 2b c0 9b bf
       1.2162176 0.08011455 -1.0608448 -1.216802
000070 92 83 18 bf 79 f2 ba 3e cf 55 8f bf 22 af 15 be
       -0.5957576 0.36513117 -1.1198062 -0.14617589
000080 c8 f5 62 3f 06 8c 8e bd 45 70 f9 3e 84 c5 b6 3c
       0.8865628 -0.06960301 0.48718467 0.02231098
000090 6e 9e 84 bf 52 05 4d bf d9 3f bb 3f 2e 6f 91 bf
       -1.0360849 -0.80086243 1.462886 -1.1362054
0000a0 c6 7c 21 3e 6f 0e 49 bd f9 47 0f 3f 24 8c ae bf
       0.15770254 -0.04908603 0.55969197 -1.3636518
0000b0 b7 df c4 bf c2 da 2b 3f c7 50 ad be cf c9 ad bd
       -1.5380772 0.6713067 -0.3385069 -0.084857576
0000c0 4c 79 0a 3e aa c1 e9 be 8a 0a 12 be 5b c0 a7 bc
       0.13522834 -0.45655566 -0.14261833 -0.020477464
0000d0 44 b2 9d bf ce f5 8c be fc a3 4e be ea f3 c5 3e
       -1.2320027 -0.27531284 -0.20179743 0.38662654
0000e0 b2 95 2b bf 3d 8b 3b 3e 23 2f 4c 3f 9b ec ef be
       -0.6702529 0.18314834 0.79759425 -0.46860203
0000f0 12 a4 9f bf 6f e0 f5 be de b8 80 3f 53 3d 2d bf
       -1.2471945 -0.48022792 1.0056417 -0.676717
000100 4d 18 c2 bd 10 96 dd bf 02 0e 2d bf f9 c3 ec be
       -0.09477291 -1.731142 -0.675995 -0.46243265
000110 d7 90 fb be e2 b5 8d 3e 1d eb 24 bf e8 1d 59 bf
       -0.49133942 0.27677828 -0.64421254 -0.8481126
000120 22 d3 0b 3f b3 49 3e bf 81 40 a3 3f bb 1e 91 3e
       0.5461904 -0.74331206 1.275406 0.28343758
000130 5a 1f 05 3e d9 ce 1e bf 93 1f 27 3f bb 7b 5e be
       0.13000241 -0.62034374 0.65282553 -0.21726887
000140 39 38 0d 3e 0e 4f b4 be 40 95 7d bd ce 1d 4f 3f
       0.13790978 -0.35216564 -0.061909914 0.80904853
000150 cb 79 d1 3e c9 bd e1 bf b2 77 50 be a9 54 0e 3f
       0.40913233 -1.7636043 -0.2035816 0.5559793
000160 25 e5 a6 be 3b 4a 00 3c 97 81 0f 3f 8f 26 2b bf
       -0.32596698 0.007830198 0.56057113 -0.6685571
000170 26 69 ef 3c 9a 69 31 3f b7 4e 96 3e fa 5c 01 3f
       0.029224943 0.6930176 0.2935693 0.50532496
000180 38 fd 9c be 20 78 5f 3e 44 03 7e 3e 39 e2 b4 be
       -0.3066194 0.21823168 0.24805933 -0.35328844
000190 c8 eb aa bf ea cb 9b 3e bd e9 10 bf e4 0c 5c 3e
       -1.3353205 0.30429012 -0.56606656 0.21489292
0001a0 ae f0 8f 3d f0 4b 65 bf 33 3f a1 3e 86 3d a5 3e
       0.07028328 -0.89568996 0.3149353 0.322735
0001b0 21 75 95 3f f7 12 79 bf f2 b1 31 bf fb 82 6e bf
       1.167637 -0.97294563 -0.6941215 -0.9316861
0001c0 6e aa 30 3e a0 10 87 3e bf b0 5a 3e 9e f2 70 bf
       0.17252514 0.2637987 0.21356486 -0.94120204
0001d0 e0 8b 21 bf 98 54 90 3f 90 64 11 bf fc 3a 82 3e
       -0.6310406 1.1275816 -0.5679407 0.25435627
0001e0 ca ab 2a be c0 10 0c 3f c6 4e 8b be 0a 0a 5c 3c
       -0.16667095 0.5471306 -0.27208537 0.013430128
0001f0 56 d0 fc be 42 cb 90 3e 14 19 05 bc 6f 95 1e bf
       -0.49377698 0.28280073 -0.008123655 -0.6194677
000200 9d 56 c6 3e 25 79 2d 3d 2e d6 ed 3e 80 9e c5 be
       0.38737956 0.04235186 0.4645247 -0.38597488
000210 50 8a ad be 14 b4 4b bf 95 18 77 be c4 a3 44 3f
       -0.33894587 -0.7957165 -0.24130471 0.76812387
000220 c1 ea 3a bf 83 67 fc be 23 c9 f9 bd 09 93 64 be
       -0.73014456 -0.49297723 -0.12196567 -0.22321714
000230 5e 36 a8 be ec eb 03 bf ca 4b 9b be d0 0d 81 be
       -0.3285398 -0.51531863 -0.3033126 -0.2520585
000240 be 82 61 be 17 9a b0 3f b5 b8 a0 be 24 5f f0 be
       -0.2202253 1.3797024 -0.3139092 -0.46947587
000250 44 24 e4 bd 95 38 67 be 04 4a 89 be 08 06 39 bf
       -0.111397296 -0.22580178 -0.26814282 -0.7227483
000260 5e 57 a3 be 2e c4 98 be d6 21 ba be 3e e5 15 3f
       -0.31902593 -0.29837173 -0.3635394 0.5855292
000270 0a 33 cd be 73 bc 42 3e d9 38 a1 3e d3 1f 35 3f
       -0.40078002 0.190172 0.31488684 0.70751685
000280 1d 0b 22 3f 55 76 2a 3f d8 a7 8b 3e 99 94 09 3f
       0.6329821 0.6658681 0.27276492 0.5374237
000290 32 52 98 be 4f d3 4c bf e3 e9 1b 3f 6d 90 d9 be
       -0.2975021 -0.8000993 0.6090376 -0.42493
0002a0 35 a6 8f 3f bd e6 3a be b1 b4 86 3e 3d de 20 3f
       1.1222597 -0.18252082 0.26309732 0.6283911
0002b0 98 b5 9a bf 9b c2 24 bf 0d f9 77 be f9 15 62 3f
       -1.2086668 -0.64359444 -0.24216099 0.8831478
0002c0 91 76 b6 3e 2f 19 b8 3e 53 b8 09 3f d4 16 59 be
       0.35637334 0.35956714 0.5379688 -0.21200114
0002d0 30 2f 15 bc 16 1c b7 bd df 9e 8e 3e 01 c7 1b 3f
       -0.009105489 -0.08940904 0.27855584 0.6085053
0002e0 06 97 b5 3e b5 a7 71 bf f2 49 41 3f fd da 95 be
       0.35466784 -0.94396526 0.75503457 -0.29268637
0002f0 45 31 41 bf 96 81 22 bf 65 0b 4c be 38 5f 8c be
       -0.75465804 -0.6347898 -0.19926222 -0.27416396
000300 00 95 06 3f 6f b8 95 be c2 32 2e bf 98 b5 a9 be
       0.52571106 -0.29242274 -0.680462 -0.33146358
000310 d9 b4 2b 3f e1 63 10 3f 4e c4 07 bf 9c 85 99 bf
       0.67072827 0.56402403 -0.5303391 -1.1993899
000320 d6 12 e2 3e f7 f9 2d bf 73 cd aa 3e cf b4 f2 be
       0.44154996 -0.6795954 0.3335987 -0.4740357
000330 aa 62 79 bf 10 ad dc be d1 c4 12 3f 9d fd ca be
       -0.97416174 -0.43100786 0.5733157 -0.39646617
000340 6c 8d 8f bf 49 0c fc 3e 51 81 a1 3f b0 27 1b bf
       -1.1215034 0.49228123 1.2617589 -0.60607433
000350 20 40 e3 bb e5 13 90 be 19 4d 8e bc 30 4e 54 bf
       -0.0069351345 -0.28140178 -0.017370747 -0.82931805
000360 6c 7a 6c be 60 98 29 be a3 a6 90 bf 48 c2 4b 3f
       -0.23093575 -0.16562033 -1.1300853 0.79593325
000370 8d 1d 45 3e b5 4b 1a 3f 35 85 15 bf 4a 97 4f 3f
       0.19249554 0.6027177 -0.5840638 0.81090224
000380 6e 2b 81 3f ad 44 18 bf ac 89 73 3e ce 09 39 bf
       1.0091379 -0.5947979 0.23782986 -0.72280586
000390 65 68 c9 3d 56 a9 b6 3f a4 bd 97 3e 2d b8 dc 3e
       0.09834365 1.4270427 0.29636872 0.43109265
0003a0 1b 18 d6 3d b6 1c 53 bf d4 98 3e bf 31 dc 12 3f
       0.104538165 -0.82465684 -0.7445195 0.57367235
0003b0 71 05 7d 3d fa 77 4b 3f 51 42 65 be be 31 45 3e
       0.061772767 0.79479945 -0.22388579 0.19257256
0003c0 c7 22 95 3e 51 fa ae bb 95 27 5f be 9a 9b 91 3d
       0.29128096 -0.0053398986 -0.21792443 0.07109757
0003d0 01 9e 6c 3e 01 e0 1e 3f ef 2c 2b be 79 57 bc be
       0.23107149 0.6206055 -0.1671636 -0.36785486
0003e0 32 86 42 3e dd 26 d8 be d4 e7 aa be 5b b8 b6 3e
       0.18996504 -0.4221715 -0.33379996 0.35687527
0003f0 c6 0d 13 bf 2c ce 22 bd 6a 13 82 3e 89 e5 f9 bd
       -0.5744289 -0.039747402 0.25405437 -0.122019835

rnn.bias_ih_l1 f4 [256]
000000 8b fe 72 be 08 17 f6 be 13 1e 36 bf 9d 82 b0 be
       -0.23729913 -0.48064446 -0.7113964 -0.3447465
000010 2b 4e 35 bf 8b de 8d 3d 8c 10 5d bf ca 97 9d 3a
       -0.708224 0.06927212 -0.86353374 0.0012023386
000020 4d 97 2e be d6 c7 0c bf cd e0 6c 3e ce 57 28 3e
       -0.17049904 -0.54992425 0.2313263 0.16439745
000030 85 6b 28 bd 9b 55 6e bf 75 95 be bd d8 04 b9 bf
       -0.041118164 -0.93099374 -0.093058504 -1.4454603
000040 ac 1a 0e bf 82 06 85 bf 36 23 27 bf 11 6d 94 be
       -0.5550945 -1.0392611 -0.652881 -0.2898946
000050 4e 56 14 bd d5 8c d7 be c6 40 5e be 73 92 1f bf
       -0.03621512 -0.42099634 -0.21704397 -0.6233284
000060 86 65 42 bf 25 90 cb be 77 25 d5 3d dd c3 39 bd
       -0.7593616 -0.3975841 0.104075365 -0.045352805
000070 a0 b6 9c be 0b f7 9f be 9c 5b df be 65 7d 09 bd
       -0.30608082 -0.31243166 -0.4362458 -0.03356685
000080 09 98 c3 3f 69 1f 3a bf 2d 6c 87 3e 3d 5e 80 be
       1.5280772 -0.7270418 0.2644972 -0.25071898
000090 e3 c3 82 bf e2 9d 4a be 73 21 db 3e ac 20 5e 3f
       -1.021603 -0.1978679 0.42798957 0.86768603
0000a0 5a b9 92 be 31 78 23 bf 20 f1 24 bf 37 33 88 3e
       -0.28657037 -0.6385527 -0.6443043 0.26601574
0000b0 24 ec 7a 3d 06 b5 67 bf 4c 76 51 bf fb bc 09 bf
       0.061260357 -0.90510595 -0.8182113 -0.53803986
0000c0 05 a9 95 be bf b6 81 bf 92 06 04 be 68 26 93 bf
       -0.29230514 -1.0133895 -0.12893131 -1.1496096
0000d0 33 89 e2 bb 18 99 02 bf e7 0a 46 be b9 a7 3d bf
       -0.006913328 -0.5101485 -0.19340096 -0.7408405
0000e0 f2 03 e9 be ac d1 46 bf ed 95 4a be c4 8d a4 be
       -0.45510823 -0.77663684 -0.19783755 -0.3213941
0000f0 b8 fb c6 3e e5 d7 6a bf 3e 0b af be e3 22 8b be
       0.3886392 -0.9173568 -0.34188265 -0.27175054
000100 32 d1 9c be fd 65 a9 be 45 ca d1 3e 5e 5f e4 be
       -0.30628353 -0.33085623 0.40974632 -0.4460401
000110 5d 19 1c be e2 e4 98 bf a4 13 be 3e 98 4b 6b be
       -0.1524405 -1.194485 0.3712436 -0.22978055
000120 53 18 aa 3d b7 c4 52 be fe ed 09 3e b0 80 80 be
       0.08305421 -0.20582853 0.13469693 -0.2509818
000130 17 c7 9a be 05 28 2b 3f 7e 7b 87 3b 2c a8 a2 3e
       -0.30230018 0.6685794 0.0041345945 0.3176893
000140 8e f6 33 bf c3 1e 60 bf ef 67 a2 be f9 38 6b be
       -0.7029809 -0.8754694 -0.3171992 -0.22970952
000150 53 62 a1 bf ae c6 a2 3e d6 d5 90 be fb b6 8c 3f
       -1.2608131 0.31792206 -0.28288144 1.0993341
000160 f4 8e 5e be ee 87 9a 3f 18 35 bf be 90 3d ed bd
       -0.2173422 1.2072732 -0.37345195 -0.11584008
000170 ae a2 02 3e 29 68 f1 bd e4 c2 30 3f 04 55 16 3e
       0.1275737 -0.11787445 0.6904738 0.14680868
000180 75 c4 8a be c4 e4 31 be b9 91 84 3e e6 d3 86 3f
       -0.2710301 -0.17372423 0.25892428 1.0533416
000190 58 ea 89 3e bf 73 67 bf ff 4c d7 3e 32 0d 17 bd
       0.26936603 -0.9041099 0.4205093 -0.03687782
0001a0 93 1d 4d bd de 28 86 3d 53 b3 4d bf 58 41 86 3d
       -0.050077032 0.065507635 -0.8035175 0.06555432
0001b0 b9 95 79 be 81 e3 68 be 37 3f 97 3e 8b e7 89 be
       -0.24373521 -0.22743036 0.29540417 -0.26934466
0001c0 b6 81 4d be 5c ce 93 bf 13 89 34 be 45 2a 7c be
       -0.20069012 -1.1547351 -0.17630415 -0.246255
0001d0 00 d8 04 3e 4f a1 05 bf 09 01 c4 be bc 6c 80 be
       0.12973022 -0.5219926 -0.3828204 -0.25082958
0001e0 78 2e 82 be 4d 18 87 bf 70 08 12 3f 04 cc 02 3f
       -0.25426078 -1.0554291 0.57044125 0.51092553
0001f0 d1 11 2d 3f 2d 54 b5 3c 16 c1 10 be 27 76 e9 3e
       0.6760531 0.022134865 -0.14136156 0.45597956
000200 2b 5c b8 3e f4 53 eb be e9 3b 98 3e 04 0e 4c 3e
       0.3600782 -0.4596249 0.29733208 0.19927222
000210 81 41 22 bf 89 40 4d 3d b6 d9 73 bf 8f 7f 45 3e
       -0.633812 0.050110374 -0.95254076 0.19286941
000220 9c 3e d6 be 9f 9a c7 3e 32 b4 94 be e3 09 3b 3f
       -0.41844642 0.38985154 -0.29043728 0.7306196
000230 f5 ad 2e 3e b0 df b7 3e 7c 3c d9 3e dd 8f 72 3c
       0.17058547 0.35912848 0.42428958 0.0148048075
000240 1f 82 a6 be ec 8b 38 3f 9c c0 f7 bb 97 ea 25 bf
       -0.3252115 0.72088504 -0.0075608026 -0.6481108
000250 b5 53 ab 3e 25 74 79 3e e0 35 09 be a5 69 42 bf
       0.334623 0.24360712 -0.13399458 -0.7594245
000260 fe c8 fd bc 3f 3a 5e bf 13 cc 01 3e ed 0f 84 3e
       -0.03097963 -0.86807626 0.12675504 0.257934
000270 f6 89 81 bf 31 90 58 3e 64 03 95 3d e4 c3 b7 3d
       -1.0120227 0.21148755 0.07276037 0.0897291
000280 80 10 55 3e 88 53 d0 3e 14 86 0e 3f 6e 49 10 3f
       0.20807076 0.4068873 0.55673337 0.56362045
000290 70 cb f7 be a7 e1 a5 3e 2b cf 18 3f 9b 23 1d bf
       -0.48397398 0.32398722 0.59691113 -0.61382455
0002a0 d3 89 07 3f 84 cb 12 3f 9d 3f 00 bf 0e b9 da 3e
       0.5294468 0.5734179 -0.50097066 0.4271931
0002b0 fa 93 58 be d3 84 5b bd 90 da f8 3e db e9 88 3d
       -0.21150199 -0.053593468 0.4860425 0.066852294
0002c0 5a 72 35 3f d1 fe e5 be 81 12 46 3e 02 04 6b bd
       0.7087761 -0.44920972 0.19342996 -0.05737687
0002d0 b1 a8 17 bf bf fa dd be b7 23 28 bf f2 61 1b be
       -0.5924178 -0.43355367 -0.65679497 -0.15174082
0002e0 23 98 60 3e f8 c6 d1 be 9e 78 1c 3e d9 44 ba 3e
       0.21933036 -0.40972114 0.15280387 0.36380652
0002f0 d5 3c 7f bf 04 86 d3 3e 38 55 29 3e b6 09 29 bf
       -0.997022 0.41313183 0.16536415 -0.6603044
000300 b1 8f 7c bd 6d 4f c3 bc a9 0a 68 bf 3d bd c9 be
       -0.061660472 -0.023841584 -0.90641266 -0.3940219
000310 6f de 9c 3d 55 23 cb 3d 97 51 a6 bd c6 11 c7 be
       0.07659613 0.099188484 -0.08121031 -0.38880748
000320 03 00 9c bf 91 9c c6 be 14 e0 5c bc 00 ac 1e bf
       -1.2187504 -0.38791326 -0.013481159 -0.619812
000330 d4 da eb bd 23 85 b3 3c e6 55 14 3e b9 96 04 be
       -0.115163475 0.02191407 0.14485893 -0.12948121
000340 b0 8f de be 42 8f 8c bf f8 c9 4e bf 88 04 fc be
       -0.43469 -1.0981219 -0.8077693 -0.49222207
000350 78 36 c9 bc 17 ce 5e bf 83 aa 15 bf c0 d8 e3 be
       -0.024562106 -0.8703322 -0.58463305 -0.44501305
000360 14 f4 5c be 65 3c ab 3e 17 02 f0 be a3 fd 0c bf
       -0.21577483 0.33444515 -0.46876594 -0.5507452
000370 5a cf 17 bf f0 f8 8a 3e 91 c7 ea be f4 8e 3d 3e
       -0.5930077 0.2714305 -0.45855382 0.18511564
000380 ce 62 52 3e 07 8e 7d be f0 80 7d 3e bb 72 3c bc
       0.20545503 -0.2476121 0.24756217 -0.011501963
000390 20 fa 95 be f1 da 2e 3e 35 9d f3 3d 86 2b 9c be
       -0.29292393 0.17075707 0.11895219 -0.30501956
0003a0 42 58 10 be 77 1b 11 bf 66 80 20 be b7 aa 8e 3c
       -0.14096168 -0.56682533 -0.1567398 0.017415388
0003b0 d8 2d 18 be f8 44 d2 3d 4c b6 be 39 d7 af 01 bf
       -0.14861238 0.10267061 0.00036375446 -0.50658935
0003c0 93 9d 58 bf 3a 16 8b bf f0 77 4a be 91 e0 92 bd
       -0.8461544 -1.0866158 -0.19772315 -0.07171739
0003d0 f3 e7 fa be a5 24 b5 3e db 93 f7 be c5 7b 22 be
       -0.49005088 0.3537952 -0.48354992 -0.15867527
0003e0 8d 2e 1f bf 49 1f 52 bf bb 26 d9 be 86 04 69 3d
       -0.62180406 -0.8207899 -0.42412362 0.05688908
0003f0 ca 77 0e 3f 60 58 55 bf 05 e0 12 bf 18 ec a1 3b
       0.55651534 -0.83337975 -0.57373077 0.0049414746
