models/modelRNNQ_lang4_extTomita.pt (torch, 407395 bytes, 10 tensors)

rnn.weight_ih_l0 f8 [256, 1]
00000000: 9990 ab62 58dd d2bf d18f 5b94 e247 bf3f
00000010: 302a f9a4 8c30 0440 9bf3 c72d 669e c03f
00000020: e868 8acc 4d4d c33f cc7b 2c50 f976 e03f
00000030: 2e9c 36fa 5b04 c33f 02b9 5eb5 433e b2bf
00000040: 152a 9377 37e3 c73f 1a50 6836 9abf fc3f
00000050: 9772 6506 ea0d c73f d6b1 6818 4ce4 c73f
00000060: 3ca4 01c4 1dcd 953f 736e 4fdc eacf d63f
00000070: de6c 4495 9816 e53f 4a4e 3185 acdc d23f
00000080: c0f2 14b6 bfca fc3f 6d04 242f 36c5 d13f
00000090: 171d 5574 7dbf fdbf 0b52 d1cd 9a63 62bf
000000a0: f3c6 31dd fe0b f5bf 7dca cbcf bc53 e2bf
000000b0: 65dc 14e2 4900 ddbf 8596 81ae df28 c73f
000000c0: 1943 4389 fe70 c83f b010 378c 2b1a d2bf
000000d0: 162a d5b0 dd13 0340 90ca 4945 11fe dc3f
000000e0: 04cd 1240 809b a6bf 405a f1d8 1724 0040
000000f0: bd78 25a5 b37b 773f d9bc b280 c8e2 f73f
00000100: 0e06 b047 4bfa b4bf fbb5 2d27 1f51 e23f
00000110: 3587 272a b198 e0bf f592 c090 5856 da3f
00000120: b443 f1ab 8e52 ca3f 8acb c6e5 d162 913f
00000130: e3a4 7102 d77c 9ebf 969a e324 648f d73f
00000140: 92e0 3835 9beb a6bf 4195 d687 7e57 a7bf
00000150: 5350 e784 5876 b8bf 5f6e 1ca3 b580 bcbf
00000160: c5c5 87e3 5e73 c53f 768a 9b2a 19c2 ce3f
00000170: 8542 1538 9139 d53f bd05 1f54 a4d0 d63f
00000180: 2548 5c3f f7e1 07c0 9582 c608 04d6 e53f
00000190: d4f6 0168 fdc9 c13f 38f9 7137 9aad bdbf
000001a0: 2471 8a5f ae7d cb3f 5129 d6b9 a2d8 97bf
000001b0: 62d0 bc15 2ca6 ec3f 7e73 435c 0530 a6bf
000001c0: f17d c835 3339 dcbf b7a3 b09d cf31 9cbf
000001d0: ea42 a0d4 4a68 d4bf ab64 d914 ed05 dc3f
000001e0: d8a7 b144 361c ff3f fd60 73a9 347b 9e3f
000001f0: 0cf1 ebc3 ba60 c93f 98b0 03f4 fddd bbbf
00000200: d735 e6ff 9137 dd3f e936 a7a5 d07b c43f
00000210: 5161 c9a5 a654 0540 c36d 6dc5 e0ad ff3f
00000220: ade5 a7e9 5314 f1bf b563 d4c3 982f bc3f
00000230: ce70 c776 c698 d33f 2b11 8e33 a70d 0b40
00000240: 52ce a132 d042 d43f 30c1 078b 7e76 d03f
00000250: 85b4 6fb2 4799 953f 54a0 1e47 0513 d33f
00000260: c835 4d14 3938 7d3f c122 5c7f 120b febf
00000270: 0bff b18b 4c98 f1bf 3d72 db83 c2c4 bbbf
00000280: 0c0b 547c 1e6d d1bf af5a ad16 d4b5 dc3f
00000290: 0e6c 9f18 4ec5 04c0 f408 004d feb2 b03f
000002a0: 36b8 3a80 6f4f 15c0 8b7c d890 fe71 d53f
000002b0: 5a6c 3c9d e44a f6bf 4b6b ea1d 85b9 cf3f
000002c0: 85b3 ced7 4945 d43f c805 b355 7a59 eebf
000002d0: 925f 5c80 4b59 acbf abcb 672e f8ec efbf
000002e0: 2037 570a 6ba8 d7bf 2ee7 eccb 9df5 05c0
000002f0: 5e51 07c4 f31c fe3f d923 bb95 03bb dabf
00000300: c4f8 c172 d00e 0540 1a33 4649 621e 08c0
00000310: d272 9da0 4d5b 973f 178a b937 88cd fabf
00000320: da4b b857 a97b a7bf a67e 5358 b1e0 94bf
00000330: 100b 5805 8dd8 f2bf 0e98 cc48 2ff2 f8bf
00000340: be1a b47e f745 0ac0 83c1 57e2 fc40 e3bf
00000350: e307 5195 3de6 e93f 7446 3451 8c0d e43f
00000360: 0ee6 d42a 36c5 d33f 6a8b fb12 d0ad c83f
00000370: 45d7 5291 d41f b8bf 5418 4b41 2f63 d63f
00000380: 8695 4973 b29f d4bf a76e 2c9e 6e4e ebbf
00000390: 6d3b 7ea3 f2b4 d13f 9c72 d370 8b26 b2bf
000003a0: b8c9 d01f 2149 e13f 18ed db88 308c b1bf
000003b0: d405 ec9b 2003 d83f 67fa 89f5 1429 f63f
000003c0: 0ce1 62c2 3aa7 e73f bcc9 e5d8 e9e7 f13f
000003d0: 4014 6dcf efa3 b8bf 5b6c c68e 92ce ee3f
000003e0: da13 cdfa 203c c8bf f61f b6f7 a9bb aa3f
000003f0: e661 7f2c 241a cbbf 5c1d ee4e 3557 7abf
00000400: cbb2 4e67 2460 b73f 9616 122f 835b ec3f
00000410: faa5 b686 d3c3 14c0 5636 45a3 6421 e7bf
00000420: 8984 54cc ecb9 db3f f4ab 150a b936 bd3f
00000430: 9eab e940 0d61 e9bf c53f 0222 0d76 f03f
00000440: aeb7 eb87 2f55 d1bf 5ccd 6fab 3dde f6bf
00000450: 89d8 d903 1c21 69bf 57f8 fed9 f512 ee3f
00000460: e6e7 dd03 d57f 8ebf 23a0 c486 30cd f03f
00000470: 158b b50d 5c4a d03f e274 70a4 dc50 c9bf
00000480: 67c8 292f e154 dc3f 4c84 2cc9 eae6 de3f
00000490: 83e2 649c 3c1c 00c0 ffa2 03cc 492d 823f
000004a0: 0c14 896d 48c4 eb3f 2ba3 cdef 98ec cdbf
000004b0: ed0e b2db 50d3 e13f 0e44 95d4 298d e33f
000004c0: 092b d45b abd1 dcbf 3355 8623 6377 dd3f
000004d0: 9c39 51dd 3409 1d40 b6d0 fc96 0648 e7bf
000004e0: 20f0 f886 bc22 0dc0 6f92 a25f e507 e63f
000004f0: f27d 4507 6c5b e3bf bc90 c798 2ce1 d53f
00000500: 8478 4109 859f 0fc0 ab1b a577 3c01 cc3f
00000510: a519 4101 9271 f53f 84d1 5a96 9867 f13f
00000520: 3b64 a5e8 2322 e03f 2fd9 6532 e60b 19c0
00000530: 464a e69a fe89 dcbf 360f bace 2041 dd3f
00000540: 361f c999 2bc6 f53f 6c43 9a04 daa3 15c0
00000550: 8e35 4026 5e58 ee3f 3138 d42d 1214 a7bf
00000560: bc7f a6c0 3626 dc3f 3ca7 0f9e 6728 e03f
00000570: ae0f e8cd 6a6d df3f 44dc fbd4 93ec f2bf
00000580: 75bd 548c ede7 82bf 47ae 9561 dda0 c3bf
00000590: 1914 a65c cde8 da3f 91ea 0fa1 40c7 d3bf
000005a0: 4862 110b c684 ea3f 0c62 21c9 7613 b23f
000005b0: 164d 768a fa1f e23f 1165 9ca5 2033 1440
000005c0: 356b add2 03d5 e6bf 9bb4 bd4c e204 bebf
000005d0: 3fc0 350d 7f55 dfbf 2c2f 3ddf b85a 01c0
000005e0: ba58 2664 08c0 e03f ca94 4bc2 ec7e ccbf
000005f0: e2d1 c2d9 becf ddbf 153a 91dc 87dc c7bf
00000600: 03c8 9654 4f0e b1bf a7fd 28b8 cb11 c43f
00000610: a8f4 3c2e bf03 833f d0b7 b436 cd30 d23f
00000620: aefe b1e2 d8e0 f8bf 59a8 08b7 8f6a bbbf
00000630: 336e edef 9a8c d23f 2993 106d 6036 b53f
00000640: 4c7b bfb7 6c38 db3f 6621 519d 90ce d73f
00000650: c244 7083 8fd7 a03f 5561 6304 5f65 db3f
00000660: febe 0a20 d604 4abf a216 9bfe 0b0d c53f
00000670: a3aa 8bdf afb7 c2bf 16fa 5cea 2187 b03f
00000680: 054a dcc6 8d8b d93f 24d3 c237 c340 da3f
00000690: e161 009e 0f5d efbf f074 1cea 9e97 7dbf
000006a0: 952b 9370 aabc d5bf f9c8 76e4 e7dd d5bf
000006b0: 9a67 cd3f b2fb d83f 3794 4ced 48fa c73f
000006c0: e56d 3453 c95c f33f 278c 34d9 1705 d0bf
000006d0: 6a5d cabc 2a3d b0bf c45e 8502 4dcc c83f
000006e0: 8bcf d0c0 d6b2 d53f 427f 0032 e5dd a8bf
000006f0: 45ee 0710 ef48 ff3f 472a cfc7 4a18 e3bf
00000700: 3de4 10ce bf2e 963f 7b91 28eb 305e e8bf
00000710: 8dd5 63ef 0bc8 e7bf fc58 4993 f4dd c73f
00000720: 6d22 dda5 8305 be3f b409 cc9b d2ed 753f
00000730: 396d 79fe 5488 b4bf 8d7a 0266 3761 d33f
00000740: e421 cdda e3a7 91bf 5ba7 ecc9 3578 af3f
00000750: 9823 574c 4d33 b6bf d587 c336 73fe b2bf
00000760: 9483 10d3 2671 e03f 9434 907d 23e7 c83f
00000770: 1450 d100 512c d3bf 68b6 aaa9 52cc d03f
00000780: f972 f09c a580 08c0 a854 e10b 7e5c c63f
00000790: 0d76 fead f800 d03f 6fcd ede0 2dbd d93f
000007a0: af26 4dad 4747 c73f cc8e 9152 f653 a4bf
000007b0: 56f3 f586 0758 c83f 6081 b195 5d5a 8fbf
000007c0: 92f5 757c 8b7d fd3f 3cb7 1132 36d1 1240
000007d0: d9ab 6243 79c6 dfbf ca5f 554e 7908 b8bf
000007e0: 67f1 064a d9ac dabf b88f cf72 f3c4 adbf
000007f0: b411 121a 7e80 d53f d8c0 2c72 0988 da3f
-0.2947598422599725 0.12219062921536696 2.5237057579554616 0.12983395800975192 0.15079662787758896 0.5145231786626652 0.1485705348725061 -0.07126258066157123
0.18662160242668394 1.796777927903355 0.18011212646787975 0.18665457908481525 0.02129026898220253 0.3564402724711961 0.6590083041550334 0.2947188664158814
1.799499236352105 0.2776618442877126 -1.8592505020367918 -0.0022447608485356477 -1.315428604164876 -0.5727218683735625 -0.45314261511106785 0.18093486805735295
0.1909483118274913 -0.2828472966468878 2.384700185303937 0.4530070473330534 -0.044155128308739605 2.017623610368247 0.005733205546077422 1.492866995551415
-0.08194418430505143 0.5724025502401554 -0.5186391661957034 0.411520139083492 0.20564444919230385 0.01697853054947588 -0.029773101352849173 0.36812690355729083
-0.04476628327069067 -0.04558940323048911 -0.09555581326213884 -0.11133895141795723 0.1675833331096738 0.24029841022919002 0.33163862683162676 0.3564844914909278
-2.9853348684346366 0.682374970569145 0.13897674158572804 -0.11593021253245162 0.21477298417165358 -0.023287336914600335 0.8952846931993117 -0.043335120689994774
-0.44099121334326613 -0.02753376388514869 -0.31886549724826685 0.43786170040182054 1.944387691818056 0.029766867487382765 0.19826445166098272 -0.1088560791719736
0.4565167426124765 0.16002853477987536 2.666333480079779 1.9799506866464618 -1.0674628379041267 0.11010126858708598 0.30619966125028675 3.381666567585986
0.31657795853172843 0.2572323186605159 0.021092529550447842 0.29803592629696607 0.007133696523692952 -1.877703187465315 -1.0996823746535849 -0.10847106665773594
-0.2722851003783695 0.4485979291397752 -2.596340362897087 0.06523122196088932 -5.327573779663046 0.3350826658733658 -1.3932844297439915 0.24784912071921847
0.3167290313238527 -0.9484225915731992 -0.055368766230628044 -0.9976769358021235 -0.36965442666847714 -2.744929879347999 1.8820684106222738 -0.4176644289223624
2.6322335210271337 -3.014835903601477 0.022809231689609195 -1.6751787354229515 -0.04586533733176852 -0.020388384834289973 -1.1778688629862621 -1.5591271251410066
-3.2841634653771896 -0.6016830845601792 0.8093555370653543 0.6266538225192577 0.3089118402745904 0.19280434538731167 -0.09423569248141657 0.34980374695112926
-0.32224713572062347 -0.853324231083623 0.27666917768595206 -0.07090064529934142 0.5401769276998527 -0.06854537335668842 0.37519088007692614 1.3850297538152974
0.7391637608152748 1.119119498497283 -0.09625147642243892 0.9627163685394281 -0.18933498617312133 0.052213012207232554 -0.21173526928647773 -0.006430824504497803
0.091310763570344 0.8861709517811558 -5.19123659601018 -0.722826308143065 0.43322296098819685 0.11411625381667517 -0.793097140105022 1.0288211182087121
-0.2708243205405506 -1.4292580315348777 -0.0030675456208043056 0.9398144967779086 -0.014892257862573598 1.0500951065423656 0.25453854883942145 -0.1977802088667096
0.4426806412294639 0.4828440632427984 -2.0137874811446763 0.008875443018454996 0.8677103175510879 -0.2337828799166116 0.5570453921249886 0.6109818603528099
-0.45029720275549373 0.4604118201180711 7.258990724642356 -0.7275422047591948 -3.6419611496658177 0.6884638660308847 -0.6049099103947226 0.3418685428607764
-3.9528904650788395 0.21878772584952108 1.3402271317478178 1.0877920029862205 0.5041675132625935 -6.261620318857509 -0.4459225189868089 0.45710010708011184
1.3608814246417302 -5.410011360087861 0.9482870814405702 -0.045075004667623715 0.4398323899604255 0.504932221139121 0.49105329616599647 -1.1827581710511064
-0.009231429905951253 -0.15334670319440333 0.42045911834458277 -0.3090364048836501 0.8287077156229055 0.07060949716959203 0.5664036468828353 5.049929225607472
-0.7135027994912436 -0.1172620236736343 -0.4895932797435342 -2.169297927908607 0.5234415012407887 -0.22262343871185514 -0.4658047796795285 -0.18641756315123872
-0.06662460150872111 0.15679308407014256 0.00928449020249851 0.28422861425758317 -1.554894338158117 -0.10709474772070972 0.289831861786044 0.08286097204888833
0.42531888908518023 0.37198272097568574 0.03289459685778119 0.428062204633098 -0.0007940335782077033 0.1644606583778812 -0.14623068251906543 0.0645619580436477
0.3991426889416803 0.4102027935544348 -0.9801099859205885 -0.007224674949410245 -0.33964024537697785 -0.34166905699670697 0.3903623221464102 0.18732558810111907
1.2101529359996388 -0.2503108616967346 -0.06343333348410388 0.19373476622671693 0.339040458962011 -0.04856792674422518 1.9553061128816733 -0.5967153456234165
0.021662709190625618 -0.7614979355753769 -0.7431697536073202 0.18646104041790312 0.11727164077195491 0.005353758516096031 -0.08020526135208152 0.3028086181820207
-0.017242012242862162 0.06146400537393389 -0.08672030557421662 -0.07419509970671297 0.5138124582627932 0.19455379134197825 -0.2995798595413828 0.26247088021305
-3.0628158818129774 0.1746976430901317 0.2500592898521468 0.40217158284868665 0.18186279260617286 -0.03970308072964954 0.19018644418602076 -0.015309077387599401
1.8431506025075106 4.704308302241596 -0.4964888723431478 -0.09387930071295539 -0.41679985264979397 -0.058143241658199896 0.33596756502108893 0.41455303335079696

rnn.weight_hh_l0 f8 [256, 64]
00000000: ccd3 d569 b9ea a6bf 5eb9 9a85 de71 ea3f
00000010: fd2b 35e6 ee1a 04c0 ee84 11cb 3b16 f1bf
00000020: 1243 0101 d7d6 f3bf f390 bd30 d140 e6bf
00000030: f5d7 d1ad ffd7 f2bf 92a2 169c d2ee f8bf
00000040: 767a 642c 4431 eabf 22b0 3773 342b f8bf
00000050: dd36 36e9 7f38 e83f b2fc e60f 038a e83f
00000060: 37d3 415a 10d8 d5bf 56f5 b4a2 dd73 df3f
00000070: cd2b 4658 d007 833f cedc 0213 3450 e1bf
00000080: cd8f 604b 81f4 f93f 2ee3 bc63 cd66 cd3f
00000090: 2284 6537 4044 e63f a7d3 85e2 b1de 10c0
000000a0: 0ce4 742d 71dc c1bf 58a3 60ad 5d82 e2bf
000000b0: 0c79 be78 b047 ebbf 795f ea60 b86c e73f
000000c0: 089f d87b d4a4 b0bf 45df 4690 d7cd e8bf
000000d0: 8f70 8bb2 ed88 dc3f 9982 e48b 63c7 713f
000000e0: 56fb 814d d849 01c0 c325 76b6 a8d2 c43f
000000f0: b77b 7757 1314 c93f 9525 d712 238e e9bf
00000100: cc29 907f 543b febf 937f 9d00 a22a ff3f
00000110: c009 84c7 642b d63f 7b5a 1752 b5ca e43f
00000120: cee8 dd13 189a f33f 97f4 fa19 cd95 13c0
00000130: 0924 937c 0190 db3f 74f8 028f 5047 f13f
00000140: b989 95e9 f23a cfbf c78c 8637 726d f9bf
00000150: 6826 4802 6be1 e3bf de8d 8271 315f e73f
00000160: 5b77 1730 a253 eb3f 6eae 0e3c 9481 e63f
00000170: eef5 4ae4 54ae f43f 43c4 f901 28a2 f2bf
00000180: d534 9b8d cd05 ec3f a8a7 60e6 2c46 e5bf
00000190: dbea cb15 772e ed3f e471 8a3b e7ca f5bf
000001a0: d4e9 d099 0792 d43f 4cad 7446 842f debf
000001b0: f7d3 4fa1 4c99 e43f 240f e386 c86d f53f
000001c0: be2f ddae 7535 a0bf 12d5 d814 2abe e3bf
000001d0: 4bb8 985a 682c d83f fca7 4fb2 b606 e4bf
000001e0: dd37 7eec 1d48 debf fea2 a3eb 6c00 d3bf
000001f0: 3c60 af70 61f4 f0bf abf7 5cd2 bf55 0ec0
00000200: 00f2 052c bf7d d2bf 2b04 fc5e f309 ffbf
00000210: 646d cdba d890 f43f 3e64 2b30 08c2 d73f
00000220: 8ce3 848f 3b72 bf3f 96ff 395f 54d2 d1bf
00000230: 4986 d97e 55c6 b6bf a396 ca86 3ac7 c13f
00000240: e695 3123 db1d e03f 006d 2d81 fa46 e43f
00000250: c1c4 e0ce 874f ecbf 7e37 8ca7 35b7 c63f
00000260: c60c 754b cf5c c6bf 207c 1a57 b0de ba3f
00000270: c7e2 d881 7e46 d8bf d0d7 fd69 5291 f73f
00000280: d30e 8a9b 6d7f dfbf 6b04 63df 8ff6 bbbf
00000290: cf76 f0cf 03f2 d83f 5bb0 95da dcff ebbf
000002a0: afac c62e bc1d fc3f 5c31 d97f 98b2 ccbf
000002b0: 95a8 0537 c660 c43f 8c7d 8f39 ab67 e63f
000002c0: 847c cc41 4657 ea3f 9617 bc23 3965 933f
000002d0: ab42 043b 7386 fcbf 0b99 c782 674e d33f
000002e0: 1718 4d06 b21a d6bf aaa0 992d b3ac d1bf
000002f0: 87dc a5e3 6b75 d5bf d02f 081a 1eae e03f
00000300: ba27 7b6f 1b83 d13f 09be 78e3 698c d43f
00000310: 8a7e 1e4d a353 cf3f 6a02 bc7c 2e6c ec3f
00000320: f598 ad0d 3d9c d43f 045a 1340 6190 ec3f
00000330: ea48 e5e1 62f6 f33f 15aa 442b ce77 e2bf
00000340: 41b3 29af ef21 edbf 3836 1c7a 0ea3 d73f
00000350: 35cf c9d3 f555 ebbf 42e3 50e7 374a 0040
00000360: 4d91 a995 8fa3 e13f 1afa d0c0 55bf cfbf
00000370: b028 a405 24b5 00c0 9aad ac7b ffa0 cf3f
00000380: f4f1 5a0e baf5 e03f 10d4 6afb 3467 d33f
00000390: 5e93 2ef5 e236 cf3f 6ac6 3dfe de88 dd3f
000003a0: 945a 46f6 0ec1 c33f 4407 f030 f312 d73f
000003b0: a0de 8356 bd27 e33f 4092 898c 6cb2 e0bf
000003c0: 07b8 3b87 f673 c1bf 2867 66a3 9f78 ddbf
000003d0: 6b1b f40d 5450 eebf 04af a637 e08e efbf
000003e0: 452f 8571 5a67 d0bf 7819 ffd1 57eb eabf
000003f0: af34 54ba 9787 d2bf 5883 81e0 b6c8 b7bf
00000400: 65ad 907c bda5 e23f ea0e 455a 9496 f73f
00000410: 56c6 04ae c66e bdbf c5af ebf0 44e9 fabf
00000420: 811f 7ff9 9e45 fb3f 61cf 57c4 271b dbbf
00000430: c097 597d 3136 fdbf 614d 1996 b77c 0240
00000440: 6479 3fd3 15eb 10c0 cfa9 e0f8 5b12 e5bf
00000450: 2679 b23a 688b 00c0 aae5 7b2c c81e fc3f
00000460: 8f85 f737 ca5c f93f 780b 4262 f0fc fc3f
00000470: 5e75 f61c 5253 f3bf d9b9 5109 8503 cdbf
00000480: 4f73 a9f3 3612 f83f 3e59 e982 d4fb fb3f
00000490: 6f49 1629 5565 fcbf fd1c fe8e 7a4b d8bf
000004a0: 2cef 6fc7 b543 f63f 4cac a710 985d efbf
000004b0: 345d a5b4 a456 f73f 6ac8 54f2 cc36 e93f
000004c0: 171f 528a 8d2b e1bf 2df9 dd5f a121 da3f
000004d0: e45a b13d 298a d73f 1af7 a86d 68f3 f2bf
000004e0: e360 1496 5142 e83f 209e 7aea 6b7c e3bf
000004f0: f159 3eca 71b7 c93f 06c4 54e9 e59d ee3f
00000500: 7330 b7a0 15e3 edbf efe0 4324 5f6f 00c0
00000510: 8d1e fce4 5133 0340 3f3f f2bc 8bef 0040
00000520: 3667 bfcb fe74 b8bf 1331 5499 b2da 00c0
00000530: 7a08 d247 25c7 f73f 2707 bbd6 9bef f83f
00000540: f43f 39f3 6585 fcbf 93b5 64a0 1bc0 da3f
00000550: 1efe 823b 3d10 e53f 9746 4335 5889 a93f
00000560: 78ca c5d6 c611 0440 6bb6 43b0 f7c2 0940
00000570: 3561 43f7 6096 fb3f 0b58 6820 7cf1 13c0
00000580: c4be 7e10 60fa 02c0 e752 5b9b 1921 03c0
00000590: 947c b2c4 2b32 0c40 ad68 4049 0e2d 0340
000005a0: 55cb 4cb8 5eb3 ed3f 4c0b d4b8 8b4f e73f
000005b0: dc0a 8f94 51e9 0340 09bc c1a3 f39c f93f
000005c0: 11b5 356a c58a ee3f 6f0e d48e e50c f1bf
000005d0: fb2f 1085 bfd6 e8bf 27b9 80c3 c825 e53f
000005e0: be53 8c21 fbec dcbf 7754 3607 78c4 01c0
000005f0: fff2 1dc4 fa6c e03f 76be b043 8d35 05c0
00000600: 0246 cfdf 8f8d ccbf a117 7857 4d0b f03f
00000610: 29bb 6c0d a01d d03f 9169 b74d cb93 f63f
00000620: f350 5623 eb0f f3bf 2147 6633 3502 eebf
00000630: 8feb f854 29fb a5bf 0833 019d 8635 e93f
00000640: a95a abfa da78 e63f 78f1 fc51 ecd5 c73f
00000650: 1a5f eb1f f1cf f43f 2ff8 8998 4924 e2bf
00000660: 2be4 33d0 9965 e0bf 47ed ff56 9ad4 b0bf
00000670: 7f20 2aee 665f eabf 2760 16e4 c116 e1bf
00000680: 9d4b 6176 d85b d1bf de1a fde4 ff8d d2bf
00000690: ffdd a5fd f4e0 f9bf 24ec ad9e 45d1 f3bf
000006a0: 23bd 6ef8 bcdb edbf c257 ef91 97a2 d8bf
000006b0: b236 ce97 77e3 eabf 6a52 367c f9db e53f
000006c0: fe14 a97d abc7 d0bf a489 02b3 ed87 c8bf
000006d0: 0a23 3213 f9de e83f abfd 51f5 c2e5 d9bf
000006e0: 4d01 92c1 5841 e2bf 87ee 99f1 4901 f33f
000006f0: b966 07ef 67f3 d7bf 2c73 fe72 da19 f93f
00000700: 7cc0 4083 9afc ccbf 4953 81b0 b579 c63f
00000710: 1ce9 d409 c6ed dcbf 4ce2 e227 2d54 da3f
00000720: 2aae 5c0d 37e4 c23f 92a1 c906 519a f0bf
00000730: fb83 1adf 1d8b dd3f 6653 398a 623e dcbf
00000740: ae80 9c42 2c60 e6bf ebbe 0a93 f71b dd3f
00000750: dec5 03de 45fc f43f 4553 bdc8 979a c63f
00000760: 1c97 6124 ab45 d5bf cef9 9992 dc04 e9bf
00000770: 6b98 3701 e6b0 c73f 0d43 fa95 20b7 d83f
00000780: 6aa9 e552 2ae6 b53f 9784 b77c 8e28 e63f
00000790: ab06 53f9 6d24 d0bf 6fd3 9f79 b728 f7bf
000007a0: 8867 043f bbf6 ec3f ceb4 df9b 9383 d6bf
000007b0: 0638 c299 9bdb eabf 5c20 3093 ff7b f23f
000007c0: 9e93 e29e d28f 09c0 2c0c 38ac b83f c13f
000007d0: 59ca 12ba f032 dcbf 69bb db0c 7093 c93f
000007e0: 2e2a 98af c0b6 fb3f c7a5 0520 bdfe cd3f
000007f0: 020f f320 12f6 d83f ef22 415f 2d66 cb3f
-0.04475955407080043 0.8264000520191919 -2.5131509766556506 -1.0679281170235373 -1.239951137471682 -0.6954122497523073 -1.1777340688545312 -1.558306321831115
-0.8185139529267207 -1.5105480671582048 0.7568969302098726 0.7668471632568041 -0.3413124925057675 0.49144688500731115 0.009292247480308458 -0.541040455943312
1.6221936172887468 0.22969977731715957 0.6958314020122354 -4.2174754518681885 -0.1395398590046003 -0.5784138094214581 -0.852501140430634 0.7320215123063313
-0.0650151064261274 -0.7751272027880779 0.44585745273594396 0.004340542653409906 -2.161057096032361 0.16267880353215788 0.19592515726887225 -0.7986007087685488
-1.8894848807272977 1.9479084037811603 0.34639853939020426 0.6497446635574556 1.225120618443316 -4.8962902125760115 0.43066441693787333 1.079910811080052
-0.24398647695040923 -1.5892202538459956 -0.6212668461386786 0.7303702561370604 0.8539591731348354 0.703317754077444 1.2925614278495874 -1.1645889355825296
0.8757083669421727 -0.6648163318216023 0.9119220185960687 -1.3620369268238557 0.3214129449949301 -0.47165018921323987 0.6437132979032175 1.3393025654813266
-0.03165786513872558 -0.6169634253662102 0.37771042678185 -0.6258195383682046 -0.47315166564010075 -0.2969009686626548 -1.0596632386932603 -3.7918697771665015
-0.2889249734796806 -1.9399293623284943 1.2853629395457 0.371217772522474 0.1228368020428105 -0.278462498659786 -0.08896383616367944 0.13889247495278764
0.503644531953509 0.6336643717762911 -0.8847083130441648 0.17746611290970898 -0.17470732864794608 0.10496046186970931 -0.37930262260810504 1.4729789867683287
-0.4921525973261229 -0.10923098758486709 0.38977141672681354 -0.8749832410080772 1.7572595431509332 -0.22420030825231663 0.15920331656099465 0.7001548885563564
0.8231536183483432 0.018940823370051506 -1.7828247361505116 0.3016604210992148 -0.34537935843798223 -0.27616576626906897 -0.3352918360828387 0.5212545879780865
0.27362714659522747 0.3210701676752881 0.2447399260099597 0.8882057605952245 0.32203604064706265 0.8926244975544368 1.2476528953598582 -0.5771246762354304
-0.9103926106596206 0.3693271820528454 -0.8542431961527429 2.0362394401130652 0.5512159274190168 -0.24802657999858085 -2.088447612831338 0.24710076845927348
0.5299959450126708 0.30317425301046885 0.2438625046899245 0.46147894695523084 0.15432917618882824 0.3605316141039234 0.598601025557361 -0.5217802758093697
-0.13635140994250625 -0.4604872794821966 -0.9473057053117889 -0.9861908995567039 -0.256308184489843 -0.8412283994191929 -0.2895259208315321 -0.09290640812970474
0.582731955806065 1.474262573829885 -0.11497155903341513 -1.6819505129778787 1.7044973131141605 -0.4235324304020108 -1.8257307907565377 2.310897038123287
-4.229575443982274 -0.6584911213770342 -2.068069895335742 1.7575151193289948 1.5851537882047955 1.811752685375465 -1.2078419810635164 -0.2266699119094955
1.5044469373744567 1.748981963513486 -1.7747394185031131 -0.37960685695766455 1.3915307798878969 -0.9801750493328512 1.4586531692965083 0.7879395230322761
-0.5365665151193494 0.40830263483066426 0.3678076841801341 -1.1844257625193166 0.7580955439798597 -0.6089381770770537 0.2009107816235907 0.9567746693848
-0.9339702738739234 -2.0543806870665473 2.4000585450592724 2.1169657479694304 -0.09553520654972378 -2.106785962945773 1.4861195378767023 1.5584982288277816
-1.782567930309594 0.4179753366796259 0.6582323229158111 0.04987598085575689 2.5086800364600172 3.220198990885185 1.7242135676115826 -4.985825067871711
-2.3722535408668097 -2.3911621224636863 3.5244975439996526 2.3969999048977884 0.9281457519158304 0.7284601793220218 2.4889251333382685 1.6008182904004136
0.9544398378763238 -1.065648610995506 -0.7762143706218007 0.6608623331465296 -0.45196417118250654 -2.220932060571211 0.5133031683359092 -2.6511483467400536
-0.22307012966352607 1.0027593056451922 0.25180817900666114 1.4110825572775847 -1.191386354480582 -0.9377695087334567 -0.04293183481464446 0.787783915185714
0.7022528549085411 0.18621591571162432 1.3007670637943591 -0.5669296244884715 -0.5124024454554549 -0.06574406265274489 -0.824145760693696 -0.5340280012924311
-0.2712308078818582 -0.28991696703125835 -1.6174211414453337 -1.2385917852796036 -0.9330735065649701 -0.3849238324304417 -0.8402669873191455 0.6831023622531351
-0.26218688270121493 -0.19164820900648494 0.7772183775824442 -0.4046485324579076 -0.5704768925352625 1.1878146588850613 -0.3742313226954184 1.5688118450118038
-0.22645884903750246 0.17558928602616167 -0.45201254806637947 0.41138771910803906 0.14758957054560656 -1.0376749291554899 0.4616160086389411 -0.4413076734393172
-0.6992398549082475 0.45483197555129945 1.3115900680971815 0.1765928011106103 -0.3323772292409204 -0.7818434584913179 0.18508601245338538 0.3861772026657924
0.08554329418044451 0.692450755679732 -0.25222348545149015 -1.4474406004858016 0.9051185828022748 -0.35178079816871566 -0.8393075945948574 1.1552730321436888
-3.1952259457488728 0.13475712212684365 -0.4406091515658424 0.19981194141243044 1.732117353358841 0.23433651031090916 0.39001897065848834 0.2140557017430846

rnn.bias_ih_l0 f8 [256]
00000000: 43f5 65a7 29ba f8bf b6c7 987c 57e5 11c0
00000010: 3e95 b5c0 964f f5bf b2de 5945 ff07 ebbf
00000020: e425 578e e396 f13f 67f7 b7ab 9129 efbf
00000030: 2f4f 9a92 ca61 0fc0 d4c0 2fd7 a88f 03c0
00000040: 1808 d9f5 0756 0ac0 2838 d12e 742c e63f
00000050: 865f 7443 da7d e5bf 3e10 d8ff 67de 0bc0
00000060: 9fc6 c866 16e4 d1bf 46f0 10c7 f3b7 f0bf
00000070: 2ea9 4e5b 5dfe f8bf 220a 8073 eebb 01c0
00000080: e54b 8561 93b9 f4bf ffdf 2d7f 4e0b 0bc0
00000090: 5200 9cdc 7f78 ecbf 78f0 cf28 4f28 f0bf
000000a0: 391e 929c 48dd e9bf 95da a1ff 285c 0fc0
000000b0: 12df ec30 85a4 e3bf 9cc2 5d1e efd6 0dc0
000000c0: 1c47 8c75 9667 09c0 b7aa a2bf ce6b da3f
000000d0: d6f9 e375 75e4 d1bf efc4 ed9a 8488 f3bf
000000e0: 968e dda6 3d76 e7bf 7dee bc80 2ee2 fb3f
000000f0: 94e6 f9d0 3938 10c0 a293 7a25 fcc7 d2bf
00000100: 2266 e38e c903 ffbf 5ea1 561b 1a7b e73f
00000110: 5185 b735 a312 06c0 481d 40e1 9b96 fbbf
00000120: 73a4 8ffb a070 b4bf ed52 8569 a7da f0bf
00000130: 4b63 2bb8 9614 f8bf ac23 06b4 776a f8bf
00000140: 161f 033f b71c c93f dff9 92bb 51c4 f0bf
00000150: 1b5d e683 070e ebbf 036c db6b 598e 08c0
00000160: 955d a2f3 b2a7 10c0 c87f 38e4 0243 03c0
00000170: 24ea 9f4a a561 ecbf 26ae f9d4 2645 03c0
00000180: f281 94cb 4bf2 db3f 79c5 d4d9 7749 edbf
00000190: 93cc 7ccd 11f2 0dc0 c849 e7ae 016d d7bf
000001a0: b8ae 2af2 a0c6 05c0 d519 f495 e7f1 13c0
000001b0: 63b3 a613 5cc3 b1bf 2d15 5144 c20f c63f
000001c0: 2f10 f2e7 fe8e f4bf 3146 d747 f8b8 0ac0
000001d0: a2c9 dc59 9526 f13f 020c 2b1d 425a 06c0
000001e0: 9647 7c83 e493 b43f fa8a 0e3d 58cc d8bf
000001f0: c35b 8608 53ce edbf bdd1 5708 9fdc c9bf
00000200: 0d56 3035 ac17 db3f 543f 97a0 5282 c9bf
00000210: 01d2 5d40 5729 febf 0ec8 2832 3fb0 ef3f
00000220: 09a1 4d62 e02a d73f 0a10 07e7 2018 f6bf
00000230: 1793 13e3 800e ecbf d260 0fcd 7f16 e73f
00000240: 6a97 65ba ccf9 e7bf c9c9 6f22 0c2c e43f
00000250: 2fbd 7c3c 763e fdbf c88b e953 df0f e7bf
00000260: 99fa c063 a9df f1bf c1a2 1e1c 7c57 e5bf
00000270: 7df8 593b d32f fbbf dd13 fbef 8b80 d8bf
00000280: 32d2 35cb f0f6 e4bf f437 bce7 0d18 eebf
00000290: 5ffa 73c4 673a e1bf 1f5d 05ee 8431 e1bf
000002a0: eed1 bf0f b71c d73f 2dd7 a0cc 732e eabf
000002b0: 61fe 72ec 7f18 f83f fcd0 62e6 a76c e6bf
000002c0: 1b7a 287e 481b edbf d350 f88c 6e3f f3bf
000002d0: ffa5 f479 0663 cd3f 28bc a292 9c6e ca3f
000002e0: bc4b d661 7d20 f43f 3cf5 550e 6a38 dabf
000002f0: eb48 9579 8704 0040 f868 5309 6da4 f5bf
00000300: e031 1261 2492 e8bf cd1a 20dd 6189 f4bf
00000310: 7f56 2fa5 4926 c5bf 57e2 5ad1 1a81 ca3f
00000320: 1e75 a985 462a eabf 1d7b 7134 10ec ffbf
00000330: 33c1 7aa0 76fe f0bf f24e c50c 235c fdbf
00000340: 6d46 fc8d ff33 ec3f 2389 c050 1a00 e6bf
00000350: 10e0 d1f6 4a67 db3f 8746 bdd0 5716 d2bf
00000360: fc99 a8f1 41d3 eebf a68a 0c12 e04b 00c0
00000370: e715 7e56 02a7 e1bf 1bf6 5fb2 c497 fbbf
00000380: 5a58 977b 1541 c93f 167d 2c59 5c3c 03c0
00000390: c8f4 a5df a765 e6bf 15cb 04c9 2117 c1bf
000003a0: 5b70 f23a 069f c8bf af35 323c 7671 d5bf
000003b0: fa22 dca1 e500 f4bf c7da 9572 5809 f1bf
000003c0: b3f1 03df 11f1 fe3f f8df 1857 8915 0840
000003d0: e553 2872 8d23 ebbf b91f 4dd5 3b2d ce3f
000003e0: f12a 7742 8a3b f03f 95f7 c59b 982f e9bf
000003f0: 3313 caec 2ca8 d7bf 1fd3 09a7 efd0 d1bf
00000400: 5b97 83b6 8838 f0bf 21b6 83bb 15f8 f93f
00000410: 2343 1a0e 3435 e0bf bdca c87d b188 e7bf
00000420: 688e 1816 bba9 d73f ecc5 7954 a6f9 75bf
00000430: 9e9f e3fb dbca ebbf c955 d047 6933 e83f
00000440: 63c7 e486 0faf e33f 8e00 d094 9514 d6bf
00000450: 6dd9 7d7b 1049 e23f 534a eeee 7dcb f03f
00000460: e1a6 851f c184 e63f aa55 c98b dc5a f0bf
00000470: 3336 e064 b6c9 f63f 8acb 8ee9 6e88 e83f
00000480: dea4 e19b cd8d f2bf d350 b17a fb95 d8bf
00000490: 5b05 69b7 db8f d23f f0ea a17c 2d1a c6bf
000004a0: 26c9 3f23 a093 ea3f af52 61d4 4ca6 d0bf
000004b0: 9690 28fc e134 ee3f 25f4 02b7 d3c4 ee3f
000004c0: 5605 71e3 c57b 0140 d0f3 9df0 1d13 f4bf
000004d0: 35a2 7fec 2638 ecbf 457f 0bfb c7f4 ef3f
000004e0: 2532 893b 2d38 ecbf 3b5a 490b 790c e13f
000004f0: 6c6c 8cb0 57aa febf 9e02 cfe6 3303 e73f
00000500: 84ea 2c6c e3b3 e53f 1d03 f164 1578 e23f
00000510: 4e4a c128 180e d93f b844 3b65 f0da f2bf
00000520: 2a8c 2776 fee6 f5bf d0f5 a6eb c40f dabf
00000530: e095 e378 42da b63f 5ca1 7297 d6c2 ed3f
00000540: 4dd7 b187 ad06 d53f 2b5f 8ba4 745a f23f
00000550: 4a49 77c1 287d b0bf 4d05 1a4d 05dc ef3f
00000560: 2cc6 6086 6c8c e03f 4edc 3182 9733 d93f
00000570: 4714 1a20 1de8 ca3f d274 a2c9 e1ed aebf
00000580: 02f7 633f a68a e73f d39f e3bf 7f4c c93f
00000590: 006a 8551 3dba fdbf 0bb0 83f2 47d2 d33f
000005a0: 6143 b259 0b49 f33f ad30 b2fd c89c 0ec0
000005b0: 1a47 1ed4 8755 bb3f 1c35 0936 786b aabf
000005c0: db55 4475 08e3 cb3f 6837 3ec4 e264 c33f
000005d0: e8d0 92fa c71a f63f 4f10 f497 5a09 b43f
000005e0: d45e 96fb 0df6 f63f c0d8 407f 55a3 e03f
000005f0: ac8d 5532 7897 f83f f62d 6274 4ba6 e0bf
00000600: 0dc0 d488 8f54 ffbf 7fbd feed 98e8 11c0
00000610: 0580 d65d 6814 07c0 9d9f efff b803 03c0
00000620: 7a32 a970 4742 05c0 de0a 94d2 b5ed eebf
00000630: 9c02 76da 34cb f2bf a92f e3fa 7474 11c0
00000640: 2798 6013 8f99 d43f 660f 21a9 49bd a0bf
00000650: 3734 c657 09b8 07c0 b90f a697 892f f2bf
00000660: 6700 f8b1 7baa eabf c439 c479 1ebf 08c0
00000670: 8b87 db34 b88c 0ec0 b25d 75b4 7b4f 05c0
00000680: 97c4 1966 fc9e f2bf 88a5 c637 47b1 e5bf
00000690: a228 d24c 2a79 d73f eb1c f45d 48d5 d43f
000006a0: cfe0 d645 4199 c03f 5f97 4d56 3b4b 0cc0
000006b0: 6cd3 306b e92c f1bf 93df 4420 807c 15c0
000006c0: 8fde 1a8b e546 0140 54e4 46e8 0e1f cebf
000006d0: 19f5 24f0 e916 01c0 565d 6562 6c1f 15c0
000006e0: c38c d76f 64c1 f0bf 17a4 29cd b2f0 eabf
000006f0: f742 e29d 7238 09c0 d59f 1c74 9b7b 01c0
00000700: 5b40 0542 7d4e 05c0 6694 f32e 2840 82bf
00000710: a3d6 59a5 601a 0ec0 ab24 282a 1172 11c0
00000720: 1db3 9ef1 f5ac e5bf 626f ad0a 2e46 f6bf
00000730: f2ab 3b07 af38 ebbf 7f95 560d c17d f9bf
00000740: 6b82 fdfd 4ff4 ebbf 5547 3cbf c5e8 efbf
00000750: 68aa 89cb 3b07 f6bf 3ec6 2dbe fdaa 02c0
00000760: 5e68 b97e 4cc0 f4bf 75b3 9616 aa80 ffbf
00000770: bd04 03bf 59a1 b1bf 5940 00ff 602d f5bf
00000780: 3f20 8a3e 5713 f2bf d747 05c3 83bf 04c0
00000790: 5aa9 5f68 dbef cabf 15f7 2285 44b5 b43f
000007a0: 8e6e c2c9 db08 15c0 3fc3 6746 71f5 12c0
000007b0: a0ef 1d74 d0d7 07c0 51b6 caa7 4a40 02c0
000007c0: 14f2 5e83 018c 03c0 10c1 7132 0d8c c33f
000007d0: b6f4 5d44 fb3e ee3f db29 6d64 3251 03c0
000007e0: a602 9c81 ba77 f03f db7a 92c4 58e7 f1bf
000007f0: ac16 9f71 b424 d4bf 8f6f 563a 874c e9bf
-1.5454498805041375 -4.473966547799071 -1.3319308784205783 -0.8447262148392467 1.099338108079217 -0.9738243440512918 -3.9227496579495873 -2.445146256584943
-3.2920073706491273 0.6929264940642996 -0.6716128652069393 -3.483596800595506 -0.2795463565590612 -1.0449102188131447 -1.562100750607509 -2.2167634032678203
-1.2953065690423895 -3.380520814502233 -0.8897094067360831 -1.0098411173085236 -0.8082621629736827 -3.9200000735539313 -0.6138330417224742 -3.729948270069441
-3.175579946845472 0.41283005442043524 -0.2795690203928677 -1.2208295871644699 -0.7331836947527843 1.7427201298550294 -4.054908051731804 -0.29345611248055026
-1.9384246427129104 0.733777097125351 -2.7591003605490774 -1.7242697523923471 -0.0798435796892976 -1.0533823129564397 -1.5050265497322524 -1.5259930641352453
0.19618883682982674 -1.0479295088876979 -0.8454625679177384 -3.0695064951264626 -4.1637685840463705 -2.4077203588239833 -0.8869196374428765 -2.4087654722877856
0.43666357880468276 -0.9152182821764391 -3.7431980184279126 -0.3660282333413787 -2.7219866675639786 -4.98623499204992 -0.0693872020699025 0.172355922086504
-1.2849110660909095 -3.3403173077174633 1.071919775986864 -2.7940714148294328 0.08038166246504228 -0.38747220957354467 -0.9314360777378784 -0.20204532534957123
0.42331986612529776 -0.1992896350989165 -1.885092975074372 0.9902645091699485 0.3619919738762439 -1.380890753222959 -0.8767704424941226 0.7214964871482386
-0.7492431297839464 0.6303768799391999 -1.8277494776519452 -0.7206875456725976 -1.1171049019464248 -0.6669292973720858 -1.6991760557571347 -0.3828458636820054
-0.6551441163015339 -0.9404363180235564 -0.5383795582745953 -0.5372948311659548 0.36112762964265144 -0.8181704517980727 1.5059813724800721 -0.7007636546827878
-0.9095804657006882 -1.2029862887039158 0.22958451228014096 0.20650059852548108 1.2579320737611246 -0.409693254470614 2.0022115229304425 -1.3526430477418767
-0.7678396125716596 -1.283540595790032 -0.1652309471671067 0.20706496450817966 -0.8176605806908446 -1.9951326416555226 -1.0621248501520995 -1.8349943636757726
0.8813474438813508 -0.6875125481786067 0.42817949393747856 -0.2826137102575576 -0.9632882804770015 -2.037048474319209 -0.5516368569666924 -1.7245528190391102
0.19729870352483908 -2.404473015470681 -0.6999091499452783 -0.13351843181006787 -0.19235303762696074 -0.3350501621106003 -1.2502189943936046 -1.0647816158286092
1.9338549338855102 3.0105158619371615 -0.8480899076117764 0.23575542368985028 1.0145361515339426 -0.7870600740859454 -0.36963961719475263 -0.27837745010701725
-1.01380225462477 1.623067600706584 -0.5064945483628417 -0.7354361969685993 0.36973454625897384 -0.005365037657257581 -0.8685130996427579 0.7562757876027543
0.6151197085039083 -0.34500636608573465 0.5714189922280589 1.0496806462512225 0.7037053695359782 -1.0221829853447653 1.4242462101423257 0.766654449622693
-1.159619912063412 -0.3841541956110294 0.2900304118266683 -0.17267387948580604 0.830520695539495 -0.2601501535439565 0.943955414292321 0.9615267347759341
2.185436036001799 -1.2546672247983572 -0.8818544978249238 0.9986305144520676 -0.8818575060664143 0.5327725620689486 -1.916587533610051 0.7191409595471503
0.6782090294648957 0.5771586390984315 0.39148525218948727 -1.1784519152027269 -1.3688950171861145 -0.40721247685345663 0.08926787806884517 0.9300339658703183
0.328532583727214 1.147083895446438 -0.06440977786340799 0.9956079965487931 0.5171415924616602 0.3937739154275207 0.21020855014299597 -0.060408645499799754
0.7356749761672463 0.19764706487262504 -1.857968634073245 0.3097095363907562 1.205333090187388 -3.826555234909469 0.10677384308499108 -0.05160117778414472
0.21786599851536334 0.15151629049472182 1.381538370897994 0.07826772889899412 1.4350719287521558 0.5199382291237029 1.5369798628024496 -0.5202996514430527
-1.9581446976626495 -4.47714588038741 -2.884964688404582 -2.376817702770451 -2.6573628236422424 -0.9665173638207667 -1.1746109517700125 -4.363727493397087
0.3218724908095986 -0.032694150825163956 -2.964861570106702 -1.1366058276916944 -0.8333109355880993 -3.0933198464401546 -3.818710720967777 -2.6638101671521435
-1.1638149250323175 -0.6778904046415599 0.3667703390316409 0.32551774192002253 0.12967697057843572 -3.536734270327471 -1.0734647929322945 -5.371582512096114
2.1596175067496186 -0.235322822014299 -2.136188388946391 -5.28068689101868 -1.047214924700527 -0.8418821341593937 -3.152562364070373 -2.1853550978885132
-2.6633248479702565 -0.008911432202191882 -3.7628796499291908 -4.3613936030389295 -0.6773633689059327 -1.3921337525452704 -0.8506693974753701 -1.5932016869568029
-0.8735732994792448 -0.9971646056239744 -1.3767660093968974 -2.333491788646625 -1.2969479513326614 -1.9689122087831639 -0.06886826432584577 -1.3235788308120588
-1.1297218745185231 -2.5935130344378012 -0.2104448566090678 0.08089092493443346 -5.258650925151995 -4.739689922412082 -2.9803780624042275 -2.2813923939454885
-2.443362261137972 0.15271153414824612 0.9451881728451983 -2.4146468969167763 1.0292306006305494 -1.1189811400033054 -0.31474028678745003 -0.7905918254286791

rnn.bias_hh_l0 f8 [256]
00000000: 2cf5 6533 d7a9 f8bf 50c7 9836 cd37 12c0
00000010: 4694 b5e8 35ca f6bf 83de 5905 c367 e8bf
00000020: c625 5706 0818 f03f 0efb dbe1 8928 f1bf
00000030: 234f 9a52 41b6 0ec0 e2c0 2f43 907f 03c0
00000040: ed07 d9b5 f849 0ac0 0d3a d156 0149 e33f
00000050: 7c5f 7453 7bd2 e9bf 2610 d8bd 0036 0cc0
00000060: c41e 231b 95be babf f2f1 10ab ef3f f3bf
00000070: c1a8 4e1b 2772 f9bf 1109 8025 041f 03c0
00000080: e04b 8511 54c6 f4bf b2e0 2db3 8e48 09c0
00000090: 3c01 9c6c d83b efbf d4f0 cf1c 624e f0bf
000000a0: 961e 9274 ad15 ebbf a3da a119 d577 0ec0
000000b0: 02df ec98 b10d e1bf 9dc2 5d66 973a 0dc0
000000c0: f246 8c55 0c11 09c0 78aa a29f ef2f d83f
000000d0: 09f4 c76b 5578 cbbf d8c4 eda6 25f4 f3bf
000000e0: 538d ddf6 5434 e3bf 94ee bcf8 b9be fb3f
000000f0: a1e6 f9ff 416a 10c0 1693 7a65 fbc0 d5bf
00000100: 7865 e37a 20e1 fcbf c1a1 564b ea3f e33f
00000110: c285 b7f9 a491 06c0 211f 40b9 4f57 f8bf
00000120: f7c4 0547 5804 7c3f 0553 858d 02b1 f3bf
00000130: e862 2b74 d208 f9bf c823 06dc 8a6a fbbf
00000140: 558e 814f be49 db3f 0df4 25c7 5cc4 efbf
00000150: b55c e6cb dd3e e8bf c96b db13 e1de 08c0
00000160: 545d a255 3249 11c0 f67f 3874 564c 03c0
00000170: f2e8 9fb2 9b91 eebf 4bae f95c 7d3c 04c0
00000180: be83 94db f975 d33f 27c5 d4a9 b635 ecbf
00000190: a7cc 7cfd e19f 0dc0 e649 e76e 05fb d6bf
000001a0: b8ae 2acc a3af 05c0 e219 f436 6cb7 13c0
000001b0: 2ab3 a613 dd23 b2bf 923e 77dd 167a 94bf
000001c0: 620f f257 bb98 f6bf 4a46 d7ff 7d0a 0bc0
000001d0: e8c9 dcdd 5eb2 f13f 030c 2b85 4e87 06c0
000001e0: b926 be01 aeed c43f 8544 87ce cce2 e0bf
000001f0: e95b 8618 9e94 e8bf 1bd1 5768 1192 cebf
00000200: b855 30a5 b0b4 dc3f f23e 9760 8e1f c5bf
00000210: 33e9 2e58 1e43 00c0 6464 1479 3a30 f03f
00000220: 18a1 4d12 b63e d73f 1510 07df 8b1b f6bf
00000230: d992 13a3 4ade ebbf 5260 0fed ea97 ec3f
00000240: e097 65ca 6fae e2bf 05ca 6f22 ee02 e53f
00000250: a3bc 7c58 40ed febf c58c e9c3 f381 eebf
00000260: 4bf5 8137 dc8a eebf 24a1 1e3c b4df e2bf
00000270: 89f8 59bb ef6d fcbf 3b2b f67f 1ea4 c7bf
00000280: b7d0 3553 85d4 e0bf 2437 bcef 8d63 ebbf
00000290: 9df9 7314 33ab e3bf 215d 0586 d6a6 e2bf
000002a0: add2 bf6f bc66 db3f b2d6 a07c 8f12 e5bf
000002b0: 47fe 7230 3a67 f93f a8d0 62ee 89a9 e2bf
000002c0: da78 2886 8633 eabf 0c51 f8fc 7b23 f2bf
000002d0: 0c4f e9f3 a55a bf3f c95d 5119 b79b d63f
000002e0: ca4b d64d 8672 f23f d5f5 551e 3d9c dbbf
000002f0: 3b49 95af b6bf 0040 7969 5329 f7dd f1bf
00000300: b331 1291 6ab5 e4bf c61a 2041 e589 f4bf
00000310: 2b91 f552 6a51 8cbf ae71 ada8 488e d13f
00000320: 8775 a95d 722a efbf a97a 71b0 6e20 febf
00000330: 72c1 7a5c 9c7a f1bf 794d c544 c204 fbbf
00000340: 6047 fc15 bddc e83f ed88 c0b0 723d e5bf
00000350: 46e0 d106 4970 d93f b98e 7ae1 a96b cfbf
00000360: 8c9a a811 648f e9bf 1615 1924 ee93 ffbf
00000370: fc15 7e0e 2cd7 e3bf 2af6 5f0a d8cb fbbf
00000380: 3757 975b 2c42 c13f 477d 2cc1 c972 03c0
00000390: c4f4 a5d7 2d6f e6bf df65 8274 5249 d2bf
000003a0: 7a3a 799d 6ff0 d5bf 7535 32ac 1f0f d9bf
000003b0: 1b23 dcb5 6e79 f6bf 0adb 95e2 10ee f3bf
000003c0: f9f1 032f 35ff fd3f 90e0 1859 272e 0940
000003d0: 1e53 28da 8f42 e8bf f78c a61a c14a d93f
000003e0: 5e2b 778e 1735 f13f 4ef8 c5f3 b222 edbf
000003f0: dc1d 9419 2df6 c1bf 5bd3 09a7 6477 d1bf
00000400: 9197 83ae 411a f1bf 4cb6 83c7 1e9e f73f
00000410: 1844 1ace a79d e4bf 66cc c865 8571 e2bf
00000420: 1516 31ac ff0a c73f 7f9c 47a5 8e2c b5bf
00000430: a39f e36b cb0e ecbf 6e56 d09f 41fd e93f
00000440: a7c7 e48e a178 e43f 3600 d0a4 1ef7 d8bf
00000450: 78d9 7db3 387b e23f 624a ee76 ad3e f03f
00000460: e7a6 85a7 040b e43f 48aa 92cf ca3b edbf
00000470: 8436 e0d8 97fc f73f b5cb 8e69 a38d e73f
00000480: d0a4 e15f 36ea f2bf 5751 b11a d0bc d1bf
00000490: 040a d2ae 2023 cd3f f9d4 43b9 4122 b0bf
000004a0: 9dc8 3fbb 29c9 e63f 9fa3 c228 d453 c2bf
000004b0: d690 2864 90b2 eb3f 26f4 02ff a2d3 ee3f
000004c0: 9905 714f 971d 0140 89f3 9d9c d69e f5bf
000004d0: a2a2 7fdc 4da5 e6bf e87e 0b1b 2acf ed3f
000004e0: 1432 8983 4868 ebbf 165a 49db bb77 e13f
000004f0: 606c 8c00 10ad febf 9802 cf5e 5172 e93f
00000500: ebe9 2c5c d012 e83f 9e02 f1e4 1666 e03f
00000510: 8248 c1e8 d0f3 d23f 1445 3b81 5997 f2bf
00000520: 488c 278e 1568 f7bf 78f5 a63b bc40 d4bf
00000530: 3596 e378 2e87 b53f 9050 b917 ab08 f03f
00000540: 15d7 b137 d4f8 db3f 375f 8bdc a346 f23f
00000550: 84a5 bbe0 73ce c0bf 8005 1aad bcfd ec3f
00000560: fcc5 60ee a816 e03f aeed 1841 e473 e03f
00000570: 9a14 1a00 cc89 c73f 6efc ba6c c7c2 973f
00000580: 04f6 63cf 1d78 ec3f 433e c77f 4fbb be3f
00000590: d36a 8515 199f fabf 69b0 8332 2155 d13f
000005a0: ba43 b215 05f4 f23f 8c30 b2fb c515 0ec0
000005b0: c127 0f4a f033 cc3f 4732 0936 d15b a4bf
000005c0: 2c55 44b5 0a41 ce3f b8c2 f121 3348 9b3f
000005d0: 03d1 9266 9bf9 f53f 4908 faeb 0fd8 c03f
000005e0: f35e 9603 6b63 f43f 26d8 40f7 c5cf e13f
000005f0: 2c8e 5546 e51a f83f 0f2e 627c 68ee e2bf
00000600: 0ac0 d4e8 4b34 ffbf 8abd fe36 50c7 11c0
00000610: 0080 d667 50ab 07c0 949f ef8d 7eed 02c0
00000620: f631 a918 0af2 03c0 8c05 4a11 a71d f0bf
00000630: 1c04 ec6c b9f1 eebf e32f e3b3 d2a4 11c0
00000640: 2131 c106 dd0d c03f b842 48aa c3c0 c0bf
00000650: f733 c657 578d 07c0 5d10 a61f 1b40 f0bf
00000660: 4600 f8c9 ada5 e9bf b839 c4bb 312c 0ac0
00000670: 2887 db60 8ad1 0dc0 df5d 7584 3908 04c0
00000680: b4c4 1982 248a f2bf 9aa5 c6b7 42f9 e5bf
00000690: 7152 a4f9 144b c63f 781d f40d 2f7d d73f
000006a0: b0e1 d6c5 dc35 c43f 4597 4d6a 4c95 0dc0
000006b0: 68d3 30ef 6f3e f1bf ecdf 448a 8fb5 14c0
000006c0: 1cde 1a09 2924 0040 d271 23c4 44f8 d6bf
000006d0: 15f5 24e2 999e 01c0 ec5c 6554 14f5 15c0
000006e0: a98c d7cf 2812 f0bf cda3 295d c47a ebbf
000006f0: 1943 e2b7 9bc9 08c0 15a0 1c88 9604 02c0
00000700: 3840 0512 a37f 05c0 3220 43f4 50ec aa3f
00000710: 78d6 594f db2f 0ec0 2024 2896 9725 11c0
00000720: fab2 9e99 3cee e6bf 856f ad72 549f f5bf
00000730: 3bac 3b47 d6aa ebbf 9495 56f9 6195 f6bf
00000740: bf82 fd85 ee88 eebf 0b47 3c4f 06bb efbf
00000750: 80aa 8923 586e f5bf 6cc6 2dfe 7ad1 03c0
00000760: 1f69 b922 6932 f3bf 55b3 962a 8ee6 ffbf
00000770: fe06 033f 5481 b5bf 693f 004b 0b29 f4bf
00000780: 8120 8a6a 1e55 f3bf 6448 0557 b798 05c0
00000790: 70a7 5f48 aced cebf 3dec 458a d097 a63f
000007a0: 426e c28b 3997 15c0 cac2 6775 262b 13c0
000007b0: 8bef 1d46 38c9 07c0 0bb6 ca5f 7fe4 02c0
000007c0: a6f1 5e4b 6f44 04c0 ae01 8e93 8fd3 9e3f
000007d0: d1f4 5d84 b276 ed3f db29 6d6a d1ab 04c0
000007e0: cf02 9cc1 718d f03f 7a7a 928c 7232 f3bf
000007f0: 8f16 9f61 ff24 d8bf f36e 56ca 844b e8bf
-1.5414649970765124 -4.5544937639950405 -1.4243678178984438 -0.7626662354004597 1.0058670280144368 -1.072397119772805 -3.8389917805997285 -2.4372868775318333
-3.286118908582458 0.6026617713594661 -0.8069435720417313 -3.526368601947996 -0.10447055733231553 -1.2031094248078458 -1.5903693262758198 -2.3901446275423344
-1.298420017662231 -3.1604284284950035 -0.9760553475644325 -1.0191365361670721 -0.8463961865208656 -3.808511924983877 -0.5329215990850289 -3.6536090848315568
-3.1333243068155463 0.3779257830562197 -0.21460979235408242 -1.2471062203078898 -0.6001381703939991 1.7340640751198508 -4.103767394664517 -0.33990368757285816
-1.804962615997594 0.6015521499112354 -2.8211154469615574 -1.5213162647577934 0.006840081056325823 -1.2307153251796887 -1.5646538293714745 -1.7135113329588751
0.4263759399820846 -0.9927200212110862 -0.7576741201800333 -3.1088277388894068 -4.321481073412844 -2.412274272894133 -0.955274437786356 -2.529535986299185
0.30407568400738316 -0.8815568272604296 -3.703067760821415 -0.359071119598552 -2.7107616377378143 -4.929123743675946 -0.07085973481907773 -0.019996983782958618
-1.4122880397198618 -3.3801231372424683 1.1060475031377965 -2.816067734123409 0.16350340924355125 -0.5276855500943759 -0.7681417922020702 -0.2388326415526841
0.4485284436389878 -0.16502551761958945 -2.032772721225365 1.0117745141672225 0.3632025889151165 -1.3817251884474946 -0.8708851990782832 0.8935446386412969
-0.583793540293069 0.6566076920119605 -1.9329226929219565 -0.9533633066570465 -0.9544507106908581 -0.5898076223575441 -1.776839954225155 -0.18469601867794858
-0.5259424805831462 -0.8559026415184445 -0.6146483802293009 -0.5828659646603321 0.4281455127050247 -0.6585156854768768 1.5877019779726582 -0.5831956535316936
-0.8187897320056223 -1.1336631662025551 0.12247693257205244 0.353254103397799 1.1529601135741694 -0.4314110561607241 2.0936101643975724 -1.116690789631859
-0.6471455415171959 -1.2836658996545096 -0.013827162415232927 0.27430931541837367 -0.9739314870200112 -1.882918061477236 -1.0924342739563966 -1.6886618315082542
0.7769456319240184 -0.663750977724957 0.39747834840773455 -0.24547313222602954 -0.7987537712950412 -1.973615780837752 -0.6200161250168885 -1.7372665791766715
0.13483194801545448 -2.4310488788320614 -0.7010716640358159 -0.2857252252375399 -0.3428000486209509 -0.3915480786898436 -1.4046465972807656 -1.2456215716353563
1.8748065792598239 3.1475359879223745 -0.7581252346886662 0.39518764116856125 1.0754619183596428 -0.9104857217023523 -0.14032520054773456 -0.27291218101827547
-1.0689102951959948 1.4761035722289249 -0.6442450547639309 -0.576357554242702 0.18002315433311425 -0.08271113906049442 -0.8768059832773257 0.8121650811542176
0.6397254744426747 -0.3900829896447279 0.5775416856475166 1.0153021474585775 0.6263449928203187 -0.9135488561781324 1.4991682502472097 0.7360398351360035
-1.1821807618492137 -0.2771492252989182 0.22763451133876356 -0.06302271626539725 0.7120560319147163 -0.1431832503342578 0.865547366735451 0.963334558553133
2.139448757778791 -1.3512788884974916 -0.7076787287342834 0.931538632223206 -0.8564798897801347 0.545865944189077 -1.917251588957491 0.7952048160296554
0.7522966194440505 0.5124620887291547 0.29613135080320074 -1.1619505928140983 -1.4629111817273657 -0.3164511282482958 0.08409395648376335 1.002116291686466
0.4370623153584899 1.1422461142555684 -0.13130043481150377 0.9059737568751842 0.5027660995312426 0.5141469260628833 0.18389272694563347 0.02320396042955191
0.8896626520724458 0.12004563207232714 -1.6638422814054834 0.27082090313957125 1.184575161696769 -3.760631529212395 0.22033504120036976 -0.039763009878332194
0.23635991908000997 0.026642607638168697 1.373439217260114 0.131593694899552 1.2742719783909109 0.5566129521528225 1.5065663096837723 -0.5916025571218045
-1.950267705437002 -4.4446419327717965 -2.958649455293198 -2.365964039683556 -2.4931833197244897 -1.007239406142932 -0.9670073630696865 -4.410960016957662
0.12542307691399748 -0.13088270010532255 -2.9440142495500328 -1.0156508671070903 -0.8014744705869894 -3.271579234052492 -3.72731471700617 -2.504015955764529
-1.1587262231881086 -0.68667732137435 0.1741663187937266 0.36701561319974685 0.1578937498104671 -3.6978996567658293 -1.0777434676540114 -5.177305374578264
2.017656394131121 -0.3589031138815503 -2.2024419467476357 -5.4893353640429545 -1.0044334524944054 -0.8587362117369765 -3.098441540329429 -2.2522402414069895
-2.687322750840419 0.052584199731029804 -3.7733675193110763 -4.286711069297809 -0.7165816307438881 -1.3513988952244926 -0.8646041289588376 -1.411470388390943
-0.9542152993199905 -0.9915801570479926 -1.3394395244783084 -2.477285371562905 -1.1998072964111726 -1.9937879241581034 -0.08400465525030751 -1.2600205354428573
-1.2082809602452758 -2.6995684431540656 -0.24162820371503413 0.04412700355438701 -5.3976804578229025 -4.792138895471632 -2.9732518651853233 -2.3615710719811935
-2.5334154022550193 0.030103915577912303 0.920739420441942 -2.583895522552877 1.03453231457404 -1.1998162737942537 -0.37725815327971984 -0.7592185928255887
