models/modelRNNQ_lang3_extTomita.pt (torch, 407395 bytes, 10 tensors)

rnn.weight_ih_l0 f8 [256, 1]
00000000: e53f ebb8 4c59 e93f 0944 c405 fb50 973f
00000010: fb13 378b afaf d93f f2ec 72ab 5795 a03f
00000020: ae5b c5c7 8065 7c3f 56f2 ba9a dd93 bf3f
00000030: ea09 7526 0d09 c7bf 4745 a957 c3d1 d6bf
00000040: e12a b0cf 24fe 0b40 6610 9169 f853 a1bf
00000050: 76a6 55ab a331 c4bf bb5b 72a1 cf6a 2040
00000060: 739d b534 faab cb3f 5c19 b78e ae70 9dbf
00000070: c518 473e e427 d63f d013 0153 1417 c2bf
00000080: 4250 fe8e 3c69 c13f 0e44 e11b 2236 d13f
00000090: 8ca3 05d3 629d dd3f bdf0 211d 3641 913f
000000a0: add5 a03b af84 e73f 4a9f e5df a8e2 d2bf
000000b0: 047a d884 bab0 e63f 6924 949e 6633 82bf
000000c0: ff8b 8810 04c9 9dbf a782 8342 a167 c8bf
000000d0: 9a1f 5ac0 f713 bc3f d830 030b b95c c23f
000000e0: ddfa 898b 25a3 86bf cefb 8b2d 0017 c53f
000000f0: d1c6 be14 38a2 e1bf e226 2f31 aab7 b2bf
00000100: 95e6 c66f 3e41 bf3f fb0c d334 0431 c3bf
00000110: 5205 4b45 c033 c23f 3448 7d7b 214c bbbf
00000120: a439 90c2 1f13 f0bf b2cb c6df 0cc8 a7bf
00000130: 60c8 da6c c8c1 8a3f ef25 8880 fba5 a13f
00000140: df03 a5be 505b 853f e2ba 243d 7bcc e0bf
00000150: 7656 d0ca eb97 d1bf 95e9 299f 4c50 e83f
00000160: 4d24 f7ae 6625 d93f 0957 c5dc 1094 c03f
00000170: 7b7d 470b 7aa4 bcbf b57f 4f42 945b dd3f
00000180: a2b8 66b6 47b1 e73f 75f2 ad1b 5b1f a13f
00000190: f906 39d3 f966 ccbf 4e08 b9d3 af9b c03f
000001a0: 6023 d964 cad0 ba3f 6682 0315 a9bf abbf
000001b0: 6862 e4ec 8311 9c3f 9166 8d3b eae6 d0bf
000001c0: 3348 d548 c600 c7bf 6f88 5828 6dc3 bf3f
000001d0: 511b 6f1b 4a66 e63f 0342 a311 9187 bfbf
000001e0: 74f1 7441 6322 783f a7d5 96e7 51c8 b8bf
000001f0: 8a66 de7c 3d2d c83f 840b 0ff5 c191 af3f
00000200: 69ba 16f0 c15c b1bf 5670 dde5 b7cd e2bf
00000210: 52f3 ad80 94c4 dc3f 669f 6a88 984c 91bf
00000220: 8c0a 9d70 759e 0540 75ea bc67 e32d da3f
00000230: e58f a7f8 29fc f53f a7ec fe51 382e 07c0
00000240: ced8 f26a 3e98 1640 1c5f 3f02 2339 0340
00000250: 528c 39ec 52b6 e43f fad8 f10a 3a89 b2bf
00000260: f0cc cd1a 9fb2 1040 6377 75ca 4e46 dc3f
00000270: ee2b 9374 0edd e63f fd1a 2687 948e a7bf
00000280: 01e2 22c9 faf9 cd3f d14b a435 ba85 ca3f
00000290: eb78 a730 860a dc3f fe90 058c 46f2 f0bf
000002a0: 9dbe 3c0b ff88 b8bf b09a dae6 0df1 c33f
000002b0: 4b2e 0ca3 41dc bbbf 31f2 72e1 6b5e 10c0
000002c0: 351b 2e0e 7cef f03f 7497 8ed4 45eb fc3f
000002d0: 8512 655d 7af1 f03f e3e5 e1f7 f426 f53f
000002e0: ead0 208d e7b5 c8bf 4b79 be82 c774 d13f
000002f0: ce45 ad77 4f44 f03f eec9 aa84 808c e0bf
00000300: aa55 286f 997d e4bf d6f7 60e4 bf51 e4bf
00000310: c0db e6b9 9017 de3f c382 913e 2c6d 0dc0
00000320: 8855 9706 bc07 b43f cccf 2119 1c80 933f
00000330: 517c c360 bbff afbf bd93 ee5b b46f f93f
00000340: 6416 a14d 061b ad3f 6bff 9e3e 4a9f aabf
00000350: bf64 ea4f 4dfb e9bf 7ea4 1b8e ffbf f73f
00000360: d4d6 3fd3 c966 d83f 8fb1 b3aa 0381 f33f
00000370: dfd7 afb3 bb4d d73f 264b 871e e4f4 ee3f
00000380: 88d8 8953 1042 1140 4f99 6c16 2458 c13f
00000390: a982 ef72 ca5a f13f c64b 5076 bfa5 1340
000003a0: af57 7e48 32ae f83f 397c 9130 74df c43f
000003b0: 9072 1270 0dc4 0040 917d 4975 f431 ec3f
000003c0: b03e 1945 bc4a c63f 00f2 a932 d599 e73f
000003d0: 535f d8a0 cd6e 1840 072b fad4 ffd9 cc3f
000003e0: f4d5 1cbe 98b2 0fc0 27ad d63a 8e28 d4bf
000003f0: 2197 689c 88e0 c83f 7d67 4c1e 19f5 f03f
00000400: beaa 64d7 3e2e 08c0 d996 5d63 2df8 d8bf
00000410: a1db 55ae 06fb dc3f d45f a0b9 120a abbf
00000420: fbdc fc99 47ca c0bf 11aa 195e 67db dd3f
00000430: 7024 d367 0c7d f33f a74d 329a 6cb5 1540
00000440: 62ee a1ba e1e5 1840 2509 3679 d2d2 e9bf
00000450: d74b e6b7 8f4a 0440 b753 373b d882 1a40
00000460: 10d9 527c 8569 e83f 0a60 0e69 7514 d73f
00000470: 7d87 c4da ef31 dd3f 22ea 3f76 520d 21c0
00000480: 27ca 1840 9048 bbbf 90db 1c0c b013 10c0
00000490: cff7 99dd fc01 d53f 33d7 249c fb74 b23f
000004a0: 2158 ba4b af69 1240 32e8 4612 3d2a f23f
000004b0: 82b0 3a16 4c86 9abf f2e2 6495 62ce 0b40
000004c0: 2f66 b183 122d bf3f 0165 1c05 ea3c 03c0
000004d0: fc26 64ce d355 cdbf ddd8 7809 df9b cd3f
000004e0: f90e 5c2b f490 08c0 9320 caad 9ebc d2bf
000004f0: 3d7f 0e73 d606 ef3f a980 6bf5 7928 e5bf
00000500: f0a3 c600 aef1 00c0 6243 ae63 7a60 06c0
00000510: c5c2 25cd 8ef4 c53f 82c6 5be0 80be c63f
00000520: ee34 c2b6 b6f5 f03f b5a9 24ac 9757 c4bf
00000530: 4106 5281 6e84 d33f 8a8a 7c0b 7e19 c2bf
00000540: b203 994d 81fb ba3f 110a 00bc e4f3 fa3f
00000550: 300d ec51 fd0c d6bf 4e7a 264e d1ce b03f
00000560: 7b25 836a 210c c63f 5480 b309 f6da c1bf
00000570: e2b9 3755 ba4c e1bf aae2 a91a 7881 d8bf
00000580: 01e0 0cd4 0b88 0340 28b9 1512 9a76 bdbf
00000590: 5ced 72fa 1ee2 fb3f 3df0 29d0 3353 ca3f
000005a0: a5b0 6efb d684 c53f 5316 e586 7a35 ba3f
000005b0: d7a9 39c0 65f5 d1bf a58d 226c 301c 0540
000005c0: 6c5d 1e4a 2531 903f 08af 8579 0f5d c2bf
000005d0: 6f10 2ab0 26be eebf 9388 801e fab4 c0bf
000005e0: 57b4 bb01 6229 babf 4fab 4285 3265 d5bf
000005f0: 4259 1351 d7eb bb3f d23e e315 8adc cdbf
00000600: 571d 5067 2872 e93f bbf3 1b21 8222 e5bf
00000610: 70b2 a85a c953 d0bf c3a4 7d9e 88ed bebf
00000620: aba9 7488 2dc4 9ebf fb86 2cf2 47f2 c03f
00000630: ed02 a35a d102 da3f b4eb 62ad 3477 d9bf
00000640: 3320 7df9 ea21 f2bf 082e 3323 45af d63f
00000650: f65b 4c50 2b7f e93f 84f5 8da9 55db b9bf
00000660: 0573 e750 3969 ab3f 63a8 8100 6228 fd3f
00000670: efd4 d138 01af a93f c067 5975 4ffa c33f
00000680: 958e a4ed 53dc d13f 031f a11c 4d3d c63f
00000690: daea dfde cec2 d1bf 5885 3325 23b9 b6bf
000006a0: a31e 270f 8834 bcbf 8426 c80e 3216 ed3f
000006b0: 0c56 77e3 4d49 f8bf 1b89 4c0c f60a e03f
000006c0: 9c24 f175 95be b43f 146d e300 92c6 c33f
000006d0: 3188 b0f5 7cdc c0bf 1b74 19e8 6d35 d33f
000006e0: 07dd 17b6 fa7b dbbf 1e1b 08c0 2cea c43f
000006f0: 382c 2f39 ed3e d23f c11f 4fbb b47c d3bf
00000700: f8e3 a437 9f2a d7bf e7b6 87cc 00d3 dd3f
00000710: c5b3 b814 f891 cc3f 022b 0ce1 b0c2 d6bf
00000720: 5806 03ca 138f f2bf 6ba0 e9c3 89d7 babf
00000730: e946 7c32 9ce7 b03f 5d67 0985 00a1 d93f
00000740: 808a 1f08 9aea b5bf 2f1e 00db 5116 d2bf
00000750: d5f4 1b8e beb1 c1bf fea8 cc3c 68bc e5bf
00000760: 6537 94c6 ebe1 d1bf de7b 5b68 b25b d13f
00000770: 308c 6bfe 48fc d93f 69e3 caad fe26 b5bf
00000780: 785c 38fd 2dc4 c0bf d6c9 e6a8 8a6c cabf
00000790: 4b40 efe5 7c85 e03f 4f88 aef2 2aba d4bf
000007a0: 1455 4637 d68a d03f c3d7 99e8 7501 92bf
000007b0: 22e2 406a 1f57 d1bf 3b10 3590 d775 d0bf
000007c0: 7236 aebc 93a5 c3bf 439c 0638 23e6 bf3f
000007d0: 6304 54e7 0a49 cdbf df5f 0684 b86f a23f
000007e0: c34b ab7e cde7 e2bf c286 97af 04c7 a93f
000007f0: 4737 6466 f6d0 b5bf 3ce6 ed49 8826 b5bf
0.7921508418748969 0.022769853808373628 0.4013480052493034 0.03238939254648611 0.006932738350164875 0.12335000064462895 -0.17996372583191028 -0.3565529209200417
3.4990936494481137 -0.033843768011622186 -0.15776487222619878 8.208615346154934 0.21618583272650546 -0.028750159702917485 0.3461847885304333 -0.14132932713451263
0.13602406484699442 0.2689290306344113 0.46273108108157923 0.01685032418070941 0.7349468388189756 -0.295084208154084 0.7090733141556602 -0.008887101854741357
-0.029087127217405136 -0.1906625342153536 0.1096796841248974 0.14345467603414508 -0.01105336505974946 0.16476442550626164 -0.551052132146845 -0.07311500263963525
0.12208929280213916 -0.14993336276356914 0.14220431693505958 -0.10663041367414011 -1.0046689605838788 -0.04644813758513723 0.013064924070338602 0.03446947044364978
0.010428076570521526 -0.5249611086090591 -0.2748975258449272 0.7598021610895552 0.392907782425543 0.12951861171557535 -0.1118847157990696 0.4587145469249621
0.7403906404995448 0.0334423514641217 -0.2218925744401117 0.12975118482615006 0.10474839174379502 -0.054196628394269905 0.027410565694568595 -0.26409393134745424
-0.1797111373549015 0.12407572016721401 0.6999865089245337 -0.12316233330353303 0.0058921696830193 -0.09680663970978874 0.18888062092883146 0.06165891758384759
-0.06782161819021727 -0.5876121034193698 0.4494982964168247 -0.016893752409174033 2.7023724363255663 0.4090507996622031 1.374063464457316 -2.897568359939743
5.648675604889105 2.4028988051976636 0.6472563375249456 -0.07240641371922499 4.174435061274593 0.4417912461411701 0.7144844319203665 -0.046009675500547666
0.23419127293688294 0.20720603579738264 0.438142344964844 -1.0591493100737916 -0.09584039711330168 0.15579389354862405 -0.10882959585813372 -4.092208407059432
1.0584679178152332 1.8074396422393564 1.0589545868143955 1.3220109637171553 -0.19305128470444483 0.27275264518711556 1.0166773486019909 -0.5171511260180617
-0.6403319521947897 -0.6349791965983467 0.4701883140036749 -3.678307045760762 0.0782430187312767 0.019043387445392843 -0.06249795490452271 1.589771613225124
0.056846806503511954 -0.05199653639237919 -0.8119265137530859 1.484374575719158 0.3812737048132082 1.2189976375621858 0.36411945865199685 0.9673939319858149
4.314515404976312 0.13550234885151233 1.084665726630343 4.911863182688597 1.5425284225252474 0.1630692708158408 2.0957287555341466 0.8810980120432977
0.17415574430423453 0.7375284184959696 6.108206284719773 0.22540281199720644 -3.962205395941732 -0.31497531648592986 0.19435222279678846 1.0598384078534473
-3.022580797919857 -0.39014754012747016 0.4528214170927019 -0.05281122699687982 -0.13117308634694055 0.46651634397008573 1.218029408994223 5.4271720975115505
6.224493900426383 -0.8069851272014473 2.5364069335132444 6.627777981998341 0.7628810337253373 0.3606236959399217 0.4561729084399458 -8.52601975946624
-0.10657598080505491 -4.019226254712422 0.3282463230206049 0.07209751665217538 4.603207762955237 1.135312148470359 -0.025902928215757466 3.4757739707387083
0.12178149905357637 -2.404743232659371 -0.22918174340912134 0.23131931269171604 -3.0707782161206265 -0.2927624413646381 0.9695846793365274 -0.6611909669263883
-2.1180076656933053 -2.7971084392124093 0.17152581231086664 0.17768870310787938 1.0599887026795005 -0.15892311006002804 0.30495798710771643 -0.14140296517242162
0.1054001631209889 1.684544309974289 -0.34454281807139164 0.06565578611341857 0.17224519444270556 -0.139494662033942 -0.5406161941917242 -0.38290217021816864
2.4414288107327597 -0.11509097043537919 1.7427053244744775 0.2056641355919754 0.16811644818279095 0.10237851899463495 -0.28060287258145195 2.638764233402713
0.01581247582325089 -0.1434649794931533 -0.9607118073186153 -0.13052298058852738 -0.10219395201029734 -0.33430159581864854 0.10906739930519385 -0.233292828261702
0.795185281546689 -0.6604624411262344 -0.2551139245358973 -0.12081197614101584 -0.03004523415908415 0.13239383053683426 0.40642198420759607 -0.39790074283854016
-1.133280729833143 0.3544476360081892 0.7967735832525011 -0.10100303067698319 0.05353716957663405 1.8223590869697766 0.0501633054599696 0.15607636671012237
0.27907274443917035 0.1737457647125141 -0.2775151421080132 -0.08876247080072142 -0.11017656679097824 0.9089594162662284 -1.5178965459248301 0.5013380279745293
0.08103307847445013 0.15449738543871006 -0.13172876354752952 0.3001360670658088 -0.42944209845104847 0.163396447911702 0.2850907381477472 -0.3044864491644113
-0.3619764369391869 0.46600360845228156 0.22320462238113073 -0.3556329915742681 -1.1599309817396684 -0.10485135109922943 0.06603409035258391 0.4004517840563631
-0.08561098764725195 -0.28261228930248 -0.1382368272678948 -0.6792489230622605 -0.2794141234634167 0.27122173491619417 0.4060232624598852 -0.08262626402837515
-0.1309869276453559 -0.20643742797035597 0.5162949076566375 -0.3238627786578307 0.2584739246170369 -0.017583696672282444 -0.27094254852593924 -0.2571925075792511
-0.153490512017402 0.1246053706914703 -0.22879158301660416 0.03600861179000935 -0.5907962297445625 0.05034651416259585 -0.08521976470748625 -0.08261920742906964

rnn.weight_hh_l0 f8 [256, 64]
00000000: f77c 1f26 dfdf f23f 8b71 4d5c 8427 fc3f
00000010: 1fb9 440d 7fd0 f83f 9ef3 a31a aec7 f4bf
00000020: 9559 dfd6 e9c8 f5bf 881f 9020 73aa dc3f
00000030: f383 345b 51ad c83f baa6 f85d 494f e33f
00000040: df9e bfd4 db45 f63f d7bb fc21 4094 f2bf
00000050: 41df 4860 f1f3 efbf 77de 3253 045c f33f
00000060: 9bfe e78e ae2b ec3f 4052 4dbe bf62 ccbf
00000070: 0c4f 8b45 23b4 c43f c67a 6f9a 0f56 e7bf
00000080: b23e f3bb a89e dabf 6181 f8ab b214 f3bf
00000090: ef26 6376 c082 d53f ee7b cd87 18ce e43f
000000a0: dcb9 9878 9383 ddbf aa6a 739c f151 d5bf
000000b0: f310 9a46 3ea3 c7bf 3c69 3844 1a39 f93f
000000c0: a96c bc96 fa0d f53f 52f6 2854 869b debf
000000d0: 8f75 d546 d820 c2bf b081 9acc b48e e6bf
000000e0: 59df 7896 7ed8 d7bf bd24 69b4 9a4d d73f
000000f0: 0c61 3b82 c01f e03f 0fba eee0 942e d93f
00000100: 384d a3fe f508 b93f 6f0e c7c1 38ad e9bf
00000110: 8fdb 0fb4 8fcb da3f d3bd 5deb d13e ffbf
00000120: f936 390d bb2e eabf af1a 0bca e5da f4bf
00000130: 3197 8514 c04e f93f 1eab adb0 b94c c6bf
00000140: 42cb 59b5 1ad5 ed3f a3fc bf94 f26b 06c0
00000150: 8889 5114 3cab aa3f aab9 e05a 2f01 fcbf
00000160: 6248 8a0f 0893 e53f 4358 0111 21ef e63f
00000170: 9777 8ee0 7b29 d03f 0379 ede1 4937 ed3f
00000180: fa27 d35a 3824 f23f 57fb 4eee 6257 f3bf
00000190: cda5 47de b739 f2bf ca05 457f 6356 e63f
000001a0: 8a20 2eac a813 b83f 6f3c b2fb 0270 a3bf
000001b0: f2cc 4a09 bbf3 f0bf 094e ee2c e410 da3f
000001c0: aeca c2dd e554 bbbf e99d 3220 dd17 f03f
000001d0: e844 7426 9f51 d8bf 2597 236a afa2 f23f
000001e0: d157 d138 d86a f6bf e9b6 8a66 ffd9 a6bf
000001f0: b987 31da 81c4 f03f 1613 5319 dcf7 f9bf
00000200: 8d25 eb06 c70f d8bf e5f8 e19f 5176 fa3f
00000210: 5a4a ed7f eb39 df3f 9518 e272 362f fdbf
00000220: b6d3 e8a2 69ba e7bf b812 947c ff97 ebbf
00000230: cff5 8a3e 4336 f1bf 84c4 1ff2 8efd fdbf
00000240: 7ea9 5398 afb2 f6bf 9f98 90f3 4d78 a03f
00000250: aaa9 6f36 507a ab3f 7bb6 6a51 8468 d13f
00000260: 3085 5dec be50 c5bf a04c 033f b5ec dcbf
00000270: b838 8f6b 81fa c7bf 3551 4721 60df ed3f
00000280: 3210 9a18 4778 8dbf 5980 8669 54ec cb3f
00000290: f0db d738 1f31 ed3f defa 91e9 b6a9 d23f
000002a0: 0805 486c 6e4f d0bf fd24 f08e 2ca3 ecbf
000002b0: c763 b0d3 8219 ba3f 0212 800a bb37 f0bf
000002c0: 4dc2 85b0 7b4d edbf 6251 e128 68fa c9bf
000002d0: 4df3 f519 f78f f2bf c517 bcf5 dea9 e73f
000002e0: 16ed 750a ee55 d1bf dfc3 2120 2879 c7bf
000002f0: 6251 1bc5 f188 d1bf 0bda 4a76 56aa f33f
00000300: 1f2e 23eb 0491 eb3f c5cb 8ad9 2027 e9bf
00000310: 7602 32df 74e2 e1bf c8c4 c71c 144d d53f
00000320: 6ff9 5d66 7c32 f5bf 3ed4 18cb f11e d4bf
00000330: 33da 047b acc4 edbf 901f 9634 08ec 9ebf
00000340: dbb3 dca3 235c f43f e69c bf95 21f1 d4bf
00000350: 525e 993e a6c1 ea3f 5e15 0d32 ef82 d03f
00000360: b759 8636 063a ee3f 6108 448b 5cff f9bf
00000370: 1cc2 fa21 585e f63f ccac 08b9 63cc dbbf
00000380: 2531 c766 edc8 a2bf 09a3 05fe dded d8bf
00000390: 0dff df2b cf91 ce3f 54fd 27bc 5373 c9bf
000003a0: 51fc 1f89 aee9 eb3f 582e f258 e2eb f13f
000003b0: 1964 6c07 cd1f e4bf fd61 9804 a5bb e03f
000003c0: 81cd 1cd3 abab b13f 69c1 576f 4f08 f0bf
000003d0: 3d33 49e8 6ea3 bfbf f8a3 3cc8 7453 d7bf
000003e0: b9e8 943a b5c9 c83f 8d9a 93f1 dfe8 c6bf
000003f0: e730 ad95 9ec6 f23f 279a e85e 4a53 e2bf
00000400: a0d6 2025 4e3d eabf da14 12c5 69b2 e8bf
00000410: f562 162f f8d3 e83f bcb6 4116 186e f7bf
00000420: e9b5 ab74 e6fd e8bf 393a 3496 c4d8 e43f
00000430: a29f afbf 4375 e23f 8993 52fa d9ab e6bf
00000440: 5d57 846f a755 01c0 fba5 fcd9 e952 e13f
00000450: 65fc fe1c cf16 df3f 3191 f5eb 2ef3 debf
00000460: 2075 5c72 df07 ee3f b961 2edd eecd dc3f
00000470: 6b24 6516 e149 dd3f 9dfb 3e8b 0958 de3f
00000480: b8b0 70f4 d255 e7bf 4d7d 09df cd98 ee3f
00000490: 0038 c4d3 47e2 e13f 093e 74c4 c11d 9b3f
000004a0: aeeb 1721 0430 cfbf 46cd 5e66 006b f83f
000004b0: 0197 e5ed 77ab e7bf c952 0f3f f669 c03f
000004c0: 63d1 f9c2 dbdf dcbf eb6e dde0 4f6d e5bf
000004d0: 2d1b 478f 4303 f3bf 6103 e503 dd34 0540
000004e0: 8b2d 07e7 1bdf d8bf 9fb4 a71d 330b f6bf
000004f0: 1409 767a 3ad8 e23f dac5 afe2 5339 e9bf
00000500: 2f23 8956 2080 b23f 7e83 96a4 9053 edbf
00000510: d488 4563 d086 ec3f a0de 6d6a 832a d63f
00000520: 235c 1b49 5da7 f2bf 2386 4fdd 227f 6cbf
00000530: 85c9 fd4e 1e6f f63f 6f63 ba46 929d e2bf
00000540: 6665 a965 98b0 e13f b9f3 9ca5 4c5a d53f
00000550: adb7 19ee 9986 f1bf 7b27 e8ee 9df8 e5bf
00000560: 6357 0b00 cbd4 ea3f 9b3e 51c9 e992 b73f
00000570: 9bca 335c 8635 cdbf 03ea 3a1e 7b4f d5bf
00000580: b82b 99df 245a e0bf cc73 793f ff0b d6bf
00000590: d36f cd1d 4a3e ea3f ae58 9a3d be35 ee3f
000005a0: 3d26 099f d2f4 d3bf 54bd f7f8 cfae f0bf
000005b0: c681 c9b2 15e5 c5bf 2d6a e358 9dfb d2bf
000005c0: 36cd 1eec aac5 f23f 4fda 8aae f373 dbbf
000005d0: 9306 89bd 6a09 e3bf 873e 6aa2 5b60 e3bf
000005e0: 6aeb d1d0 5db1 d1bf 9c75 1671 c04b b7bf
000005f0: 09e1 2a3c 7840 f03f 7a9f 2096 0ce8 efbf
00000600: 6145 678f 7d79 debf bf1c 4acf b6cf e2bf
00000610: adcf a81a 00d8 d03f 387c ddac 1d24 e2bf
00000620: f484 fb14 fb48 b7bf 51d5 3d58 bbd4 ef3f
00000630: 74c7 657f 6431 e63f 638d 1d51 e029 f3bf
00000640: 50e3 2a70 b17b e2bf 7396 6c38 aea3 e63f
00000650: 458b d4ed 75c1 d1bf 0c89 50af 99ef babf
00000660: a12c 3217 d325 e2bf a3e1 4155 7237 de3f
00000670: 7c55 f3e4 3dd1 d23f 2a1d 616f e504 f63f
00000680: 7e41 a892 9c42 b0bf f50a 4029 0d97 de3f
00000690: f532 b8cb d372 d83f 2ec0 f519 52f0 dc3f
000006a0: 9b94 bc7a 8f4d b6bf 6ab2 8fa0 937f d63f
000006b0: 058c 1acc 8022 eb3f e9c7 a691 efe0 b43f
000006c0: ad99 3b6e 0894 ebbf f642 6442 19f4 e9bf
000006d0: 7b79 c05b 2fa8 eebf 9e4c b49f e68a e63f
000006e0: 0adf bcc9 e4c8 e2bf 6793 a1b2 bd47 e1bf
000006f0: b685 4318 1a5c e2bf 8165 29b9 ec53 f1bf
00000700: 581f 0c94 5d39 f53f 2194 e7b4 08fe da3f
00000710: 08be 81a2 684a f4bf 80f6 65e6 10d5 f73f
00000720: 82b6 2ce7 e509 ea3f ced2 6747 11b3 d43f
00000730: 5703 433f 365f e33f 0af8 c5a4 adcd e5bf
00000740: 2f8a 3fb8 c8af ee3f f42d 1857 27da d63f
00000750: 2fd1 5ef8 4a0e d3bf f392 a602 c315 c63f
00000760: b4e1 7a91 924d d53f f907 6927 501a e33f
00000770: 39a5 b9a7 0989 b3bf 68c3 2538 de63 c23f
00000780: 1743 673e 04bc f2bf 43be a878 814f e3bf
00000790: d155 33a0 5750 cd3f 4018 ea1c aa50 f93f
000007a0: cf97 f722 6818 d4bf c146 5515 7e06 da3f
000007b0: 5dd1 c6fd e571 f5bf 7531 f9e2 92d6 ecbf
000007c0: a283 05aa 9c20 c23f 454b 74eb 5c2b d23f
000007d0: 164d f10b cf5e c53f 74b7 d32c 2df0 b3bf
000007e0: 7b7f d76f 4183 cb3f 9557 36de a65e ed3f
000007f0: 2567 a07b ba0d c3bf d4cd 6eb8 3c25 e53f
1.1796561707668027 1.7596477132384247 1.5509024160670106 -1.2987500229494127 -1.3615511315780158 0.4479034250257361 0.19278923943878076 0.6034285388352238
1.3920553503502828 -1.16119397426859 -0.9985281830367755 1.2099650621366018 0.8803322592866211 -0.2217635802468454 0.1617473687716643 -0.7292554870908468
-0.4159337840510303 -1.1925532071691907 0.3361054569364645 0.6501581814189856 -0.4611557653142009 -0.33312645224001847 -0.18466928908686206 1.576441065297856
1.315912808239583 -0.47824247568846545 -0.14162734469111313 -0.7049201961672704 -0.3725887746290844 0.36411159151300493 0.5038759749977841 0.39346811262194675
0.09779298273797543 -0.802395227882199 0.41867439827131475 -1.9528369134894674 -0.8182044275542629 -1.3034418003386852 1.581726150668555 -0.1742164719283545
0.9322637121207225 -2.802708780392622 0.05208766696957229 -1.7502893018641807 0.6741981795805823 0.7166905719884727 0.25253197602602867 0.9129990971230487
1.1338428066105721 -1.2088345822264353 -1.1390913660819593 0.6980454908118017 0.09404997066133283 -0.037963956093442934 -1.0595045435882722 0.40728096378117634
-0.10676418937763785 1.0058261163447872 -0.37998179202356974 1.1647180696540513 -1.4010851115649425 -0.04463194014293299 1.0479753993208603 -1.6230126370657607
-0.3759629790843853 1.6538864369791153 0.4879101514135634 -1.8240265357613101 -0.7415054494691649 -0.862304442708214 -1.0757477229193346 -1.874403901860462
-1.41862449171694 0.032167850477251785 0.053667551655809234 0.2720042033277889 -0.16652666608119082 -0.4519475093231424 -0.1873323226158783 0.9335175180408785
-0.014389567793166778 0.21814971115691398 0.9122463331431145 0.29160855111687833 -0.2548481042322952 -0.8949187080153532 0.10195176761807466 -1.0136061105887397
-0.91570839383173 -0.20295431133366565 -1.160147763642459 0.7394861983782383 -0.27086974164531463 -0.18338491028728662 -0.2739834236974926 1.2290863629147022
0.8614525406387122 -0.7860264061804335 -0.5588936194690877 0.33282950220661833 -1.3248256682123516 -0.31438870271387376 -0.9302580263818697 -0.030197265824909503
1.2724949265350378 -0.3272174799335076 0.8361388418806632 0.2579915989666314 0.9445830407083154 -1.6248441162174674 1.3980332686734362 -0.4343499476405668
-0.03668920402160073 -0.38951825911367216 0.23882474558194425 -0.19883200347247032 0.8722756078931387 1.120088908620252 -0.628881945132096 0.5229058351279147
0.06902574447740585 -1.00202888005523 -0.12358754321139727 -0.36446876100904957 0.19365563736375238 -0.17898177428942966 1.1734910818805078 -0.5726672986682545
-0.819983551517641 -0.7717789505992656 0.77587517925994 -1.464378439846242 -0.780993678925083 0.6514609273597848 0.5768145316951527 -0.7084779633629391
-2.1668232643377636 0.5413712747151175 0.48576715308803947 -0.4835927299775618 0.9384610398880433 0.4500691566441009 0.4576342314435979 0.4741233692001801
-0.729226567671069 0.9561528545563448 0.5588721405090382 0.02648070107994552 -0.24365283599749205 1.526123428234159 -0.7396812101767126 0.12823370055288866
-0.451163235097985 -0.6695937530416506 -1.1882968518054426 2.6508121780647547 -0.38861749230701353 -1.3777342947389923 0.588895072156705 -0.7882480075333504
0.07226755249679394 -0.9164508070572166 0.891456788911706 0.3463448085162586 -1.1658604484307566 -0.0034785920092737107 1.402128513870225 -0.5817347890289123
0.5528070436077257 0.33363643811372473 -1.0953616429137398 -0.6865987459325277 0.8384757042756344 0.09208546795820853 -0.2281959486204713 -0.332976130982985
-0.5110039107470277 -0.3444822425715841 0.8201037008361659 0.9440604403669306 -0.3118177941401859 -1.0426788068105752 -0.17105361203995367 -0.29660733871938555
1.1732587073755218 -0.4289521412387431 -0.5948995305881958 -0.6055124447029393 -0.27645059006288497 -0.09099962960177382 1.0157396650593589 -0.9970763141800341
-0.4761651897834636 -0.5878557251570767 0.26318361857851863 -0.5669086815140707 -0.09095734846370701 0.9947182391612533 0.6935293663247948 -1.1977236908504316
-0.5775992575428095 0.7074805357012351 -0.2774329016266857 -0.10521851091519724 -0.5671172574087856 0.47213419271386153 0.29402110441636586 1.3761953688388737
-0.06351641254901172 0.47796944645249023 0.3820085038612853 0.45216801200058654 -0.08712097879886686 0.35153666190925625 0.8479618059540149 0.08155724817223099
-0.8618204262718813 -0.8110472008430338 -0.9580303947475807 0.7044556731438154 -0.5870231571379645 -0.5400074471368556 -0.5737429117108863 -1.0829894287947754
1.3265052588557946 0.4217550055166744 -1.2681661937639337 1.4895180702145865 0.8137082591180873 0.32342941258620506 0.6053725467282715 -0.681357213805087
0.9589580153081608 0.3570650435001135 -0.2977473664752947 0.17253911618640635 0.332859651632613 0.5969620485050192 -0.07630977959492648 0.14367273084237842
-1.170902484667925 -0.6034552914260946 0.2290143520573751 1.582193482348444 -0.3139896718479322 0.40664627154647454 -1.3403072274350827 -0.9011930878710205
0.14162023832161902 0.28389666551190756 0.16695583422788535 -0.07788355202111835 0.21494310341858722 0.9178041782458758 -0.14885645901159097 0.660795555324905

rnn.bias_ih_l0 f8 [256]
00000000: bdf5 9333 95e2 dfbf 772d d5e8 f86c e9bf
00000010: 6582 7bc6 961b e53f f498 7e75 da51 e8bf
00000020: 6596 b58c 6aa4 febf cb51 42b2 26ab ffbf
00000030: 4baf af34 f54c 02c0 69c2 1b09 e4d2 bcbf
00000040: 2660 b470 a8fa e33f 2083 78a8 00ab ebbf
00000050: 7ad0 e49b 8eeb f43f dc51 cb3e 1a11 993f
00000060: 12b6 36ca 6a41 e9bf af2e bd11 4525 d93f
00000070: 67b9 1868 3955 dbbf 831a f091 8e24 e4bf
00000080: d5ee 9e03 9ef5 ef3f ce72 c5a3 a38e c13f
00000090: e0c4 d9f5 7773 f3bf 8fff 2b69 b708 6e3f
000000a0: 3c89 0407 60de a93f bbd8 9bea 3885 fcbf
000000b0: 3dca 304b ec43 cb3f 9926 3e19 2ecc dbbf
000000c0: ccb9 ea8e 7be4 b63f 0b10 a953 bbbd f2bf
000000d0: 432d 03e8 82ef ebbf 2e16 537b 60f4 01c0
000000e0: c41f 75e5 b4e1 e43f 4891 683e e6d5 e03f
000000f0: d5ab 0b61 479d e7bf 4455 578c 4f96 dcbf
00000100: 2177 7e07 5d88 e2bf 3b29 e56d 4632 0f40
00000110: 39f9 9bca 4e32 d2bf 47ae f200 283c e9bf
00000120: 4074 8beb bf79 fabf 3ada 8fe0 0f61 0040
00000130: b7be 55a2 d2a1 e0bf 92b7 0403 a38f ecbf
00000140: ea62 05a8 68e1 e3bf f2b0 177f 58ec c7bf
00000150: c027 5d45 2a8d fcbf 437a 83b1 7807 d9bf
00000160: 71e4 d31d a06c cebf 8f18 7641 ba83 06c0
00000170: 93b7 b119 c554 e83f c4d2 ba0b f549 e4bf
00000180: 5087 2bd6 f18e ec3f 1727 cbae d5d5 e6bf
00000190: d349 9360 90c6 c63f e3e1 9157 e4f7 ebbf
000001a0: 83ee ff88 db04 fcbf 3ea8 81f7 40e3 f6bf
000001b0: b6f1 b882 7e84 debf ecd8 df82 be62 d2bf
000001c0: 6f3c bffe 3909 cabf 7047 9b92 7ba8 09c0
000001d0: 83b1 5897 e520 eabf b2e6 2285 3c98 e8bf
000001e0: b1b8 775b 6fe1 e4bf e190 bbf6 928a 913f
000001f0: 0705 7862 2392 eabf 3931 e81a b95b f8bf
00000200: 650d a285 8487 e7bf f9f6 0351 bc8e cb3f
00000210: 453c ae60 a53a e93f 0632 eb41 13a0 f73f
00000220: 46e8 1d3d 30c0 e23f 18e0 f3b4 8119 c23f
00000230: 323d 59c8 caaf dfbf e933 0993 09fc a03f
00000240: f1cf fa91 ef7e e4bf 7838 bc20 9d9f dabf
00000250: 5666 988a a65c 993f f63c 3892 c9e3 e6bf
00000260: 2c6d 8c97 2fd0 dbbf 9892 e10e ac1f c83f
00000270: edae d52c c9b2 c73f 7712 4e8a 7e01 d7bf
00000280: b3c8 3638 2e18 e13f b55d 8005 efec c3bf
00000290: 6a60 7dc7 b16c ed3f fd20 9a4f 3e64 b63f
000002a0: cd54 1e33 02ca e0bf 3c44 54e2 e4e3 d1bf
000002b0: 4dd0 dd66 7be1 d9bf 4a2d f4e5 f74b c73f
000002c0: fb9b 4e1b aa25 ea3f 76e4 4dd3 6c8a b2bf
000002d0: 5f43 739d 163e ed3f 7c12 9d54 a042 dc3f
000002e0: 5029 c141 e4b6 d73f 8b8a 394c f9e7 ce3f
000002f0: 1fed fda0 73da e83f 7f48 dee1 d53c e9bf
00000300: df83 e2e8 b189 d5bf 7065 66d1 7655 a73f
00000310: d58b 2d9a da72 f33f 524e 61b5 84fc 9e3f
00000320: 3146 7ff8 1af6 ed3f de43 8ef0 065b d6bf
00000330: 4b6d b3f2 b59c e9bf 6ba8 fc6b f934 863f
00000340: 8047 f7e4 5868 c1bf b072 a023 80a3 d1bf
00000350: b09f 4e21 9a3a d4bf f826 ef1b 9766 b4bf
00000360: e5d4 050c 00ed f13f d995 8e41 fb34 e0bf
00000370: 1a43 39fc 802f e43f 8923 2e03 f9b2 dc3f
00000380: ed97 2408 f807 ebbf dab4 c0b1 a881 e53f
00000390: 6cf9 7d78 b65f b9bf 1979 6f6b 023b d4bf
000003a0: 0ae9 bd25 6b7b cf3f 8622 6729 2ea9 e5bf
000003b0: dd87 cb73 dfe5 d5bf 578e 1309 6a20 b73f
000003c0: 2b19 8f02 c53e d23f c4f8 c69f aec2 d1bf
000003d0: d4f1 d898 9d2e d13f e952 103c 272c eebf
000003e0: 3007 c821 bd11 f1bf 5fae 159a ddbf dbbf
000003f0: 1a6a 8060 b8b6 f03f a2b8 ec30 af3e b7bf
00000400: 9f85 46b6 20db c2bf 17d2 5f68 9218 f03f
00000410: e23a f7de af3c e33f a17a bb17 edcf c73f
00000420: 953d 8b69 2724 e8bf 177b 7d96 f108 f73f
00000430: 1491 0915 f78c f13f 9be1 8e7a 0f03 e53f
00000440: ecd8 1796 6888 f4bf 986a 75df 8386 f13f
00000450: 4d3c 2ae0 45b5 f73f 7f7d 579d 3e06 e7bf
00000460: 9066 17e9 1bd4 d8bf d59d 1cec c399 dd3f
00000470: 5d86 c656 ad9e ad3f 60a7 512c 477d de3f
00000480: 487e cc4f 5005 e6bf a747 e2a1 3652 e13f
00000490: a4f7 6099 c940 eb3f 6aaa 862e 1ceb 7d3f
000004a0: ac0c 7d40 a5d9 e0bf c416 2063 efea c1bf
000004b0: 8829 95c0 2412 cfbf eb5e e4cd 8b63 dabf
000004c0: e8ff bbb5 d001 e63f eedd 234a b3f7 c1bf
000004d0: a7bc 2d7c 3eae da3f c298 1339 857e e7bf
000004e0: 4221 f2a8 d775 f2bf 0a31 802b 1c35 cabf
000004f0: 5639 0998 5d8c 853f 4ceb 43d2 6a8b eb3f
00000500: 8f48 c21d ea89 ecbf f00a 48d3 1d7d eabf
00000510: 2009 6237 697a e6bf 4bd7 e594 776f e8bf
00000520: 7ded 2c64 bd4c 993f 091b cd8d 85f3 de3f
00000530: 6440 d056 a125 f7bf abb8 466e 83d7 e83f
00000540: 0017 89fa 7fb9 d9bf fef6 6fb2 1070 e83f
00000550: 93e5 5461 ef74 f73f cdc9 be93 b079 f33f
00000560: a4c0 f51d e96d ef3f 0460 c58d fe50 e93f
00000570: 47b6 84c9 8713 dfbf f562 50c3 9920 ca3f
00000580: 2636 82de bced e4bf 4100 f34d 340f f5bf
00000590: 6a9f 72ba 6a60 e13f 0ec3 ba80 8bcb e4bf
000005a0: b8ad 5ce6 60a6 f1bf d9c8 b09a 5939 d53f
000005b0: cee7 80b3 ff39 ec3f efd2 cbd3 3204 e73f
000005c0: 3a7b 5524 ff46 e63f 2f7d 0f6a 0b9b f53f
000005d0: 0407 93ee 9953 ee3f 3d53 30ab 4293 e4bf
000005e0: e372 6005 6554 c43f e8c9 e170 e4e0 dbbf
000005f0: 8311 264b 3efd e63f fca7 bfd1 a6f3 ddbf
00000600: f5e0 75a8 6c11 d53f a77f 1f76 18aa d0bf
00000610: 1ef5 dc78 fb0f f13f 7668 0fa8 7eb0 0140
00000620: 5f73 2cb9 02ae ec3f 1751 2958 d9b0 f13f
00000630: 0136 7d1e 6457 fc3f 6076 d950 95f7 bb3f
00000640: 1b59 420f 2767 eabf 9ebb 52fa 371d c13f
00000650: ea9f 87a5 8353 d2bf 5c9d 2006 f354 0940
00000660: ad84 3c5b c297 01c0 412a 87df c9e9 d1bf
00000670: 1ae8 47be fc34 ffbf ddbb 1a02 3780 f2bf
00000680: 19b4 77e1 e80a ecbf c3f6 bb05 1342 cfbf
00000690: f905 f41a c9ea f83f 118c 0218 65fd d1bf
000006a0: 9cf3 e125 1cd3 f5bf 28e8 cc70 fdf8 e8bf
000006b0: 5517 2974 c6c1 01c0 0ca9 6f03 597c e3bf
000006c0: 4086 8e9c 327c b33f 45ce 5253 f02b 04c0
000006d0: 92de 5d77 818c 0f40 5e04 6962 4ef7 e1bf
000006e0: 03af 5e1b 4a4a f03f 5cae 1a6e 23b6 ffbf
000006f0: 90b4 0185 a09a f6bf eea1 e358 fc36 f6bf
00000700: 6335 1a1c 2120 eabf 5a3d e615 edf8 a1bf
00000710: 9c40 b81f 19a9 c33f f61f 3d42 a711 e0bf
00000720: 3d8b 434e 0a01 f93f 6d81 aa4b 7c36 e0bf
00000730: 0967 08ed 7af6 bcbf b533 e812 d899 d8bf
00000740: 8587 4efb be7a a2bf 9eac 7fd9 bdd8 f3bf
00000750: 129f 5e75 6214 f0bf 35a2 a1f0 7bf4 e4bf
00000760: 770c d37b 09aa f43f f885 0fed 7b55 d13f
00000770: d936 4e16 0337 fdbf 46ca cb72 87ed e6bf
00000780: 1532 7e2d 12a8 0640 82d2 3af6 d6a0 ef3f
00000790: 5e15 2eea a522 e5bf 7a13 59f2 5146 0240
000007a0: dabb 66dc 3276 b7bf 7511 7ac4 bfb3 07c0
000007b0: f462 6836 7807 f03f 06be 58d0 f431 e5bf
000007c0: 6d30 af08 6730 0ec0 2c40 d718 e9ff 993f
000007d0: 12ee 3176 8a27 fcbf 3be4 b956 aac3 fbbf
000007e0: bbb8 0b1d 92b0 f0bf 2a2d 755d 99eb f8bf
000007f0: 5277 0f99 def7 0440 161d 0331 13af ed3f
-0.4982045177165125 -0.7945522830499802 0.6596177937136188 -0.7599918646635886 -1.9151406761606264 -1.9792849505657724 -2.287577067958329 -0.11259293768285662
0.6243478966962399 -0.8646243372387268 1.3075090493776131 0.024479303438811204 -0.7892354917036661 0.3928997681839332 -0.42707667508775277 -0.6294625139569948
0.9987325735778209 0.13716550346989326 -1.2156905749837321 0.00366626570155399 0.05052471242585674 -1.7825249828725152 0.213010346140054 -0.43433716263880623
0.08942386855299062 -1.1713212268814484 -0.8729872256748553 -2.244324649308303 0.6525520783989056 0.5261107653537147 -0.7379490752622312 -0.4466742392081253
-0.5791459223143854 3.8995483956870465 -0.2843205431562584 -0.7885932940020631 -1.654724044891978 2.047393564596203 -0.5197537584881137 -0.8925337847665438
-0.6212657243405293 -0.18690019803705799 -1.7844641408469073 -0.39108102164565056 -0.2376899858134354 -2.814320098320486 0.7603478910293567 -0.6340279797646748
0.8924493010529009 -0.7136028684555836 0.1779346915778449 -0.8740102491711322 -1.7511859275390698 -1.4304818790647142 -0.4768368031107245 -0.2872768667288159
-0.20340657175845275 -3.2072669461858183 -0.8165157276139755 -0.7685835457152363 -0.6525189196088573 0.017130180653922692 -0.8303391383380195 -1.5223933268599252
-0.7352926836032735 0.21529344516596163 0.7884089363377674 1.4765808653784247 0.5859605020225522 0.14140340171411547 -0.4951044994858932 0.033172892760013735
-0.6404950953642566 -0.4159920520477338 0.024767496308504576 -0.7153060775616769 -0.434581659313795 0.18846655584924998 0.18514361085123401 -0.35946620470375684
0.5342017267160116 -0.15566814201950555 0.9195183655056216 0.0874670929280263 -0.5246592520149079 -0.2795345506902469 -0.40438733144333555 0.18200587013448405
0.8170977147427715 -0.0724246993903693 0.9138291430664188 0.44156654608767787 0.3705378191122195 0.24145427915489778 0.7766664642689739 -0.7886762057771789
-0.3365292333856455 0.04557391458656468 1.2155405066084672 0.030260156221926522 0.9362921575031519 -0.34930585376519996 -0.8003797283412636 0.010843227966308619
-0.1359969251630524 -0.27560428122687153 -0.31607678654335825 -0.07969040328967114 1.1203613729133448 -0.5064674644860886 0.6307988096469643 0.448423627000516
-0.844722762970148 0.6720775100453935 -0.09911671106053682 -0.31610165111296024 0.2459539350782694 -0.6769018944406333 -0.34215532596692616 0.09033835145560808
0.2850811505308168 -0.277507453949408 0.2684701912546903 -0.9428898022766506 -1.0668307609161722 -0.43358554885228345 1.0446094293207637 -0.09080023712587829
-0.1473122491852736 1.0059990002747605 0.6011580805587438 0.1860329023247305 -0.754413324490019 1.439683521129785 1.0969153234264626 0.6566235917771793
-1.2833028662694757 1.095340607533819 1.481756091732467 -0.7195122788506721 -0.38794610750992664 0.46251009042540875 0.0578512352397069 0.4763963635256143
-0.6881486471720075 0.5412858163638149 0.851658629959037 0.007304296574526784 -0.5265680560627479 -0.1399821504602895 -0.2427411976189655 -0.41232581240318095
0.6877215909480556 -0.14037171478388139 0.4168850147897935 -0.7341943850303994 -1.1537701224752515 -0.20474578975734686 0.010521632387420137 0.8607687098259276
-0.8918352681378269 -0.8277730108823942 -0.7024427491853977 -0.7636068256531215 0.024706801642634602 0.4836133847024234 -1.4466870680953656 0.7763077882607566
-0.4019470163951695 0.763679836760019 1.4660486032501907 1.2172094126986963 0.9821668229251554 0.7911370057072422 -0.48556704215556973 0.20411989247147458
-0.6540207239028788 -1.316211990822936 0.5430196420247573 -0.6498467935799412 -1.1031197546497946 0.331625367226605 0.8820799356392344 0.7192625176090511
0.6961665830275259 1.3503526823986467 0.9477052364020158 -0.6429761260538737 0.15882551920449037 -0.435601339565578 0.7184134929416789 -0.4679963157965401
0.32918850375382586 -0.26038180861905363 1.0664019318786084 2.211179078073708 0.8962415329620902 1.1056760257534444 1.7713357153874087 0.10924657081474143
-0.8250918672590929 0.13370418284236235 -0.28634730496423677 3.1664791563704693 -2.1991011741489133 -0.27989432171731116 -1.9504363472792705 -1.1563024599270115
-0.8763317493118193 -0.24420392780296227 1.5573206951961522 -0.28109099716874747 -1.364040515879629 -0.7803942874081757 -2.2196168017425557 -0.6089291636574514
0.07611385652719438 -2.5214544782300288 3.9436063123246834 -0.5614387437891641 1.0181370801100804 -1.981967382521268 -1.4127507396290504 -1.38842425081577
-0.8164220379709771 -0.035102280543578515 0.1535979657060168 -0.5021549504972416 1.5627539689237004 -0.5066510656215947 -0.11313598906454216 -0.38438989492788816
-0.036092727830022965 -1.240415429691701 -1.0049767098188949 -0.6548442554313342 1.291512950600717 0.27084253454640317 -1.825930678492503 -0.7164952509031728
2.832065921224294 0.9883837517905507 -0.6604795049503698 2.2843359883722174 -0.09164731865779122 -2.962768111205316 1.0018236279776689 -0.6623481816549777
-3.7736340216125 0.02539028371921874 -1.7596535317414959 -1.7352698695888324 -1.0431080946541857 -1.5575193072025493 2.6210300405354383 0.9276214558857727

rnn.bias_hh_l0 f8 [256]
00000000: a4fb c9c1 46d0 e1bf 972d d5f8 e38f e4bf
00000010: 2c82 7b8e 257c e83f 129a 7e35 681b e4bf
00000020: 8196 b5b8 f48f febf ec51 42a6 dde6 ffbf
00000030: 57af af34 7337 02c0 56c2 1bc9 9a38 b5bf
00000040: 6560 b420 a3d7 e43f 2584 7830 6e30 eebf
00000050: 68d0 e42f cdfc f23f 91d6 b24f eec2 ba3f
00000060: a1b5 367a 2103 eabf 2f98 dec8 0bcc e23f
00000070: b6b9 1898 3bf1 d4bf 081b f0a9 fb52 e5bf
00000080: 3aef 9ebb 0d31 ed3f 5a73 c5e3 c03d c53f
00000090: 89c4 d999 6fd5 f5bf 6ba0 b644 db06 b3bf
000000a0: a345 8243 6b53 be3f abd8 9b6a 268c fcbf
000000b0: 17ca 30ab 8b70 c33f 372a 3ef9 0682 dfbf
000000c0: ced3 5577 d857 893f d210 a9eb 8684 f6bf
000000d0: 4896 01b4 883f f0bf 0816 5361 886e 02c0
000000e0: 9b40 ea9a 6eb5 da3f f490 688e b108 e43f
000000f0: ddab 0b01 c170 ecbf 3156 575c c153 d8bf
00000100: c1ec fcde 6230 dcbf b994 f2e5 ad0f 1040
00000110: 80f9 9b0a 077b d2bf 8ead f2e8 dd3e eebf
00000120: 2374 8baf c280 f9bf 94da 8f4e 4992 0040
00000130: 9ebe 550a ecc4 e5bf 22b7 048b d560 eabf
00000140: 3963 05d8 6d69 e0bf bed9 8b4f b74f d6bf
00000150: d227 5d95 48c5 fdbf 76be c148 cd1c e1bf
00000160: 1af3 e9fe 253b d5bf 3f18 76c5 b931 06c0
00000170: c7b7 b121 1e99 e53f 20d3 ba7b 2396 e3bf
00000180: 9587 2bb6 ce40 ea3f 1b27 cb0e fcb4 e5bf
00000190: 4ba5 49e0 c6f6 d33f 0ae2 91e7 2fad e5bf
000001a0: e7ed ff98 b150 fabf 83a8 81ef 2e8d f6bf
000001b0: a6f1 b8f2 d682 debf 70d8 dfe2 23b1 d0bf
000001c0: 273d bf7e 5ce6 c0bf 6647 9b78 8d53 08c0
000001d0: 53b2 584f c97b ebbf 3ce8 223d 3292 e2bf
000001e0: e2b7 7703 2d21 ebbf 2973 d7de 64b9 c03f
000001f0: f304 78fa c248 ebbf 0731 e8e6 8001 f9bf
00000200: ec0c a23d 93eb e5bf 3af1 07a2 531c be3f
00000210: 4c3c aea8 7bbe ea3f 1e32 eb95 52b0 f63f
00000220: 4ae8 1d95 cf24 e33f a0bf e769 77c6 bb3f
00000230: 0b3d 59a8 f9cf debf 06d0 4cc2 0490 4b3f
00000240: 3aa0 f553 b88b d9bf d270 78a1 f27c cfbf
00000250: a6a3 6775 4606 9ebf 5f3c 387a 3fe1 e4bf
00000260: 0536 c6eb d3f9 e3bf 2094 e14e c2ad c13f
00000270: 3ead d5cc 0303 c03f f710 4eea ce44 d0bf
00000280: 97c8 3620 a3e7 e63f c35d 80c5 3132 c3bf
00000290: 81b0 be2b 3d46 f03f 6510 cd67 227b c03f
000002a0: 95a8 3cc6 6357 debf 4244 5472 5374 d1bf
000002b0: d1cf ddc6 d8fa d5bf 264d 2fe8 ff53 aebf
000002c0: 139c 4e2b d357 ec3f d8f0 a6a9 7047 ccbf
000002d0: 2444 73c5 c0e9 ef3f e087 4e6a 9f47 e33f
000002e0: 8f28 c111 cb00 d53f 148a 39ec 0075 c93f
000002f0: 49ed fd80 23e4 ed3f 8348 de49 60ba e7bf
00000300: ab84 e238 1b92 d8bf 6c9c 5994 6e4f cb3f
00000310: 7a8b 2d1e 5119 f53f 03ab a712 47fc b8bf
00000320: b8a2 3fcc 3385 f13f 0944 8ee0 d39b dbbf
00000330: b06d b3c2 382e e7bf 42d6 0025 c815 a4bf
00000340: e272 1136 675d bb3f efe6 40a7 5ea1 c5bf
00000350: a19f 4ec1 7a9f d3bf f025 efdb 85bd bbbf
00000360: f9d3 054c 6c6a f03f f629 1db3 3de0 dbbf
00000370: 6142 393c 72a1 e73f 6d23 2ef3 b154 dc3f
00000380: 1098 2430 2a6c e9bf b0b4 c0e1 8753 ec3f
00000390: 4bfb 7d38 e4ec bdbf 6e78 6f5b 2c1f dfbf
000003a0: 71a5 f796 2767 a13f 6422 67c1 c6ec e3bf
000003b0: 4788 cb83 ac5e d2bf 6d8e 1309 f243 b33f
000003c0: a416 8f42 4ad5 dc3f 2af0 8d7f 3c95 c6bf
000003d0: 12e2 b131 f13a c03f f351 1094 1068 e8bf
000003e0: 4307 c86d f505 f0bf 6bd7 0afd 1e5a e2bf
000003f0: 1a6a 803c bdb1 f03f b709 69e2 09c3 673f
00000400: 3585 4616 580d ccbf 1ba3 bf10 5a5a ec3f
00000410: d13b f7ce 0a4b e53f adbc ddeb 9d75 d83f
00000420: 5c3d 8b29 e583 ecbf a97b 7df2 f335 f93f
00000430: b091 096d 2ddf f23f 08e2 8e2a 7174 e63f
00000440: 29d8 1732 7d83 f6bf 08d5 ea16 0c9d ed3f
00000450: c33c 2a04 13bd f43f ef7c 57dd 286f e2bf
00000460: 3e66 1739 24b1 d7bf 124f 0e66 fced e03f
00000470: ff86 c6d6 8d81 a93f 92a7 514c a1fe de3f
00000480: 107f cc6f 2ab7 e3bf e147 e2b1 2a44 e23f
00000490: c6f7 60f9 b4fb e63f aec8 8b1e e88b cdbf
000004a0: 8b18 fa30 00fa dabf dc85 fecd 7148 823f
000004b0: c429 9580 4391 cfbf 275f e43d a31e dabf
000004c0: f0ff bb75 cbf0 e53f 06bf 4714 b34f bdbf
000004d0: e1bc 2d5c e9c3 d73f d598 1351 498d ebbf
000004e0: 0821 f220 4956 f1bf 2731 804b fabc c7bf
000004f0: 22c7 f667 cac4 8dbf edea 436a 583b ec3f
00000500: a148 c2fd 63b0 ecbf f30a 48cb 9018 ebbf
00000510: ed08 628f d517 e6bf 67d7 e5cc 5c7b e3bf
00000520: 883d 0b59 ce90 b03f 231b cded daf9 df3f
00000530: 6840 d0a6 15fe f5bf 09bb 46fe a82b e23f
00000540: 9c30 12b5 0664 c9bf 97f6 6f8a 569c e73f
00000550: d4e5 54c5 b3cb f33f 32ca becb 5271 f13f
00000560: 15c1 f5bd 8a5c e93f 5260 c555 baa4 ed3f
00000570: 9eb6 8439 1cd1 dabf 4832 a881 e624 d63f
00000580: b636 826e a527 e7bf 7500 f3d1 b40c f2bf
00000590: b640 e5f4 4a1f d93f 93c3 ba78 ff7c eabf
000005a0: 2c59 b924 cc32 eebf ddc8 b0da fd37 d53f
000005b0: c5e7 80bb c2d4 ec3f 53d2 cbf3 eabc e83f
000005c0: ce7b 551c 4391 e53f bb7c 0f82 c3de f33f
000005d0: e406 9356 fd01 ef3f 3b53 3053 3428 e5bf
000005e0: 9a73 6085 e8b7 c23f 60e4 7080 e726 e0bf
000005f0: bd11 260b 15b9 e63f aed3 dfa8 e3c5 e0bf
00000600: b4c2 eb70 c81d c03f 1c7f 1fd6 986c d5bf
00000610: b1e9 b919 46cb ef3f 8968 0fae 31b4 0240
00000620: fa73 2c39 8197 ee3f f950 29ac aa3a f13f
00000630: 7035 7d82 1e49 fd3f 0dbb 6ce8 17d2 c03f
00000640: 2559 4257 0b74 edbf 0278 a5b4 3019 bf3f
00000650: d69f 87e5 c36f d0bf 739d 200c bb36 0940
00000660: 1b85 3c6b 421b 02c0 2f29 876f 9b8e d3bf
00000670: 39e8 4782 b497 fcbf e4bb 1a12 0e7f f2bf
00000680: beb4 7721 7e38 e9bf d4f7 bbe5 185a cabf
00000690: 8e05 f46a 556d f83f 318b 0278 590f d0bf
000006a0: d3f3 e1ed 3551 f8bf 45e8 cc20 4d7b e8bf
000006b0: 6817 2928 13f2 01c0 1ca9 6f7b 470e e3bf
000006c0: 4177 7163 6944 b9bf adcd 529f 0e58 05c0
000006d0: 84de 5da7 bbb5 0f40 5004 69da cc41 e5bf
000006e0: 21af 5e37 e909 f03f a6ae 1aaa 0034 ffbf
000006f0: 62b4 01fd 3605 f6bf 0ca2 e394 1288 f6bf
00000700: 1935 1af4 7b98 ecbf 258e 7945 96e5 c0bf
00000710: df07 1f81 d100 a4bf 7d1f 3d12 8107 e1bf
00000720: 348b 432a 007a f93f 5502 5557 4dc4 d9bf
00000730: a667 08ad c840 b3bf 6f33 e812 7003 debf
00000740: b98a e8b4 ff3d 6dbf 0dac 7fed 3488 f1bf
00000750: be3e bdc2 ed47 ebbf 6fa2 a1f0 507a e5bf
00000760: 380c d38f 7d7a f33f 9d18 3eb4 13e7 bb3f
00000770: c736 4e3a 7a94 fbbf 65ca cb1a 5ba0 e3bf
00000780: 0c32 7e21 34b8 0640 a4d1 3a4e 411e ec3f
00000790: fd14 2e4a 845d e5bf 8d13 5936 50b6 0240
000007a0: c8fc 9a71 7d63 9ebf 8d11 7a48 458e 08c0
000007b0: d262 68c2 14ea f13f f8bd 58d0 8747 e0bf
000007c0: 8c30 af82 26a5 0ec0 0919 e5fc 37cd c0bf
000007d0: a6ed 3112 b631 fbbf 1fe4 b996 4866 fcbf
000007e0: e1b8 0b7d 2f4f f0bf 252d 750d 4ca8 f8bf
000007f0: 0477 0f69 58c2 0540 ff1c 0369 f496 ed3f
-0.5566743645612076 -0.6425647602094838 0.7651546271191072 -0.6283455891432956 -1.9101454940040699 -1.9938637251371985 -2.2770752063860686 -0.08289496812700156
0.651322902561344 -0.9434119173712402 1.1867191191531905 0.10453690953985474 -0.8128821742044928 0.587407963107358 -0.32722368100339894 -0.6663797682857373
0.9122379936666001 0.1659470665134915 -1.364608384112474 -0.07432337215016253 0.1184603729073133 -1.784216324272658 0.15187211855807511 -0.4923112329494503
0.012374583379576889 -1.4073552327618484 -1.0155112296573794 -2.303971062038503 0.4173237336008328 0.6260612279334326 -0.8887639065190985 -0.3801120187539225
-0.44045326019449865 4.015311806612936 -0.2887590030294618 -0.945174174286352 -1.5939356667725029 2.071428884282179 -0.6802883340696615 -0.8243205752566818
-0.5128697604332962 -0.34861548202698234 -1.8606649240996274 -0.5347658558875554 -0.33173513311321445 -2.7742801119484564 0.6749411256876038 -0.6120774666402191
0.8204110677727267 -0.6783428467690301 0.31193706420034023 -0.6773910067414033 -1.6447006203223908 -1.4094685893747119 -0.4767358179413129 -0.26081177859976545
-0.13203006924457236 -3.040797178496109 -0.8588606405006182 -0.5803462213582473 -0.8477997844436198 0.13065777665078684 -0.8526320354432343 -1.5628670711330999
-0.6850067333001824 0.1176197310050541 0.8357523245375744 1.4180475097847487 0.5982435142934801 0.10849710784509492 -0.4814438003567864 0.0008411429631451923
-0.39915283393066014 -0.2460006035261189 -0.029320813098738484 -0.6524960887053445 -0.6242465596166659 0.13811520434970337 0.12509200574582197 -0.2541997230657808
0.7157760266475347 -0.14996931213020845 1.0171481808456806 0.12875776356134164 -0.47408384665562525 -0.27272497334439916 -0.3434354726844023 -0.059234616368167445
0.8857208104935829 -0.22093017848772578 0.9972843033266412 0.6024930073074266 0.32817341550674767 0.1988831666413523 0.9340989608166775 -0.7415009920826069
-0.38391762309226846 0.2133615707745976 1.3186808756661024 -0.09759945111697381 1.0950201014003778 -0.43138596467275697 -0.7243922999145322 -0.039228682057381295
0.10689396924994868 -0.16898711363483396 -0.3066088569416881 -0.1083606397579826 1.0259821862830434 -0.43556158534616374 0.7384577919238603 0.44266937969273706
-0.794453710583868 0.8851966294511353 -0.11689592723085444 -0.4862776654171118 0.03399013250220662 -0.6226533677482391 -0.28702843542680906 0.07525551530448533
0.45051819324394615 -0.1764293310951655 0.12679877211100227 -0.7627032176847578 -1.001454762299958 -0.573501104567851 1.043393360456895 0.0029006188445077313
-0.21915722930592954 0.8860292746659043 0.6654104273128444 0.38217876466564854 -0.8911004840282817 1.5756720993301576 1.1794866809151294 0.7017141181195834
-1.407101817776047 0.9254208037952205 1.2961607134528073 -0.5760692904549652 -0.37018685889561087 0.5290510171202831 0.04981654402514656 0.4842913861563086
-0.6161091025896628 0.5708211397452453 0.7182259436301528 -0.23083211413865484 -0.42150883467582706 0.008927239512391098 -0.24662059572649586 -0.40811997455738197
0.685643892240476 -0.11449736828921794 0.3713324928457507 -0.8609968741918929 -1.0835658347078283 -0.18545464216766414 -0.01453550462506176 0.8822443080419738
-0.8965320545414849 -0.8467487306919267 -0.6904094505737511 -0.6088088991079815 0.06470956491397406 0.4996249506261156 -1.3745323673392935 0.5678296057065789
-0.1983650573860175 0.7378342346052759 1.2372319896952506 1.0901668509292333 0.7925466261058626 0.9263583827223647 -0.41901307694465995 0.34600222265070046
-0.7235896261569994 -1.1281021309987669 0.39253496089532847 -0.8277585371016464 -0.9437008588090854 0.33154245716572267 0.9009717619112442 0.773061252750788
0.6739821961781389 1.2418856697548069 0.9689928713707698 -0.6611577629833855 0.14623743546044637 -0.5047490604985221 0.7100930421589094 -0.524156408150352
0.1259089042064453 -0.3347532359166381 0.993563699957397 2.3379853819324734 0.9559942356751201 1.0768229222349517 1.830351361964258 0.13141154145110825
-0.9204155639916151 0.12147812280952056 -0.25682160773294294 3.1517239520505256 -2.2633102777332517 -0.3055790509357789 -1.7870373810860782 -1.1560192782596852
-0.7881460813201995 -0.20587455003254596 1.5266927888736492 -0.250936858365253 -1.519826821545611 -0.7650514259942233 -2.2432006013431653 -0.5954930697310234
-0.09870012929738171 -2.667996639933071 3.963736827423249 -0.6642822519135141 1.002419678009524 -1.9501959461876281 -1.376273144061337 -1.4082208457931555
-0.8936137931465594 -0.13200643913579416 -0.039068743717066694 -0.5321660381532493 1.5922853136950836 -0.40260633018991615 -0.07520727371630062 -0.4689598259581577
-0.003569602419945053 -1.095753600816127 -0.8525303653240923 -0.6711811733085379 1.2174049013272121 0.1089947047276802 -1.723749377971602 -0.6133246920929422
2.8399431816708383 0.8786932495045687 -0.6676656197384144 2.339020180314441 -0.02967639928715185 -3.0694680845501296 1.1196487039616625 -0.508731753279732
-3.830639859172214 -0.13126277778992115 -1.699636527132364 -1.7749715697993975 -1.0193323978997386 -1.541088154381961 2.719895191940738 0.9246770907419942
